DQN_models/model_updaterate1000_gamma0.7_alpha0.0001_dynamic.pt (torch, 416703 bytes, 10 tensors)

fc1.weight f4 [128, 514]
-0.0043749474 0.008659642 0.0029784814 0.027516797 -0.040883843 -0.01837336 0.0005345121 -0.014293788
0.03066983 0.011308119 0.039193362 -0.024765244 -0.018528815 -0.0038614087 0.015573092 -0.007864945
-0.0042577237 0.019469708 0.009100903 -0.029713973 0.0018387623 0.028818019 -0.016288914 -0.019689383
-0.034199163 0.015520429 -0.0013110412 0.042066026 -0.017234232 0.031975582 0.041177295 0.013465667
0.01606819 -0.09324657 -0.20979355 -0.012786766 -0.1320234 -0.043087523 -0.023820078 -0.046803936
0.005377522 0.038121186 0.03643819 -0.009883512 0.03422846 0.024150118 -0.0149944015 0.008991496
-0.012053586 0.056536857 -0.012730048 -0.012099647 0.042758763 0.039443713 0.0030236165 0.020984745
-0.09108349 -0.25177744 -0.16939309 -0.0033061886 0.04380508 -0.032343663 0.006709122 0.033774175
-0.015367102 0.016620055 -0.038877394 -0.02971254 -0.0024070502 0.058217347 -0.037568808 0.03706763
0.04005067 0.07970916 0.030446326 0.0057428475 -0.043274805 0.0068635307 -0.060990877 -0.14185622
0.006259673 -0.00018233061 0.03998936 0.041708075 0.031950433 0.049056973 0.01007637 0.027707845
-0.0055123344 0.024268702 -0.011831384 -0.035233915 0.03650318 0.037497252 -0.032938614 0.027383981
0.08293797 -0.018545404 0.025890052 0.006847672 0.025356248 -0.1069373 -0.13017936 0.0033891462
-0.028785959 0.0747758 0.05623078 0.023229443 0.03528215 -0.0032113753 0.037329845 0.0051274896
-0.019598546 0.011619477 0.009862139 -7.743016e-05 0.006596092 -0.011158503 0.016658371 0.06047618
-0.032393727 0.019746229 0.0045574796 -0.1165881 0.076561086 0.040125303 0.020555757 -0.020969259
-0.002272863 0.0008682303 -0.035872944 0.038049266 -0.00852371 -0.0026131272 0.06348248 0.024601918
0.04116574 -0.039485347 0.019429304 0.0046072886 -0.00041277547 0.04006794 0.009188723 -0.04336637
0.011719661 -0.025627872 0.07156605 -0.016005566 0.005804505 0.058556937 0.01573577 0.040892538
-0.030283416 0.044100523 -0.030640278 0.0063320063 0.06706532 0.019515695 0.09337848 -0.014639145
-0.008660488 0.010699747 0.038837157 0.0565658 0.008549221 -0.0035955012 0.021904578 -0.00439808
-0.009690046 0.008149002 -0.015756559 0.10338746 0.022005226 0.042330585 -0.03209337 0.016670864
-0.013332313 0.04072748 0.11315279 0.08664298 0.050048757 -0.00016029924 -0.03138001 0.070163935
0.030732455 -0.032390017 0.02947148 -0.021649927 0.05022932 -0.0016552702 0.078575686 0.03642185
0.041019842 0.112740904 0.026072258 0.012615099 -0.004768282 -0.028907062 -0.006135177 -0.023583267
0.0822105 0.12012847 0.08959509 -0.0036510527 -0.008145422 0.018964566 -0.03202053 0.046154186
-0.035002805 -0.019399015 0.06533729 0.021110773 0.010900694 -0.029991765 -0.0014844388 0.0895177
0.014648964 0.021127438 -0.035541542 -0.036988355 0.035219125 -0.02806177 0.03300189 0.022340596
0.064075775 0.036965787 0.032169938 0.020834466 0.042815488 0.030932331 -0.028405955 0.027673826
0.059183244 -0.022483278 -0.029061384 0.0075033754 0.03511887 0.14948645 0.03858934 0.042549875
0.0434929 0.025001518 -0.039598424 0.0359219 0.033432618 0.053472888 0.0012037227 0.036329083
0.02119045 -0.026503326 0.112039894 0.08701026 0.010688417 0.035644688 0.03652096 0.03409653
00000000: b85b 8fbb 2ce1 0d3c a032 433b e86a e13c
00000010: d175 27bd bb83 96bc 801e 0c3a 7e30 6abc
00000020: 4c3f fb3c b045 393c 3889 203d 7be0 cabc
00000030: bec9 97bc b00f 7dbb 4826 7f3c f8db 00bc
00000040: 6084 8bbb f07e 9f3c f41b 153c b86a f3bc
00000050: a002 f13a c413 ec3c 5470 85bc a14b a1bc
00000060: 6c14 0cbd 6649 7e3c 3ed7 abba 6d4d 2c3d
00000070: ce2e 8dbc d4f8 023d 86a9 283d 1a9f 5c3c
00000080: 70a1 833c 0ff8 bebd 1fd4 56be 957f 51bc
00000090: 2431 07be 8b7c 30bd 5322 c3bc 7cb5 3fbd
000000a0: ed35 b03b f624 1c3d 3640 153d 74ee 21bc
000000b0: 2433 0c3d 78d6 c53c 14ab 75bc 1151 133c
000000c0: 677c 45bc 3193 673d b191 50bc 993d 46bc
000000d0: d023 2f3d bb8f 213d de27 463b 33e8 ab3c
000000e0: fb89 babd f9e8 80be 6275 2dbe a4ac 58bb
000000f0: f56c 333d ca7a 04bd 32d8 db3b ca56 0a3d
00000100: 4cc6 7bbc c826 883c e73d 1fbd b667 f3bc
00000110: 9abf 1dbb 5075 6e3d c0e1 19bd 3ad4 173d
00000120: 2c0c 243d 8e3e a33d 936a f93c 7f2e bc3b
00000130: ec40 31bd 78e7 e03b 92d1 79bd c242 11be
00000140: f11d cd3b 0030 3fb9 e2cb 233d 16d6 2a3d
00000150: 75de 023d f7ef 483d 5c17 253c 90fb e23c
00000160: d0a0 b4bb 28cf c63c 6cd8 41bc 7051 10bd
00000170: 5c84 153d b896 193d a4ea 06bd 5f54 e03c
00000180: 62db a93d 88ec 97bc 6017 d43c 7062 e03b
00000190: e8b7 cf3c f101 dbbd bd4d 05be 701c 5e3b
000001a0: 88d0 ebbc 0e24 993d 3f52 663d ac4b be3c
000001b0: 0484 103d f075 52bb 2ee7 183d 8004 a83b
000001c0: 218d a0bc 9e5f 3e3c cf94 213c 0062 a2b8
000001d0: 0824 d83b 27d2 36bc 2377 883c dfb5 773d
000001e0: 49af 04bd d8c2 a13c e956 953b bec5 eebd
000001f0: 0fcc 9c3d 6e5a 243d 8c64 a83c b9c7 abbc
00000200: 50f4 14bb f399 633a 82ef 12bd 8cd9 1b3d
00000210: 08a7 0bbc 0041 2bbb 1a03 823d f689 c93c
00000220: 689d 283d 63bb 21bd 342a 9f3c bdf8 963b
00000230: c969 d8b9 481e 243d 4c8c 163c efa0 31bd
00000240: d203 403c 8bf1 d1bc 3991 923d 1b1e 83bc
00000250: b833 be3b 66d9 6f3d 4de8 803c ef7e 273d
00000260: ed14 f8bc c0a2 343d 5201 fbbc b87c cf3b
00000270: 8b59 893d 61df 9f3c 373d bf3d 06d9 6fbc
00000280: b8e4 0dbc fe4d 2f3c b613 1f3d 8ab1 673d
00000290: 0812 0c3c 80a2 6bbb 3b71 b33c c51d 90bb
000002a0: 00c3 1ebc 6483 053c e613 81bc cebc d33d
000002b0: 4e44 b43c d662 2d3d 5674 03bd 5691 883c
000002c0: c66f 5abc dcd1 263d a6bc e73d e071 b13d
000002d0: edff 4c3d 0016 28b9 5388 00bd 1cb2 8f3d
000002e0: a1c2 fb3c 65ab 04bd 2c6e f13c 305b b1bc
000002f0: 42bd 4d3d a7f5 d8ba 4aec a03d 142f 153d
00000300: 6c04 283d b4e4 e63d 7d95 d53c 8faf 4e3c
00000310: 403f 9cbb 81ce ecbc 9809 c9bb b231 c1bc
00000320: fb5d a83d ea05 f63d a17d b73d 8046 6fbb
00000330: 6074 05bc 945b 9b3c f627 03bd 2c0c 3d3d
00000340: 1a5f 0fbd afea 9ebc 8fcf 853d 80f0 ac3c
00000350: d398 323c 4ab1 f5bc 8091 c2ba 0e55 b73d
00000360: 3502 703c 7313 ad3c 0294 11bd 1a81 17bd
00000370: ee41 103d cce1 e5bc fd2c 073d a003 b73c
00000380: 293a 833d 7069 173d a0c4 033d 0bad aa3c
00000390: 4b5f 2f3d cd65 fd3c 9bb3 e8bc 38b4 e23c
000003a0: 216a 723d da2e b8bc 2412 eebc e0de f53b
000003b0: ced8 0f3d fa12 193e db0f 1e3d c748 2e3d
000003c0: 9c25 323d fccf cc3c f531 22bd d822 133d
000003d0: a4f0 083d 6306 5b3d 3bc6 9d3a cecd 143d
000003e0: 9897 ad3c 811d d9bc 2c75 e53d 6f32 b23d
000003f0: 781e 2f3c 2a00 123d 0197 153d cea8 0b3d

fc1.bias f4 [128]
0.16166553 0.062269304 0.0004972799 0.16326942 0.043267015 0.11207761 0.107583895 0.032583307
0.08047726 0.08410128 0.05157439 -0.010154933 0.16994709 0.14747801 -0.031145059 0.013609613
0.10458336 0.01768964 0.10879157 0.075470924 0.012251493 -0.011099203 -0.053839765 0.030260058
0.14430311 0.041484077 -0.04444906 0.124551855 0.07121658 0.062001947 0.09163962 0.009845235
0.061021633 -0.12569045 0.08058366 0.15612482 0.014374469 -0.06712883 0.009486299 0.03980979
-0.04529424 0.0043029236 0.06933584 0.085369945 0.079675116 0.011414423 0.06435504 0.12247701
-0.01984061 0.06495253 -0.0536472 0.0021629098 0.022911962 -0.07907578 -0.07302842 0.09018565
0.07153376 0.010412466 -0.014801631 0.027550897 0.02969976 0.1107234 0.00085476454 0.124458
-0.038007524 0.04411834 0.09926779 0.14973317 0.12248936 -0.026325857 -0.040942688 0.055187646
0.0014967422 -0.031529833 -0.007057881 -0.0062162 0.11337789 -0.052286565 0.10472981 0.047822338
0.025053367 0.10922679 -0.0070115644 0.19816676 0.04692567 0.1380882 -0.020592768 -0.040031042
0.06128548 0.13737553 0.16714281 0.03174449 0.13060215 0.16063942 -0.06972081 0.16140445
-0.028355815 0.040375326 -0.010147751 -0.036318496 0.15957211 -0.011690996 0.12070249 0.02991282
-0.10337538 0.030770475 0.05191672 0.02652697 0.0018714753 0.03058349 -0.074659176 0.054162268
-0.07936976 0.05388308 0.07847412 -0.030606328 0.16114093 -0.092619225 0.078886904 0.06060184
0.053321272 0.13933657 0.1683017 0.13482928 0.032682966 -0.048962343 0.056655675 0.06985378
00000000: a68b 253e 190e 7f3d e45b 023a 1930 273e
00000010: c138 313d f288 e53d f254 dc3d 1376 053d
00000020: 43d1 a43d 4b3d ac3d ab3f 533d e060 26bc
00000030: 9c06 2e3e 7a04 173e ec23 ffbc dbfa 5e3c
00000040: cd2f d63d dde9 903c 1dce de3d 8090 9a3d
00000050: 7cba 483c 6ed9 35bc 1687 5cbd f1e3 f73c
00000060: 32c4 133e 35eb 293d 3810 36bd 0b15 ff3d
00000070: 00da 913d c1f5 7d3d 8ead bb3d e94d 213c
00000080: d2f1 793d ffb4 00be 0c09 a53d 2fdf 1f3e
00000090: e582 6b3c d77a 89bd 6c6c 1b3c 970f 233d
000000a0: 7486 39bd 8aff 8c3b f3ff 8d3d 70d6 ae3d
000000b0: b52c a33d 8f03 3b3c 93cc 833d 3ad5 fa3d
000000c0: c688 a2bc d505 853d 2bbd 5bbd 9bbf 0d3b
000000d0: deb1 bb3c 7cf2 a1bd ed8f 95bd 41b3 b83d
000000e0: 4b80 923d 0c99 2a3c 8a82 72bc 6bb2 e13c
000000f0: e94c f33c f3c2 e23d 4712 603a d6e3 fe3d
00000100: c7ad 1bbd 6fb5 343d e94c cb3d a753 193e
00000110: b4db fa3d 53a9 d7bc 85b3 27bd 710c 623d
00000120: 562e c43a 6d25 01bd cc45 e7bb 44b1 cbbb
00000130: ab32 e83d 702a 56bd 957c d63d 5be1 433d
00000140: b83c cd3c 4cb2 df3d 44c1 e5bb 3aec 4a3e
00000150: 2235 403d fe66 0d3e 2ab2 a8bc 97f7 23bd
00000160: 7c06 7b3d 2cac 0c3e 7c27 2b3e 8306 023d
00000170: 92bc 053e a97e 243e c9c9 8ebd 3547 253e
00000180: 744a e8bc 9960 253d c142 26bc b4c2 14bd
00000190: df66 233e 978b 3fbc de32 f73d bb0b f53c
000001a0: 79b6 d3bd 5d12 fc3c a0a6 543d 174f d93c
000001b0: 4a4c f53a 3a8a fa3c e9e6 98bd 41d9 5d3d
000001c0: 9d8c a2bd 81b4 5c3d 0ab7 a03d 1fba fabc
000001d0: 2102 253e 26af bdbd 758f a13d a339 783d
000001e0: 6867 5a3d 3fae 0e3e 4857 2c3e b010 0a3e
000001f0: 93de 053d bd8c 48bd c80f 683d 800f 8f3d

fc2.weight f4 [128, 128]
0.35237578 0.15796375 -0.05498692 -0.1276626 0.26609862 -0.19489174 -0.18054353 0.07599718
0.0722816 -0.35445026 0.20502415 0.094581984 -0.33469376 -0.27752087 0.13379456 0.105243295
-0.039119583 -0.0022059518 0.35717133 0.056465916 0.06225278 0.029186836 0.28553075 -0.13262111
0.083674915 -4.384441e-06 0.062440094 0.27515948 -0.09446127 0.09443026 -0.05870706 0.091322
0.4114495 0.30001044 0.07252256 -0.24408951 0.15007399 0.11934417 -0.42170545 0.47754833
0.03498246 0.05993538 0.015524073 0.01007263 -0.13125761 0.062038373 0.03631339 0.502781
0.21180606 0.2904288 0.2705241 -0.049144566 0.0848819 0.07442435 0.048373237 -0.09667796
0.55320716 0.17108987 -0.09199358 -0.20503862 0.14491443 0.13031822 0.033788502 -0.1174688
0.12088978 0.035404094 0.01742533 0.30553797 0.19371274 0.25484186 0.09419997 0.23789637
-0.19159265 -0.19718933 0.087976895 -0.010714275 0.16758983 -0.0146492915 0.10051985 0.053271618
0.027865835 -0.16564578 -0.018506741 -0.31179163 -0.036376975 0.15680796 0.29648635 0.25866356
-0.2768825 -0.13313937 -0.040679783 0.43212023 -0.05720993 -0.28828707 0.42985758 -0.28443244
-0.027206458 0.46786284 0.3060444 0.22799318 -0.35983297 -0.7150519 -0.27451122 0.09456529
0.34662384 0.33488116 -0.08231284 -0.008971397 0.23191296 -0.16393419 0.5433777 -0.027689647
0.319694 0.10647473 0.11960005 0.49646103 -0.11995171 0.09889166 0.019052189 -0.032803323
0.05226549 0.18604816 -0.14424515 -0.22864859 0.12631951 0.10422031 0.096629314 0.015012764
0.060538687 0.26526448 -0.057063002 -0.075021155 0.3016171 -0.10614275 0.23432048 0.19106293
-0.107035376 -0.3829504 -0.08014886 -0.13224505 -0.065080404 0.14403433 0.028037319 0.29028368
-0.24132797 -0.21120058 0.10912756 -0.346323 -0.05787024 -0.26477402 -0.11108299 0.27545914
-0.30890283 -0.18401599 -0.34459963 0.05179411 -0.16545124 0.25943914 -0.19793664 0.11938631
0.002808361 0.080835775 -0.012820628 0.21777499 0.21535245 -0.13316084 -0.4763249 0.0053694127
-0.24447602 -0.18732998 -0.20683725 -0.066666074 -0.07784899 -0.21163994 0.19054769 0.16852362
-0.2395089 0.15609644 0.20355524 0.19393596 -0.02771514 0.32897133 0.07678524 0.024177551
-0.0037951267 0.18255205 -0.4878533 0.1555775 0.14567427 0.05879639 0.16148886 0.5335443
0.07016005 0.011443937 0.19320306 0.2016645 0.28975284 -0.13319837 0.2050963 0.017663538
-0.29262173 -0.01426933 -0.054292433 0.37633663 -0.3055112 0.031213354 0.013871114 -0.092463344
-0.045767855 0.36281902 -0.2648458 -0.22147293 0.14870001 0.36536914 -0.01835439 -0.1948574
-0.8266535 0.42717308 -0.12759122 0.12851927 0.0097138835 -0.46926013 -0.420763 0.32572764
-0.060108677 0.283341 0.21335267 -0.12675314 -0.40931448 0.18937701 0.32639527 0.45235962
0.14015329 0.09075358 -0.11893656 -0.21560429 0.29112437 -0.22512856 0.096418075 -0.2037286
-0.21996352 0.28258163 -0.039228424 0.026995761 0.075758345 0.10759962 -0.36984697 -0.30309632
0.20836471 0.067937784 0.26501435 -0.18096597 -0.12051414 -0.2151036 0.0024891456 0.21269712
00000000: 996a b43e 40c1 213e f739 61bd fcb9 02be
00000010: 143e 883e b391 47be 67e0 38be 69a4 9b3d
00000020: 6008 943d 817a b5be daf1 513e 33b4 c13d
00000030: fb5c abbe 3717 8ebe 7101 093e cc89 d73d
00000040: db3b 20bd bb91 10bb 29df b63e ce48 673d
00000050: c5fc 7e3d 3b19 ef3c 1631 923e d4cd 07be
00000060: c15d ab3d 101e 93b6 2fc1 7f3d b4e1 8c3e
00000070: e974 c1bd a764 c13d d076 70bd 0707 bb3d
00000080: 82a9 d23e f89a 993e b586 943d 9af2 79be
00000090: ffac 193e b76a f43d c7e9 d7be 3781 f43e
000000a0: c549 0f3d cd7e 753d ae58 7e3c ac07 253c
000000b0: 6568 06be f31b 7e3d 59bd 143d 41b6 003f
000000c0: b0e3 583e 15b3 943e 2382 8a3e d04b 49bd
000000d0: 90d6 ad3d cb6b 983d 0423 463d 18ff c5bd
000000e0: fc9e 0d3f 2f32 2f3e 2167 bcbd a5f5 51be
000000f0: 7364 143e 2472 053e d065 0a3d 7b93 f0bd
00000100: 1095 f73d e203 113d 91bf 8e3c 796f 9c3e
00000110: a25c 463e a27a 823e eaeb c03d 1b9b 733e
00000120: dd30 44be 00ec 49be 3b2d b43d ed8a 2fbc
00000130: ab9c 2b3e 9503 70bc 5add cd3d 5733 5a3d
00000140: e446 e43c 0c9f 29be 739b 97bc 27a3 9fbe
00000150: 0600 15bd 4492 203e 0fcd 973e 8d6f 843e
00000160: 8bc3 8dbe b055 08be d89f 26bd dd3e dd3e
00000170: f654 6abd 5d9a 93be 4b16 dc3e 21a1 91be
00000180: 14e0 debc b88b ef3e dab1 9c3e 0b77 693e
00000190: 073c b8be a40d 37bf bc8c 8cbe 72ab c13d
000001a0: ae78 b13e 8b75 ab3e a293 a8bd c4fc 12bc
000001b0: 977a 6d3e 5dde 27be cd1a 0b3f 66d5 e2bc
000001c0: efae a33e 6c0f da3d dff0 f43d 2430 fe3e
000001d0: 3ea9 f5bd b687 ca3d 5613 9c3c c75c 06bd
000001e0: 5714 563d 6983 3e3e 00b5 13be db22 6abe
000001f0: e759 013e 7571 d53d 97e5 c53d 19f8 753c
00000200: 6af7 773d bfd0 873e e5ba 69bd b1a4 99bd
00000210: 8e6d 9a3e 5f61 d9bd b5f1 6f3e 00a6 433e
00000220: 5d35 dbbd 1312 c4be 1625 a4bd 3f6b 07be
00000230: e048 85bd bc7d 133e 85ae e53c 10a0 943e
00000240: ae1e 77be f744 58be 457e df3d 4051 b1be
00000250: 5809 6dbd 7690 87be 7b7f e3bd fb08 8d3e
00000260: 8328 9ebe b06e 3cbe 5d6f b0be 1026 543d
00000270: 0d6c 29be 35d5 843e e7af 4abe cf80 f43d
00000280: 7b0c 383b 3a8d a53d 9c0d 52bc 6800 5f3e
00000290: 5a85 5c3e 515b 08be dbe0 f3be e6f1 af3b
000002a0: ec57 7abe 6ed3 3fbe 25cd 53be 3988 88bd
000002b0: 4b6f 9fbd 24b8 58be ef1e 433e 7591 2c3e
000002c0: d241 75be bfd7 1f3e c970 503e 2697 463e
000002d0: dc0a e3bc ee6e a83e 9441 9d3d 0010 c63c
000002e0: a9b7 78bb edee 3a3e e8c7 f9be b54f 1f3e
000002f0: a32b 153e 7cd4 703d 565d 253e 5c96 083f
00000300: 13b0 8f3d 5a7f 3b3c 06d7 453e 2481 4e3e
00000310: 7c5a 943e 2765 08be c404 523e 20b3 903c
00000320: 84d2 95be e8c9 69bc be61 5ebd 32af c03e
00000330: f76b 9cbe 26b3 ff3c ab43 633c 6c5d bdbd
00000340: 1377 3bbd 6ac3 b93e de99 87be cdc9 62be
00000350: d144 183e aa11 bb3e f25b 96bc b388 47be
00000360: 909f 53bf 6eb6 da3e 46a7 02be 8e9a 033e
00000370: fb26 1f3c dd42 f0be 3f6e d7be c6c5 a63e
00000380: 8434 76bd 1212 913e 1f79 5a3e 93cb 01be
00000390: ab91 d1be 0cec 413e 481d a73e ae9b e73e
000003a0: 5884 0f3e 03dd b93d 0395 f3bd 5fc7 5cbe
000003b0: 410e 953e 1a88 66be d776 c53d 3b9e 50be
000003c0: 1e3e 61be 8aae 903e fcad 20bd 3726 dd3c
000003d0: 3127 9b3d 315d dc3d 955c bdbe 712f 9bbe
000003e0: 8f5d 553e f722 8b3d f6af 873e 254f 39be
000003f0: 1ed0 f6bd 1e44 5cbe ef20 233b 46cd 593e

fc2.bias f4 [128]
-0.16876088 0.16383177 -0.071001284 -0.115519345 -0.0019184045 0.15364994 -0.11056335 -0.0057787173
-0.09716579 0.18909824 0.06466165 0.14895548 -0.009028366 -0.11221119 0.013882678 0.18447137
-0.01276388 0.1632834 0.16888374 -0.050763533 -0.0019099617 -0.034319755 -0.070567384 -0.051382665
0.042579163 0.049612172 0.13371316 -0.006778327 0.10100779 -0.0681694 0.21374553 0.013596827
-0.09905589 0.008228725 0.042386636 -0.043881908 -0.079494655 -0.2052923 -0.044979867 -0.03458247
-0.01580131 -0.019385807 -0.186853 -0.07521842 0.19354565 -0.089356065 -0.044521246 -0.078036554
-0.20171995 -0.08000077 -0.06093434 -0.091435656 -0.018487021 -0.10239389 0.112687275 0.11318896
0.0091571985 -0.12727568 0.028618244 -0.0953586 -0.17650293 -0.07542956 0.20249097 0.2820105
-0.036799043 -0.11605423 -0.09862813 0.14961289 0.1569019 -0.056317188 -0.071389146 -0.03933292
-0.051472705 0.018149573 -0.07037742 -0.09261298 -0.08951089 -0.086766094 0.0590217 0.08936308
0.020296656 -0.03032432 -0.093005046 0.062673554 0.017466132 -0.10713618 -0.09662262 -0.082281366
-0.0758624 -0.0036503098 -0.13397664 -0.1261162 0.09005032 0.01269988 -0.03691642 -0.2010546
-0.049292292 0.0037088625 0.006293793 0.22118911 -0.06497759 -0.027111692 0.06311283 0.04531196
-0.027945846 0.19043988 0.0859756 -0.01143445 -0.044445254 -0.046883717 0.057703726 -0.04776912
0.0132666025 0.07277211 -0.0038800237 -0.13519612 0.041818727 0.01918343 0.14090954 -0.050729033
-0.062720746 -0.15331948 -0.055304084 -0.14847158 0.12049832 -0.16339308 -0.122096196 -0.08166534
00000000: a7cf 2cbe 84c3 273e 1f69 91bd 6895 ecbd
00000010: f972 fbba 6956 1d3e 0a6f e2bd 655b bdbb
00000020: dcfe c6bd f8a2 413e 546d 843d c987 183e
00000030: b6eb 13bc fbce e5bd 2c74 633c 10e6 3c3e
00000040: 981f 51bc c333 273e dcef 2c3e 6ced 4fbd
00000050: ae57 faba df92 0cbd a285 90bd a176 52bd
00000060: 7d67 2e3d 2236 4b3d 1aec 083e ba1c debb
00000070: 2cdd ce3d 669c 8bbd 1ce0 5a3e 3ac5 5e3c
00000080: d1dd cabd c6d1 063c 9c9d 2d3d 84bd 33bd
00000090: 18ce a2bd 2538 52be cf3c 38bd 59a6 0dbd
000000a0: c071 81bc fcce 9ebc 6556 3fbe 1d0c 9abd
000000b0: d530 463e 5000 b7bd e95b 36bd a1d1 9fbd
000000c0: ad8f 4ebe 72d7 a3bd 4996 79bd 9e42 bbbd
000000d0: 1872 97bc e3b3 d1bd 96c8 e63d 9dcf e73d
000000e0: 1308 163c 8e54 02be cf70 ea3c 5f4b c3bd
000000f0: 2fbd 34be d07a 9abd cb59 4f3e ae63 903e
00000100: 98ba 16bd d7ad edbd 8cfd c9bd 1f34 193e
00000110: e4aa 203e daac 66bd 7934 92bd 8e1b 21bd
00000120: 0bd5 52bd 6aae 943c 0922 90bd e0ab bdbd
00000130: 7c51 b7bd 6cb2 b1bd bdc0 713d fe03 b73d
00000140: 2c45 a63c b56a f8bc 6e79 bebd fe5a 803d
00000150: 2215 8f3c 376a dbbd 15e2 c5bd 2283 a8bd
00000160: bf5d 9bbd 093a 6fbb 2c31 09be 9b24 01be
00000170: 4d6c b83d 2813 503c ac35 17bd 42e1 4dbe
00000180: b7e6 49bd 6310 733b 2a3c ce3b 667f 623e
00000190: f912 85bd 5719 debc 4d41 813d 0999 393d
000001a0: b0ee e4bc ac02 433e fa13 b03d 8f57 3bbc
000001b0: 3a0c 36bd 2409 40bd be5a 6c3d 8ea9 43bd
000001c0: 2a5c 593c 8b09 953d ff47 7ebb da70 0abe
000001d0: 1d4a 2b3d 9226 9d3c 974a 103e 3fc9 4fbd
000001e0: bc73 80bd c8ff 1cbe 8986 62bd ef08 18be
000001f0: d3c7 f63d 8450 27be 920d fabd 2840 a7bd

fc3.weight f4 [128, 128]
0.033977885 -0.4181191 0.03538752 0.21489547 -0.30783755 0.30020326 0.12824537 -0.0017528061
0.08689674 -0.009395551 -0.12033277 0.39168456 0.14848408 -0.20551741 0.15682188 -0.06477072
0.11749735 0.077566266 0.5930095 -0.05413383 0.13530062 0.020314604 0.075632475 0.04685949
0.004604013 -0.30886742 -0.3877718 0.32157052 0.46032056 -0.19677864 -0.024871174 -0.044362456
0.19808424 0.019656757 -0.3329349 0.13591328 -0.07604296 -0.062132742 0.13971032 -0.031817894
0.15025851 -7.311805e-05 0.10151525 0.25023264 0.056557886 -0.0045611956 0.15180658 0.116521016
-0.03506652 0.00023026169 0.122663245 0.029926341 -0.0013607302 -0.09148934 0.040896613 0.33114982
0.04777357 0.16269992 0.14246131 0.1286808 -0.0011340397 0.008007791 -0.31112793 0.2447616
0.009909404 0.08528755 0.13902695 -0.33603638 0.057293616 -0.2921946 0.29212523 0.14213999
0.041847996 0.10705695 -0.07574861 0.21433415 -0.12763591 0.09404999 0.29691276 0.121520996
-0.24960029 0.15280588 0.04475002 -0.2732025 -0.035101406 0.0004768478 0.037069608 0.07285115
0.17247304 0.022179712 -0.05124482 0.21188946 -0.29259434 0.02387197 0.09106996 -0.06676046
-0.30380163 0.079464905 0.2405068 0.14142427 0.09294652 -0.25997633 0.1391318 -0.14150262
-0.5982922 0.12432076 -0.30295342 -0.037214413 0.14072515 0.03246696 0.10933368 0.08371618
0.07036571 0.08372423 0.16388695 0.039356865 -0.36127362 0.11729313 0.240256 -0.041645076
0.31587705 -0.09190738 0.021686276 0.12457383 -0.41706726 -0.1446875 -0.013791928 0.080389075
-0.07445385 0.13894348 0.01043742 -0.13884644 0.28297517 -0.065951996 0.12635775 0.15683186
-0.020087814 0.14064027 0.12382149 -0.13377464 -0.12493734 -0.15773343 -0.03639094 -0.19502477
-0.09959415 0.0041562356 -0.19014685 -0.032384634 0.11887269 0.06924315 0.07115456 0.16290405
0.060844697 0.19708355 0.2955155 0.005547164 -0.16378555 0.49237424 0.09944956 0.043700162
0.012269672 0.015059698 0.17306775 -0.08582843 -0.00061300397 0.08957454 0.053855017 -0.07646509
0.07296719 0.06494823 0.10164903 -0.074736424 0.062237453 0.0749739 -0.033320848 0.068884216
-0.009953388 -0.004984595 0.006220765 -0.04413042 0.3127469 0.018213546 0.049732752 -0.19413576
-0.08690527 0.06099733 -0.059866276 0.07787247 0.12108195 0.045650296 -0.0065396647 -0.22377822
0.03263699 0.11348332 0.051565498 0.1735763 0.13898736 0.1584732 -0.26171258 0.10269341
0.08016049 0.19539846 0.07188371 0.11196462 0.3817335 0.053778462 -0.0120299095 0.09858408
0.29276344 -0.012347533 0.05725663 0.065491304 0.14747435 0.1501336 0.0484586 -0.11586296
-0.07710678 0.08295386 0.07422425 0.117640905 0.117128685 0.12128035 0.17790881 -0.03329171
0.24289697 0.302624 0.081631064 0.28348404 -0.026132926 0.13173626 0.06548756 -0.069867484
0.47282258 -0.0985642 -0.06544398 -0.03026786 0.03450561 0.05749615 0.048315212 -0.003968744
0.063685566 0.046246227 -0.11502538 -0.02490689 0.14417826 0.28382266 -0.11576191 -0.020342978
-0.042044945 0.10078135 0.106986314 0.06805581 0.16020495 -0.058595058 0.0041202903 0.03877615
00000000: 652c 0b3d b513 d6be 81f2 103d 8f0d 5c3e
00000010: e29c 9dbe 3eb4 993e c152 033e 6abe e5ba
00000020: ebf6 b13d ccef 19bc 0771 f6bd e18a c83e
00000030: 360c 183e 2873 52be ea95 203e 83a6 84bd
00000040: 73a2 f03d 10db 9e3d 78cf 173f 6fbb 5dbd
00000050: 3f8c 0a3e d06a a63c 33e5 9a3d bdef 3f3d
00000060: 43dd 963b df23 9ebe 068a c6be e4a4 a43e
00000070: 23af eb3e 5780 49be a2be cbbc 68b5 35bd
00000080: 98d6 4a3e 3507 a13c 7176 aabe da2c 0b3e
00000090: 69bc 9bbd e77e 7ebd 3910 0f3e 7b53 02bd
000000a0: 5edd 193e f456 99b8 3ae7 cf3d 7e1e 803e
000000b0: 3ea9 673d 1576 95bb 2f73 1b3e 92a2 ee3d
000000c0: e9a1 0fbd 6772 7139 de36 fb3d 1628 f53c
000000d0: 875a b2ba c35e bbbd 3583 273d 788c a93e
000000e0: 38ae 433d cf9a 263e 61e1 113e e6c4 033e
000000f0: 0fa4 94ba 1c33 033c 294c 9fbe c9a2 7a3e
00000100: 0e5b 223c 3dab ae3d 155d 0e3e f60c acbe
00000110: b6ac 6a3d 889a 95be 7091 953e 258d 113e
00000120: ce68 2b3d ad40 db3d 1622 9bbd 697a 5b3e
00000130: fdb2 02be 489d c03d f304 983e 00e0 f83d
00000140: 3897 7fbe 2579 1c3e cc4b 373d 33e1 8bbe
00000150: 7ec6 0fbd 6e01 fa39 4dd6 173d fc32 953d
00000160: c69c 303e 3ab2 b53c 17e6 51bd 8df9 583e
00000170: edce 95be 268f c33c e382 ba3d b5b9 88bd
00000180: e38b 9bbe 7fbe a23d 6a47 763e 86d1 103e
00000190: bf5a be3d 9e1b 85be 9178 0e3e 10e6 10be
000001a0: ad29 19bf e29b fe3d b61c 9bbe 246e 18bd
000001b0: 411a 103e 13fc 043d 56ea df3d 6373 ab3d
000001c0: e61b 903d 9c77 ab3d fbd1 273e aa34 213d
000001d0: dbf8 b8be 6137 f03d ab05 763e 0794 2abd
000001e0: a3ba a13e f039 bcbd 6ba7 b13c 9020 ff3d
000001f0: d789 d5be f628 14be 8af7 61bc 07a3 a43d
00000200: 437b 98bd 3347 0e3e b601 2b3c c32d 0ebe
00000210: 1fe2 903e d711 87bd ed63 013e 8898 203e
00000220: 338f a4bc 0104 103e 1f96 fd3d 38fc 08be
00000230: 26df ffbd df84 21be ab0e 15bd 93b4 47be
00000240: 05f8 cbbd 0831 883b dbb5 42be c0a5 04bd
00000250: 8673 f33d 5acf 8d3d 7bb9 913d 52d0 263e
00000260: 4a38 793d 45d0 493e cf4d 973e fcc4 b53b
00000270: 66b7 27be 7a18 fc3e 36ac cb3d f1fe 323d
00000280: bc06 493c f4bc 763c ac38 313e d1c6 afbd
00000290: 00b2 20ba db72 b73d 1497 5c3d bb99 9cbd
000002a0: d26f 953d 9403 853d 5e2d d03d 690f 99bd
000002b0: b3ec 7e3d eb8b 993d 717b 08bd 2b13 8d3d
000002c0: 8913 23bc d055 a3bb 8fd7 cb3b 19c2 34bd
000002d0: 5d20 a03e 9334 953c 92b4 4b3d 86cb 46be
000002e0: 64fb b1bd 56d8 793d 5736 75bd 9a7b 9f3d
000002f0: d0f9 f73d cefb 3a3d af4a d6bb 1e26 65be
00000300: 5dae 053d f169 e83d 5836 533d fcbd 313e
00000310: b452 0e3e cc46 223e 31ff 85be ec50 d23d
00000320: 2f2b a43d 8916 483e c437 933d b54d e53d
00000330: 9372 c33e ce46 5c3d 1919 45bc 73e6 c93d
00000340: 17e5 953e 4f4d 4abc ee85 6a3d 4e20 863d
00000350: 8403 173e 9fbc 193e 867c 463d 8f49 edbd
00000360: 29ea 9dbd b7e3 a93d e202 983d b7ed f03d
00000370: 2ae1 ef3d d561 f83d ba2d 363e e35c 08bd
00000380: fcb9 783e 88f1 9a3e 302e a73d d224 913e
00000390: b814 d6bc dfe5 063e 581e 863d af16 8fbd
000003a0: cd15 f23e 07dc c9bd 7e07 86bd 4ef4 f7bc
000003b0: c155 0d3d 1581 6b3d 2ce6 453d 3d0c 82bb
000003c0: 946d 823d af6c 3d3d 6d92 ebbd 8909 ccbc
000003d0: 77a3 133e 3451 913e 9514 edbd 51a6 a6bc
000003e0: 5237 2cbd 7466 ce3d a41b db3d d860 8b3d
000003f0: c40c 243e 5f01 70bd 8003 873b bed3 1e3d

fc3.bias f4 [128]
0.03434612 0.082875825 -0.05427659 -0.054605223 -0.09466072 0.064368375 -0.0031522 0.014067787
-0.08130219 -0.01285005 -0.0661304 -0.08288767 0.018851424 0.040890764 -0.15502624 0.022994243
-0.0010653083 0.008124743 0.019164685 0.059875336 0.021722334 0.3862741 -0.047369096 -0.0960664
0.0090995915 0.31278434 0.0011006694 0.11695964 0.07027376 0.12774935 -0.025973734 -0.02716074
-0.13061403 0.006985334 0.023076098 -0.064966194 -0.07654795 0.031094188 0.055501122 0.044398732
-0.06271395 -0.019036328 0.039273277 -0.030106768 -0.028310908 -0.0036971723 -0.09814692 0.0059157317
-0.08838899 0.07931583 0.07716809 -0.08765583 -0.024667926 -0.11717265 0.12703672 0.13640825
-0.088181324 0.05459061 -0.09099785 -0.07533163 0.0497881 0.38689312 0.04086693 0.2972892
0.073616244 0.08667044 -0.037467133 0.09384939 0.18601584 -0.030994797 -0.022303801 -0.048514135
0.0050359974 0.03464337 0.2409283 0.24314731 -0.03725054 0.13163184 0.20674154 -0.035700686
0.055721246 0.23902778 -0.017327063 0.22113934 0.23693047 0.024999375 0.07244449 0.19419271
0.39017645 0.21255845 -0.028001554 -0.5995479 -0.31644908 -0.010981934 -0.12903243 0.08006967
0.07215866 -0.07730513 -0.032405674 0.0029435656 0.06239033 -0.054728176 0.1622336 0.10179077
-0.12608027 -0.27241662 0.013346962 -0.07907957 0.0034902343 0.08545128 -0.012688781 -0.28115675
0.059693567 -0.075068794 -0.016455691 -0.0016114824 -0.019941252 -0.07799028 0.048801485 -0.0562805
0.050113965 -0.058605913 -0.20018928 0.14589168 0.16049582 0.0275262 0.06339566 0.073061675
00000000: 84ae 0c3d cdba a93d 2151 5ebd baa9 5fbd
00000010: 7bdd c1bd 91d3 833d 2495 4ebb 937c 663c
00000020: c381 a6bd 0489 52bc 606f 87bd 03c1 a9bd
00000030: 4d6e 9a3c 137d 273d 33bf 1ebe 6c5e bc3c
00000040: d1a1 8bba a41d 053c 42ff 9c3c d73f 753d
00000050: 09f3 b13c b8c5 c53e 1906 42bd 76be c4bd
00000060: 7416 153c 4525 a03e 5644 903a 8988 ef3d
00000070: b0eb 8f3d bad0 023e dec6 d4bc 3380 debc
00000080: afbf 05be 3be5 e43b 160a bd3c ff0c 85bd
00000090: 2cc5 9cbd 3db9 fe3c 2555 633d 72db 353d
000000a0: 2c70 80bd 13f2 9bbc 04dd 203d 78a2 f6bc
000000b0: 47ec e7bc 424c 72bb 4101 c9bd c1d8 c13b
000000c0: 4905 b5bd 5670 a23d 4e0a 9e3d e684 b3bd
000000d0: 6414 cabc 37f8 efbd ea15 023e 9bae 0b3e
000000e0: 6998 b4bd 679a 5f3d 155d babd 7847 9abd
000000f0: 9bee 4b3d db16 c63e 1564 273d 4a36 983e
00000100: 1dc4 963d 4680 b13d 2377 19bd 1c34 c03d
00000110: f07a 3e3e cde8 fdbc 76b6 b6bc c2b6 46bd
00000120: 0205 a53b 35e6 0d3d e9b5 763e 9cfb 783e
00000130: 0694 18bd 7fca 063e 0eb4 533e e23a 12bd
00000140: f63b 643d b3c3 743e 7cf1 8dbc 5a72 623e
00000150: e79d 723e 7dcb cc3c c75d 943d 74da 463e
00000160: 35c5 c73e eca8 593e 8463 e5bc f97b 19bf
00000170: 9d05 a2be 92ed 33bc 1421 04be 91fb a33d
00000180: ebc7 933d 2752 9ebd d0bb 04bd d6e8 403b
00000190: 018d 7f3d a72a 60bd 9120 263e ae77 d03d
000001a0: 301b 01be 317a 8bbe 37ad 5a3c 78f4 a1bd
000001b0: 6abc 643b 1501 af3d 9be4 4fbc c7f3 8fbe
000001c0: 3e81 743d abbd 99bd 16ce 86bc 6038 d3ba
000001d0: d65b a3bc 5eb9 9fbd 11e4 473d 6286 66bd
000001e0: 4d44 4d3d c10c 70bd 6bfe 4cbe a164 153e
000001f0: 0459 243e a07e e13c 95d5 813d 5ca1 953d

fc4.weight f4 [32, 128]
-0.02003896 -0.09342877 -0.091919996 0.020956434 -0.06637168 0.059108872 -0.021463254 -0.08319436
-0.10163518 0.050670784 -0.03386357 -0.03504166 -0.0069556385 0.05265359 -0.0997012 0.061234914
0.061354753 0.017181039 -0.028365305 -0.009757204 -0.039242435 0.010201834 -0.04878544 -0.08158002
0.049719788 0.058364734 -0.07759072 0.034703776 0.046966705 0.022442566 -0.013893516 0.008186296
-0.105859995 0.024730392 0.03603865 -0.017062066 -0.096937254 -0.05929719 0.055501577 0.06372795
0.019727483 -0.065590546 0.068983294 0.07677501 0.07906855 -0.0014776587 -0.0049317065 -0.085999
-0.008967519 -0.05667208 0.00093829696 -0.0710108 0.018674202 0.012559473 0.042241994 0.023917295
0.021164872 -0.017780751 -0.067879885 0.009846933 -0.014445618 0.04447994 -0.019449212 -0.050795335
0.0012967512 -0.032486755 -0.041804902 -0.05261971 0.05751668 0.006795019 0.07034362 -0.043328233
-0.04638869 0.040846046 -0.0757308 0.02016613 -0.04624496 0.060090944 -0.018958038 -0.07955779
-0.015102885 -0.10669412 0.0016402826 -0.10447693 -0.043425497 0.041295327 0.0059788376 -0.09239461
-0.094407685 -0.0047072014 -0.07764377 -0.022247687 0.0021154804 -0.06294088 0.015060079 0.009395294
-0.08361313 0.010505093 -0.036560304 -0.01439023 -0.043421254 -0.07813371 0.032007575 -0.106913894
-0.0513146 -0.050143175 -0.07493798 0.00022616982 0.0032087788 0.006560403 -0.08750706 0.014233259
-0.019835154 0.02200491 0.002645979 0.0019057766 0.015535474 -0.0373102 0.029145595 0.027074156
-0.054264065 -0.039310273 -0.041762006 -0.03148485 0.0851504 0.016471468 -0.03817643 -0.10706295
-0.040823944 -0.07894194 -0.036681235 -0.06631456 -0.021540284 -0.04423706 0.06607566 -0.057962768
0.020810619 0.076207824 0.045479096 0.05030016 0.06460071 -0.0820848 0.05983334 0.05692359
0.083821245 -0.023613796 -0.071796946 0.045704372 0.049690686 -0.026989039 0.0057136044 -0.048867974
-0.06618932 -0.08686683 -0.063604526 0.017885834 -0.07297488 -0.020490825 0.07810619 -0.07271707
0.04157663 0.046370484 0.012217537 -0.07164913 -0.032372255 0.008911371 -0.056122847 -0.0013863891
-0.07671168 -0.06810805 0.08516482 -0.000107072294 -0.07687561 -0.048192192 -0.08251042 -0.053426705
-0.066289924 -0.014839798 -0.08822406 0.029825814 0.047417827 -0.023416117 -0.05336515 -0.07310629
0.07652632 -0.05919588 -0.045887455 -0.07941729 0.031544186 0.07330563 -0.057969037 0.06782725
-0.03275417 -0.01634276 -0.01880052 0.0326474 0.012675457 -0.009177066 -0.011525147 0.0018353388
0.08287773 -0.08621817 0.08313628 -0.084098265 0.05905152 -0.0009694174 0.038006254 0.058363207
-0.055467054 0.032790944 -7.942319e-06 -0.049182896 0.08294717 0.00824137 -0.056473814 -0.08360567
0.015335597 0.00781928 -0.075390615 -0.04269386 -0.058550444 0.05782435 0.06717313 -0.038066115
-0.00057607144 0.031819962 0.07368461 0.06557692 -0.05649234 -0.024917968 -0.057884015 -0.043970793
-0.019943677 0.022172801 0.0051994324 -0.0062289536 -0.08314903 0.032180406 -0.07725493 0.057955496
0.011618897 0.0019030347 -0.07933587 -0.07155152 -0.021421745 -0.0585616 -0.042496487 0.02660627
-0.0527252 -0.079820104 -0.004212953 -0.08186038 0.08045859 0.05560728 -0.034660093 -0.06966047
00000000: bf28 a4bc 9557 bfbd 8d40 bcbd d4ac ab3c
00000010: e0ed 87bd 251c 723d b5d3 afbc ce61 aabd
00000020: 1b26 d0bd 2b8c 4f3d 87b4 0abd d887 0fbd
00000030: 20ec e3bb 4aab 573d 2530 ccbd 76d1 7a3d
00000040: 1f4f 7b3d 40bf 8c3c 5b5e e8bc aedc 1fbc
00000050: adbc 20bd 9825 273c 3ed3 47bd 6d13 a7bd
00000060: faa6 4b3d dc0f 6f3d e2e7 9ebd 8c25 0e3d
00000070: 2960 403d 79d9 b73c a1a1 63bc d01f 063c
00000080: 20cd d8bd 6497 ca3c 439d 133d bfc5 8bbc
00000090: 0a87 c6bd 9ce1 72bd 9f55 633d cd83 823d
000000a0: 889b a13c 5654 86bd 1d47 8d3d 373c 9d3d
000000b0: b1ee a13d 00ae c1ba 279a a1bb 3e20 b0bd
000000c0: 80ec 12bc fc20 68bd 0bf8 753a 1c6e 91bd
000000d0: a4fa 983c 3fc6 4d3c f105 2d3d 34ee c33c
000000e0: f461 ad3c f0a8 91bc 9c04 8bbd 0855 213c
000000f0: 50ad 6cbc 9930 363d f453 9fbc c50e 50bd
00000100: c0f7 a93a d510 05bd 9e3b 2bbd c487 57bd
00000110: 9c96 6b3d c0a8 de3b 5110 903d f278 31bd
00000120: 1102 3ebd 2f4e 273d c018 9bbd 7133 a53c
00000130: 5b6b 3dbd ec21 763d e34d 9bbc 32ef a2bd
00000140: 1772 77bc 7282 dabd c0fe d63a 00f8 d5bd
00000150: efde 31bd 4a25 293d 20ea c33b 6339 bdbd
00000160: d158 c1bd de3e 9abb b203 9fbd c840 b6bc
00000170: dfa3 0a3b 26e7 80bd 8dbe 763c b8ee 193c
00000180: 5c3d abbd 8e1d 2c3c 42c0 15bd 00c5 6bbc
00000190: 7cda 31bd 9104 a0bd 601a 033d acf5 dabd
000001a0: 422f 52bd ee62 4dbd 1579 99bd 0028 6d39
000001b0: 604a 523b a6f8 d63b e736 b3bd 9d32 693c
000001c0: 557d a2bc a443 b43c 2968 2d3b 40cb f93a
000001d0: 8088 7e3c 95d2 18bd bec2 ee3c 9fca dd3c
000001e0: ff43 5ebd cf03 21bd a30e 2bbd 42f6 00bd
000001f0: 5563 ae3d 2cef 863c e35e 1cbd d243 dbbd
00000200: 0237 27bd 50ac a1bd 103f 16bd eecf 87bd
00000210: 4075 b0bc eb31 35bd ad52 873d 5e6a 6dbd
00000220: 087b aa3c d912 9c3d 4a48 3a3d 8a07 4e3d
00000230: 614d 843d 131c a8bd ce13 753d b628 693d
00000240: 79aa ab3d b871 c1bc 470a 93bd 8234 3b3d
00000250: 7688 4b3d 1e18 ddbc 3039 bb3b c929 48bd
00000260: 448e 87bd 3de7 b1bd 1743 82bd 5085 923c
00000270: db73 95bd 60dc a7bc 23f6 9f3d b0ec 94bd
00000280: 424c 2a3d faee 3d3d 102c 483c c7bc 92bd
00000290: c598 04bd 0001 123c 12e1 65bd 80b7 b5ba
000002a0: 031b 9dbd 3c7c 8bbd e56a ae3d 008c e0b8
000002b0: f670 9dbd 2d65 45bd 39fb a8bd f6d5 5abd
000002c0: 03c3 87bd a022 73bc d1ae b4bd 4455 f43c
000002d0: 3239 423d 28d3 bfbc 6a95 5abd c0b8 95bd
000002e0: d5b9 9c3d 6177 72bd 7cf4 3bbd 88a5 a2bd
000002f0: 7a34 013d 4321 963d f170 6dbd 03e9 8a3d
00000300: 3d29 06bd 40e1 85bc 8c03 9abc 48b9 053d
00000310: b8ac 4f3c 685b 16bc f8d3 3cbc c08f f03a
00000320: cdbb a93d 2793 b0bd 5b43 aa3d b63b acbd
00000330: 02e0 713d 8020 7eba 72ac 1b3d 420e 6f3d
00000340: 6c31 63bd cc4f 063d 0040 05b7 0174 49bd
00000350: 35e0 a93d d006 073c 1651 67bd 7339 abbd
00000360: 2842 7b3c 701c 003c 6566 9abd c2df 2ebd
00000370: 97d2 6fbd 3ad9 6c3d 1192 893d 37eb 1bbd
00000380: 8003 17ba a655 023d f5e7 963d 314d 863d
00000390: 8364 67bd c420 ccbc ca17 6dbd b81a 34bd
000003a0: ec60 a3bc bca3 b53c 0060 aa3b 401c ccbb
000003b0: 0a4a aabd 9acf 033d d537 9ebd be62 6d3d
000003c0: 305d 3e3c 406f f93a d87a a2bd 9a89 92bd
000003d0: a87c afbc 4ade 6fbd cc10 2ebd 64f5 d93c
000003e0: 61f6 57bd b978 a3bd d00c 8abb 6aa6 a7bd
000003f0: 79c7 a43d 76c4 633d bef7 0dbd 26aa 8ebd

fc4.bias f4 [32]
-0.080932766 -0.032504976 0.23508967 0.14414951 0.04951373 0.2945901 0.069325715 -0.010211629
0.14617321 0.09030507 0.22815725 0.117073916 -0.0013213105 -0.41762665 -0.090044916 0.037638795
0.2515729 -0.077319 -0.1426864 -0.096978575 0.123267196 -0.064057365 0.0005740191 0.07163539
0.045073725 0.3199376 0.046228375 -0.4817737 -0.03231514 0.08467341 -0.14774743 0.044262078
00000000: 14c0 a5bd f023 05bd 59bb 703e ee9b 133e
00000010: e9ce 4a3d 83d4 963e a4fa 8d3d ad4e 27bc
00000020: 6eae 153e ddf1 b83d 0ea2 693e 73c4 ef3d
00000030: d32f adba 29d3 d5be 7869 b8bd 232b 1a3d
00000040: 2ace 803e 6d59 9ebd 621c 12be b49c c6bd
00000050: 8373 fc3d 8230 83bd c579 163a 93b5 923d
00000060: 3a9f 383d dcce a33e f759 3d3d 0bab f6be
00000070: e15c 04bd 4169 ad3d 1a4b 17be 274c 353d

fc5.weight f4 [4, 32]
-0.12152443 0.08624174 -0.15887286 0.35364997 0.03331845 0.34984884 0.094296105 0.34322602
0.44635049 -0.19202965 0.28641698 0.88046896 -0.26888415 0.18688008 -0.07201446 0.09933058
-0.44873434 -0.11675787 -0.42388073 -0.24990457 -0.18031217 0.15537244 0.10744621 0.1541489
0.007907228 -0.3201296 -0.20920663 0.13876382 0.16212691 -0.086838216 -0.20789087 -0.016508799
0.093256846 0.12388082 0.40360773 0.5839412 -0.089122005 0.9610477 -0.16841523 -0.20378137
-0.5069077 -0.08965622 0.1810934 0.34823895 -0.066236384 -0.22274083 -0.060038354 0.14924553
0.25360772 0.08128996 -0.18590975 -0.20386264 -0.21497628 0.12516601 0.16776803 0.06790049
0.13174254 0.758098 -0.13974464 -0.19860993 0.42058286 0.125648 -0.2439114 0.11705613
0.008566052 -0.0020418614 -0.14269525 0.4550773 0.015981713 0.4818748 0.16161737 0.3894534
0.61291593 -0.026940465 -0.09063275 0.36557865 -0.21376026 -0.07536283 0.0075279367 -0.11079916
0.06934113 0.0027078092 0.48217058 -0.11947175 -0.015233441 -0.17343964 -0.1377113 -0.10356708
-0.017220339 0.43151617 -0.16962305 -0.1296584 -0.082653664 0.6266833 0.633114 -0.09465655
-0.14062327 0.104657575 -0.24547498 0.32080084 0.14275135 0.28510118 0.15450776 0.25864488
0.10103702 -0.078918226 0.22973081 0.59856665 -0.10456036 -0.31028154 -0.14247093 -0.04501352
1.0820822 0.008540556 0.16701867 -0.03477395 0.42015862 0.14659023 0.16316557 0.02651429
0.026821522 0.42634276 0.26276743 -0.20600556 0.07822604 0.10610475 -0.19310485 0.055226043
00000000: cde1 f8bd 829f b03d 91af 22be 9c11 b53e
00000010: ed78 083d 631f b33e 511e c13d 52bb af3e
00000020: 0d88 e43e 6ca3 44be 3fa5 923e 6a66 613f
00000030: 2fab 89be 7e5d 3f3e 517c 93bd d56d cb3d
00000040: 82c0 e5be c01e efbd e506 d9be fce6 7fbe
00000050: c1a3 38be f419 1f3e c20c dc3d 36d9 1d3e
00000060: 518d 013c 07e8 a3be 433a 56be 1a18 0e3e
00000070: 9904 263e 3cd8 b1bd 58e1 54be 763d 87bc
00000080: 72fd be3d 3ab5 fd3d aca5 ce3e 2c7d 153f
00000090: 9985 b6bd 3907 763f 0b75 2cbe 10ac 50be
000000a0: b4c4 01bf ae9d b7bd 8c70 393e 604c b23e
000000b0: f1a6 87bd 2c16 64be c7ea 75bd d2d3 183e
000000c0: dfd8 813e 5a7b a63d 205f 3ebe 5ec1 50be
000000d0: be22 5cbe 852b 003e 62cb 2b3e 690f 8b3d
000000e0: 84e7 063e b612 423f 3819 0fbe 6760 4bbe
000000f0: a356 d73e dfa9 003e e9c3 79be 20bb ef3d
00000100: a058 0c3c c0d0 05bb b41e 12be e4ff e83e
00000110: 15ec 823c 4bb8 f63e 067f 253e 7066 c73e
00000120: 0fe8 1c3f 40b2 dcbc aa9d b9bd 202d bb3e
00000130: f8e3 5abe d457 9abd e9ac f63b acea e2bd
00000140: b902 8e3d 8075 313b 10df f63e 9bad f4bd
00000150: af95 79bc 299a 31be 3104 0dbe fa1a d4bd
00000160: ab11 8dbc b0ef dc3e aab1 2dbe 2cc5 04be
00000170: 5346 a9bd 516e 203f c213 223f 4bdb c1bd
00000180: 8cff 0fbe b656 d63d cb5d 7bbe 0240 a43e
00000190: 692d 123e c8f8 913e 4837 1e3e 1a6d 843e
000001a0: 7fec ce3d e19f a1bd 8e3e 6b3e aa3b 193f
000001b0: be23 d6bd 39dd 9ebe e6e3 11be 1960 38bd
000001c0: ab81 8a3f b0ed 0b3c f106 2b3e 216f 0ebd
000001d0: 081f d73e c01b 163e e014 273e 7f34 d93c
000001e0: cfb8 db3c 9949 da3e 7489 863e 1ff3 52be
000001f0: f934 a03d 724d d93d 47bd 45be b434 623d

fc5.bias f4 [4]
-0.054312732 0.2763205 -0.12611334 0.11589197
00000000: 0777 5ebd e179 8d3e db23 01be c558 ed3d
