DQN_models/model_updaterate500_gamma0.7_alpha0.0001_static.pt (torch, 416679 bytes, 10 tensors)

fc1.weight f4 [128, 514]
00000000: 66f2 b0bc c0d9 87bb a4ec 023c 682f 343d
00000010: ae6f 163d 961d 163d 2d68 84bc 8854 d43b
00000020: 5c82 913c 18a5 eb3c 3aad 093d 04c2 9c3c
00000030: 0051 7339 59eb 89bc 00a4 50bc c40f 893c
00000040: 0057 0c3c 00a2 d63b 5658 a5bc d0a2 023c
00000050: a68b 333d 1fc1 f7bc b4ac 04bc f034 803b
00000060: c8dd 8c3d a739 60bd e65c 8cbd 37fb b5bb
00000070: 1ade 9a3d 927c e53c bb89 02bd d778 673d
00000080: ffa7 833d 3f5e 6d3d 9dea 0d3e b8ea 903c
00000090: cbec 633d ed18 fe3c 9b87 2a3d be4c 6b3d
000000a0: 6294 fc3c d9e6 903d 18ed 3bbc 9201 1fbd
000000b0: ac2e 1d3d e81c 9c3c 43b2 523d 6a4d e03b
000000c0: 1f44 82bc 7821 9cbc 2052 e03b f645 81bd
000000d0: a3b6 b2bd 7880 9abd 611a d13b b1e5 c73c
000000e0: ab12 b03d 68e5 cc3b 970a 133d 7c84 473d
000000f0: c47e 243d 5dd5 40bd cc00 94bc e94e 273c
00000100: 54ce 103c 4ef1 213d 7043 973c 30b3 85bc
00000110: 63a2 aa3d c92f dbbd 3ace a2bd fe1c 043d
00000120: bc6b 253d 9536 833d 4baf 5cbd 9614 c23d
00000130: bf83 c4bc d49b df3c 4b7c 963d 1aa7 373d
00000140: c056 383d 7c0e 403c c8fd 19bc 14c6 873d
00000150: 0d52 c2bc 1314 3dbc 84c9 abbc 6e92 15bd
00000160: a4a8 c93c 21c3 30bd 7046 b03a 1e3e 76be
00000170: d8ee 22be 8118 a3bc 38e4 25bd 00eb f43c
00000180: 890a 0b3d 2947 c539 8966 c4bc 8848 c33b
00000190: 066b f63c 9dc4 7a3c a9d8 813d f04b 0cbb
000001a0: 2095 1a3d 4769 f23c a983 5cba e004 053d
000001b0: 68db b33c debb 23bd d4b8 dc3c 8401 94bc
000001c0: af96 7abc a2eb 0ebe da0e 0abe c0d2 0d3c
000001d0: 4839 223d 130d 8e3d d145 28be b18f 5e3d
000001e0: 8a43 2b3d 8881 e03c ad1e 9f3d b976 67bc
000001f0: 9e9d 613d 35a5 13bd 90f7 6dbc 2a03 c83b
00000200: 01b9 f03a b875 5b3c e429 50bc e454 fdbc
00000210: be90 113d 759a 90bc 9f60 713b dd28 7bbd
00000220: 275f c5bd f7fe c5bc 80ba 853c d58e 053d
00000230: ab19 31bd e711 843c 62f0 823c aa0d 93bc
00000240: ce68 1d3d bd86 6cbc 75be 2a3d e048 b73c
00000250: 0395 c7bc c317 1a3b d399 adbd d342 223d
00000260: 9472 223d 8c9c 92bc 2020 22bb d2de 95bc
00000270: ece8 82bd f825 dfbd e807 16be 7846 6ebc
00000280: a021 e4bc 9fb2 41bd 2bef 88bd 132a d1bc
00000290: 20ae 453b e7a2 26bd 9d66 34bc 5cd7 c6bc
000002a0: d0a3 fc3c d160 2ebd 88e3 f8bc 0302 ad39
000002b0: a18f a93b f63f bb3c 880a 043d 4829 183d
000002c0: de78 023d d8a9 923c fdc5 b5bd b71f fdbd
000002d0: c678 b6bd d69f 93bc efce bfbc 4815 d03b
000002e0: f543 0fbd 3236 083c 2038 18bc 9205 0bbd
000002f0: ca7a 2d3d 681b abbc 45df 0b3d aec4 c3bc
00000300: 3084 8fbb a038 1a3c ced3 93bd 22e5 383d
00000310: 3986 1bbd eeec 233d 3f8b 88bc 4c14 07bd
00000320: cb36 dfbd 628e 14be 86b4 23be 5522 2abd
00000330: 2ade 22bd 8eef b23b b6e0 823b 7f8a dabc
00000340: c481 c93c 0809 153d 470d 96bc bb23 25bc
00000350: b4e8 d4ba 8d39 b3bc a412 f53c 348f fa3b
00000360: 1041 01be 375b 8e3d 046c 14bd 26dd 8d3c
00000370: 66e8 273d c355 94bc f635 a6bc bd71 a9bd
00000380: 415a fcbc 587c 403c 18aa fb3c 06b8 983c
00000390: 2f94 043c 6f01 993d d0df 17bb 082a 433c
000003a0: a95d 533b 2f6d 47bd c823 523d 5090 4fbc
000003b0: 289f ea3b f8d6 143b 68df 0dbc bdcf 083c
000003c0: c8a5 ea3b 5bc0 afbc 7993 1dbd 74d4 91bc
000003d0: 505c 353c 85c4 56ba f249 043c 8821 063d
000003e0: 80b1 60ba 96ae f1bb b255 dfbc e600 c63c
000003f0: 9490 5ebc 6e2d 0a3d 9e17 813d 8d41 593d
-0.02159996 -0.004145831 0.00799099 0.043990523 0.0367276 0.03664931 -0.016162956 0.0064798035
0.017762356 0.028765246 0.033612467 0.019135483 0.00023204461 -0.016835855 -0.012734413 0.01673115
0.008565664 0.0065500736 -0.020183723 0.007973388 0.04383435 -0.030243455 -0.008097816 0.0039125606
0.06878239 -0.05474248 -0.068536565 -0.005553629 0.07561894 0.028013501 -0.03186963 0.056511726
0.06428527 0.05795121 0.13859029 0.017690048 0.055645745 0.031017745 0.04163323 0.057446234
0.030832473 0.07075281 -0.011470102 -0.038819857 0.038374588 0.019056752 0.051439535 0.006845166
-0.015901623 -0.019058928 0.0068457276 -0.06312172 -0.087262414 -0.07544035 0.0063813184 0.024401518
0.08597311 0.0062529333 0.03589877 0.04871033 0.040159956 -0.04707848 -0.018066786 0.010211685
0.008838255 0.039536767 0.018464774 -0.016320795 0.08331754 -0.10702474 -0.07949491 0.03225421
0.040385947 0.06406895 -0.05387811 0.09476583 -0.023988603 0.027295984 0.07347926 0.044837095
0.045004606 0.011722203 -0.009398885 0.06629577 -0.023720765 -0.011540431 -0.020970114 -0.0365166
0.024616547 -0.04315484 0.0013448726 -0.24047133 -0.15911424 -0.019909145 -0.04050085 0.029897213
0.033945594 0.00037627787 -0.023974674 0.005959574 0.03008033 0.015305665 0.06340153 -0.0021407567
0.037739873 0.029591216 -0.0008411953 0.032475352 0.021955207 -0.039974086 0.026943602 -0.018067129
-0.015294715 -0.13957074 -0.13482228 0.008656204 0.03960541 0.069360875 -0.16432883 0.054336254
0.041812457 0.027405515 0.07769523 -0.014127427 0.055081956 -0.036046226 -0.0145243555 0.006103893
0.0018365682 0.013394766 -0.0127053 -0.030924268 0.035538428 -0.017651776 0.0036831272 -0.061318267
-0.096372895 -0.024169428 0.016324282 0.03260692 -0.04323737 0.016121818 0.015983764 -0.017950851
0.038430028 -0.014436421 0.04168554 0.022373617 -0.024363047 0.0023512698 -0.08476605 0.03961451
0.03966005 -0.017896913 -0.0024738386 -0.018294726 -0.063920826 -0.10895914 -0.14651453 -0.014543168
-0.027848065 -0.047289487 -0.06686243 -0.025532758 0.00301636 -0.0406827 -0.011010793 -0.024272613
0.03083983 -0.0425728 -0.030381933 0.0003299863 0.0051745926 0.022857647 0.032236606 0.037148744
0.03185355 0.017903253 -0.08875654 -0.12359565 -0.089097545 -0.018020552 -0.023414103 0.006350193
-0.03497692 0.008313702 -0.009290725 -0.03394086 0.04235343 -0.020887092 0.034148473 -0.023897495
-0.0043797716 0.0094129145 -0.07218133 0.045140393 -0.0379698 0.040020876 -0.01666796 -0.03297834
-0.10899123 -0.1450744 -0.15986833 -0.041536648 -0.039762653 0.005460686 0.003994073 -0.026677368
0.02459801 0.036385566 -0.018316878 -0.01007932 -0.0016243667 -0.021878028 0.029916115 0.0076464657
-0.12622476 0.069509916 -0.036235824 0.017317366 0.040993117 -0.0181073 -0.020289402 -0.08273647
-0.030804755 0.011748396 0.030720755 0.018642437 0.00809197 0.074709766 -0.0023174174 0.0119118765
0.003225187 -0.04868811 0.051303655 -0.012668684 0.007160086 0.002271114 -0.008659221 0.00835031
0.007160876 -0.021454027 -0.03847072 -0.0178015 0.011069372 -0.0008192736 0.008074271 0.03274682
-0.00085713714 -0.0073755486 -0.027262542 0.02417035 -0.013584275 0.03373473 0.06303333 0.05304103

fc1.bias f4 [128]
00000000: 3c91 863d f0ac debd 9332 a43d c2d2 043d
00000010: 7173 653b 8346 353d 7ec8 633d 622e 26be
00000020: 1f82 193e b2c1 bf3d 4d79 053e e978 ed3d
00000030: bf18 383e 2b3f 543d 914f ee3d f4c6 7bbd
00000040: d706 8f3d 3518 4e3d 2801 b13d 86b0 303e
00000050: e271 c03d d85b d23d a2e8 113d 93ce 173d
00000060: 674e 223e 43a9 243e aa24 d73c d6bd 4f3b
00000070: d845 693d d211 04bc 3d4c 063e 057e b93d
00000080: 52aa 983d cd3f 273e 490f 883c e04b 4d3e
00000090: b333 07bd 9cc5 7f3d 9c0b 0cbd 673e c0bc
000000a0: 181d 433b 1c98 42bd 591e c43d a527 283e
000000b0: d61b 273e b8f2 c2bc a2bf 0abd 11ec 913d
000000c0: 9413 c6bd 4524 cdbd d311 c03d 0814 473d
000000d0: 92d1 0abd 59d8 113e 5ed1 25bc 9342 8c3d
000000e0: 6675 533e 425f a73d ce7a 133e 4604 4abd
000000f0: bb9c 723d bd9e 863d 38cb 01bc cc4f 2f3e
00000100: b9f5 183d cb4e d03b 4d35 ea3d d468 d23d
00000110: a420 573d 532f b73d df7c 913d 66a5 f63d
00000120: f7b1 27bc 55a9 1a3d 8f87 bb3a 51c9 843d
00000130: 5979 bfbd 10b5 333d fd8b 9c3d 7b0e 1ebd
00000140: 2bd0 b83d ee1f b23d 807e 043e 8402 07bd
00000150: f385 ff3d 789c a23d 83de 8abd 8d8c 8bbd
00000160: e02d 583d 80ff 303d 73b2 353e bd03 d3bc
00000170: 1932 e73d 63de fb3b 9d2e 053e f6c5 d53c
00000180: ae2d 75bc 7bf4 9d3c d469 ab3d 713a de3c
00000190: 045a f03d 252d 293e 1425 173e 3ff9 123e
000001a0: 39cb c1bc 0aed 8fbd e069 033e b695 df3d
000001b0: 4567 da3d 2569 b03d 6346 40bc d565 f33c
000001c0: 6a25 0c3e c8de d4bc e944 e23d 0658 193d
000001d0: 0a78 233e e8df 9d3d d2bb fc3d f3af 70bd
000001e0: e75b 50bd 8e75 6b3d ec03 24be 1edb ec3c
000001f0: 0b22 003e a724 0a3c 2aac b33d f248 48bd
0.0657067 -0.10872829 0.08017459 0.032427557 0.0035011435 0.0442567 0.055611126 -0.16228631
0.14991044 0.09363116 0.13034554 0.115953274 0.1797819 0.051818054 0.1163627 -0.061469033
0.069837265 0.050316054 0.08642799 0.17254838 0.093967214 0.10271424 0.035622247 0.03706224
0.1585022 0.16080193 0.0262626 0.0031698844 0.056951374 -0.008060889 0.1311502 0.090572394
0.07454361 0.16332932 0.016608851 0.20048475 -0.03300829 0.062444314 -0.03419076 -0.023467256
0.002977198 -0.047508344 0.09576101 0.16421373 0.16319212 -0.023797378 -0.03387416 0.07125104
-0.09671703 -0.100166835 0.093784 0.048603088 -0.033891268 0.14242686 -0.010120718 0.068486355
0.20650253 0.08172466 0.14402315 -0.04932048 0.0592315 0.06573246 -0.007921986 0.17120284
0.037343714 0.006357049 0.114359476 0.10273901 0.052521363 0.08944573 0.071038954 0.12043266
-0.010235301 0.037759144 0.0014307367 0.064837106 -0.09349317 0.043873847 0.07643888 -0.03858803
0.0902408 0.08697496 0.12938881 -0.032961383 0.12476721 0.0794 -0.06780722 -0.06813917
0.052778125 0.043212414 0.17743854 -0.025758618 0.11288852 0.0076864227 0.13006063 0.026095372
-0.014964504 0.019281616 0.083697945 0.027127476 0.11735919 0.16521128 0.14760238 0.14352892
-0.023656474 -0.070276335 0.12833357 0.10917227 0.10664228 0.08613805 -0.0117355315 0.029711643
0.13686147 -0.025985137 0.110483 0.03743746 0.1596376 0.07708722 0.123405114 -0.05876155
-0.050868895 0.057485156 -0.16017121 0.028913077 0.12512986 0.00843159 0.08773072 -0.04889769

fc2.weight f4 [128, 128]
00000000: 80a3 5c3c cf64 923d 233c 7f3d 8251 35be
00000010: d823 6a3d d464 5e3e ad24 eebd 3211 ddbd
00000020: 190c ca3e 8d40 7b3e 238d a23e e8d7 7a3d
00000030: 4b4a c13e 97e1 9abb b541 023e 2022 a93e
00000040: 5ddb 4d3e b54a 14be fca5 3abd bf17 ea3e
00000050: b6c8 a23e 23ef 3abe d253 583d 29f6 a0bd
00000060: 648f 62be 388f bd3d db12 243d 67b5 9f3e
00000070: 53e4 dabd 7b0b 6c3e 1e81 9e3e 7b46 01be
00000080: ceeb 6abe e0ec 453d 6234 90bd 757b 4ebb
00000090: 29fa 1fbd 4e89 50be b5a9 403e 8e99 023d
000000a0: 53a2 e0bd 0823 c33e 1451 ec3d 5b6d e83e
000000b0: 019c c13d a21b 4fbe 9704 aabd 909b 053c
000000c0: 8e7d e1bd b626 ad3d c375 a03d ebd8 083f
000000d0: 95f1 743c 399c 6bbd a707 45be e1c0 c53d
000000e0: 72a3 6c3e 911d 213e 2e7f debd 4ba4 e23d
000000f0: 71c6 df3c eb25 1cbe c558 b6bd 60c4 8fbe
00000100: 1ee6 853c 4015 523e c71e 98bd 6b04 cfbc
00000110: a2cf 03be 4417 1b3d ad7b 263e 986d 1ebe
00000120: 4133 1a3e 472e da3d 18a0 d6bb 6226 6abe
00000130: 0f2b 11bd d8a9 25bd 2c37 863e d97c 04bd
00000140: 66c5 aabd 0ee9 6dbe 2664 fc3b 9dc5 123e
00000150: 0c63 513e 3e33 b1bc caad a53d 3a05 e8bc
00000160: 2f01 073e da5f a33e 86c0 5c3e b87a fdbd
00000170: e8c3 bfbe 7c8b 223e 47ff 083e e62e 0bbe
00000180: fe48 9f3d aa78 6cbe ef51 c53d 178a e1bc
00000190: 3884 173e 424f 553e a84d 4a3c d9da 2b3e
000001a0: 4e0a 02bd ce83 9d3e a5c1 fbbd acf7 843d
000001b0: a431 543e 1fd3 90bc ec22 013d d342 203e
000001c0: b501 f5bd 9f35 893e 5b1a 383c 34f6 1f3e
000001d0: f719 2e3e 449e 713e 5cbb 103e 8579 2a3e
000001e0: 4e16 47be c988 2dbe 3ddb 8e3d ebc4 ad3e
000001f0: a820 183e 561f c43e d809 4abe 86d0 8f3e
00000200: 5661 803e 318d 8a3e 1db3 6b3a ee00 3c3e
00000210: 83fb 04be 75ec 193e 3289 fabb 9176 073f
00000220: 2f1c 4ebd fd29 d83d b3c4 173e bc9f ed3d
00000230: 5d83 533e c6d7 b43e 1de1 b33e 7f83 4fbe
00000240: 126c 143e 2d84 603e b08a 9bbc 9a09 b23c
00000250: b977 a13d 6194 b73d 1d25 8e3e 2a71 e1ba
00000260: 54d8 28bd 1166 e5bd bb17 1c3e 1ad7 063e
00000270: 5f41 f2bb 8023 383e 28d5 303d 02a9 b6bc
00000280: 6719 343e 806e 8a3d 0585 afbe cfc3 5fbe
00000290: 27e4 44bd e88f a33d 60d0 673e d6c7 88bc
000002a0: 98c0 39bd 1e54 2e3e a3b0 9f3e 7998 423e
000002b0: e505 073c 32e4 3c3e 3c44 f93e 7dc0 453e
000002c0: 4da4 243f e3aa 613e e055 a5bc aa34 cdbe
000002d0: 11d2 393e 3499 963e c6b7 ee3e a57a 03bd
000002e0: 0621 563e 4051 b83e 36c6 6bbe dcbf 5a3e
000002f0: a132 3fbe ae6f 883d 945a 923d a050 ea3d
00000300: d86d 2f3e 237d 383e e12c 2cbe 06d4 603e
00000310: 402f 13bc 2c7c b6bc a6b6 013e 87c8 053e
00000320: d7e6 fb3a 9773 3c3e 9159 5b3e c687 5dbe
00000330: de5b a33e 5947 0dbb 2663 a53d a08b adbc
00000340: 9611 f43d f221 c33d 4c21 1b3e eb47 f4bc
00000350: f779 b53e 87ea 8d3d 0867 863e 1cc5 89bc
00000360: 2ad4 613e 26a5 923d ddb4 a0bc f027 af3d
00000370: b1d5 2dbe 29d6 683d b88d dcbc 6bd0 c73c
00000380: 4979 f43e f8ec 28be db58 a63e 4a2d 6c3e
00000390: 4edb be3e 6a0d 18bc 4521 303d d24a 6e3d
000003a0: f700 a23d 4cd7 d6bc 13a9 9ebd a908 43bc
000003b0: 1a8d afbd 4d54 713e f734 a5bd 4431 b53c
000003c0: 662e 3f3e f6d0 9abd e92c 4dbd f760 7cbb
000003d0: 1cf1 85bd 01a5 153e 5e32 3e3d 2026 7f3e
000003e0: 4964 7d3d 7739 3bbe 9389 873e c342 12bd
000003f0: b083 d4bb 1d01 993e 0bc3 993d 3ae3 9e3d
0.013466716 0.07148134 0.06231321 -0.17706874 0.05716309 0.2171815 -0.11628089 -0.10794295
0.39462355 0.24536343 0.31748304 0.06124106 0.37751994 -0.0047265994 0.12720378 0.33033848
0.20103212 -0.14481623 -0.04556845 0.45721242 0.31793755 -0.18255286 0.052814312 -0.07859451
-0.22125012 0.092558324 0.040057044 0.31193087 -0.10688081 0.23051254 0.30957884 -0.12624542
-0.22941515 0.048321605 -0.07041241 -0.0031506692 -0.03905693 -0.20364878 0.18814738 0.031884722
-0.10968461 0.38112664 0.11538902 0.45395932 0.094535835 -0.20225385 -0.08301657 0.008154765
-0.11010276 0.08454649 0.07834961 0.5345599 0.014950176 -0.057522032 -0.192412 0.09655929
0.23109224 0.15733935 -0.10864101 0.11066493 0.027316304 -0.1524884 -0.0890365 -0.2807951
0.01634508 0.20515919 -0.07427745 -0.025270661 -0.12872174 0.037863985 0.16258116 -0.15471494
0.15058614 0.10653358 -0.0065498464 -0.22866204 -0.035441454 -0.04044518 0.26213968 -0.032345627
-0.08338432 -0.23233435 0.0077023683 0.14333196 0.2044794 -0.02163088 0.08089788 -0.028322805
0.13184045 0.31909066 0.21557817 -0.12376922 -0.37454152 0.15873522 0.1337863 -0.13592109
0.07777594 -0.23092905 0.09634768 -0.027531667 0.14796531 0.20831016 0.012347616 0.16782703
-0.03174811 0.30764621 -0.12292794 0.06492552 0.20722061 -0.017678795 0.031527445 0.15650491
-0.11963216 0.26798722 0.011236752 0.15621263 0.17002092 0.2359553 0.14133972 0.16647919
-0.19442102 -0.1694671 0.0697541 0.339393 0.14856207 0.38305157 -0.19730318 0.28088778
0.2507426 0.27060845 0.00089912285 0.1835973 -0.12986569 0.15031607 -0.0076457495 0.5291529
-0.050319847 0.10554884 0.14821129 0.116027325 0.2065558 0.35320872 0.35132685 -0.20265006
0.1449435 0.21925421 -0.01898703 0.021733094 0.078841634 0.08963848 0.2776269 -0.0017199863
-0.04122193 -0.11201108 0.15243427 0.13167992 -0.0073930467 0.17982292 0.04317203 -0.022297386
0.17587815 0.067593575 -0.34281173 -0.21852039 -0.048069146 0.07986432 0.22638083 -0.016696852
-0.045349687 0.17024276 0.3118945 0.19003476 0.008241151 0.18446425 0.4868487 0.1931171
0.64313203 0.22037844 -0.02018255 -0.40079242 0.1814654 0.2941376 0.46624583 -0.032099385
0.20911035 0.3599949 -0.2302483 0.21362251 -0.18671657 0.06661926 0.07146183 0.11441159
0.17131746 0.18016486 -0.16813995 0.2195588 -0.008983433 -0.022276007 0.12667331 0.13064776
0.0019218576 0.18403469 0.21420886 -0.21633825 0.31906027 -0.002155742 0.08075552 -0.021184742
0.11917417 0.09527959 0.1514942 -0.02981945 0.35444614 0.06929498 0.26250482 -0.016817622
0.2205359 0.07160406 -0.019617492 0.08552539 -0.16976048 0.056844864 -0.026923046 0.024391374
0.47748783 -0.16496646 0.32489666 0.23064151 0.3727669 -0.009280542 0.04300048 0.058176823
0.0791034 -0.026225708 -0.07747092 -0.01190392 -0.08571835 0.23567314 -0.08066743 0.022118218
0.18670043 -0.075593874 -0.050091658 -0.0038509944 -0.065401286 0.14613725 0.046434753 0.24916887
0.061863218 -0.1828364 0.26472148 -0.0357082 -0.006485425 0.29883662 0.075079046 0.07758184

fc2.bias f4 [128]
00000000: 358d d53d 9224 16be cb09 35bc 18d9 803d
00000010: 5a11 89bd 58d5 0cbe 3aaa 0bbe be34 cfbd
00000020: 3a6d d1bc 3fcb 16bd ee09 043e eaa8 69bd
00000030: 7a91 95bd 7b46 5c3d f10b e1bd 4c96 8fbd
00000040: 1998 853c 2a23 e83d 955f 48bc 4da3 1ebe
00000050: c294 d8bc 2f0f 00bc 3a71 dd3d d936 323e
00000060: 6895 173e 6b70 023e e36d 24be 72de cbbb
00000070: e272 f8bd 1c23 873d 3d9a cfbd 02bb 7b3e
00000080: 5a8f a8bc 647a 6dbd 8276 5dbd b632 e9bd
00000090: 36ba 76bd a7fb ad3d e139 2d3c 4c99 b3bd
000000a0: 9fcc eebd f85f 2dbe 414c 15be 9108 d4bd
000000b0: 5790 52bd 39cb d9bd 7edb 8fbd b033 ba3e
000000c0: f1dd 213e 28e1 b7bd 8f93 15be a3c9 a93d
000000d0: f100 97bd 641a 673d 4d21 3c3d efd4 85bc
000000e0: 23a6 a63c b869 143d 5472 30bd 4b63 5bbd
000000f0: 61ee 89bd 7c54 daba f03f 823b d889 563d
00000100: 5ed0 eabd 9856 993c 37ad 883e 702b aabd
00000110: a070 c33d 506d 39be 7e5f 6a3d 6f45 783d
00000120: 3591 133e 33d1 dfbc 865f 21bc 8b58 8d3d
00000130: 0e4b 38bd 997d 73bd c699 96bd 51d8 eebc
00000140: 30a0 f5bc c54f 96bd 130b b0bd b8c1 0cbe
00000150: 06e8 a03c 9a43 933d 98b3 c6bc 3c89 7c3d
00000160: cb56 9abc aeb4 3ebe 481a e53c ee0d 0ebe
00000170: b0f7 b4bd 03ce 5fbd e98a 33bd 2cf2 9bbd
00000180: 949d 96bd 6295 6fbd f95f 30bd 64f3 a83d
00000190: 4ba3 2fbe 16e2 2dbd bcfe 7ebd 9b38 2bbd
000001a0: affa 8bbd 88cb 0e3e 1fb6 0d3d ad9c 343e
000001b0: f7a9 0d3d 69a0 553e 55fd afbd 87b0 1abe
000001c0: 7959 fc3d 442f 98bd bc5c f6bd c9e9 bbbc
000001d0: 1939 ff3d 9ff5 c2bd c655 92bd 2063 16bd
000001e0: 029f 37bd de4c 993e c300 7ebd 09ba 26bd
000001f0: 09b6 b1bc 8553 2abe 4062 afbd 01c1 1e3e
0.10427324 -0.14662388 -0.011049698 0.06291407 -0.06692763 -0.13753259 -0.13639155 -0.10117482
-0.025564779 -0.036814924 0.12894413 -0.057045855 -0.07303138 0.053778153 -0.10988606 -0.07011089
0.016307877 0.11334832 -0.01222982 -0.15491982 -0.02643812 -0.00781612 0.10812612 0.17403735
0.14803088 0.12738197 -0.16057543 -0.006221586 -0.12131287 0.065984935 -0.101368405 0.24583057
-0.020576168 -0.05797805 -0.054068096 -0.113866255 -0.06023618 0.084952645 0.010572881 -0.087694734
-0.11660122 -0.1693114 -0.1457987 -0.103531964 -0.051407184 -0.10634465 -0.07024287 0.3636756
0.1580732 -0.08978492 -0.1460707 0.08290412 -0.073732264 0.056421652 0.045930196 -0.016336886
0.020342892 0.036233634 -0.04307778 -0.05356149 -0.0673492 -0.0016657258 0.003974907 0.05237755
-0.11465524 0.018718049 0.26694652 -0.08309066 0.09542966 -0.18108106 0.057219975 0.060613092
0.14410861 -0.027321434 -0.009849435 0.06901654 -0.044993453 -0.05944595 -0.07353549 -0.029155882
-0.02998361 -0.073394336 -0.08595862 -0.13745773 0.019641887 0.07190628 -0.024255559 0.061654314
-0.018840214 -0.18623611 0.027966633 -0.13872501 -0.08836305 -0.054639827 -0.043833647 -0.0761455
-0.073542744 -0.058492072 -0.043060277 0.08249548 -0.17152135 -0.04245194 -0.062254652 -0.04180203
-0.068349235 0.13944829 0.034597512 0.17637892 0.03458592 0.20861973 -0.08593241 -0.15106402
0.12321753 -0.0743089 -0.120294064 -0.022938626 0.124620624 -0.09519505 -0.07145266 -0.036715627
-0.044829376 0.29941458 -0.062012445 -0.04070476 -0.021693246 -0.16633423 -0.085636616 0.15503313

fc3.weight f4 [128, 128]
00000000: 420d 82bc d683 c1bd 3514 a43c dbee 7bbb
00000010: 50ca d63c 2507 8cbd e7c0 f1bd 4639 b13c
00000020: becf ca3e 400a ae3d af8c 99be d7d9 943c
00000030: 491d 61bc 1efc c0bd fb65 303e 201d fb3b
00000040: abe1 a5bd aa88 98be d53a 2fbd c32d 19be
00000050: 453b 4a3e 7842 113e 9ba6 df3e fc0f 97be
00000060: f82b f93e c5d4 92bd 09ab 833c 0b23 46be
00000070: b986 673c 3224 033e 1bef 7cbe 22b1 79be
00000080: 0676 18be 2327 a63c d7b5 64bd c898 ffbc
00000090: 9cf0 14be 023c dc3e bd65 833d 0683 223d
000000a0: 9d59 8b3d 9771 153d fc20 553e 16be 6ebd
000000b0: 4215 803b e058 26bd f428 c53c 806a 48bd
000000c0: 1500 01bd 0357 0ebd 4a43 1c3e bf19 c43d
000000d0: 23f2 15bd 7ab6 783d a8f6 03be 5516 0cbd
000000e0: 16f6 393e 4536 dabd ca97 38bd 2c47 34be
000000f0: e1ce 823d 5a92 60bb 93e9 fdbd 9166 cebe
00000100: 2e6b ef3d 48a4 4cbe 08d3 7abe 0cf0 55bd
00000110: 9433 e33e 4d12 47be 4a9d c03c 728b 95bd
00000120: f8ef a4bc 9da2 90bd 3b97 b03e 4859 833e
00000130: 568c b43d 4078 c9bd 7d6a abbd 84b9 5f3e
00000140: 3a76 4b3e 049f cabd 25df 82bd 82dc 223e
00000150: 4c9d ec3d 0e71 0dbe fd4f 02be 7437 733d
00000160: 8354 c63d b796 03be 0cbf 6d3e 1e8b e3bc
00000170: dafc 27be 3f38 57bd 9fcc 393d e8fe babd
00000180: 47e8 e1bc 59ad f7bc 96a4 a53e d94e 813d
00000190: 96cf 8f3e d880 2dbe c7ff 11be 42a7 acbd
000001a0: 205a 00be 846f 193e 885d bc3d 287c 2dbd
000001b0: e154 c53e 176a 3dbe f244 29be 5812 90bc
000001c0: c8a9 4d3e 8047 883c 6446 bcbd 7941 b8bd
000001d0: 834a 2f3e 7eac a93d 1d0a 60be 3497 3d3e
000001e0: ce06 1fbc c5f8 3dbe 51b4 d73e 0801 f8bd
000001f0: e263 0d3d f6aa 383e bc72 c13d 874f 003f
00000200: 591a e0bc 9ab3 2f3e 9216 8e3e daba d13d
00000210: 79e0 243c f4f2 5e3e e287 693e f4c1 1c3e
00000220: acdd ab3e 17e5 d13e 8152 1ebe ea90 afbc
00000230: f7f1 683e 576f af3c 4874 7b3e c0c7 a6ba
00000240: 7a3f 81bd 7f75 cabe b89b a1bd 6eb5 583e
00000250: 9e1b 163d 648e b63e 59ae 123e 79ce d2bd
00000260: 351c 5c3e a4a7 81bb 1de6 7f3d 7932 193e
00000270: e2e5 933e a030 0e3e 230b a83e c325 33be
00000280: 2f5c 2d3e 76fa 693b 81eb 93bc b63e 373f
00000290: daef bd3d c7e5 3c3e 0e50 9d3e 03d4 02bd
000002a0: 5505 233e b7a7 8f3e a6e9 efbd bbdf 463e
000002b0: 540d 5c3c 75db 643e 0f03 6f3c b0d4 0d3c
000002c0: 4fd0 cbbd a268 5b3d a106 173e a489 adbd
000002d0: d879 71bb e353 943e 9609 b83d 390d 853e
000002e0: 428c 5a3e 2b0f 1d3e 8d0d a23d 6e0e f83c
000002f0: 95d7 85bc f6f2 553e e5da 6c3e 7c5a d2be
00000300: 9f73 a63e 58fd 69bd 7919 77be 8182 a53d
00000310: 5000 d53e a49a cc3d 99e2 01be dfc7 ee3d
00000320: 13f2 703c 1330 433e 14a6 503e 6809 923e
00000330: 90ab cf3c 94a4 b03e 5c72 8e3d 999c a53e
00000340: 15af 9c3e 2ae8 603d bbf2 4e3e e716 1f3e
00000350: 14f0 933e 7c2e 263e dc4b 65bd e5d7 8b3d
00000360: d02c db3d 3550 723e bac7 d73e 19ea a93d
00000370: e46c 143e 34b0 ec3c 707d 5dbc 7888 c53d
00000380: 0fcf d23c 4163 cd3d 0fb7 9b3e 19d6 803a
00000390: e5a3 7a3e 79a8 b53d 2d5f 9b3e 7670 b93d
000003a0: 3bc1 923e 04c3 bebd 4ca7 433c 9814 9abc
000003b0: 18aa bf3e da45 a3bd 5420 493e 48f4 923c
000003c0: a81f cb3c 4855 653d 7779 793e 1df4 9bbb
000003d0: f085 dc3d 1b42 01bb c191 fd3d bdf8 aa3e
000003e0: 0a2a a73d f10a febd fe54 30bf 1d86 a1bc
000003f0: b649 01bd 2c74 acbd 4c1b ccbc c2f7 2b3f
-0.015875462 -0.09448974 0.020029167 -0.003844193 0.026219517 -0.068373 -0.11804371 0.021633755
0.3961162 0.08498049 -0.29990146 0.01817028 -0.013739892 -0.094230875 0.17226402 0.007663384
-0.080996834 -0.29791766 -0.042780716 -0.14958863 0.19749172 0.14185512 0.43681797 -0.29504383
0.48666358 -0.07169489 0.016072767 -0.19349305 0.0141312415 0.12806776 -0.24700586 -0.24383977
-0.14888772 0.020282334 -0.05583748 -0.031200781 -0.1454491 0.43014532 0.064158894 0.039675735
0.06804202 0.03648528 0.20813364 -0.05828675 0.003908784 -0.0406121 0.02406738 -0.04892969
-0.03149422 -0.03475095 0.15260044 0.09575223 -0.036607873 0.0607209 -0.1288706 -0.034200985
0.1816028 -0.10654882 -0.045066632 -0.17605275 0.06387115 -0.003426692 -0.12398066 -0.40312627
0.11690365 -0.19984543 -0.24494565 -0.05223088 0.44375288 -0.19440575 0.023512501 -0.07301988
-0.020133957 -0.07062266 0.3449038 0.25654054 0.088158295 -0.09837389 -0.083699204 0.21848112
0.19869319 -0.09893611 -0.06390218 0.1590443 0.115534395 -0.13812658 -0.12725826 0.059379056
0.09684088 -0.12850462 0.2321741 -0.027776297 -0.16405049 -0.052543875 0.045361158 -0.09130651
-0.027576579 -0.030234026 0.32352132 0.06313867 0.28088063 -0.16943681 -0.14257728 -0.084303394
-0.1253438 0.14983946 0.09197527 -0.042354733 0.3854132 -0.18497501 -0.16530207 -0.017586872
0.20084298 0.016635656 -0.091931134 -0.08996863 0.17118268 0.082848534 -0.21878858 0.1851471
-0.009706212 -0.1855193 0.42129758 -0.12109572 0.034519084 0.18033966 0.09445712 0.5012135
-0.027356314 0.17158356 0.27751595 0.10240717 0.010063284 0.21772367 0.22805741 0.15308362
0.3356756 0.40995094 -0.1546116 -0.021431405 0.22748552 0.021415396 0.24556077 -0.0012724325
-0.06310935 -0.39542767 -0.07891029 0.2116296 0.03664743 0.3565551 0.14324321 -0.10293288
0.21495135 -0.003956752 0.062475313 0.1496066 0.28886324 0.13885736 0.32820997 -0.17494874
0.16929697 0.0035702265 -0.018056633 0.71580064 0.09274264 0.18447028 0.3072514 -0.03194047
0.15920003 0.28057644 -0.11714487 0.19421284 0.013430912 0.22349341 0.014588132 0.008656666
-0.09951841 0.053566583 0.14748622 -0.084735185 -0.0036846306 0.2897025 0.08986203 0.2598665
0.21342567 0.15337817 0.07912741 0.030280318 -0.01633815 0.20893463 0.23130377 -0.4108466
0.32510087 -0.057126373 -0.24130811 0.08081532 0.416018 0.09990433 -0.12684096 0.11659216
0.0147061525 0.19061308 0.20375854 0.285228 0.025350362 0.34500563 0.06955406 0.32346037
0.30602327 0.05490891 0.20209782 0.1553608 0.28894103 0.1622867 -0.05598055 0.06828288
0.10701907 0.23663409 0.42144567 0.08296604 0.14494663 0.028892614 -0.013518676 0.0964517
0.025733499 0.10028697 0.304131 0.0009829431 0.24476583 0.08870024 0.3034605 0.09054653
0.28663048 -0.0931454 0.011941742 -0.018808648 0.3743446 -0.079723075 0.19641238 0.017938748
0.024795368 0.055989534 0.24362741 -0.004759325 0.10767734 -0.001972324 0.12381316 0.33392897
0.08162315 -0.12404431 -0.6887969 -0.01971727 -0.031564437 -0.084205955 -0.02491536 0.67174923

fc3.bias f4 [128]
00000000: 48a4 a63d 1969 28bd c91b 7d3d 8d49 283d
00000010: 3eec 99be 9096 ba3b 7d4d 19be 54f6 01bd
00000020: 5e7c 7abd a707 21bb 85ae 6bbe f618 293e
00000030: c3b8 a2bd 6065 073e 9947 aabd 108a 043d
00000040: 9851 573e 36e7 02be f412 17be 7053 8bbb
00000050: afde b83c 9b81 a1bb 3890 16be 5a94 6dbd
00000060: 195d 913d fd87 c03e c4cb 09be 2c5e 71be
00000070: 31ab 45bd fc62 6c3d 7240 af3c 4761 123d
00000080: f1f0 4ebe 7fe7 573d ec97 90bd c9ab 7dbe
00000090: 62ab df3e 317c 09bd d973 6a3e 4c1d aabd
000000a0: 65a8 55bd 47ac 6d3e e36c 8a3d a12c 13bd
000000b0: 44ad fdbd 14df f5bd 5213 adbc 985d 32be
000000c0: c79f 85bd edad 44be fa23 99bc a6e6 e73d
000000d0: d841 26be 3f59 dc3d 4b1c 5dbe 5308 173d
000000e0: 8bab 8d3e 1499 cdbc ae15 60bd 05d0 09be
000000f0: 7af9 9bbd a691 e83e 6957 7fbd 1041 0b3c
00000100: da75 373e 43c9 35be 15ee c63e 783d 013c
00000110: f3f8 103c be03 b1bd 227d 7fbe 0a80 5cbe
00000120: 0038 b6bb 2036 443d fe89 04be 8b08 0a3e
00000130: 15ab 92bd 45de 29bd 5587 17bd efd7 36be
00000140: 2cbc c43e ee4c d33d 728a 65be 2bbd 18bd
00000150: 804f c23e 3870 ee3d fc4f b93e 207f 4d3d
00000160: a6ac 87bd 4250 c63e 4a69 47be 6d06 1cbe
00000170: c70f 483e 6857 d4bc cc4f 813e 2dd8 a1bd
00000180: 43fa 97bd 494b edbd 99bc 95bd 0f8e 613e
00000190: 52a4 6abe a4ee 86bc 015b 07bd e59a b93e
000001a0: c63f fa3a b0e3 f83b e94c 953d 3c17 003d
000001b0: 0771 4b3e d0ad 6dbd 98a5 753e 34c1 8e3e
000001c0: a275 84bd e0c5 3bbe 5322 46be ef8d 86be
000001d0: 67e5 8bbd a4dc 2dbd c883 e6bd 1b56 11bd
000001e0: f163 be3d 5e5e a4be 60f7 523c ba26 b63e
000001f0: 6f83 743e 84a5 9e3d 1931 893d bc1d d5bd
0.08136803 -0.041115854 0.061794076 0.04108577 -0.3006305 0.005694218 -0.14970966 -0.031729057
-0.061153762 -0.0024571212 -0.23015793 0.16513428 -0.07945397 0.13222265 -0.083144374 0.03235823
0.2102722 -0.12783512 -0.14753324 -0.00425189 0.022567121 -0.0049287803 -0.14703453 -0.058002807
0.07097835 0.3760375 -0.13456637 -0.2357108 -0.048258964 0.057711586 0.021393035 0.035737302
-0.202091 0.052711006 -0.07060227 -0.24772562 0.43685442 -0.033565704 0.22895755 -0.08306369
-0.052162547 0.2321025 0.0675905 -0.035931233 -0.123865634 -0.120054394 -0.021127377 -0.17418516
-0.06524616 -0.19206972 -0.018693913 0.113232896 -0.16236055 0.1075921 -0.21592824 0.036873173
0.2766994 -0.025097407 -0.054708175 -0.1345826 -0.07615943 0.4542362 -0.06233922 0.008499399
0.1791605 -0.17752557 0.38853517 0.00788819 0.008848417 -0.08643292 -0.24950078 -0.21533218
-0.005560875 0.04790318 -0.12943265 0.13479821 -0.071615376 -0.04147174 -0.036994297 -0.1785581
0.38424814 0.103174075 -0.22416094 -0.03728978 0.3795128 0.11642498 0.36193836 0.050170064
-0.06624727 0.38733107 -0.19473758 -0.15236826 0.19537269 -0.025920585 0.25256193 -0.079025604
-0.074207805 -0.11586625 -0.07311363 0.22026847 -0.22914246 -0.016471215 -0.033045772 0.36250988
0.0019092492 0.007595502 0.0729006 0.031272158 0.19867335 -0.05802709 0.2398895 0.27881777
-0.06467749 -0.18337202 -0.19349031 -0.26280162 -0.068308644 -0.042446747 -0.11255604 -0.035482507
0.09296406 -0.32103246 0.012876362 0.3557642 0.23878263 0.07746413 0.06698818 -0.10406062

fc4.weight f4 [32, 128]
00000000: 92a6 63bd e428 103e 1f26 fd3b a70b 313d
00000010: 3f28 b93c 0e03 493d ba8d 143d 90d9 6cbd
00000020: e36a c5bd 0901 b8bd 2df9 f63d de4e 8339
00000030: 5bd8 59bd 5019 59bd 21f0 953d 9b61 febc
00000040: 937d c1bc c2c5 053e a3d1 8c3e c46e afbd
00000050: d40d 38bd d058 783d 2e48 093e 0b01 acbe
00000060: 3f62 a23d cd3b 73bd 97b0 a0bc ba1b 9a3c
00000070: 9b98 6e3e b602 0bbd 856f 713d c0e0 693d
00000080: eb0f 803d 062b 5bbd 0c6f 943f eee3 053e
00000090: bc2f b0bc 4ba2 0c3d 5977 9cbc 98e7 1c3e
000000a0: 97ee 91bd f1d1 aabd 3937 143e 30fe 953d
000000b0: 026a 56bd b223 303e 34ec 20bd 6670 5d3c
000000c0: 8bca 853e 2ec1 043b 10b7 4a3e f053 723e
000000d0: 57b0 363e 0909 8e3d 0c1a 133e b234 63bd
000000e0: 76a8 32bf be95 04bd c995 833d aca0 4b3e
000000f0: 451c 4c3d 0847 e3be a365 123e 471b 75bd
00000100: 6101 84be 3855 243e 3118 de3d 0211 953d
00000110: 8b91 19bf 12fe 073e c52e 523e 4c5c 853d
00000120: 2a87 14bd d20b 2b3e 94f2 883e 7409 c4bd
00000130: 5b26 f83d 6eea ebbc d1a7 283d 4e54 633d
00000140: 0510 33be cae8 f23b 3409 a7bd f25b a73d
00000150: 077a 65bd a66c b13e 3b28 acbd 5172 4d3e
00000160: 79f6 873e 1777 7fbe a3a9 013f 5e50 c93d
00000170: 6226 063e 6dbe 803d 351a 17be a2de a4bd
00000180: 28c3 8dbd 25fb 253e f5b6 533b 5294 f6bd
00000190: 897c 4339 d6e4 a53c 4056 8f3b cf97 90bd
000001a0: ce52 b13d 5e99 73bd 6072 49bd ef4f acbd
000001b0: e8db e1be c02a 9bbd b4ee a8bc 3c9a 853e
000001c0: 289a 2ebc 1345 393e 6106 3cbd 13a0 c6bc
000001d0: 398c d1bd b1c7 a23d c41b fd3c 3baa cabd
000001e0: 5291 f53d 16a2 c4bc 9a79 32be d363 2f3f
000001f0: 8c0c 143e 547f 523e 0522 943c c09f 11bc
00000200: 8a52 093d 59da 27bd d035 ebbc 2a58 313d
00000210: 8c66 8dbd 80c2 2ebc 629c 873c c436 07bd
00000220: 57fc eb3c 98c9 973c a007 05bb 1a92 73bb
00000230: 3e2a 4a3c 222e aa3d 8b8d 9c3d 5848 a83c
00000240: ba29 4ebd 7ee0 143d 7813 c53c f0f7 f53b
00000250: 4079 aabd 9e44 6fbd cf59 8abd be19 a33d
00000260: 66a6 303d 4654 13bd fa49 acbd 18a3 adbc
00000270: b6b7 42bd ca6d babc 4643 643d 47cb 82bd
00000280: 1f77 363d c70b 11bd 4c6c aabd 2f04 a6bd
00000290: 3738 a53d 98c2 adbd a1b7 68bd 2f15 15bd
000002a0: 21ac 96bd 8ec4 503d 58e1 73bd 7860 ccbc
000002b0: 0391 673c 9f31 9bbd 641e 933c 65e7 22bd
000002c0: e81c 6dbc fa6d 5e3d 1369 753d 341b 843d
000002d0: 26c2 1e3b 50c2 5c3d 1085 13bc 68ce 4bbc
000002e0: 2456 8a3d 9093 623c a356 2e3d 908b d0bc
000002f0: 6313 97bd bb4a 22bd bcb2 a9bd 4485 053d
00000300: 7522 9b3b 894c 36bd d797 a8bd a465 c6bc
00000310: bf03 a8bd b20d ab3d 1d67 48bd 61c1 90bd
00000320: 0f1a 4dbd eadc 84bd 802b 793d e0ba d63c
00000330: 8b91 983d ad22 0fbd 80ac 7c3a 4aec f7bc
00000340: e756 66bd 2484 943d 80a7 15bc 4622 80bd
00000350: f755 6cbd f94b b33d 0253 b23c 8cc3 99bd
00000360: 5072 933b f2d1 943d 6f4b ac3d 28ea c3bc
00000370: 1032 aabc 1058 d5bb 1d44 59bd cdb2 873d
00000380: 9269 28bd 9fa5 8d3d 5781 993d 2d94 63bd
00000390: ace3 0dbd 0245 91bd b58e 31bd ca62 9ebd
000003a0: 8ff4 a0bd 701d 32bc ec59 a7bc 4a55 633d
000003b0: a4ce eabc b6d8 4e3d b64f 9e3d f4ec 50bd
000003c0: ba85 66bd c17b 9dbd a4c2 c5bc 5560 83bd
000003d0: f995 1b3d 9a38 6cbd ffe6 b3bd 44c8 b1bd
000003e0: 4416 aa3c f3ce 43bd 13e6 833d 1e80 2abc
000003f0: 5c44 2b3d ee16 2d3d dc99 a6bc a692 3f3c
-0.055578776 0.14078099 0.0077254917 0.043224003 0.022602199 0.04907518 0.036267973 -0.05782467
-0.09639528 -0.089845724 0.12059245 0.00025045028 -0.05318485 -0.053002656 0.073211916 -0.031052401
-0.023619449 0.1306372 0.2750369 -0.08566049 -0.044935063 0.060631573 0.1340644 -0.33594546
0.07928895 -0.059383202 -0.019615455 0.01881205 0.23300402 -0.033938132 0.058944244 0.057099104
0.06253036 -0.053507827 1.1596389 0.1307523 -0.021507137 0.034334462 -0.019099878 0.15322721
-0.071255855 -0.083408244 0.14474191 0.07323873 -0.05234719 0.17201117 -0.03928776 0.013515567
0.2613109 0.0020256746 0.19796395 0.23664832 0.17840706 0.06935317 0.14365405 -0.055470176
-0.697883 -0.032369368 0.064250536 0.1988551 0.049831647 -0.4439013 0.14296584 -0.059840467
-0.25782302 0.16048133 0.10844458 0.072786346 -0.59987706 0.13280514 0.20525654 0.06511745
-0.036261715 0.16703728 0.26747572 -0.095721155 0.12116691 -0.028798308 0.041175667 0.05550032
-0.1748658 0.0074130045 -0.08156052 0.08171834 -0.056024577 0.34653205 -0.08406111 0.2006314
0.2655523 -0.24947773 0.5064947 0.09829782 0.1310058 0.06286321 -0.14756091 -0.08050276
-0.06921989 0.16209085 0.0032305096 -0.120400086 0.00018643042 0.020250719 0.0043742955 -0.07060205
0.08658372 -0.059472434 -0.049181342 -0.084136836 -0.44113088 -0.07576513 -0.020621635 0.26094234
-0.010656871 0.18092756 -0.04590452 -0.024246251 -0.102318235 0.07948244 0.030897029 -0.0989575
0.11990608 -0.02400307 -0.174292 0.68511695 0.14457911 0.20556384 0.018082628 -0.008888185
0.03352598 -0.040979717 -0.028712183 0.04329697 -0.06904325 -0.01066649 0.016554061 -0.033011213
0.028806848 0.018528745 -0.0020298734 -0.003716594 0.012339173 0.083095804 0.07644185 0.020542309
-0.050332762 0.036346905 0.024057135 0.007506363 -0.08323908 -0.058415048 -0.06755411 0.07963894
0.04312744 -0.03596904 -0.084125474 -0.021195933 -0.04753848 -0.02275743 0.05572822 -0.06386428
0.044547196 -0.035411622 -0.08321437 -0.08106267 0.08067363 -0.084843814 -0.056815747 -0.036397155
-0.0735705 0.0509687 -0.059541076 -0.024948344 0.014133695 -0.07577824 0.017958827 -0.039771456
-0.014472224 0.0543041 0.05991466 0.06450501 0.0024224608 0.05389625 -0.009003893 -0.012439348
0.06754711 0.013829127 0.042563092 -0.025457174 -0.073767446 -0.03962205 -0.08286044 0.032597795
0.004734332 -0.044506583 -0.08232086 -0.024218388 -0.082038395 0.083522215 -0.04892646 -0.07068134
-0.05007368 -0.064874485 0.0608325 0.026212156 0.07449635 -0.03494518 0.00096387416 -0.030264039
-0.05623522 0.07251766 -0.009134173 -0.06256537 -0.05769917 0.08754725 0.021768097 -0.07508001
0.004499711 0.072666064 0.08412825 -0.023915365 -0.020775825 -0.006510742 -0.053043474 0.066259004
-0.041116305 0.06916355 0.07495373 -0.055561233 -0.034640953 -0.0709324 -0.043348987 -0.07733686
-0.07859146 -0.010871276 -0.02042862 0.05550126 -0.028662987 0.05049964 0.077300474 -0.051007226
-0.056279875 -0.0768962 -0.024140663 -0.06414858 0.037984822 -0.057671167 -0.087842934 -0.08680776
0.02076257 -0.047804784 0.064403675 -0.010406522 0.04181324 0.042258196 -0.020337038 0.011692679

fc4.bias f4 [32]
00000000: f6d5 88bb 6cda a1bd 742b 9a3c 350f db3d
00000010: 1b3a 673d 7091 9a3e 27a4 84be bd5d 3bbd
00000020: b0aa bc3b f774 a3bd 87ba 5c3d 7e28 abbd
00000030: c790 68bd e77b 49bd abe6 b33d fbe8 54bd
00000040: a736 b5bd 12d1 a93d 9683 623e 245e 1f3e
00000050: c84d 813e 891e 883c 68d8 0c3e 0f92 6bbe
00000060: 01bb be3e 5d7c acbd b08b 923c cf5d 00bb
00000070: f364 31bc b8e0 463c 5f31 f8bd e05f a83d
-0.0041758968 -0.07902989 0.018819548 0.1069626 0.056451898 0.30189085 -0.25906488 -0.045743693
0.005757652 -0.07981294 0.053888824 -0.08357333 -0.056778695 -0.049190428 0.08784231 -0.05198
-0.08848315 0.0829183 0.22120509 0.15563256 0.25254655 0.016616123 0.13754427 -0.23004936
0.37252048 -0.08422158 0.017888874 -0.0019587164 -0.010827291 0.012138538 -0.12118792 0.08221412

fc5.weight f4 [4, 32]
00000000: dfce 12bd 456e 2e3e ca3b bc3c 51af 443f
00000010: 0066 113e 93e6 073f 854e a7bc 539f 7cbd
00000020: 064d ac3d 4add 15be f3f4 293e a0e9 64bd
00000030: af6f 1d3e b49d 66be a876 49be b0c0 f6bd
00000040: c4f8 a7bd 9402 113d ca09 1a3f 2ebe afbe
00000050: 9bc2 8ebc 0037 723d 399f aa3e afc4 c5be
00000060: 6ca9 ff3e 3caa 21bd 17cb 0e3e 0689 dd3d
00000070: 8a4b 863e bd74 fe3d e653 9d3c 25a6 b4be
00000080: 26e4 b13d 0028 273b ec77 c33d 17c1 a1be
00000090: d990 aebb b3a7 a03e 146a 92bd f16b 823e
000000a0: d2be c63d 550a 293e fb47 26be a5e9 84bd
000000b0: 7a74 fd3d 9fbc 6d3e 42f4 233e 5fc2 f5bd
000000c0: 6a20 67bd ab63 83be 712f c7be 81f4 4ebe
000000d0: d081 76bd deb7 a43d afd4 88be adf9 103a
000000e0: acca 8c3f 420d 5fbd e013 2a3d 58f2 f5bd
000000f0: 3632 0abe 6e19 ff3d 6b16 59be c497 dd3e
00000100: 3170 19be de12 1c3e efb6 2d3e df8e adbc
00000110: 2a1e 2d3d 3f8f 0e3e 9148 acbe fe01 9e3e
00000120: 589e 5f3d b5d8 063d 683c d83d cf37 813d
00000130: 1214 c33d b11d 00bf b649 04be 9c54 02bd
00000140: a4b6 e2bb c82a db3e f7e6 473e 02c7 a93e
00000150: d7a7 7f3f 5898 f73d f72f 933e d811 1f3f
00000160: 9035 1b3f 6709 34be bab6 f23d 9d20 74bd
00000170: 09b5 3cbc 7b1f 6b3d 13c7 2abe 552e e8be
00000180: cd9b 8d3e c0af 23bc fcf2 2fbd 32d9 11bf
00000190: 7566 193b b8cc 3a3f e404 8cbe 4487 533f
000001a0: ceaf fd3d dfdf a03c 3b5b 0d3d 4c4e 043e
000001b0: c019 99bb 3a21 53be 516c 96be 3bd0 f7bd
000001c0: 1dd8 b93d bd8e b0bc 1d7e 25be 097b 9c3b
000001d0: 9d18 303e e499 4dbc dba7 113e 92b2 0c3e
000001e0: c00e de3e eedc a83d 9db0 18be 2772 a4bd
000001f0: 174f f63e a832 363d aa31 813e 2dae 60be
-0.03584182 0.17034252 0.022977728 0.7683001 0.14199066 0.53086203 -0.020423183 -0.06167538
0.084131286 -0.14635196 0.16597347 -0.055886865 0.15374635 -0.22521096 -0.1967417 -0.12048471
-0.08201745 0.03540285 0.60171187 -0.34324783 -0.01742678 0.059134483 0.33324602 -0.3862662
0.49933946 -0.03946899 0.1394466 0.10817151 0.26229507 0.1242461 0.019205045 -0.35283008
0.08686094 0.002550602 0.09544358 -0.31592628 -0.005327326 0.31377944 -0.07149139 0.25472978
0.09704365 0.16507848 -0.16238396 -0.06489877 0.12375732 0.23216484 0.16011146 -0.11999964
-0.056427397 -0.25661978 -0.38903382 -0.20210458 -0.060182393 0.080428824 -0.26724765 0.00055303687
1.099935 -0.054456003 0.04152286 -0.12009114 -0.13495716 0.12456022 -0.21199958 0.4327985
-0.14984204 0.15241572 0.16964315 -0.02118629 0.042265095 0.13921832 -0.33649114 0.30860895
0.054594368 0.03292151 0.105583966 0.06309473 0.095253125 -0.50045305 -0.12918743 -0.03181897
-0.006918745 0.42806077 0.195217 0.33159643 0.9986548 0.12089604 0.28747532 0.621366
0.60628605 -0.17581712 0.118512586 -0.059601415 -0.0115177715 0.05740307 -0.16677503 -0.4534785
0.2765793 -0.0099906325 -0.042956337 -0.5697204 0.0023407016 0.72968626 -0.2734748 0.82628274
0.12387048 0.019638 0.034510832 0.12920493 -0.004672259 -0.20618144 -0.29379514 -0.12100264
0.090744235 -0.021552438 -0.1616139 0.004775409 0.17196889 -0.012548897 0.14224188 0.13739994
0.43370628 0.08245264 -0.14911123 -0.08029585 0.48107216 0.044481903 0.25233203 -0.21941443

fc5.bias f4 [4]
00000000: 72df d03e 77d3 343f 5cb9 693e da9e 3abd
0.40795475 0.7063517 0.22824615 -0.04556165
