DQN_models/model_updaterate1000_gamma0.7_alpha0.001_dynamic.pt (torch, 416691 bytes, 10 tensors)

fc1.weight f4 [128, 514]
000000 75 63 ea bc 80 04 9c 3c 6c 75 11 bd 9c 79 28 3c
       -0.028611878 0.019045115 -0.035512373 0.0102829
000010 80 3a c8 3a d8 f8 ec bb ec 4a fd bc 06 1e ab bc
       0.0015276223 -0.007231813 -0.030919515 -0.02088834
000020 22 95 13 3d b0 65 01 bb 52 ee f7 bc a4 87 10 bd
       0.036030896 -0.0019744448 -0.030265007 -0.035285607
000030 c8 01 19 3c 88 70 ff bb 82 5e 02 3d ac 58 11 bc
       0.009338804 -0.007795397 0.03182841 -0.008871239
000040 d0 86 1a bc f0 e7 73 3b 3a 9b 20 3d 8f d7 32 bd
       -0.009431556 0.0037217103 0.039210536 -0.043662604
000050 a2 bd 2d 3d b8 b8 2e 3d fa 3f 1a 3d 54 26 8c 3c
       0.042417176 0.04265663 0.03765867 0.01710812
000060 4b 98 88 be 81 25 d7 3e 59 74 02 3f 48 e4 52 3f
       -0.2667869 0.420208 0.5095878 0.8237958
000070 91 43 bc 3e 85 de 3c 3f e2 c6 b9 3e a0 4c 67 3f
       0.367703 0.7377704 0.36284548 0.90351295
000080 10 f0 85 be 1c b0 a2 3e bc 17 15 3f 84 ae 40 3f
       -0.26159716 0.31774986 0.5823934 0.7526629
000090 c8 04 19 3f 91 2c 0d 3f 3d 5b 10 3f 73 b9 d5 be
       0.5977292 0.5514613 0.5638922 -0.4174305
0000a0 02 8e 28 3f 74 b1 55 3f f8 a2 8a 3b e8 1e d2 bc
       0.65841687 0.83473897 0.004230853 -0.025649503
0000b0 b0 f0 bf bc b6 dd c6 bc ed 98 8c be 03 39 96 be
       -0.023430198 -0.024275642 -0.27460423 -0.2934037
0000c0 47 71 bf 3d 65 0b b9 3e c7 69 1e 3f 00 a0 89 be
       0.09347778 0.36141506 0.61880153 -0.26879883
0000d0 f2 45 d4 be 8f 6a 43 3d 55 21 15 3f 72 7b 11 3f
       -0.41459614 0.047709044 0.58253986 0.5682899
0000e0 f6 4f 20 3f 86 79 05 3f 86 44 19 3f 76 b4 0c 3f
       0.6262201 0.52138555 0.59870183 0.5496286
0000f0 2a e9 9c 3e cd 9e dc 3e 34 8a 98 be f1 61 93 be
       0.3064664 0.43089905 -0.2979294 -0.2878566
000100 cc 78 d1 bc ac d3 c0 3c f0 ac c0 3c 6c 82 29 bd
       -0.025570296 0.023538433 0.023519963 -0.041384146
000110 12 04 97 be 4a f2 91 3e 5e 11 8d be 17 f1 de bc
       -0.29495293 0.28505164 -0.27552313 -0.02721457
000120 17 3e 03 bd be 1d 8c be d6 92 ac be 71 61 39 be
       -0.032041635 -0.2736644 -0.33705777 -0.18103577
000130 f3 40 ac bc 74 fd c0 3c f2 98 d1 3e 04 5c c8 3e
       -0.021027064 0.023558356 0.40937 0.39132702
000140 1b 75 aa 3e 00 0f 09 3c b9 9d bd bc 52 39 5e be
       0.3329247 0.008365393 -0.023146497 -0.21701553
000150 19 92 0e 3f b9 1d a0 be 06 e7 f4 bc 35 b1 fd bc
       0.5569168 -0.31272677 -0.029895317 -0.030968288
000160 9c 6c 31 bd 60 d7 f1 ba 89 d7 2a 3e 45 50 84 be
       -0.04331647 -0.0018451028 0.16683783 -0.2584249
000170 44 b4 90 be c4 50 05 3d 80 1f 2f bc e8 2c 89 be
       -0.28262532 0.032547727 -0.0106886625 -0.26792073
000180 13 76 c6 3d 1e 7c 25 be af aa e8 bc ba 35 97 bc
       0.096904896 -0.16160628 -0.0284017 -0.018458236
000190 79 54 9e 3e 44 ef 97 3e b6 55 90 be f8 ed a8 bc
       0.30923823 0.29674733 -0.28190392 -0.020621285
0001a0 30 af 28 3b 7d db ee 3e e7 07 8a be d3 fe 9b be
       0.0025739186 0.4665183 -0.26959154 -0.30467853
0001b0 70 b6 b6 3c 37 74 21 bd d0 68 05 bd 50 c0 ac 3c
       0.02230379 -0.03941747 -0.03257066 0.021087795
0001c0 38 86 91 be 8a 38 8d be 9e 84 93 be 10 53 c0 3c
       -0.28422713 -0.27582198 -0.28812116 0.023477107
0001d0 74 f0 15 3d fb f3 80 be 23 5f c6 bd b2 74 83 be
       0.036606267 -0.25186142 -0.09686115 -0.2567497
0001e0 aa 8a 2d 3d bf ac e8 bc 84 74 89 3e 17 ba 19 3f
       0.04236857 -0.028402684 0.26846707 0.60049576
0001f0 ba ce 8c 3d 30 de 94 bc d0 83 55 3b b3 7b 0e 3f
       0.068753675 -0.018172354 0.0032579787 0.556575
000200 ba 55 17 3f 3b fc 6e be b0 19 ca 3c ea 77 fb bc
       0.59115183 -0.23338406 0.024670452 -0.030696828
000210 cc 32 ea bc 7e 4a 0a 3d 63 af 7d be aa 15 7d be
       -0.028588675 0.033762448 -0.24773936 -0.24715295
000220 b4 0d 95 be 72 ca f9 bc 40 e0 aa bc 35 b0 6f be
       -0.29112017 -0.030492041 -0.020858884 -0.23407061
000230 76 96 19 be f1 f7 9e be 18 6b f0 bb 2c a1 ea 3c
       -0.14998803 -0.3104854 -0.0073369853 0.028641306
000240 b2 e7 61 3e 48 50 1b 3f 08 82 ff 3d 50 37 cf bb
       0.22061041 0.60669374 0.12475973 -0.0063237324
000250 2e de 0c 3d 97 b6 78 be e6 29 12 3f a8 d3 1f be
       0.034391575 -0.24288402 0.5709518 -0.15608084
000260 ec 77 3f bc 5c 3c e6 3c a9 52 8d bc c8 d4 07 bd
       -0.011686306 0.028104953 -0.01725133 -0.03316191
000270 50 a8 8c be 3b 0a 7f be a3 da 8a be cd 6b 28 bd
       -0.27472162 -0.24906246 -0.27119932 -0.04111843
000280 74 c7 20 bc f4 bf de be 09 23 22 3f f6 01 19 be
       -0.009813178 -0.43505824 0.6333471 -0.14942154
000290 31 d9 80 bc fc 64 07 3c cd 4d 95 be aa 84 3b 3e
       -0.015728565 0.008263823 -0.2916092 0.18312326
0002a0 97 a8 f7 3d b8 a6 2f bc 94 13 c6 3c b0 a1 96 be
       0.12092703 -0.010720901 0.024179257 -0.29420233
0002b0 4b bf 16 3f 93 5e 60 be 78 b4 87 3c 7e 3f 82 3c
       0.5888564 -0.21911077 0.016565546 0.015899416
0002c0 07 75 f5 bc 9a 97 90 bc b4 b8 08 be d1 8b 02 3f
       -0.02996303 -0.017650414 -0.13351709 0.5099459
0002d0 b4 05 7d be 94 32 ee 3c f0 13 6c 3c 80 17 d0 be
       -0.24709207 0.029076852 0.01440905 -0.4064293
0002e0 e8 6e 38 3f ec 2e 77 be 84 6f 9d 3c f0 dd 16 3d
       0.7204423 -0.24138993 0.019218214 0.03683275
0002f0 dd 2e 74 be 06 bc 2c 3f 8a 2f 75 be 62 de 0c 3d
       -0.23846002 0.674744 -0.23943916 0.03439177
000300 e2 62 22 3d ae 78 8a be 25 5c 1d 3f 40 cc 2a be
       0.039645083 -0.27045196 0.61468726 -0.16679478
000310 50 fd 02 3d 9a 73 92 3c c0 82 3b 3c 0c da 86 bc
       0.03197986 0.017877389 0.011444747 -0.016461395
000320 c5 e9 1c be 86 e7 2b 3e 5f c2 95 be 10 2f 0b bc
       -0.15323551 0.16787538 -0.29249856 -0.008495107
000330 7e 12 1d 3d 11 66 7e be 39 87 c6 be 6e 98 75 be
       0.038347714 -0.24843623 -0.38775042 -0.23983929
000340 a2 8b 20 bd e0 76 82 bb f7 21 a2 be d0 cd bf 3e
       -0.039195664 -0.003981456 -0.31666538 0.3746171
000350 56 a1 84 3e 9d 45 19 bd 23 72 95 bc b4 c0 b4 be
       0.2590434 -0.037419904 -0.018242901 -0.3530327
000360 f9 dd 81 be 3a 5e 83 be 00 b1 2a 3c d6 ca ed bc
       -0.25364664 -0.25657827 0.010418177 -0.029027384
000370 50 8b a8 bc 95 5a b7 bc 2f 3c 7f be 17 0b 76 be
       -0.020574242 -0.02238206 -0.24925302 -0.24027668
000380 e7 86 78 be 70 4a 3a bc 94 99 fa bc 97 29 d3 3e
       -0.24270211 -0.011370286 -0.03059081 0.41242668
000390 1a 02 a8 bd 79 ff 82 be 80 f0 8f bb 9c ef d0 3c
       -0.08203526 -0.25585535 -0.0043926835 0.02550488
0003a0 6e 88 85 be 2c da 57 3e a2 70 d8 3e f0 03 7d 3b
       -0.2608065 0.2107932 0.42273432 0.0038607083
0003b0 e1 e3 f7 bc 8f 56 8c be 96 39 82 be f0 41 88 be
       -0.030260028 -0.2740979 -0.2543456 -0.26612806
0003c0 e4 59 3f bc c8 b1 e1 3b 32 74 2c bd 20 85 f8 3c
       -0.011679146 0.0068876483 -0.042103 0.030336916
0003d0 e1 13 8a be 09 1a 5b be a1 2d 1c be 98 4c fb 3c
       -0.2696829 -0.2139665 -0.15251781 0.030676171
0003e0 00 f8 27 38 05 a1 b4 be 12 89 7e be 0c c6 65 be
       4.004687e-05 -0.35279098 -0.24856976 -0.2243883
0003f0 c2 e5 30 3d e0 5e da bb f9 99 d5 be 0e 48 c4 3e
       0.043187864 -0.006664142 -0.41719034 0.38336223

fc1.bias f4 [128]
000000 2c e9 23 bf 40 3d f6 3a 46 cc 88 be 9d f9 9c 3d
       -0.6402767 0.0018786564 -0.26718348 0.076647975
000010 f3 fc 2d 3e f3 b4 37 3d b1 c5 1f bf 6d 70 30 bf
       0.16991024 0.0448503 -0.6241103 -0.6892155
000020 61 65 0c bf 79 92 a2 be cf d9 1d be f8 6f 2f 3d
       -0.5484219 -0.31752375 -0.15415119 0.04283139
000030 1f b2 63 3e e1 23 42 3e 6d 03 15 3e 61 d5 aa be
       0.22235917 0.18958999 0.14552088 -0.3336592
000040 94 f3 cc be 10 c3 d4 be df cc 07 bf 35 93 14 bf
       -0.40029585 -0.4155507 -0.53046983 -0.5803712
000050 0f 17 11 bf 19 60 55 bf 02 38 b6 bd f7 e4 6c be
       -0.5667581 -0.8334976 -0.088974014 -0.23134218
000060 b6 55 bc be 99 02 ec be 28 c6 9c be 53 cb ce be
       -0.36784142 -0.46095732 -0.3061993 -0.403895
000070 68 aa bf 3d f0 77 9c bd 10 88 1a be e8 3e fa be
       0.09358674 -0.07640064 -0.15090966 -0.4887612
000080 33 e4 92 bd d1 db 51 be 1e 4a 0c bf 1d cc 11 bf
       -0.07172432 -0.2049401 -0.54800594 -0.5695208
000090 08 73 f3 be d6 21 29 3e bf d6 ae bd 44 95 bb bd
       -0.475487 0.16516814 -0.08537053 -0.091593295
0000a0 ea 0e 2e bf f0 2a 29 be e5 3f e6 be ae 56 1e be
       -0.6799151 -0.16520286 -0.44970623 -0.15462753
0000b0 05 e2 b1 be 1f b1 88 be 2f d6 fa 39 e6 94 47 be
       -0.34742752 -0.26697633 0.00047843295 -0.19490394
0000c0 78 bb 16 bf c1 5a 12 be c1 bc b3 be ff d2 14 be
       -0.58879805 -0.14292432 -0.35104945 -0.14533614
0000d0 38 57 a0 3d 0b 61 94 bd b0 ec 17 be 92 38 72 3d
       0.07829136 -0.07245072 -0.14836383 0.05913598
0000e0 5e 56 a2 be e7 1f aa bd 66 a6 b0 3e f5 f2 16 bf
       -0.31706518 -0.08306866 0.34501952 -0.58964473
0000f0 1e cb 85 be b6 b3 5c bf 46 3b 7c be 1f 70 ce be
       -0.2613153 -0.8621172 -0.24631986 -0.40319917
000100 f5 f2 61 bf 38 6e 11 be e5 e0 72 be 7b 19 a0 bc
       -0.8826135 -0.14202201 -0.23718603 -0.0195434
000110 13 1b a7 be 9f f8 61 3e a9 93 04 bf d6 36 09 bf
       -0.32637843 0.22067498 -0.5178781 -0.535993
000120 38 d1 b8 be 6c 02 8f be 9d 68 03 be ae 07 45 be
       -0.3609712 -0.27931535 -0.12832876 -0.19241211
000130 4f 89 f1 be 50 5f 0c be f0 ab 27 bd 14 bf 64 3d
       -0.4717507 -0.13708234 -0.040935457 0.05584629
000140 81 fa 06 be 9c 63 e4 bc ee 20 31 be 3d a9 20 bf
       -0.13181497 -0.027879529 -0.17297718 -0.6275824
000150 26 b4 9f be 0e c2 df be e0 b2 cf be ec eb 3b 3e
       -0.3119213 -0.4370274 -0.40566158 0.18351716
000160 96 63 85 bf 84 41 0a bd c9 8f 1c bf 5d 5b 06 be
       -1.0421016 -0.033753887 -0.611569 -0.1312079
000170 4a 0d 80 bd 0a a5 25 bf 5e b1 07 3e 7d 9a 38 3e
       -0.06252535 -0.64704955 0.13251254 0.18027683
000180 21 f9 18 bf ed 39 85 3d a4 92 a0 bd 51 4f 21 bf
       -0.5975514 0.06505189 -0.078404695 -0.6301165
000190 4f 85 24 3d 27 14 c3 bd 48 f7 6a 3e 8e ce 1c bf
       0.040166195 -0.09525328 0.22945893 -0.6125268
0001a0 b9 bb 12 be 15 43 e9 bd 7f 17 e2 bd cf eb 9f be
       -0.14329423 -0.11389748 -0.11039638 -0.31234595
0001b0 4d ad 0d bf ff 2b 1d bf ca 15 01 bf 7e 70 29 bd
       -0.5534256 -0.6139526 -0.5042387 -0.041367047
0001c0 81 2c ef 3d e6 30 f6 bd df ce 71 be ee e2 b0 be
       0.1167841 -0.120210454 -0.23614071 -0.34548134
0001d0 b8 e0 0c be f0 d7 bb bd 5e fa c3 bd b7 40 6d bd
       -0.13757598 -0.09172046 -0.09569238 -0.057923045
0001e0 e5 62 17 3e 20 0f 43 3e 37 1e cf bd bd 61 03 bf
       0.14783819 0.19048738 -0.10113185 -0.5132101
0001f0 3f a8 ae 3e e4 61 c0 be 45 c8 00 bf 7f 50 c2 be
       0.34112737 -0.37574685 -0.5030559 -0.3795204

fc2.weight f4 [128, 128]
000000 7a 3c 92 be 7e 93 08 3e 31 ac 28 3f c4 61 b2 3e
       -0.28561765 0.13337514 0.65887743 0.34840214
000010 72 d0 45 3f 17 bc b1 3e 7c 6e a7 3d 76 6c 7f 3e
       0.7727119 0.34713814 0.0817537 0.24943718
000020 1f 5e 5c 3e 11 67 a0 3e 2c 41 0a 3f 5e b9 19 bf
       0.2152028 0.31328633 0.54005694 -0.6004847
000030 43 34 74 3f fb 70 b9 bd f1 c5 2e be 33 9c ab bd
       0.95392245 -0.090547524 -0.17067696 -0.08379402
000040 34 04 02 be 69 82 ac 3e 12 18 a3 be 9d e1 ce 3d
       -0.12696916 0.33693245 -0.31854302 0.10101626
000050 44 b4 ed bf 59 56 5e bf cc de 1e 3d 5d a4 b3 be
       -1.8570638 -0.86850506 0.038786694 -0.35086337
000060 cd 6f 22 bf 99 9c 62 bd 83 d9 1d 3e 26 13 6f be
       -0.63451844 -0.055325124 0.15415005 -0.23347148
000070 0f ea 4f 3d 43 55 10 3e 81 2c 81 be 75 5b e5 bc
       0.050760325 0.14095025 -0.25229266 -0.027997712
000080 93 84 22 be 8f fe ba be 2d 15 0f c0 e1 f4 67 3d
       -0.15870886 -0.36522338 -2.2356675 0.05663002
000090 f4 74 4f bf 91 aa ba 3e c0 f8 15 3f a2 25 ab 3e
       -0.8103783 0.36458257 0.5858269 0.3342715
0000a0 e2 b6 80 be a0 70 78 be 4f bd 19 3e 6f 75 a5 3d
       -0.2513953 -0.24261713 0.15013622 0.08079039
0000b0 96 2d 9f be 0d 74 07 be 77 6a b5 3d 62 ff 77 bd
       -0.31089467 -0.13227864 0.08858197 -0.060546286
0000c0 bc 4e a5 bc d7 44 b9 3e 84 7f ee bc 68 39 60 3d
       -0.020179145 0.36185333 -0.029113539 0.054742247
0000d0 38 6d 74 be 9e 6e a4 bd 94 3f d6 bd 6f 54 ba be
       -0.23869789 -0.08028911 -0.10461345 -0.36392543
0000e0 00 c1 1a be 53 a1 26 be bb cd 0f 3f 37 d8 37 be
       -0.15112686 -0.16272478 0.56173295 -0.17953573
0000f0 d1 a7 7b bf 85 51 a5 bf e2 00 d9 be 31 00 7b bc
       -0.9830294 -1.2915503 -0.42383486 -0.01531987
000100 7f 11 3b bc b3 db 42 bf 59 fc a4 be ad 0f af be
       -0.011417746 -0.76116484 -0.32223776 -0.34191647
000110 91 12 59 be b4 0f 16 bd 92 ce 2c bd 32 90 bb bd
       -0.21198489 -0.03663607 -0.04218919 -0.091583624
000120 aa 44 78 bf f6 11 89 3e 9c da 02 bf d6 23 a9 3d
       -0.96979773 0.26771516 -0.5111482 0.08258788
000130 89 9e 67 3e 94 74 72 3d eb da 98 3c 35 42 91 3d
       0.2261907 0.05919321 0.018659076 0.07092706
000140 36 a6 92 bd f3 85 56 be b3 74 97 bd ca 83 80 bc
       -0.071606085 -0.20949535 -0.073953055 -0.015687842
000150 5e 3d a6 bd ed 87 80 bd cc 34 f3 bb 46 57 15 3e
       -0.081171736 -0.06275926 -0.0074220654 0.14584073
000160 c7 34 ba be 04 a7 d0 3d 9e ee 95 bd 57 ab 29 be
       -0.3636839 0.10188106 -0.07320903 -0.16569267
000170 85 8a 1f 3d ec ab 0a be ae c2 15 3f fc aa 24 3f
       0.038950462 -0.13542145 0.5850018 0.643234
000180 c9 9b 9d bd 62 6e 05 be 69 25 8d 3d ee 09 ae 3d
       -0.07695729 -0.13030389 0.06891901 0.08497988
000190 66 c3 1f be 12 13 5a bf 3d 44 9d bf 30 e3 da bc
       -0.15601882 -0.8518535 -1.228645 -0.02671966
0001a0 2c d6 04 3d ae 16 bb 3e 0c 2b ab 3d 08 39 c8 3d
       0.032430813 0.3654074 0.0835782 0.09776503
0001b0 a0 9b 0b be 20 ae 68 3d ab 93 49 bd 64 d9 d2 bf
       -0.13633585 0.056806684 -0.049213093 -1.6472592
0001c0 19 d1 60 3e af be c9 bd 37 57 90 bf 8f b2 42 bd
       0.21954764 -0.09850823 -1.1276616 -0.047533568
0001d0 12 fb 32 3e 82 e5 06 be b1 68 0b be 75 d1 01 3f
       0.17478588 -0.13173488 -0.13614155 0.5071023
0001e0 30 a9 c0 be ff df 91 3e 93 18 4e 3e cb bc e1 be
       -0.3762908 0.28491208 0.20126562 -0.4408935
0001f0 27 af eb 3e 77 ee e4 bd 77 89 0f be 82 d5 a8 be
       0.46032068 -0.11178296 -0.14017282 -0.32975394
000200 51 96 e7 be f9 3a b5 be ba ab a9 be 33 37 65 bf
       -0.4523187 -0.35396555 -0.3313883 -0.8953735
000210 c9 9d 13 bf b1 c5 4d bf ca 0f 98 3e b6 59 54 3d
       -0.57662636 -0.8037978 0.29699546 0.051843368
000220 a5 60 8b be 6b 6c ed be 1b aa 07 3f 38 90 54 bf
       -0.2722217 -0.4637178 0.52993935 -0.8303256
000230 d0 9e eb 3d ab e1 fc bf 3b 9f 3c 3e 47 31 93 be
       0.115049005 -1.9756368 0.18420117 -0.28748533
000240 76 36 8d be 75 c5 67 bf 4d c3 18 bf 8f ea 73 bf
       -0.27580613 -0.9053567 -0.59673005 -0.95279783
000250 28 1c 24 bf 79 bb 6f 3e 66 21 cc 3d bb a0 60 3e
       -0.64105463 0.23411359 0.09967308 0.21936314
000260 d8 63 af be 0d 74 05 3f 83 e3 0c 3e c9 8a ef be
       -0.34255862 0.52130204 0.13758664 -0.46785572
000270 2e 75 45 3d 28 51 a8 be 69 c8 58 be 13 58 9e be
       0.048207454 -0.32874417 -0.211702 -0.3092657
000280 63 91 3a bf 3b ad 75 be 44 cb 7b 3d 66 20 8a bf
       -0.7287809 -0.23991863 0.061473146 -1.0791137
000290 7b 12 88 be 94 19 64 bf e5 34 c9 bf a0 9e 1a bf
       -0.265766 -0.8910153 -1.5719267 -0.6039829
0002a0 1a f3 97 3e 33 3f 4c 3f 9d e8 bf 3c 70 7a 9a be
       0.2967766 0.79783934 0.023426348 -0.30171537
0002b0 b8 c2 d3 3c 3a b8 14 bf 0f 57 5e 3e 1b 72 8b 3d
       0.025849685 -0.5809361 0.21712898 0.06808873
0002c0 81 8b 8a bf c2 43 a3 be c9 bf d9 3e 3a 0d 22 bd
       -1.0823823 -0.31887633 0.42529133 -0.039563395
0002d0 5f cd 06 bf 04 f1 2b 3d 99 da 8f 3e 81 0a 9c be
       -0.5265712 0.041977897 0.28096464 -0.30476764
0002e0 a7 bc a3 bf 74 a3 e5 be 10 2d cc bd 04 07 af bf
       -1.2791947 -0.44851267 -0.099695325 -1.3674016
0002f0 2a ef 0c bf 40 68 1a be 1c 66 05 3d 61 a3 80 bf
       -0.55052435 -0.1507883 0.032568082 -1.0049859
000300 15 50 34 3f 9b 18 76 be 21 64 54 3e b7 8f 0e bd
       0.70434695 -0.24032824 0.20741321 -0.034805026
000310 27 95 e0 be 4a 5c 16 bf 3c 13 43 be 63 de 20 be
       -0.43863794 -0.5873457 -0.19050306 -0.15709834
000320 a9 ec c5 be f9 ba 31 bf 85 7d 86 3e 74 46 f3 bf
       -0.3865712 -0.6942592 0.2626764 -1.9005876
000330 e6 06 4f 3f 9d e0 05 bf 91 f4 9a bf 55 23 f3 bd
       0.808699 -0.5229586 -1.2105886 -0.118719734
000340 57 90 33 bf 01 7e 5a 3e d9 8e 82 3e 2b 64 1e 3e
       -0.7014212 0.21337129 0.2549961 0.15467899
000350 41 35 ed 3c 48 d7 84 be 4b 15 c7 bd 70 a4 e8 3e
       0.028956058 -0.25945497 -0.09720858 0.45437956
000360 59 33 f4 be e5 c3 a0 bf a1 10 34 be 09 7f fb 3d
       -0.47695425 -1.2559782 -0.17584468 0.122800894
000370 41 98 d6 bc 24 14 2d 3e c2 f1 82 3d 29 a0 dc bb
       -0.026195647 0.16902214 0.06393768 -0.0067329598
000380 ba ae 43 3d c1 c4 cd bf ca 31 22 3d 87 03 52 bf
       0.047774054 -1.607567 0.039598264 -0.8203663
000390 dd a6 d0 be 63 17 cb be 69 a1 84 bf 99 ff 79 3f
       -0.40752307 -0.3966628 -1.0361758 0.97655636
0003a0 6f 2a 32 bf db b6 39 bf ff 99 7d be eb 4e 40 3e
       -0.69596 -0.7254464 -0.24765776 0.18780105
0003b0 f6 3c d8 be 12 cc 69 3f aa 07 2f bf 72 2d 1b be
       -0.4223401 0.9132701 -0.6837107 -0.15154055
0003c0 de c3 6c 3e 6e 64 79 3c c9 61 05 3f df bd f2 bc
       0.23121592 0.015221698 0.52102333 -0.029631553
0003d0 e1 42 ea bb 27 04 ff 3d 6f 41 d0 bd fb 42 63 bf
       -0.007149086 0.12451964 -0.101687305 -0.8877408
0003e0 20 ea 08 bf 8d 2f 20 be 11 48 b5 3d dc 47 66 3f
       -0.53482246 -0.15643139 0.08851636 0.899534
0003f0 b2 ba ab bd 16 75 34 bf ec 2f 64 bf 04 2d 58 3f
       -0.08385219 -0.7049116 -0.8913562 0.8444369

fc2.bias f4 [128]
000000 79 9d 8a 3e 2b 1b 6e be a0 76 f1 bd 09 18 8e bd
       0.27073267 -0.23252551 -0.11790204 -0.06938178
000010 6d 49 d1 be 58 a9 03 be 91 3b b5 bd 3d d3 a3 3e
       -0.40876332 -0.12857568 -0.08849252 0.319971
000020 ac 12 f4 bd ad b9 43 be cf 24 80 be ca 93 32 bf
       -0.11917624 -0.19113798 -0.25028083 -0.6975676
000030 55 63 c1 be 0b 3e ea be fe e8 8c be 54 35 80 bd
       -0.37771097 -0.4575046 -0.2752151 -0.062601715
000040 b5 9b 64 be d6 60 33 bf ce d5 42 3d 14 2b e1 bd
       -0.22325023 -0.70069635 0.04756718 -0.109945446
000050 e3 a8 bd 3c 77 f4 4c 3d 70 2c 11 bf ca 16 87 be
       0.02315182 0.050037827 -0.5670843 -0.26384574
000060 60 0f 25 3f ca 2a 1d 3f 1e f8 0d bf 1f 07 50 bc
       0.64476585 0.61393416 -0.5545672 -0.01269701
000070 72 a0 2c 3f 85 a3 07 be 00 cb a5 3e 6c 96 bf 3d
       0.6743232 -0.13245972 0.3238144 0.093548626
000080 75 39 de bd 3e bb 7b bd 23 51 32 3c 82 f2 30 be
       -0.10850803 -0.061457865 0.010883602 -0.1728001
000090 c2 07 bb 3e 93 f1 b4 be 10 31 0c bf 0a c1 ae be
       0.36529356 -0.35340557 -0.54762363 -0.34131652
0000a0 69 93 a5 3d 7a a3 4e 3d de 0e 7f be c1 72 b9 be
       0.08084757 0.050448872 -0.24908015 -0.36220363
0000b0 10 66 b9 be 95 5c 01 be 8f 1e 28 bf 83 26 09 bf
       -0.3621068 -0.12632973 -0.6567163 -0.5357439
0000c0 e0 0c b0 bb 29 b7 05 bf 0c 52 7b be 30 47 d7 be
       -0.0053726286 -0.52232605 -0.24543017 -0.420465
0000d0 26 08 e2 bd f8 2e c5 3c 5a d3 8d 3d f3 1f b4 bd
       -0.110367104 0.024070248 0.06925078 -0.08795156
0000e0 5f 5e d9 3e 32 4e f8 3e c7 f1 10 3f aa 47 70 be
       0.42454812 0.48497158 0.5661892 -0.23464838
0000f0 bb 1b 40 be 7c a0 9d be 3b e0 8b be 36 ea 1c bf
       -0.18760578 -0.30786502 -0.27319512 -0.6129488
000100 ae 64 cd bd ad a2 fd bd 45 96 00 bf 30 57 53 be
       -0.10028969 -0.123845436 -0.50229293 -0.20638728
000110 b1 93 3a be 65 0f e4 3e 1f 29 c5 be 3d f1 82 3e
       -0.18220402 0.44542995 -0.38507935 0.25574675
000120 d9 b8 f5 3d 0d f2 25 be d7 39 ad 3d ef 70 07 be
       0.119981475 -0.16205616 0.08458298 -0.13226674
000130 06 cf 8e 3e 86 7a 23 bf 19 f3 ef bd b3 9f c9 bc
       0.2789232 -0.6385883 -0.11716289 -0.024612283
000140 66 2a d1 bd dc 62 64 3e b6 5f b6 be 1a 25 97 bd
       -0.10213165 0.22303337 -0.35619897 -0.073801234
000150 e4 51 b5 3c 5e bf 20 3c 68 46 a1 3c e2 23 f8 bd
       0.022133775 0.0098112505 0.019686893 -0.12116219
000160 dd 3f c4 3c 0b 5d 25 3e a2 01 01 3f cf 68 f0 3e
       0.023956234 0.16148774 0.50393116 0.46954963
000170 99 05 02 be 49 ac 3c 3e b9 c9 7e be 25 37 50 be
       -0.12697448 0.18425097 -0.24881639 -0.20333536
000180 3b 78 fb 3e b9 09 07 be fd 3f 84 3e 90 39 4e be
       0.49115166 -0.13187303 0.2583007 -0.20139146
000190 a8 fd 20 be a3 3a 0b bf 0d 95 b8 be 92 6c 33 be
       -0.15721762 -0.5438635 -0.36051217 -0.17521885
0001a0 1c f0 c3 3d b7 54 5b be 1a cc ce bd e0 51 ea bd
       0.095672816 -0.21419035 -0.10097523 -0.11441398
0001b0 78 84 b6 bd a5 37 b6 be 3d 32 b9 bd 5b 1e 32 3e
       -0.08911985 -0.35589328 -0.09042785 0.17394392
0001c0 12 ab a5 be d7 14 eb bc 24 51 50 be 86 e9 12 be
       -0.3235708 -0.02869646 -0.20343453 -0.14346895
0001d0 12 ef fb bd 5c e7 a0 3e 9a 6b f9 be ee 9e 0b be
       -0.123014584 0.31426513 -0.48714906 -0.13634846
0001e0 58 ce be 3d 18 c5 87 bc 00 84 40 3e b0 cb 45 be
       0.09316701 -0.016573474 0.18800354 -0.19315982
0001f0 2b 40 a7 3e 48 96 9c bd fd 22 08 3e da 89 10 be
       0.32666144 -0.076458514 0.13294597 -0.14115086

fc3.weight f4 [128, 128]
000000 77 e3 94 be be 36 40 be 16 fb 8c bc 92 11 40 3d
       -0.29079792 -0.18770882 -0.01720957 0.046891756
000010 e6 a9 db bd 22 c3 71 ba fe 96 7b 3c 0e 50 89 bc
       -0.10725765 -0.00092224975 0.015355824 -0.016761806
000020 df 29 8a be 78 e6 15 be b8 7f e5 3e 16 d0 c8 be
       -0.2698507 -0.14638698 0.44824004 -0.39221257
000030 16 d2 0f bf 1e 87 90 3f 85 e9 26 bf a1 39 36 3e
       -0.5617994 1.1291234 -0.6520007 0.17795421
000040 f4 a0 78 bc d1 ec d8 3e 58 8d 27 bd 41 d5 8a 3d
       -0.015175093 0.42368177 -0.04090628 0.06778956
000050 d1 e5 f6 bd dc 26 da 3e 72 93 32 bf 62 f2 06 3f
       -0.12055553 0.42607772 -0.69756234 0.52713597
000060 57 78 2c be 4f 29 e9 3e a0 9f 7a 3f 6b c3 83 be
       -0.16842781 0.45539328 0.9789982 -0.2573503
000070 fd 59 71 be 2c 24 cc 3e 97 f6 e5 3e b6 64 bd bf
       -0.23569484 0.39871347 0.44914696 -1.479636
000080 68 3b 64 bc 3d 0d d0 bd ce 4d d7 be d2 04 f6 3e
       -0.013930179 -0.10158775 -0.42051548 0.48050553
000090 5a 7f d0 3e b5 b0 57 3f d6 73 88 be f6 6e 61 be
       0.40722162 0.8425401 -0.26650876 -0.22014984
0000a0 a0 9b c1 be b6 4f 7f bf d2 9a 8a be 8f 16 23 3e
       -0.37814045 -0.99731004 -0.27071244 0.15926574
0000b0 cc e8 a5 be f1 d6 55 3d 4b 28 de 3d 70 54 c3 3e
       -0.32404172 0.052206937 0.10847529 0.38150358
0000c0 dc 48 57 bf ab 2d 45 3d 44 b1 4e bf 8c 62 c9 3d
       -0.8409555 0.048139255 -0.80739236 0.098332494
0000d0 bf 6f 4b bd 76 25 86 bd 7f 45 14 3f 93 26 a8 bc
       -0.049667116 -0.06550114 0.5791854 -0.020526206
0000e0 c1 0f 12 bf b1 fe a8 be 6d 18 04 bf 6d 47 ed be
       -0.5705529 -0.33006814 -0.5159977 -0.46343556
0000f0 ce 72 00 bd 19 84 f8 3d 6e c6 34 3d 13 a0 7e 3e
       -0.031359486 0.12134571 0.04413455 0.24865751
000100 18 60 c8 bd d4 d8 02 bd c1 c4 15 3f 31 fe 86 bd
       -0.097839534 -0.031945065 0.5850335 -0.06591452
000110 b8 47 28 be ed 71 a5 3d 95 2e d5 bf ee 97 f3 3d
       -0.16433609 0.0807837 -1.6654841 0.11894213
000120 5c 0b 55 3e e2 82 31 3e 19 7f 13 bf c3 e5 5d be
       0.20805115 0.17335084 -0.5761581 -0.21669678
000130 1e ce dd be 0c e1 70 3e 3d 13 39 bd 6d d4 d0 be
       -0.43321317 0.23523349 -0.045184363 -0.40787068
000140 6b b4 e8 3d 80 bb 29 bf 77 87 5b bc d2 11 51 3d
       0.11362537 -0.6630173 -0.013398997 0.051042385
000150 9a ae 11 be 24 9f 47 be a2 8f 22 bf 0c c3 97 bd
       -0.14226761 -0.19494301 -0.63500416 -0.07410249
000160 18 13 15 3e e1 5d 64 be 8f 32 26 bf 54 56 97 be
       0.14558065 -0.22301437 -0.64920896 -0.2955805
000170 81 9f 20 bf ab 90 d0 bd 04 e1 4b 3e 60 b8 09 bf
       -0.62743384 -0.10183843 0.19910055 -0.5379696
000180 f4 f9 19 be db fc 37 bc 8e 35 8f bf 71 64 17 3f
       -0.15036756 -0.011229719 -1.1188219 0.59137636
000190 a9 50 b3 bf 61 ac 7b 3e f4 ef 5b 3e 12 32 cc be
       -1.400899 0.24577476 0.21478254 -0.3988195
0001a0 52 44 60 3d c4 7f 55 bc 3e d8 11 bf c2 74 aa be
       0.054752655 -0.01303095 -0.56970584 -0.33292204
0001b0 5f 2d 45 bd 72 e3 17 3f 88 9e 3a 3c b0 41 7e bf
       -0.048138972 0.5933143 0.011390336 -0.9931898
0001c0 cc 45 12 bf f4 56 14 3d 85 5b 30 3f 82 b2 37 3c
       -0.5713775 0.036215737 0.6888965 0.011211993
0001d0 31 2b d0 bc ab 56 d0 be 67 12 0f be 20 81 3e 3d
       -0.02541122 -0.40691122 -0.13971864 0.046509862
0001e0 92 cd ab 3e a0 14 2a bf 40 f1 b4 3e 47 84 33 3f
       0.33555275 -0.6643772 0.3534031 0.70123714
0001f0 c9 95 ff bf ea 84 f7 bc 05 cc db be d8 4c 4b 3d
       -1.9967586 -0.030214746 -0.42929092 0.04963383
000200 6c 1b b3 3c 5b 65 8e bd 69 c5 06 bc 91 f4 26 bd
       0.021863662 -0.06952926 -0.008225777 -0.04076058
000210 ce c5 0a bd 60 95 c9 bb 3a 15 c4 bd 5e 18 23 3f
       -0.033880048 -0.00615184 -0.09574361 0.63709056
000220 36 0a be bd 2c 48 0b 3e 12 49 19 bf f5 58 94 bf
       -0.09279291 0.1360175 -0.5987712 -1.1589648
000230 47 7f be be fc cc fe bd 4b 98 53 be e2 21 fb bc
       -0.3720648 -0.124414414 -0.20663564 -0.030655805
000240 e2 f0 52 bf d8 db b6 3d 2c a1 39 3d a1 f7 93 bd
       -0.8239881 0.089286506 0.04531972 -0.07224966
000250 57 da 58 bd c3 ba a9 be 1f 08 12 3f c1 ff b9 bd
       -0.0529426 -0.331503 0.5704364 -0.09081984
000260 57 cf 0b bd 93 46 1f 3e bb 6e b9 3e 9b d0 eb be
       -0.03413328 0.15554266 0.36217293 -0.4605759
000270 27 5c c3 be 73 5f d4 be bc 95 d7 be 1e 6e fb bd
       -0.38156244 -0.41479072 -0.42106426 -0.122768626
000280 17 2f 9a bd 3c 07 93 bf 1f f7 77 bc 5b fa 38 3f
       -0.07528513 -1.1486583 -0.015134602 0.7225701
000290 42 5f 22 bf f5 a2 07 3e 76 45 b2 3d d7 0d c1 3c
       -0.634266 0.13245757 0.08704655 0.02356617
0002a0 bc cb 59 bf ec ac 86 be 65 91 29 be 45 0c 68 bc
       -0.850765 -0.26303804 -0.1655937 -0.0141630815
0002b0 6c 83 82 be 47 cb 55 bd b4 ac 1d bf 21 cc 04 bf
       -0.25490892 -0.052195814 -0.6159165 -0.51873976
0002c0 f0 f5 18 3f da de db bd c9 8c 35 be b9 80 9c be
       0.5975027 -0.10735865 -0.17729487 -0.30566958
0002d0 f3 0b e9 bb f0 fe 53 3d 10 de 2f bf c1 4b 78 3e
       -0.00711202 0.0517568 -0.68698215 0.24247648
0002e0 43 06 0a bf b4 e5 c3 3d 4e 19 80 3d 03 ed 79 bf
       -0.53915805 0.09565297 0.062548265 -0.97627276
0002f0 e8 90 d5 bc 22 10 9f 3e 4f 49 61 3e ac 03 1d bf
       -0.026070073 0.31066996 0.22000621 -0.6133373
000300 42 d8 45 bd 23 01 8b bd 82 a7 8d 3e 4a 52 ed 3d
       -0.048301943 -0.06787326 0.2766686 0.11587961
000310 ab 8b 0e 3e 70 ec b6 be 4b ba 23 bf c7 56 05 bf
       0.13920467 -0.35727262 -0.63956136 -0.52085537
000320 4f fa 8f 3d 46 0b b4 3e ee 6f 2f bf 82 e9 a5 3e
       0.070301645 0.3516485 -0.68530166 0.32404715
000330 d8 67 8a be 7c c8 94 3e 24 a0 db be c9 79 86 3e
       -0.27032351 0.29059207 -0.42895615 0.2626479
000340 f7 cd b8 3d 09 b3 54 be 80 22 68 be c6 97 b8 3c
       0.0902366 -0.20771421 -0.2266941 0.022533309
000350 e1 a3 fe be b8 ae 33 3f fb 60 d0 bf a3 a3 aa 3b
       -0.49734405 0.70188475 -1.6279596 0.0052074953
000360 1a ea 6f bf 2a 25 9b be 55 6e 0e be e0 57 88 3f
       -0.93716586 -0.3030179 -0.13909276 1.0651817
000370 87 90 4a be 43 71 11 3f c7 5d f1 be 67 4f 02 3f
       -0.19781695 0.5681345 -0.4714186 0.5090241
000380 fb a4 74 bf 62 95 18 3d e9 dc ed be e8 bc 09 bd
       -0.9556424 0.037251838 -0.46457604 -0.03362742
000390 f7 1e e5 bd 92 8f 4d bf 16 f4 85 bc 5a cd 7e 3c
       -0.11187547 -0.80297196 -0.01635174 0.015551889
0003a0 87 77 32 3d 77 2a 87 bd af 16 4b 3d 71 f0 b2 bd
       0.04357102 -0.065998964 0.04958218 -0.08737267
0003b0 25 6c a4 bd cb c5 3b be 8b 1f 45 bd 23 a1 fc bd
       -0.080284394 -0.18337171 -0.048125785 -0.12335422
0003c0 ed 0a 9b bf 1a a9 31 ba 41 ce f3 bd 99 df 18 3c
       -1.2112709 -0.0006777212 -0.11904574 0.009330654
0003d0 d8 11 bc 3d c9 47 a4 3e 38 dd 9c 3d e6 48 e8 be
       0.09183091 0.32086018 0.07659382 -0.45368117
0003e0 15 f3 f6 be 3c d4 1a be cd cf 6b 3f 4f 64 68 be
       -0.48232332 -0.15120023 0.92113954 -0.22694515
0003f0 5d 86 97 3e 95 16 6f 3d 01 ca 6f 3e ba 00 79 bd
       0.295947 0.058371145 0.23416902 -0.06079171

fc3.bias f4 [128]
000000 31 6f bc bf 26 bc 92 3e 23 e3 c1 3f 6f e2 e3 3f
       -1.4721433 0.2865917 1.5147442 1.7803477
000010 1a de 80 3f 6b 35 a2 bd 94 ee 8e be 6a c5 66 3f
       1.006778 -0.07920345 -0.27916396 0.9014498
000020 21 83 4a 3f 4b b6 07 be 7d e3 1a bf 9b 89 9d bd
       0.79106337 -0.13253133 -0.6050337 -0.07692262
000030 30 14 3b 3f f2 b5 79 3f b3 24 78 3f a6 f2 d4 3e
       0.7307768 0.9754325 0.96931 0.41591376
000040 4a d4 fa bd 53 6a df bd c0 b1 94 be 9a a4 45 3f
       -0.12247522 -0.109089516 -0.29041862 0.7720429
000050 2d 4e 7c 3f ef 5d 88 3f b1 f0 da 3f 83 1a 06 40
       0.98556787 1.0653666 1.7104703 2.0953681
000060 25 d5 20 be 8d 35 91 bd a7 ad 50 3f 49 e6 c6 3f
       -0.15706308 -0.07090292 0.8151497 1.5539027
000070 11 c9 8d 3f 3a e0 2f be 91 ba 14 be 42 46 46 3f
       1.1076986 -0.1717538 -0.14524294 0.77450955
000080 b6 7b 8c 3f ab 56 25 be 7e 6a 07 3f 22 3a 7a 3e
       1.0975254 -0.16146342 0.5289687 0.24436238
000090 a5 64 03 be 7b 46 e2 3e 0f 33 4c 3f 8c d6 96 3d
       -0.12831362 0.44194397 0.7976541 0.0736514
0000a0 50 98 92 b9 ff 7a 8e be 7b 35 2d 3e 23 bb a7 bd
       -0.00027960772 -0.27828214 0.16914932 -0.0818999
0000b0 a6 d6 dc bd d0 58 58 3e a7 d6 c1 be bc 39 23 3f
       -0.107831284 0.2112763 -0.3785908 0.6375997
0000c0 77 87 d3 3f 69 1b bb 3e 1e 12 79 3f 18 ba 4d be
       1.6525716 0.3654435 0.9729327 -0.2009052
0000d0 3f e9 b1 bd 47 e7 19 be c1 ef 1f be 3e 7f a0 3e
       -0.08687066 -0.15029632 -0.15618803 0.31347078
0000e0 4f 9a 1d 3f 8d 75 bf 3f 91 2d 32 3d 54 b6 18 3f
       0.6156358 1.4957749 0.043500487 0.5965321
0000f0 0a 11 9b 3f 01 14 16 3f ff 48 cb 3f 73 d2 8c 3e
       1.2114575 0.58624274 1.5881652 0.2750431
000100 7b 59 90 3f 8f 87 81 bd 34 3a 74 3f ab a0 c5 3f
       1.1277307 -0.06324684 0.9540131 1.5439657
000110 d1 a3 71 bf 6c 9d 42 be 45 ff 73 be 2b db a4 bf
       -0.9439059 -0.19005364 -0.23827846 -1.2879385
000120 89 3e 95 3f 53 e8 af bd 17 98 f0 bd 1d 31 18 3f
       1.1659709 -0.08589234 -0.11747759 0.5944994
000130 40 3a 86 3f 51 80 cc 3f 9d 93 aa bd 81 5f 32 3f
       1.0486526 1.5976659 -0.08328936 0.6967698
000140 1d f9 fa bd 40 67 01 be 04 b6 bc 3f 39 a1 e4 3e
       -0.12254546 -0.12637043 1.4743047 0.44654253
000150 ab 24 27 3f be f6 99 3f 5f f9 20 3f 8b 82 a7 3f
       0.65290326 1.2028425 0.6288051 1.3086714
000160 78 63 e9 3e 44 cb a6 3e 92 81 76 bd 2a b0 91 3f
       0.455837 0.32576954 -0.06018216 1.1381886
000170 91 65 9d bc 21 80 43 3f 62 42 9f be 43 02 bc 3e
       -0.01921347 0.76367384 -0.31105334 0.36720476
000180 8a 03 99 3e 4d 52 47 3f bc 52 8d 3f e2 e5 a3 3f
       0.29885513 0.77859956 1.1040874 1.280453
000190 6b a7 50 3e 47 a9 20 be f6 56 62 3e ae b9 48 3f
       0.20376365 -0.15689574 0.22103485 0.78408325
0001a0 73 3a 50 3f 4a 08 2f be 6e 05 2b 3f d1 3d 51 3f
       0.81339186 -0.17093006 0.6680516 0.8173495
0001b0 91 f5 1c 3f a8 3f e2 bd e1 73 c2 3e 71 05 8a 3f
       0.61312205 -0.11047298 0.37979034 1.078291
0001c0 14 59 20 3f 7b 8d b3 3f 49 e2 92 3f b2 96 dd bd
       0.6263592 1.4027551 1.1475307 -0.108197585
0001d0 22 36 d5 bc db 4e 8b 3e a0 17 7b 3f 3e 04 e7 bd
       -0.02602679 0.272086 0.98082924 -0.11280106
0001e0 d7 87 3f be b3 97 cf 3d cd 2a 0b 3f 72 e9 ab bd
       -0.18704163 0.10136356 0.54362184 -0.083941355
0001f0 ee 8f 7f 3f 45 69 0f be 8e 25 ca bd 83 49 1f be
       0.99828994 -0.14005001 -0.09870444 -0.15555386

fc4.weight f4 [32, 128]
000000 6f d8 45 be cd c7 1c 3e c0 c9 22 3f 8f 39 14 3d
       -0.19320844 0.15310593 0.63589096 0.036187705
000010 cf 7e aa 3e 88 33 71 bd 75 7c b5 3d 6d c1 b4 bc
       0.33299872 -0.058887035 0.08861629 -0.022064889
000020 81 26 53 be 6a d5 50 3d 14 5d d9 3d 8e 1f b7 bc
       -0.20620157 0.050984778 0.10613456 -0.022353914
000030 c8 eb c4 be c8 5f 33 3e 52 10 44 3e 59 7a 18 bd
       -0.38461137 0.17517006 0.1914685 -0.037226055
000040 37 85 b8 3d b9 1b 5a 3d 1c ff cb 3d 36 9a fe bd
       0.09009784 0.053249095 0.099607676 -0.12431757
000050 82 85 88 3e 06 5f 6f bf c1 1f 5d be 1a 33 10 3e
       0.26664358 -0.9350437 -0.21594144 0.14081994
000060 fb 6a 7b bd 2f 9b 12 bd 73 4a 91 be 51 76 e5 3e
       -0.06138132 -0.035792526 -0.28377113 0.4481683
000070 b2 b6 48 3e 9c 68 51 3d 5d 13 41 3d eb 52 83 3e
       0.19600943 0.051125154 0.047137607 0.256492
000080 cd 6b 6a 3e fa 60 1f bf 95 28 d5 bd 2d 0e bf 3d
       0.22892685 -0.6225735 -0.10408131 0.09328876
000090 66 b1 7f 3d 3e 1e f5 3d cd 36 08 bf c4 6c 59 3d
       0.06242504 0.11968659 -0.5320862 0.053082243
0000a0 79 58 0c 3c ee 7c a2 3d d8 40 71 be 3c fd 05 3e
       0.008566015 0.07933985 -0.23559892 0.13084882
0000b0 39 b2 d0 bb da 3b 01 bf 31 a6 d3 3e ed 07 3f bf
       -0.006368902 -0.5048195 0.4133773 -0.7462147
0000c0 7f 7e b4 be de d5 ce 3d 0d 16 84 3e 04 45 c6 3d
       -0.3525276 0.10099386 0.25798073 0.096811324
0000d0 e0 f6 cb 3d d9 82 96 bc f1 b7 1c 3d a2 4e 54 be
       0.09959197 -0.01837294 0.038261358 -0.20733121
0000e0 8f 05 97 be 51 c2 70 bf fb fb 25 3c d7 da e8 3e
       -0.29496428 -0.94046503 0.010130878 0.45479462
0000f0 74 7c 4c 3e d9 94 20 3e d6 b6 e9 3e 7f 64 97 3c
       0.1996935 0.15681781 0.45647305 0.018480537
000100 58 ea 05 3e 13 23 53 bd 5a b9 95 be 56 a1 d9 3e
       0.13077676 -0.05154712 -0.29242975 0.42505902
000110 83 11 61 3e d8 c9 7d 3e 1d 44 74 3b bb c0 0b 3f
       0.21979336 0.24784029 0.0037272044 0.5459096
000120 5f 1e 88 3e fa 82 5e 3d d8 67 1a bc a8 0a a5 3c
       0.2658567 0.054324128 -0.009424172 0.020146683
000130 7d 8b 19 3e d5 51 bb be 83 6a 0c 3d 56 37 0f 3e
       0.14994617 -0.3658587 0.034281265 0.13985953
000140 cd 2a bd bd 42 1d 46 3d c9 10 63 3d 93 e7 9d 3e
       -0.09236679 0.048367746 0.05543593 0.3084074
000150 7b 2b 0f 3f 7b 02 ae be a4 70 ab be 62 50 84 be
       0.5592572 -0.33986267 -0.33484375 -0.25842577
000160 e5 4b 95 3e e1 88 0b 3f bd dc bb be 80 bc b2 3e
       0.29159465 0.54505736 -0.36691847 0.3490944
000170 c1 de e7 3c dd 33 2c 3d 07 00 06 3f 58 24 75 be
       0.02830446 0.04204165 0.5234379 -0.23939645
000180 97 1c 4b 3e b2 14 89 bf 6a cd 33 3d db 39 33 3e
       0.19835125 -1.0709441 0.04389707 0.17502539
000190 59 2d d3 be 04 00 85 bc f4 bb 7d 3e 8c 00 91 3c
       -0.41245535 -0.016235359 0.2477873 0.017700456
0001a0 af 62 dc 3d 20 40 b3 3c dd 07 fc be e5 b8 9d be
       0.1076101 0.021881163 -0.4922475 -0.30805126
0001b0 5e 5a b9 3e 31 f3 a8 3c 03 f9 88 be 69 eb 57 bf
       0.36201757 0.020623775 -0.2675248 -0.8434358
0001c0 07 af 9f be 78 75 8a 3e 7f e8 a0 3e 16 8e 54 3c
       -0.31188223 0.27042747 0.3142738 0.012973329
0001d0 95 8b ec ba a3 86 b6 be 08 45 23 be 00 97 14 bc
       -0.001804697 -0.35649595 -0.15944302 -0.009069204
0001e0 f0 94 88 3d 3e a9 df be b5 d0 7e 3e 78 fc 89 3c
       0.066690326 -0.4368381 0.24884303 0.01684402
0001f0 2e 7f b4 be 1d 1a b3 3d b6 35 00 3d 5f 66 c8 bc
       -0.3525328 0.08745215 0.031301223 -0.024462877
000200 6e 1e 6e 3e 3f 42 f9 3d 55 77 3a 3b 50 9d 4f 3e
       0.23253796 0.121708386 0.0028452475 0.20274854
000210 00 9f 8e 3d 0f bc b6 3c 90 1e 9e 3d 80 88 2f c0
       0.069639206 0.02230647 0.07720673 -2.7427063
000220 5c 81 61 be 4b 3b 13 bd 3f 29 9c be 1d a4 9d 3d
       -0.22022003 -0.035945218 -0.30500218 0.07697318
000230 d0 49 dc 3e ad bc 9b be b2 c6 da be 11 3e c1 3e
       0.43025064 -0.30417386 -0.42729717 0.37742665
000240 7d ab 25 bd 1c 58 dc bb ae 3f 8f bd d4 84 7d bf
       -0.040446747 -0.0067243706 -0.06994568 -0.99030805
000250 1c 29 86 bd c8 90 f8 bd 57 62 37 3e 62 f7 a5 3e
       -0.0655081 -0.1213699 0.17908607 0.324153
000260 0f 7f f8 3c ff 4d 06 3e 6a d9 48 bf 44 f5 f1 3d
       0.030334024 0.1311569 -0.7845675 0.11814359
000270 61 4d 99 be 89 40 6b 3d c3 da fc 3c 76 5a 39 bf
       -0.29941848 0.057434592 0.030866032 -0.7240366
000280 20 a2 a4 be cb f5 f9 be 9b f1 82 bd f0 77 9a 3e
       -0.32154942 -0.48820338 -0.06393739 0.3016963
000290 60 60 e5 bc d9 53 27 c0 f2 ea e9 be 75 f0 a7 bf
       -0.028000057 -2.6144927 -0.45687062 -1.3120257
0002a0 9b 92 15 bd 3e 48 96 bd f3 d2 dd be 9a a8 d0 3d
       -0.036516767 -0.07337998 -0.43325004 0.10188408
0002b0 aa 7c 48 bd ba ec d7 be 27 16 81 3e 43 f9 f9 be
       -0.048947014 -0.42172796 0.25212213 -0.48822984
0002c0 76 32 78 3d 91 84 08 be 3d 52 90 3d 94 c2 06 3c
       0.060595 -0.1333182 0.07046936 0.008225102
0002d0 3c cb dc bd 9f 22 55 be 00 be 95 3c da 52 d1 bf
       -0.107809514 -0.20813988 0.018279076 -1.6353409
0002e0 d9 7b ce bd ad f9 a5 3d a6 74 2e bf 1e e9 f4 3e
       -0.10082216 0.081042625 -0.6814674 0.47834104
0002f0 f0 d7 2e be f9 23 73 3e 10 de 6f 3e da 46 f0 bf
       -0.17074561 0.23744191 0.23424554 -1.8771622
000300 5f 2f 83 3e 87 79 05 3c 00 a0 c3 3e 34 44 9d 3c
       0.2562208 0.00814665 0.38208008 0.01919756
000310 31 4c c0 be 70 5d ea bd 8b f4 23 bf d7 90 04 bd
       -0.3755813 -0.11443603 -0.6404502 -0.032364693
000320 4e 90 9f be 77 78 76 bd 49 66 93 bd 8c e5 83 be
       -0.31164783 -0.060173478 -0.07197244 -0.25761068
000330 7e 20 4c 3e 2e 95 90 3e 7d f7 fe bc b0 4e ed bb
       0.1993427 0.28238815 -0.031123871 -0.0072420463
000340 da 20 a6 bd c6 3e 1e 3d 6c 98 86 bd eb af db bf
       -0.08111735 0.038634084 -0.06572041 -1.7163061
000350 f7 c1 9b 3f 7a fa 74 3e ad a3 26 bf 2f c4 8e 3e
       1.2168568 0.23923674 -0.650935 0.2788405
000360 5a 52 cd be d8 02 38 bc 82 d5 9a 3d 53 3b 49 be
       -0.40101892 -0.011231147 0.07560255 -0.19651537
000370 8f 7f b4 3d 5e 0f be bf e8 a9 cd bf 85 e3 bf be
       0.08813392 -1.484844 -1.6067476 -0.3747827
000380 5c 32 cb be 4e 5b 24 3d cf 50 24 3d a9 e6 84 bd
       -0.3968686 0.040126137 0.040116128 -0.064893074
000390 4a ca 2d be ee 5a 74 bd 58 22 5b bf 2f 89 49 be
       -0.16971698 -0.05965703 -0.8559928 -0.19681238
0003a0 17 3e 16 be d7 24 27 be e5 a3 0c bf 88 10 90 be
       -0.14672123 -0.16322647 -0.54937583 -0.28137612
0003b0 38 3e 8e bd 52 c4 a0 3c 1e 7e fe 3d b6 43 66 bd
       -0.06945461 0.019624863 0.12426399 -0.056216918
0003c0 db eb 1d bf e1 20 07 3e 55 4b 18 3e f3 a1 c6 3c
       -0.6168801 0.13196136 0.14872487 0.024247145
0003d0 57 00 41 3d 88 1e 9b bf c3 0c 8f be d2 0c 09 3e
       0.047119465 -1.2118692 -0.27939424 0.13383797
0003e0 85 a3 3d 3d 70 50 89 bf 38 c3 79 be 59 0a ec 3b
       0.046298523 -1.0727673 -0.24390876 0.007203382
0003f0 b3 34 6a 3d 3e 59 00 c0 80 08 e5 ba af 7f 90 bc
       0.057179164 -2.005447 -0.0017473847 -0.01763901

fc4.bias f4 [32]
000000 d3 e6 ad 3f 95 59 c6 3f 5d ab e6 bd 6b 57 c9 bd
       1.3586067 1.5496088 -0.11263154 -0.09831127
000010 c2 86 20 be e4 20 7d 3f 89 00 31 be 23 42 ea 3e
       -0.15676406 0.9887831 -0.1728536 0.45753583
000020 0c fd af bd 13 b8 47 3b e1 88 a9 3f 8a 76 15 3d
       -0.08593187 0.0030474707 1.3244897 0.03649
000030 c9 f0 cd 3b 84 63 33 3a 43 be d1 bd c1 02 ba bd
       0.0062848073 0.0006843137 -0.10241368 -0.090825565
000040 fa d4 59 3f 17 fe 85 3f 65 6f 36 3f b3 47 59 bd
       0.850906 1.0468167 0.71263725 -0.053046893
000050 49 65 66 3f 92 45 00 bd 16 64 7f bd 35 6d 9c 3f
       0.899983 -0.031316347 -0.06235131 1.2220827
000060 f1 b5 bf 3f 1c 34 82 3f 98 72 9c 3f 44 ee 20 3c
       1.4977399 1.0172153 1.2222471 0.009822432
000070 ba 24 f8 3f 48 0d 10 3f 45 ac 89 3f 5a 00 d8 3f
       1.9386208 0.56270266 1.0755697 1.6875107

fc5.weight f4 [4, 32]
000000 77 8b d3 3e cf 0b 88 bd f2 fa 34 3d bf 85 92 3c
       0.4131734 -0.06642877 0.044184633 0.01788604
000010 45 4c 9f 3d c3 53 af bd 3f 1a 9b 3c 5e 8c 6c bd
       0.07778219 -0.08560898 0.018933414 -0.057751052
000020 b1 58 26 bc 46 d5 25 be 31 e9 87 bd 07 10 ba 3d
       -0.010152982 -0.16194639 -0.066362746 0.09085088
000030 84 3b 1c b9 a9 82 9f 3c 2f 10 36 be 80 ee 86 3d
       -0.0001489949 0.019471483 -0.17779611 0.06588459
000040 96 63 85 3e b3 65 3e 3e 99 17 ca bd 7d 7f 08 3e
       0.2605254 0.18593483 -0.09867782 0.13329883
000050 ec 14 8a bd de ea f2 bd a7 c8 24 be 87 2d 5e 3d
       -0.06742272 -0.118612036 -0.16092168 0.054242637
000060 48 eb e8 be 38 74 38 3d 32 2f e6 3c 1f b4 31 3d
       -0.45492005 0.04503271 0.028098676 0.043384667
000070 5a a0 81 bf 8b 8e c0 3e e7 aa f5 3e 38 be 41 be
       -1.012706 0.37608752 0.4798195 -0.18920219
000080 15 2e d2 3e b7 b4 b6 bd f2 4b eb 3d da 0c 9a bc
       0.41050783 -0.08921187 0.11489095 -0.018804956
000090 9a f9 fd 3d 48 7a ac 3d a9 4a 45 3d 38 8f 80 be
       0.12401123 0.08421761 0.048166905 -0.25109267
0000a0 bf 0c 09 3d c1 c1 c4 3d c1 5f d9 3e 00 a2 f3 bd
       0.03345942 0.09607268 0.42455867 -0.118961334
0000b0 65 fb 47 3d ae 63 96 3c 2a 11 fe 3d 3f f2 d0 3d
       0.048823733 0.018358078 0.124056175 0.10202455
0000c0 72 cc 2f be 1a 5a 38 3e a9 8a 0a be 8c 4b 8c 37
       -0.17167833 0.18003121 -0.13529457 1.672448e-05
0000d0 7a b7 79 bd cf f5 85 3c 1b c5 0e 3d 4b 1d ae 3e
       -0.060965993 0.016352562 0.034855943 0.34006724
0000e0 48 a2 f0 be f6 9b 8a be 62 4c e5 3d 66 6a 20 3d
       -0.4699881 -0.27072114 0.111962095 0.03916397
0000f0 36 33 07 be fb 35 af bd 24 18 05 3d 8e 8c c0 be
       -0.13203129 -0.08555218 0.032493725 -0.37607235
000100 3c f2 a8 3e 0a 80 8a bf d7 c4 21 bc 39 b6 01 be
       0.3299731 -1.0820324 -0.00987359 -0.12667169
000110 45 49 72 bb fd d5 93 3e df 03 d4 ba 71 a1 c7 3d
       -0.0036969942 0.28874198 -0.001617547 0.097475894
000120 4c f3 a0 bb c4 d1 5e 3d b1 f0 90 be e0 75 b9 bd
       -0.0049118157 0.054399267 -0.28308633 -0.09055686
000130 1e 7d ec bd 35 d3 eb bd 67 69 f9 3d f4 fd 06 3e
       -0.11547302 -0.11514894 0.12178307 0.13182813
000140 e6 d4 3b be 02 d6 f8 be 5f ef 4a be 29 29 1a be
       -0.18342933 -0.48600775 -0.19817875 -0.15054764
000150 f8 0f be bd fd 21 62 bd d3 0d e7 3d 4b 3f f2 3e
       -0.092803895 -0.055208195 0.11281934 0.47313914
000160 74 2a 3d bd af 80 51 3d 63 15 ab 3d d1 18 37 3e
       -0.046183065 0.051148113 0.083536886 0.1788056
000170 c9 3a 73 bd 12 08 61 3e de 7a 74 3e 9f fc de be
       -0.059382234 0.21975735 0.23874995 -0.4355211
000180 3b 46 56 3e 5c e3 9b bd c2 ac 94 3d 51 3c fa bd
       0.20925228 -0.07611725 0.072595134 -0.12218536
000190 5c 1c b2 3d 0e e0 59 be 06 44 7a 3d c0 ff aa 3d
       0.08696815 -0.21276876 0.06110003 0.08349562
0001a0 98 69 25 bd e3 60 1d 3d 18 32 a2 bd 47 67 0c 3e
       -0.040383905 0.038422477 -0.07919711 0.13711272
0001b0 1f 2a f7 3d 1d dd c5 3d 10 37 bb 3c 00 14 24 bb
       0.12068581 0.09661315 0.022853404 -0.0025036335
0001c0 84 4f e5 bd db fb 46 3e fc f2 aa 3e 02 b3 af 3d
       -0.11196807 0.19432013 0.33388507 0.08579065
0001d0 ea b1 f3 3e 6b bd 83 bd 63 9e 7b 3c 6a d2 b8 3e
       0.47596675 -0.06432613 0.015357587 0.36098033
0001e0 92 98 b7 be 9d 65 97 bd b7 7e 1d bf 99 5a f2 3d
       -0.3585859 -0.07392428 -0.61521477 0.118336864
0001f0 d1 fe 4b be c9 fb 2c 3e b7 99 97 bd 5e bf b8 be
       -0.19921423 0.16892923 -0.07402366 -0.36083502

fc5.bias f4 [4]
000000 fe 90 60 be 14 ba ac 3c 80 83 85 3e ab 3e a7 bd
       -0.2193031 0.021084823 0.2607689 -0.0816625
