DQN_models/model_static_updaterate500_gamma0.99_alpha0.001_dynamic.pt (torch, 416839 bytes, 10 tensors)

fc1.weight f4 [128, 514]
0.023606993 -0.039964627 0.003425803 0.0076730065 -0.0028845444 -0.03248987 -8.2384795e-05 -0.015718075
0.039883792 0.0374688 0.035923332 -0.03890563 0.005177684 0.011355288 0.018619694 -0.02260615
-0.007942498 0.02949465 0.0077072084 0.013507839 0.021104418 -0.009962194 0.040944755 -0.010327604
-0.38457575 0.20346396 -0.37331378 -0.34822717 -0.57980156 -0.5226349 0.17434973 -0.42495295
0.24415916 -0.40790382 -0.4457869 -0.22756973 -0.18119699 -0.060821254 -0.3453618 -0.370651
-0.17191058 -0.0044903723 -0.03630596 0.007526066 -0.0072922334 -0.0075510927 -0.36776873 -0.5470869
0.13293831 -0.33448288 0.072774075 0.0128941545 0.48383224 0.060756024 -0.3431897 -0.40002456
-0.339439 -0.5744052 -0.33002508 -0.33817533 0.0366719 -0.012083152 0.07301117 0.6377645
0.025839612 0.019062161 -0.01045724 0.004354939 0.051124733 -0.18688026 -0.22727162 -0.02083822
-0.04151862 -0.18184334 -0.010020483 -0.36149806 -0.031339798 -0.014509097 -0.2051429 -0.38036245
0.30049035 0.034689806 -0.033938885 -0.22643714 0.23831797 0.0014363822 0.03406219 -0.003784489
-0.0025317892 0.038216755 -0.38863778 -0.49056837 0.40068895 -0.032486916 -0.03874862 -0.22767392
-0.19596024 -0.31685078 -0.03969922 0.034568794 -0.35872614 -0.09538009 0.26758823 -0.012087159
-0.040613692 -0.16764791 -0.43769917 -0.31725296 -0.0041283257 0.0014008321 0.037640758 0.009828169
-0.37440282 0.042167682 0.2600919 -0.0151114 -0.011746552 -0.19632465 0.5867947 0.024427954
0.011412416 -0.00037757307 -0.33777982 0.62300676 0.11056911 0.021234557 -0.043982346 -0.31600198
-0.25850308 -0.01571889 0.036694273 -0.0016419813 -0.030987497 0.032894917 -0.2303656 -0.049960665
-0.2863606 0.024843134 0.013239495 -0.2830478 0.2671434 -0.20125107 -0.026221484 0.039764665
0.24759302 -0.13122489 -0.08735498 -0.037641738 -0.044024598 -0.08287598 0.07609149 0.016639695
-0.010953981 -0.005900115 -0.027730567 -0.037616745 -0.20063543 -0.3789436 -0.3513951 -0.013933592
-0.0066294596 -0.26697084 0.06869241 -0.07132545 0.023062818 -0.010353059 0.28965473 -0.042368274
-0.014531632 -0.03863903 0.019222334 0.4541214 -0.20203541 0.10476276 0.013975203 -0.016137881
0.002314441 -0.01741818 0.13598906 -0.168583 0.030097052 -0.036256246 0.00896791 -0.23993963
0.036930874 -0.17426582 0.02204974 0.010621332 -0.27154058 -0.24150567 0.1317324 0.034000218
0.029008262 0.52203035 -0.24956116 0.16021505 0.015605599 0.0017356277 0.01550797 0.0012439117
-0.20803243 -0.033370078 0.0032737057 0.043848157 0.02968651 -0.22908305 0.3052292 -0.19713244
-0.030247455 0.024029635 -0.20781837 -0.35586932 -0.04143912 -0.0116507225 -0.01722128 -0.2756355
0.13165347 0.5348481 -0.011566579 -0.01249259 0.030674241 0.04113613 0.022670785 0.10050657
0.21507034 0.04224538 -0.02546272 -0.25071564 -0.18266891 0.022482285 -0.0032572374 -0.044007853
0.15745808 0.2793869 -0.02788848 -0.0027289838 -0.00094335526 -0.044739857 -0.011620231 0.2702537
-0.023845566 0.031384632 0.03035146 -0.043459184 -0.3807871 0.09855538 0.17866245 0.009634405
-0.022131532 -0.011189618 -0.118117675 0.13490647 -0.02666979 0.019978315 -0.24193265 -0.15233792
00000000: 7463 c13c f3b1 23bd 7083 603b d86d fb3b
00000010: a00a 3dbb 1914 05bd 00c6 acb8 31c3 80bc
00000020: 305d 233d e278 193d 5824 133d 835b 1fbd
00000030: 90a9 a93b 880b 3a3c 5488 983c 8830 b9bc
00000040: 4021 02bc c49e f13c c08c fc3b fc4f 5d3c
00000050: 2ce3 ac3c 7838 23bc b0b5 273d 1c35 29bc
00000060: 1de7 c4be db58 503e fc22 bfbe d54a b2be
00000070: e06d 14bf 67cb 05bf bc88 323e 6f93 d9be
00000080: dc04 7a3e c5d8 d0be 2e3e e4be 0a08 69be
00000090: b48b 39be b51f 79bd 43d3 b0be f8c5 bdbe
000000a0: 5409 30be f923 93bb 8fb5 14bd 389d f63b
000000b0: b0f3 eebb 286f f7bb 2f4c bcbe e30d 0cbf
000000c0: fb20 083e 5741 abbe 930a 953d 0142 533c
000000d0: dcb8 f73e 4fdb 783d 8fb6 afbe 05d0 ccbe
000000e0: f3ca adbe 380c 13bf 0cf9 a8be 5125 adbe
000000f0: 4635 163d 6af8 45bc e186 953d 8944 233f
00000100: 98ad d33c 4028 9c3c d854 2bbc e0b3 8e3b
00000110: 2b68 513d 8a5d 3fbe e4b9 68be eab4 aabc
00000120: 6e0f 2abd 2435 3abe f42c 24bc 4616 b9be
00000130: 295e 00bd 90b7 6dbc fb10 52be debe c2be
00000140: dfd9 993e e616 0e3d 8003 0bbd 23df 67be
00000150: a009 743e fd44 bc3a cc84 0b3d 3005 78bb
00000160: 60ec 25bb 2c89 1c3d 88fb c6be c72b fbbe
00000170: 1a27 cd3e 0011 05bd dfb6 1ebd 5a23 69be
00000180: cda9 48be 443a a2be a69b 22bd 0298 0d3d
00000190: f4aa b7be a356 c3bd 5301 893e 3809 46bc
000001a0: 8b5a 26bd e5ab 2bbe 1b1a e0be fb6e a2be
000001b0: e846 87bb 209c b73a 322d 1a3d 5406 213c
000001c0: bab1 bfbe 05b8 2c3d c42a 853e ce95 77bc
000001d0: 9c74 40bc 5409 49be 2d38 163f 221d c83c
000001e0: 24fb 3a3c 00f5 c5b9 7af1 acbe 5f7d 1f3f
000001f0: 0f72 e23d 18f4 ad3c d526 34bd 03cb a1be
00000200: 845a 84be e7c4 80bc bc4c 163d c037 d7ba
00000210: 7ed9 fdbc d2bc 063d f6e4 6bbe 8ea3 4cbd
00000220: db9d 92be d483 cb3c 78ea 583c a4eb 90be
00000230: 05c7 883e c314 4ebe 70ce d6bc 46e0 223d
00000240: 0689 7d3e d15f 06be 2be7 b2bd 392e 1abd
00000250: 2353 34bd e2ba a9bd dbd5 9b3d f84f 883c
00000260: 5478 33bc c055 c1bb 372b e3bc 0414 1abd
00000270: 6073 4dbe e504 c2be 0fea b3be b849 64bc
00000280: f03b d9bb 67b0 88be 9bae 8c3d 1413 92bd
00000290: 3cee bc3c e09f 29bc a04d 943e 5b8a 2dbd
000002a0: 1516 6ebc f643 1ebd 2878 9d3c 9a82 e83e
000002b0: 5fe2 4ebe dc8d d63d 40f8 643c 9733 84bc
000002c0: e0ad 173b 92b0 8ebc b740 0b3e 06a1 2cbe
000002d0: 188e f63c 6e81 14bd 24ee 123c bcb2 75be
000002e0: d444 173d bd72 32be a8a1 b43c 1805 2e3c
000002f0: 5e07 8bbe 434d 77be dce4 063e d043 0b3d
00000300: bca2 ed3c c8a3 053f f68c 7fbe 6a0f 243e
00000310: a0ae 7f3c 007e e33a 2415 7e3c c00a a33a
00000320: 7406 55be 10af 08bd ab8b 563b 209a 333d
00000330: 2031 f33c bf94 6abe 0047 9c3e 16dd 49be
00000340: 83c9 f7bc ccd9 c43c 57ce 54be 8134 b6be
00000350: 11bc 29bd ace2 3ebc a413 8dbc 1920 8dbe
00000360: 2bd0 063e ceeb 083f c081 3dbc b8ad 4cbc
00000370: 8c48 fb3c 5c7e 283d 15b8 b93c 63d6 cd3d
00000380: 663b 5c3e 7e09 2d3d 3297 d0bc cd5d 80be
00000390: 8f0d 3bbe c52c b83c 6077 55bb 9441 34bd
000003a0: b13c 213e cd0b 8f3e 6276 e4bc c0d8 32bb
000003b0: 804b 77ba 2441 37bd c862 3ebc b15e 8a3e
000003c0: c757 c3bc 2c8d 003d a0a3 f83c 4202 32bd
000003d0: 87f6 c2be 67d7 c93d 4af3 363e a0d9 1d3c
000003e0: 304d b5bc a954 37bc aee7 f1bd ec24 0a3e
000003f0: 9a7a dabc 90a9 a33c 31bd 77be 79fe 1bbe

fc1.bias f4 [128]
-0.010121325 -0.5730789 -0.7177014 -0.49052915 -0.18617655 0.2657388 -0.99762684 -0.24201754
0.060946167 0.15982348 -0.7632094 -0.07843226 -0.4444759 -0.64717 -0.12460536 -0.64160967
-0.6194842 -0.7567331 -0.86791563 -0.6147455 -0.7838083 0.32247967 0.061295476 1.1346233
0.1204764 -0.9088229 0.95487875 -0.29540855 -0.9568367 -0.007407233 -0.63035744 -0.27560127
-0.8344326 -0.7612687 0.5555013 0.5867396 0.25819486 -1.1694093 1.7178413 -0.35576922
-0.095342524 -0.124731466 -0.10629203 -0.6357161 0.29637092 -1.0061985 -0.19141217 0.105109304
1.1429834 1.5559742 -0.49685276 -0.96526957 -0.9774119 0.9150203 -0.25790533 1.3861506
-0.6327608 -0.25373638 -0.6706174 -0.8580441 -0.7487964 -0.43566057 -0.28788954 -1.1560813
1.2728709 0.2335363 -0.07774527 -0.24019781 -0.89176255 1.1311747 -0.5946776 -0.42736185
0.20501053 0.52948344 -0.04993236 0.6368596 -1.0434694 -0.77324873 1.2134087 0.08186244
-0.0573554 -0.51582617 1.2524885 -0.43568346 -0.6714507 -0.023306407 -0.37309688 -0.64741194
-0.1482299 -0.46441886 -0.60404444 0.7122756 -0.053615496 0.25382766 -0.885133 -0.4509351
-0.5168629 -0.5286271 -0.45473397 -0.37206236 -0.40757218 -0.8511989 0.2078987 -0.36188418
-0.42288437 0.043543514 -0.529106 -0.27643025 -0.08300449 0.20562701 -0.07587051 0.8446656
-0.5459632 0.06499051 -0.26319417 -0.9271801 -0.23099819 -0.20108138 0.3767114 -0.69100314
0.365186 -0.5008029 0.11947743 0.36226153 -0.8317834 -0.6372667 -0.07444544 -1.2730709
00000000: ead3 25bc 4cb5 12bf 47bb 37bf a326 fbbe
00000010: 11a5 3ebe ea0e 883e 7964 7fbf 72d3 77be
00000020: b0a2 793d c4a8 233e b161 43bf 18a1 a0bd
00000030: 5892 e3be efac 25bf 1831 ffbd 8840 24bf
00000040: 8496 1ebf 43b9 41bf b82f 5ebf f65f 1dbf
00000050: a9a7 48bf 0e1c a53e f710 7b3d 563b 913f
00000060: 55bc f63d 9ea8 68bf ef72 743f ca3f 97be
00000070: 40f3 74bf 60b8 f2bb 1b5f 21bf 9c1b 8dbe
00000080: 609d 55bf 81e2 42bf 5535 0e3f 9134 163f
00000090: 1e32 843e 34af 95bf 39e2 db3f 6227 b6be
000000a0: f142 c3bd 3673 ffbd a3af d9bd 4abe 22bf
000000b0: eebd 973e 1dcb 80bf 8d01 44be 8c43 d73d
000000c0: 484d 923f 2a2a c73f 7c63 febe e81b 77bf
000000d0: ab37 7abf c53e 6a3f 2b0c 84be 626d b13f
000000e0: 9dfc 21bf bce9 81be 95ad 2bbf c7a8 5bbf
000000f0: 1fb1 3fbf e70e dfbe 4266 93be 79fa 93bf
00000100: 6fed a23f 2424 6f3e ea38 9fbd 6af6 75be
00000110: 8d4a 64bf 55ca 903f cb3c 18bf 2ccf dabe
00000120: 48ee 513e 3a8c 073f e085 4cbd 3b09 233f
00000130: 6890 85bf a1f3 45bf fa50 9b3f 7fa7 a73d
00000140: 7fed 6abd 2f0d 04bf 8b51 a03f e711 dfbe
00000150: 31e4 2bbf 14ed bebc 8e06 bfbe cabc 25bf
00000160: 94c9 17be 4fc8 edbe a8a2 1abf b257 363f
00000170: ec9b 5bbd b3f5 813e 1498 62bf f7e0 e6be
00000180: 2151 04bf 1b54 07bf e4d2 e8be f57e bebe
00000190: 4dad d0be 2ce8 59bf 66e3 543e e248 b9be
000001a0: 4d84 d8be af5a 323d 7e73 07bf 4488 8dbe
000001b0: 42fe a9bd e38f 523e ff61 9bbd 013c 583f
000001c0: 3fc4 0bbf bf19 853d 63c1 86be ad5b 6dbf
000001d0: ca8a 6cbe 47e8 4dbe 51e0 c03e 95e5 30bf
000001e0: a9f9 ba3e 9e34 00bf 95b0 f43d 587a b93e
000001f0: c2ef 54bf e923 23bf da76 98bd fdf3 a2bf

fc2.weight f4 [128, 128]
-0.5308729 0.7338147 -0.19533873 0.8101561 -1.1628413 0.8052719 -0.7801208 -0.3602879
1.1346966 1.0459193 1.1485033 -0.007987285 -1.471805 0.3607571 -0.22996615 -0.33999228
0.14128318 0.2142771 0.11524105 -0.80283475 -0.12187599 0.2730068 0.21837144 0.08783145
-2.0996397 -2.6115854 -0.076561734 0.65104777 -1.6031631 1.2608011 0.91913813 -0.12073211
-0.5076056 0.37040082 -1.2916434 0.8954611 -0.12103953 -0.121924706 -2.2295163 -0.36971408
-0.09159369 -0.02074116 1.6978106 -0.12367257 -1.3668252 0.18445309 0.44447324 0.07704274
-1.0366718 0.71857166 0.9064491 0.34034905 1.1629727 0.8490763 -0.27283138 -0.08585498
0.7559564 -0.53435963 -0.6826786 -0.87997335 0.7134428 -0.3080987 -0.16122115 -0.8694793
0.08591822 -1.1499431 0.009208351 0.30055732 -0.49350908 -0.51070297 0.12729107 0.15083079
0.6976741 -2.2151787 -1.3212013 -0.940184 -0.12317363 0.56386733 0.122581035 -0.6753887
0.029900266 0.5288675 -0.70256865 0.17156334 -0.12342298 -0.7961577 0.36778182 0.3744963
-0.828598 0.27692512 -0.24744877 -0.14628997 1.0337368 -0.057218052 -0.57433164 0.54410446
0.5066951 -0.91904396 1.0051975 -0.11690407 -0.39714295 -1.4895604 0.6493806 0.047798615
-0.4984616 -0.7905194 -0.4642555 0.48401594 -0.02480464 0.18013632 0.67058384 -1.6715834
1.0954871 -0.92278093 0.28334272 -0.6026179 -0.16068532 -2.4065754 1.5614328 0.48620018
-0.8958802 -1.202287 0.7560123 -1.7179457 -0.6892306 0.1841233 0.09341891 -0.8205062
0.017349716 0.10112659 0.10488197 -0.14703995 0.030136196 -0.099238925 -0.13986047 -0.13475691
-0.1272951 0.03695606 -0.0059202965 -0.08398268 -0.119245574 -0.059947796 0.0314263 0.060049545
-0.12813422 -0.08102242 -0.048567276 0.0039288644 -0.06883368 -0.13691087 0.09416434 0.014787692
-0.09101821 0.11996541 -0.15791348 0.014751795 -0.016322514 -0.14620744 -0.0075880312 0.0031030348
-0.054509614 -0.053861633 -0.18873519 -0.05326649 -0.001520866 -0.11833179 -0.03871717 -0.09943307
0.014531381 -0.084103264 -0.08513133 -0.09349098 -0.039180484 -0.01500478 -0.09719258 -0.06540823
-0.122340426 0.04008626 -0.05678916 0.026010342 0.00585049 -0.0921735 -0.07384485 -0.026888663
-0.083082914 0.06773205 -0.0071305255 -0.0632907 0.008912631 -0.18704644 -0.04299388 -0.06904024
-0.03465414 0.06488566 -0.06517978 -0.06908566 0.05378011 -0.12624714 -0.0873162 -0.098215714
0.08113054 -0.08403172 -0.026427386 -0.010635678 0.023157237 -0.041420806 -0.036812168 0.0056519094
0.012145169 -0.14287059 -0.040003665 0.009748009 0.0034269919 0.04875848 -0.13249359 -0.21811484
-0.08913468 0.030104749 0.0055259895 -0.0995592 -0.100534506 -0.107767425 -0.026538538 -0.11171095
0.01662548 -0.025758453 -0.13915667 -0.08936317 0.110798165 0.07240619 -0.03386676 -0.07405661
-0.088562176 -0.04872803 0.040519286 -0.07748125 -0.07225221 0.058058962 -0.015172348 0.03727885
-0.06952406 -0.1481659 -0.10030937 -0.08212825 -0.06673965 0.11011751 0.025602473 -0.11448924
-0.12101073 0.003558784 -0.097179055 -0.035929512 -0.006990159 0.00072535314 -0.08004268 -0.019863473
00000000: 49e7 07bf 48db 3b3f e006 48be 6466 4f3f
00000010: fcd7 94bf 4d26 4e3f ffb5 47bf a877 b8be
00000020: bd3d 913f afe0 853f 2802 933f 1add 02bc
00000030: 1b64 bcbf 28b5 b83e 3f7c 6bbe 7813 aebe
00000040: 8aac 103e 756b 5b3e 8003 ec3d 9486 4dbf
00000050: 1e9a f9bd 8cc7 8b3e c39c 5f3e fae0 b33d
00000060: 7f60 06c0 3724 27c0 66cc 9cbd 11ab 263f
00000070: 7334 cdbf ee61 a13f a34c 6b3f 6642 f7bd
00000080: 71f2 01bf 2da5 bd3e 9254 a5bf f03c 653f
00000090: 93e3 f7bd a9b3 f9bd 65b0 0ec0 2a4b bdbe
000000a0: 7995 bbbd 5de9 a9bc dc51 d93f 0b48 fdbd
000000b0: 21f4 aebf 45e1 3c3e ff91 e33e 96c8 9d3d
000000c0: a9b1 84bf 50f4 373f 0c0d 683f 3b42 ae3e
000000d0: 4adc 943f 105d 593f 8eb0 8bbe bcd4 afbd
000000e0: 5c86 413f cbcb 08bf 06c4 2ebf ef45 61bf
000000f0: 30a4 363f 1dbf 9dbe 2817 25be 3296 5ebf
00000100: e4f5 af3d 5631 93bf a0de 163c a6e2 993e
00000110: 39ad fcbe 6ebd 02bf 9758 023e 6373 1a3e
00000120: c59a 323f 7dc5 0dc0 201d a9bf e6af 70bf
00000130: 7542 fcbd 9c59 103f c40b fb3d 46e6 2cbf
00000140: 67f1 f43c dc63 073f 8adb 33bf 4dae 2f3e
00000150: 30c5 fcbd fed0 4bbf e64d bc3e fbbd bf3e
00000160: 001f 54bf 21c9 8d3e 3663 7dbe 0acd 15be
00000170: 7d51 843f 7a5d 6abd 6607 13bf 6e4a 0b3f
00000180: c5b6 013f 7746 6bbf 50aa 803f 676b efbd
00000190: 5256 cbbe eaa9 bebf cf3d 263f 7bc8 433d
000001a0: 5c36 ffbe 7b5f 4abf e6b2 edbe f0d0 f73e
000001b0: 1a33 cbbc a875 383e 62ab 2b3f 72f6 d5bf
000001c0: ec38 8c3f 5f3b 6cbf 4c12 913e 2b45 1abf
000001d0: b18a 24be 5505 1ac0 08dd c73f 3bef f83e
000001e0: 6858 65bf 8ae4 99bf 068a 413f a5e5 dbbf
000001f0: 6b71 30bf d18a 3c3e 6a52 bf3d b20c 52bf
00000200: fe20 8e3c 751b cf3d 5ccc d63d a491 16be
00000210: 2fe0 f63c c73d cbbd 9537 0fbe b7fd 09be
00000220: a659 02be 3d5f 173d 0cff c1bb 1dff abbd
00000230: 0637 f4bd d28b 75bd ddb8 003d 83f6 753d
00000240: 9e35 03be 15ef a5bd 7bee 46bd b4bd 803b
00000250: acf8 8cbd 5d32 0cbe 3cd9 c03d 1348 723c
00000260: c167 babd 6db0 f53d 12b4 21be 83b1 713c
00000270: cbb6 85bc 67b7 15be 05a5 f8bb 495c 4b3b
00000280: 7945 5fbd 049e 5cbd cc43 41be f72d 5abd
00000290: cb57 c7ba f057 f2bd e595 1ebd 91a3 cbbd
000002a0: 0815 6e3c 553e acbd 5659 aebd 3378 bfbd
000002b0: b77b 20bd 9cd6 75bc e70c c7bd c0f4 85bd
000002c0: 9e8d fabd 7d31 243d c09b 68bd a413 d53c
000002d0: 78b5 bf3b 76c5 bcbd f83b 97bd 9d45 dcbc
000002e0: 6027 aabd 1ab7 8a3d 2fa7 e9bb 8e9e 81bd
000002f0: 4906 123c 1a89 3fbe 5a1a 30bd f864 8dbd
00000300: 80f1 0dbd c6e2 843d fa7c 85bd c87c 8dbd
00000310: 8848 5c3d ee46 01be d6d2 b2bd 5225 c9bd
00000320: c527 a63d d318 acbd 3f7e d8bc 4441 2ebc
00000330: 3fb4 bd3c dda8 29bd 5bc8 16bd a733 b93b
00000340: 88fc 463c ab4c 12be e2da 23bd 1db6 1f3c
00000350: 6297 603b f9b6 473d 66ac 07be 7f59 5fbe
00000360: 3e8c b6bd 3c9e f63c 5c13 b53b b2e5 cbbd
00000370: 09e5 cdbd 2bb5 dcbd 5967 d9bc b6c8 e4bd
00000380: 2932 883c 6403 d3bc 167f 0ebe 0a04 b7bd
00000390: 26ea e23d b249 943d dfb7 0abd feaa 97bd
000003a0: 1660 b5bd 0b97 47bd 8df7 253d 7dae 9ebd
000003b0: f7f8 93bd 3ccf 6d3d 7195 78bc b5b1 183d
000003c0: a162 8ebd cdb8 17be 006f cdbd db32 a8bd
000003d0: ccae 88bd 4a85 e13d 47bc d13c 5679 eabd
000003e0: 79d4 f7bd 7d3a 693b d005 c7bd d32a 13bd
000003f0: b40d e5bb a025 3e3a 6bed a3bd b9b8 a2bc

fc2.bias f4 [128]
0.38260895 -0.17811081 -0.37535596 1.2407799 -0.096315086 -0.5140085 0.13342151 -0.05144184
-1.2534934 0.042107675 1.1277037 -0.10373453 0.19574131 0.29365936 -1.1430011 1.2006674
-0.19682813 1.3105522 0.81961155 1.0186915 0.7760411 1.01194 -0.13131148 0.060875587
-0.7217909 -0.880108 0.7106494 -0.39441833 -0.3584028 -0.11015876 1.3879445 0.040992107
0.9526282 0.067507 0.39345166 -0.14683658 -0.1375339 0.28514037 -0.5773469 0.4592912
-0.43278602 1.0422059 0.78699374 0.7982615 1.077819 -0.17179391 -0.08466109 1.3202156
0.15478711 -0.08514839 0.705129 0.28872094 -0.74414945 0.6402234 0.32190365 0.73872334
-0.056665406 -0.18777022 -0.1484971 -0.4292775 -0.3314588 -0.15033118 0.24255681 0.849715
-0.64022034 0.6021631 1.0453413 0.9992474 -0.6718771 -0.16252734 0.8811628 -0.21656673
0.0059793363 -0.31652826 0.90338975 0.73051196 0.5846419 -0.2136461 0.547339 -0.14781205
0.67059106 -0.11212799 0.64053077 -0.50912565 0.12037946 1.0162408 1.2123047 0.79561013
-0.09498053 0.55800265 0.2889823 -0.14332078 -0.14620483 -0.73024213 -0.10801582 0.03197566
0.43714282 1.05925 1.0433578 0.1919277 -0.745924 1.1878169 0.52320176 1.0426571
-0.18696862 -0.1393336 -0.15769607 1.1527578 -0.28672582 -0.051017605 0.45926523 -0.14328492
0.76322585 -0.47202587 -0.07609229 0.3452774 -0.14901887 0.3338134 -0.010210257 -0.25149342
-0.15843284 -0.52673584 0.5954386 0.5458516 -0.037753522 -0.20904675 -0.1446691 0.55884045
00000000: 52e5 c33e ae62 36be a82e c0be e0d1 9e3f
00000010: d840 c5bd 1096 03bf a69f 083e aeb4 52bd
00000020: 7972 a0bf 1979 2c3d 9858 903f c572 d4bd
00000030: 6970 483e 855a 963e dc4d 92bf 78af 993f
00000040: 508d 49be 2dc0 a73f 10d2 513f 7c64 823f
00000050: a1aa 463f 4087 813f 8476 06be ae58 793d
00000060: 4ac7 38bf c24e 61bf 1eed 353f 33f1 c9be
00000070: 9280 b7be ea9a e1bd 2aa8 b13f 57e7 273d
00000080: 71df 733f 1c41 8a3d 7f72 c93e 545c 16be
00000090: b0d5 0cbe ebfd 913e 02cd 13bf 3728 eb3e
000000a0: 2196 ddbe 0167 853f 6c78 493f de5a 4c3f
000000b0: f9f5 893f beea 2fbe cb62 adbd d3fc a83f
000000c0: 8380 1e3e 4762 aebd 5683 343f 3bd3 933e
000000d0: 9480 3ebf aee5 233f 8ed0 a43e f91c 3d3f
000000e0: fc19 68bd d646 40be a00f 18be 43ca dbbe
000000f0: f8b4 a9be 6bf0 19be d060 783e ec86 593f
00000100: 7be5 23bf 5c27 1a3f becd 853f adce 7f3f
00000110: 2300 2cbf 916d 26be e393 613f abc3 5dbe
00000120: 4fee c33b fe0f a2be 8d44 673f d502 3b3f
00000130: 17ab 153f 0bc6 5abe 691e 0c3f 0b5c 17be
00000140: dbab 2b3f 5ca3 e5bd d3f9 233f 0f56 02bf
00000150: 8289 f63d 2e14 823f cd2c 9b3f 1bad 4b3f
00000160: 2785 c2bd 43d9 0e3f 7df5 933e afc2 12be
00000170: b8b6 15be 26f1 3abf 6637 ddbd e9f8 023d
00000180: 2fd1 df3e 8195 873f c08c 853f b288 443e
00000190: e0f4 3ebf 620a 983f 8df0 053f ca75 853f
000001a0: b474 3fbe 78ad 0ebe 147b 21be 918d 933f
000001b0: bacd 92be d6f7 50bd d024 eb3e 48b9 12be
000001c0: c562 433f 60ad f1be 46d6 9bbd 33c8 b03e
000001d0: 6798 18be 97e9 aa3e ec48 27bc bfc3 80be
000001e0: 383c 22be 29d8 06bf aa6e 183f eebc 0b3f
000001f0: 70a3 1abd 5a10 56be 2324 14be 2b10 0f3f

fc3.weight f4 [128, 128]
-0.09351747 -0.029147333 -0.2598743 -0.31674954 -0.08057967 -0.17607704 0.046672434 0.30536336
-0.74779147 1.164733 1.4729718 -0.019344084 -1.2869594 0.8794508 -0.35833746 -0.5247848
-0.034481145 0.6525521 -0.80307215 -0.88462985 0.23227994 1.2336748 -0.005972836 -1.359382
-0.79015666 -2.2477086 1.2656859 0.10693753 0.31068373 0.06790428 -2.9367163 1.0296565
-0.38291535 -1.1550357 -0.19511466 0.020350693 -0.04048359 -1.0710013 -0.26346445 -0.13981922
-0.050430067 0.12162301 1.2678216 -1.102243 0.17789817 -0.08048773 -0.23224978 0.24529122
-0.4062715 -0.057340875 -1.4876634 -0.80577147 0.7248986 0.67401034 0.009759101 -0.36651665
0.010194601 -0.14767018 -0.42026317 -0.9504768 -1.0052214 -0.009305444 -0.5488957 -1.4318317
0.68605065 -3.6467116 0.7394934 -2.4058814 0.064967886 -0.032005608 -1.1109543 0.3906916
0.7993438 0.16732754 -1.2535024 -0.24618286 0.13348901 -1.2517548 0.5766723 -0.034435216
-0.517734 -0.5694797 0.24784368 -0.044474725 -0.025519123 -1.3026148 -1.9288565 0.038021903
0.08509517 1.6931692 -0.09359619 -0.0014282792 -0.061632145 -0.5324429 0.06774389 0.0008094308
-2.023391 1.2904598 -0.036687165 0.38769415 -0.6858216 -0.458749 1.5011703 -1.85437
-0.111822926 -0.9501146 -0.07490307 0.9827097 -0.03920513 0.024485711 -0.05467388 -0.010614445
0.11017904 0.2514678 -0.2991109 -0.06469874 -0.03551664 -0.91587657 0.0945321 0.02672171
0.5008035 -0.07328801 0.49311116 0.2834102 0.9790025 -1.5639586 -0.025614703 1.9972382
-0.8804046 0.036719374 -1.031023 -0.07598017 -0.03708055 0.633468 -0.56084555 -2.1107347
-0.5715719 -0.2992177 -0.91479284 -0.084076375 -1.0711056 -0.057670187 -1.1532581 -0.59849644
0.064659506 0.70997816 0.45628333 0.82552594 0.0045084413 -0.6367438 -0.03215412 -2.0643663
1.1402887 -0.65848815 0.62750673 0.17899346 -0.21738282 0.09450806 -0.011173524 -0.80222565
-1.3744234 -0.21232705 -0.9549634 0.057038832 0.002682551 -2.3186553 1.0359526 -0.36862704
0.6182928 -0.64979744 -0.48111385 0.55429846 0.2653705 0.05892754 -1.9747905 0.55497193
0.49914023 -0.042016692 1.0750616 0.6416003 -1.2879289 -1.2495271 0.08348259 -1.6573826
0.014362225 0.31788608 -0.023000967 -1.1233034 -1.1143935 0.023453536 -0.66575646 -0.0074043483
-1.2862829 -1.8472118 -0.34747487 -0.7132403 0.36322245 -0.0263107 0.37346992 0.3453354
0.76187456 0.44070575 0.19282721 -0.96065503 -0.37741753 -0.2220422 -1.4580452 -0.014201046
0.69136655 -1.0247043 -0.59593916 -1.186328 0.46255997 0.123724006 0.45698813 0.1473394
-0.04605511 -0.51886606 0.76879877 -0.004392156 0.067850254 0.39382985 -0.14407611 0.7157006
1.1525859 0.2251211 1.3731433 -3.028357 -0.4799559 0.73362255 0.8452742 0.85638016
-0.08871719 -0.84009355 0.04513479 -0.0067151673 -0.33089018 0.06514656 0.6415136 0.07602502
1.0954169 0.028436484 -0.24930844 -0.28354064 0.027337188 -0.5588614 -1.2703071 -0.91753244
-0.34673244 -0.9026584 -0.429453 -1.4850702 -1.8605638 -1.8662694 0.05332238 -1.3626564
00000000: 1686 bfbd 63c6 eebc 3f0e 85be ff2c a2be
00000010: f406 a5bd 8a4d 34be 982b 3f3d 9658 9c3e
00000020: 436f 3fbf f915 953f 578a bc3f 7c77 9ebc
00000030: 16bb a4bf b023 613f 0278 b7be 4c58 06bf
00000040: 1a3c 0dbd a80d 273f 2396 4dbf 1a77 62bf
00000050: cbda 6d3e 0ee9 9d3f c8b7 c3bb 3b00 aebf
00000060: b547 4abf 75da 0fc0 ff01 a23f 1002 db3d
00000070: f011 9f3e 6611 8b3d 29f3 3bc0 c9cb 833f
00000080: 7b0d c4be 36d8 93bf 23cc 47be 7fb6 a63c
00000090: 1fd2 25bd 9216 89bf d0e4 86be c52c 0fbe
000000a0: c28f 4ebd 7c15 f93d fa47 a23f 4c16 8dbf
000000b0: f02a 363e c0d6 a4bd e3d2 6dbe 9f2d 7b3e
000000c0: d102 d0be 44de 6abd c16b bebf 0a47 4ebf
000000d0: f492 393f f18b 2c3f a3e4 1f3c 12a8 bbbe
000000e0: 4107 273c da36 17be bc2c d7be 7352 73bf
000000f0: 18ab 80bf dc75 18bc 6e84 0cbf 4346 b7bf
00000100: 04a1 2f3f b963 69c0 714f 3d3f f6f9 19c0
00000110: e20d 853d 5018 03bd c033 8ebf bb08 c83e
00000120: cca1 4c3f e957 2b3e c472 a0bf 5c17 7cbe
00000130: 58b1 083e 8039 a0bf cca0 133f f10b 0dbd
00000140: 378a 04bf 6cc9 11bf bcca 7d3e 212b 36bd
00000150: 7b0d d1bc 15bc a6bf c5e4 f6bf dbbc 1b3d
00000160: 6046 ae3d c5b9 d83f 5caf bfbd 1935 bbba
00000170: fd71 7cbd 2e4e 08bf 4fbd 8a3d fb2f 543a
00000180: 3d7f 01c0 c92d a53f 4845 16bd d97f c63e
00000190: 0192 2fbf 26e1 eabe 5926 c03f ff5b edbf
000001a0: 6b03 e5bd b63a 73bf c866 99bd dd92 7b3f
000001b0: 8f95 20bd 4296 c83c b8f1 5fbd 36e8 2dbc
000001c0: 8ca5 e13d 63c0 803e 1025 99be c680 84bd
000001d0: e579 11bd e376 6abf 0c9a c13d 7de7 da3c
000001e0: a834 003f 0618 96bd 1179 fc3e 241b 913e
000001f0: e89f 7a3f cc2f c8bf edd5 d1bc 80a5 ff3f
00000200: 3262 61bf 0e67 163d 90f8 83bf 7e9b 9bbd
00000210: c6e1 17bd f52a 223f 9393 0fbf 4716 07c0
00000220: 8952 12bf 1033 99be dd2f 6abf 3c30 acbd
00000230: fd19 89bf 9337 6cbd f69d 93bf 1037 19bf
00000240: 346c 843d 21c1 353f f89d e93e ab55 533f
00000250: 8cbb 933b a401 23bf 0ab4 03bd 941e 04c0
00000260: fbf4 913f ae92 28bf 48a4 203f 104a 373e
00000270: 9a99 5ebe 718d c13d 2811 37bc a95e 4dbf
00000280: 1bed afbf 436c 59be 7b78 74bf 8da1 693d
00000290: bdcd 2f3b d964 14c0 189a 843f afbc bcbe
000002a0: 7048 1e3f 2059 26bf 8e54 f6be 81e6 0d3f
000002b0: a4de 873e 015e 713d efc5 fcbf a412 0e3f
000002c0: 4f8f ff3e b219 2cbd 9e9b 893f eb3f 243f
000002d0: dbda a4bf 81f0 9fbf ecf8 aa3d 1d25 d4bf
000002e0: 8a4f 6b3c f7c1 a23e 866c bcbc 68c8 8fbf
000002f0: 72a4 8ebf a121 c03c 046f 2abf 2da0 f2bb
00000300: eba4 a4bf 7071 ecbf 3ae8 b1be eb96 36bf
00000310: 4bf8 b93e 8a89 d7bc 7337 bf3e cdcf b03e
00000320: 360a 433f 2fa4 e13e 7f74 453e 7ded 75bf
00000330: df3c c1be 085f 63be 3aa1 babf 81ab 68bc
00000340: 66fd 303f 8329 83bf 788f 18bf 99d9 97bf
00000350: a9d4 ec3e 0363 fd3d 59fa e93e 24e0 163e
00000360: 48a4 3cbd 68d4 04bf ffcf 443f 13ec 8fbb
00000370: 13f5 8a3d 11a4 c93e b088 13be 2838 373f
00000380: ef87 933f 2586 663e 29c3 af3f 9ad0 41c0
00000390: c8bc f5be b0ce 3b3f e463 583f bb3b 5b3f
000003a0: 5cb1 b5bd 5f10 57bf 42df 383d e80a dcbb
000003b0: 706a a9be 8f6b 853d 3c3a 243f 01b3 9b3d
000003c0: 9f36 8c3f a1f3 e83c b64a 7fbe 3d2c 91be
000003d0: 3df2 df3c 8a11 0fbf 6c99 a2bf 68e3 6abf
000003e0: ea86 b1be 9f14 67bf 43e1 dbbe c816 bebf
000003f0: f426 eebf eae1 eebf 9168 5a3d 866b aebf

fc3.bias f4 [128]
1.5474378 1.250021 0.85769856 -0.08405307 -0.052632492 0.71597296 -0.15562275 1.7185317
-0.055685036 0.017530262 0.58564425 -0.15424204 -0.12032285 -0.083787195 0.9898883 1.2327161
1.2036391 -0.12896028 0.35255367 -0.030158928 -0.15790805 -0.099362366 1.315644 1.3706781
1.1587884 1.3667173 -0.04950063 1.3993347 1.1990603 -0.010923382 1.0901406 1.0253139
-0.12250397 -0.07634068 -0.018727036 -0.052750014 -0.011223947 -0.05002416 -0.049078938 -0.19835533
0.90371567 -0.05062171 1.0764407 -0.11648917 -0.08685747 1.1907116 -0.107224084 -0.06952533
1.4904932 -0.011923893 1.2083442 0.70636094 0.96208036 -0.120732374 1.3741971 -0.08275774
-0.12487363 -0.039569166 1.6930379 1.0147563 -0.081987314 0.7884666 1.4781781 -0.094835036
-0.09743582 -0.20121427 0.81107914 0.89701164 -0.10174884 0.575627 0.21871585 -0.07955078
-1.0047749 1.5020744 1.7076173 1.2471325 0.8046284 -0.13547508 0.52398145 1.8870525
-0.9516205 0.23575504 -0.14448257 -0.089886144 1.0057284 1.5734009 1.2203329 -0.04054296
-0.10711878 -0.16189186 1.1216426 -0.08676212 -0.13661139 1.2506173 -0.026065636 -0.04755854
0.9059317 0.2925381 -0.18141153 -0.06411237 0.025835942 -0.13286684 1.2870984 0.4847918
1.7631063 1.2321864 -0.09323193 0.4900662 0.78902966 1.3503957 1.1464244 1.0890652
1.5588859 -0.115823284 -0.11963257 -0.00023213714 0.44014657 -0.091198936 0.5281996 -0.088792264
-0.033220842 -0.015377585 -0.08848735 -0.025744526 1.7692004 0.9272681 1.4378688 -0.10939221
00000000: 7112 c63f b000 a03f 2292 5b3f 0424 acbd
00000010: 2b95 57bd 014a 373f 925b 1fbe d9f8 db3f
00000020: fe15 64bd a09b 8f3c c8ec 153f a0f1 1dbe
00000030: d46b f6bd 9f98 abbd 5269 7d3f a4c9 9d3f
00000040: d910 9a3f 2a0e 04be ea81 b43e db0f f7bc
00000050: a6b2 21be 7f7e cbbd 0667 a83f 6172 af3f
00000060: 2e53 943f 98f0 ae3f 2cc1 4abd 661d b33f
00000070: cf7a 993f fcf7 32bc ba89 8b3f 7c3d 833f
00000080: 5de3 fabd 8158 9cbd 7169 99bc 6610 58bd
00000090: a5e4 37bc 22e6 4cbd ff06 49bd a91d 4bbe
000000a0: e959 673f b658 4fbd cfc8 893f e091 eebd
000000b0: 54e2 b1bd 3d69 983f 4d98 dbbd 4c63 8ebd
000000c0: 7bc8 be3f 6f5c 43bc 06ab 9a3f 12d4 343f
000000d0: e64a 763f 8942 f7bd b1e5 af3f e47c a9bd
000000e0: bfbd ffbd 4713 22bd 77b5 d83f 89e3 813f
000000f0: f7e8 a7bd f2d8 493f f134 bd3f df38 c2bd
00000100: 6e8c c7bd 1d0b 4ebe e2a2 4f3f 8ea2 653f
00000110: b261 d0bd 4b5c 133f 0cf7 5f3e 85eb a2bd
00000120: 779c 80bf f943 c03f 3493 da3f 0aa2 9f3f
00000130: 20fc 4d3f fbb9 0abe a623 063f f08a f13f
00000140: 679d 73bf c569 713e 3df3 13be 3a16 b8bd
00000150: b5bb 803f 3365 c93f de33 9c3f 6010 26bd
00000160: 1761 dbbd fbc6 25be fc91 8f3f 57b0 b1bd
00000170: dbe3 0bbe 3a14 a03f 9a87 d5bc becc 42bd
00000180: 24eb 673f 8ec7 953e f2c3 39be 594d 83bd
00000190: e6a5 d33c 3f0e 08be a4bf a43f a136 f83e
000001a0: 78ad e13f 49b8 9d3f 62f0 bebd f5e9 fa3e
000001b0: d9fd 493f c4d9 ac3f 09be 923f 7d66 8b3f
000001c0: 9389 c73f c234 edbd ec01 f5bd d769 73b9
000001d0: e45a e13e 82c6 babd 1738 073f b8d8 b5bd
000001e0: 9412 08bd 44f2 7bbc db38 b5bd 2fe6 d2bc
000001f0: 2975 e23f 7161 6d3f 160c b83f 0609 e0bd

fc4.weight f4 [32, 128]
-0.13122489 -0.78293383 0.2934056 0.022231564 0.005175321 -0.11285326 0.062260248 1.0866058
-0.0019796062 0.05864968 -0.31612885 0.026402174 0.05281915 -0.11497197 2.050898 1.3715389
0.3713376 0.006521264 0.028947482 0.066755 0.090950124 0.10627212 0.28413445 1.0625025
0.30227023 -1.1007745 0.06309428 0.21310757 -0.421015 0.0065741506 0.2313321 0.73801106
-0.018968452 -0.030166252 0.077399135 -0.023712939 -0.13772526 0.04155318 -0.03829862 0.17423303
-0.35665342 -0.05672066 0.35608625 0.12876154 -0.037332546 -0.35068372 -0.15050942 0.042320654
-0.17017739 -0.048904855 -0.4803575 -1.3418202 -0.013746316 -0.013176774 0.21048023 -0.026975624
0.031136239 0.17645569 0.9287141 -1.2603053 -0.108549744 -0.20494299 0.06557918 0.121516876
-0.012589696 -0.27493203 1.2728227 -0.42578748 0.045502853 0.48701295 -1.9336438 -0.0016991546
0.88669497 -0.052170403 1.3835732 0.23071143 0.27690157 0.18080242 0.15934734 0.9828221
-0.34301394 0.03441093 0.120338134 0.08124888 0.24459453 -0.39361134 -0.29684147 0.011379614
0.5730635 -0.013789845 -2.2669117 -0.16449106 -0.105313614 -0.32184604 -0.08062454 -0.025075316
1.3546526 0.12564084 0.033897568 0.0045264084 -1.9049653 0.049453154 1.0258797 -0.6753563
0.5990048 0.5944454 -0.036003694 0.18978083 -0.574158 0.6209941 -0.12501808 0.6952815
1.1165576 0.032258827 -0.9584905 -0.060764577 1.7519904 -0.015632158 -1.1202954 0.14223213
-0.03737389 -0.049156293 -0.016363095 -0.021725079 -1.1726615 -0.76752555 0.3866389 0.09359538
1.1530733 -0.6903618 0.7534488 0.050334968 0.078062914 -0.24733904 -0.03526958 1.7094127
0.107447326 -0.06581806 0.5519213 0.016413298 -0.037371147 -0.43811223 -0.44585004 0.56179965
-0.19385059 -0.02935928 0.40080643 -0.016854674 0.025330184 0.015447785 0.8369535 0.92637736
0.75603503 -0.7153964 -0.0050655687 0.14832781 0.22127844 0.018317888 0.14465582 0.93971586
0.035033062 -0.04678338 -0.0027682006 0.057927083 -0.07688135 0.041614592 -0.05507003 -0.1839918
0.6969961 0.008495266 0.8800919 -0.0012541034 0.042735092 0.7338084 0.06768612 -0.04472064
0.3516588 -0.019711066 1.0450817 -0.1772108 0.95824605 -0.018764839 0.26116136 0.081529036
-0.0066218814 0.057803243 0.637048 -0.04311556 -0.05720095 0.42625284 0.65276706 0.025082283
-0.009114652 -0.09433689 0.57944083 -0.7629963 0.017998599 0.94011486 0.20713694 -0.10071721
0.29458976 0.60798 0.264112 -0.8789571 0.21765308 -0.32276046 -0.010393841 0.4142084
0.103970565 0.07312462 -0.06916499 -0.08087111 0.040632445 1.6661676 -0.0075675203 -0.046231948
0.48945817 -0.002984591 0.05710461 -0.0009949702 0.047792077 0.7206426 0.0062404135 -0.023606224
0.48686612 -0.70584935 -0.007815296 -0.04509058 0.11886518 -0.01888902 -0.8069956 -0.1508948
0.27980408 0.54648286 0.0040965 0.5642278 0.45728654 0.84237117 0.36989236 -0.096007
0.6093814 0.07310436 -0.58298254 -0.025464252 0.6999109 0.023123054 -0.25272927 0.00032171112
-0.03007776 -0.062440556 0.05954768 0.015447268 1.2219902 1.5375284 0.26670736 -0.023312494
00000000: d15f 06be 5a6e 48bf 4239 963e f81e b63c
00000010: bd95 a93b 9c1f e7bd 9a04 7f3d e615 8b3f
00000020: 48bc 01bb a63a 703d a4db a1be 5f49 d83c
00000030: e558 583d 6d76 ebbd ea41 0340 968e af3f
00000040: f61f be3e 54b0 d53b 4523 ed3c d8b6 883d
00000050: 0f44 ba3d 32a5 d93d 127a 913e 1500 883f
00000060: 2ac3 9a3e 2ee6 8cbf 9337 813d df38 5a3e
00000070: 478f d7be f96b d73b 52e2 6c3e 4bee 3c3f
00000080: ba63 9bbc 371f f7bc 7083 9e3d a341 c2bc
00000090: da07 0dbe ab33 2a3d 04df 1cbd 256a 323e
000000a0: 479b b6be ec53 68bd f050 b63e 11da 033e
000000b0: 03ea 18bd d18c b3be 241f 1abe 6c58 2d3d
000000c0: fb42 2ebe 7550 48bd 6bf1 f5be c4c0 abbf
000000d0: 3a38 61bc 65e3 57bc 2188 573e fcfb dcbc
000000e0: 6d11 ff3c cdb0 343e 35c0 6d3f af51 a1bf
000000f0: 544f debd 93dc 51be 614e 863d d7dd f83d
00000100: 0345 4ebc e4c3 8cbe dbeb a23f d100 dabe
00000110: 3361 3a3d c359 f93e a481 f7bf 2bb6 deba
00000120: 71fe 623f a2b0 55bd ed18 b13f 9e3f 6c3e
00000130: 0bc6 8d3e 4524 393e f32b 233e 3b9a 7b3f
00000140: 869f afbe 7af2 0c3d d773 f63d d065 a63d
00000150: fd76 7a3e 6d87 c9be 9bfb 97be 8f71 3a3c
00000160: 4ab4 123f cdee 61bc 1515 11c0 5870 28be
00000170: aaae d7bd 01c9 a4be 7b1e a5bd c06a cdbc
00000180: 4265 ad3f fea7 003e 2dd8 0a3d 4452 943b
00000190: e7d5 f3bf 648f 4a3d 0750 833f 27e4 2cbf
000001a0: 6158 193f 932d 183f 9c78 13bd e855 423e
000001b0: 05fc 12bf 78f9 1e3f bd04 00be f8fd 313f
000001c0: 5ceb 8e3f d521 043d a25f 75bf 47e4 78bd
000001d0: 3941 e03f 030f 80bc d765 8fbf 4da5 113e
000001e0: 5d15 19bd 1c58 49bd e60b 86bc cbf8 b1bc
000001f0: c619 96bf 8e7c 44bf 89f5 c53e efae bf3d
00000200: e897 933f 8dbb 30bf 05e2 403f 0a2c 4e3d
00000210: 73df 9f3d 7246 7dbe d676 10bd 09ce da3f
00000220: 580d dc3d 9ecb 86bd b74a 0d3f 2e75 863c
00000230: 7d12 19bd 3f50 e0be 7546 e4be 1ad2 0f3f
00000240: c580 46be df82 f0bc 8036 cd3e d012 8abc
00000250: 3f81 cf3c b518 7d3c 9642 563f 1127 6d3f
00000260: 838b 413f 3824 37bf 12fd a5bb 3fe3 173e
00000270: d196 623e 650f 963c a820 143e 3891 703f
00000280: d47e 0f3d ee9f 3fbd b36a 35bb f344 6d3d
00000290: f873 9dbd 1074 2a3d 1d91 61bd 5968 3cbe
000002a0: 566e 323f ba2f 0b3c b44d 613f ba60 a4ba
000002b0: fe0a 2f3d deda 3b3f 059f 8a3d fd2c 37bd
000002c0: 9f0c b43e 1a79 a1bc 3dc5 853f bf76 35be
000002d0: 9d4f 753f b8b8 99bc f1b6 853e b2f8 a63d
000002e0: 5efc d8bb 18c3 6c3d 9415 233f f199 30bd
000002f0: 8b4b 6abd d03d da3e be1b 273f 5c79 cd3c
00000300: 9f55 15bc b333 c1bd 3c56 143f ba53 43bf
00000310: cc71 933c 5eab 703f b51b 543e d344 cebd
00000320: 78d4 963e 94a4 1b3f b039 873e 5503 61bf
00000330: 73e0 5e3e dc40 a5be ee4a 2abc 2013 d43e
00000340: 85ee d43d 5cc2 953d 60a6 8dbd c19f a5bd
00000350: 356e 263d fb44 d53f f6f8 f7bb b65d 3dbd
00000360: 439a fa3e 2199 43bb 86e6 693d a969 82ba
00000370: a0c1 433d 097c 383f 627c cc3b d761 c1bc
00000380: 8446 f93e 8bb2 34bf ba0b 00bc e6b0 38bd
00000390: 966f f33d 25bd 9abc 4397 4ebf 2b84 1abe
000003a0: 7b42 8f3e 4de6 0b3f ef3b 863b 3c71 103f
000003b0: 7621 ea3e a3a5 573f 8862 bd3e 519f c4bd
000003c0: 6b00 1c3f bdb7 953d 583e 15bf 689a d0bc
000003d0: 5c2d 333f 8f6c bd3c bb65 81be 56ab a839
000003e0: a265 f6bc abc1 7fbd 45e8 733d 8a16 7d3c
000003f0: 2d6a 9c3f bbcd c43f de8d 883e d8f9 bebc

fc4.bias f4 [32]
1.2200283 1.0689859 0.86700875 0.22063431 0.018979672 0.60316676 -0.07415754 0.50350165
1.1551285 1.4117085 -0.16436137 -0.021165987 1.1230521 0.14690773 1.045521 0.5157947
-0.19377533 -0.08583763 1.6176898 0.043608468 0.14013468 -0.07766817 0.81539184 -0.15044759
-0.07920088 0.43931895 1.1645627 -0.01700762 1.4719449 -0.1031735 -0.15032367 -0.18374877
00000000: e329 9c3f 88d4 883f 49f4 5d3f f6ed 613e
00000010: 427b 9b3c 2369 1a3f e9df 97bd 7ce5 003f
00000020: 40db 933f ddb2 b43f 594e 28be 4b64 adbc
00000030: 2cc0 8f3f fb6e 163e a2d3 853f 1f0b 043f
00000040: 0a6d 46be a4cb afbd 7610 cf3f cb9e 323d
00000050: 777f 0f3e 7d10 9fbd 85bd 503f ef0e 1abe
00000060: 1234 a2bd 6aee e03e 6410 953f 9053 8bbc
00000070: b168 bc3f a14c d3bd 73ee 19be a328 3cbe

fc5.weight f4 [4, 32]
0.12707919 0.533381 -0.8669842 1.376855 0.057668906 0.47233775 0.0932435 -0.049559206
0.75801545 -0.72406363 -0.015494581 0.083491996 -0.21823747 -0.7324367 0.560759 -0.569332
-0.7928106 0.10387396 0.81659937 0.011152322 -0.20271708 -0.014268746 0.58479404 0.11734163
0.14961483 0.5301843 0.56840754 0.13525021 0.6826667 -0.035653632 -0.009288547 -0.06867465
0.71082973 0.98417896 -0.5601708 -0.016068455 0.02565319 0.6914232 -0.035223003 -0.08073082
-0.04636885 -0.3377022 0.062961265 0.12012621 -0.50507104 0.062268056 -0.10194071 0.21792568
0.4768263 -0.0015052977 1.3288316 -0.04456455 -0.76383835 -0.15622447 0.041937653 -0.011669247
-0.023220297 0.7532135 0.30442548 -0.004695661 0.34349164 0.10415253 0.0051098983 -0.048707463
0.47752562 0.6832498 -1.0936748 0.5384331 6.8455185e-05 0.47793013 -0.11371225 0.17762677
1.0299593 -0.4770082 -0.011420716 0.01892741 -0.4718692 0.19778955 0.59765464 -0.67640984
-1.0296522 0.087873 0.8991937 0.12817374 -0.21288931 0.1019695 -0.30114278 -0.050494924
0.045724872 0.6132617 0.7888035 -0.10145028 0.41035727 0.027519679 -0.014308606 -0.14901404
0.67528135 0.45466143 -0.31881514 0.86871356 0.1037227 0.35923183 -0.036263287 0.2352556
0.3309037 -0.5644745 0.09749772 -0.105787896 -0.77678037 -0.057750415 0.1500505 0.24307041
-0.14555372 0.08968441 1.1272125 0.066807985 -0.29309306 -0.04659736 -0.4034261 -0.031971693
0.05411795 -0.38347948 -0.03366598 0.05379944 0.9753496 -0.122387424 -0.13477184 -0.015952524
00000000: 0c21 023e a88b 083f adf2 5dbf c93c b03f
00000010: 3b36 6c3d 41d6 f13e 73f6 be3d 98fe 4abd
00000020: 4d0d 423f 3c5c 39bf fcdc 7dbc dafd aa3d
00000030: a579 5fbe f980 3bbf e78d 0f3f bebf 11bf
00000040: a3f5 4abf dfbb d43d a80c 513f 3bb8 363c
00000050: 1195 4fbe 75c7 69bc 10b5 153f cf50 f03d
00000060: a134 193e 29ba 073f 2883 113f 087f 0a3e
00000070: 3fc3 2e3f 8b09 12bd fd2e 18bc 4ba5 8cbd
00000080: f0f8 353f 27f3 7b3f 5b67 0fbf fea1 83bc
00000090: a426 d23c 1c01 313f ff45 10bd 3356 a5bd
000000a0: 43ed 3dbd 4ee7 acbe d6f1 803d bb04 f63d
000000b0: 564c 01bf ca0c 7f3d 4ac6 d0bd e927 5f3e
000000c0: 9422 f43e 694d c5ba 2717 aa3f 5189 36bd
000000d0: e98a 43bf 4ff9 1fbe d1c6 2b3d 5f30 3fbc
000000e0: 7e38 bebc 9ad2 403f a8dd 9b3e 0fde 99bb
000000f0: 23de af3e ec4d d53d ef70 a73b 7a81 47bd
00000100: 3d7e f43e 75e9 2e3f 89fd 8bbf c0d6 093f
00000110: 998f 8f38 42b3 f43e f8e1 e8bd cbe3 353e
00000120: b5d5 833f 6b3a f4be f41d 3bbc a80d 9b3c
00000130: d798 f1be 5889 4a3e e5ff 183f 3229 2dbf
00000140: a5cb 83bf c2f6 b33d 8f31 663f fa3f 033e
00000150: a8ff 59be 63d5 d03d 632f 9abe c4d3 4ebd
00000160: 014a 3b3d b8fe 1c3f 07ef 493f 2ac5 cfbd
00000170: 591a d23e f370 e13c a56e 6abc 2397 18be
00000180: 3ddf 2c3f 62c9 e83e bd3b a3be 0364 5e3f
00000190: 916c d43d 3ced b73e d088 14bd d8e6 703e
000001a0: 366c a93e 6781 10bf e2ac c73d 53a7 d8bd
000001b0: 14db 46bf b38b 6cbd d7a6 193e 73e7 783e
000001c0: 090c 15be 76ac b73d 8048 903f a0d2 883d
000001d0: 4b10 96be e0dc 3ebd de8d cebe c0f4 02bd
000001e0: c9aa 5d3d 6c57 c4be 57e5 09bd cd5c 5c3d
000001f0: 83b0 793f 42a6 fabd a101 0abe deae 82bc

fc5.bias f4 [4]
-0.054909527 0.21124166 -0.45287704 -0.32638156
00000000: d0e8 60bd bc4f 583e 80df e7be 7c1b a7be
