DQN_models/models10000.990.001.pt (torch, 416279 bytes, 10 tensors)

fc1.weight f4 [128, 514]
0	0x3a1bf7c0	0.00059496984
1	0x3cd01c20	0.025404036
2	0xbb6e8710	-0.0036396421
3	0x3d2d144a	0.042255677
4	0xbc8a9697	-0.01691751
5	0x3c68b414	0.01420309
6	0x3c9cdf48	0.019149438
7	0xbd159d14	-0.036526754
8	0x3cdf0078	0.027221903
9	0xbd2a088d	-0.04151206
10	0xbc6df0ca	-0.014522741
11	0x3d2bf582	0.04198218
12	0x3d009240	0.031389475
13	0x3cf2a5f0	0.02962014
14	0xba6089c0	-0.0008565448
15	0xbc28df4c	-0.010307144
16	0x3d089ffc	0.033355698
17	0xbd19dc6e	-0.037563734
18	0xbce7bedf	-0.028289257
19	0x3bd72610	0.0065658167
20	0x3d1a2050	0.03762847
21	0xba8fd8a0	-0.0010974593
22	0xbce5936b	-0.028024396
23	0xbd280da6	-0.04102864
24	0xbd0ea7f4	-0.03482814
25	0x3d34a470	0.044102132
26	0xbd31e482	-0.043430813
27	0x3db61175	0.088900484
28	0x3d23a80f	0.039955195
29	0x3d9a6dad	0.0754045
30	0xbd37ef2b	-0.044905823
31	0x3dc244cc	0.09485778
32	0x3c8c9238	0.017159566
33	0xbb8e0754	-0.0043343697
34	0x3e03fac9	0.12888636
35	0x3dbcb494	0.0921413
36	0x3dad5a22	0.08464457
37	0xbd49762b	-0.04918496
38	0x3c441080	0.0119668245
39	0x3c825994	0.015911855
40	0x3db3cf57	0.08779781
41	0x3e113b15	0.14182694
42	0xbd33dbe4	-0.043910876
43	0x3d0e21d6	0.034700237
44	0x3c9d3fa4	0.019195385
45	0x3ca63388	0.020288244
46	0xbd1e9e92	-0.038725443
47	0xbca188c6	-0.019718539
48	0xbcc71061	-0.024299802
49	0xbccdaa43	-0.025105601
50	0xbd2094b5	-0.039204318
51	0xbd648718	-0.055792898
52	0xbdc21cc9	-0.094781466
53	0x3cefff1b	0.029296448
54	0x3bdeecc5	0.0068031275
55	0x3da04b41	0.078268535
56	0x3c80d7a6	0.01572783
57	0xbc95c7e0	-0.018283784
58	0xbd2a12ac	-0.041521713
59	0x3d202d25	0.039105553
60	0xba2daa34	-0.00066247885
61	0x3d79b1ab	0.060960453
62	0xbdc5c953	-0.0965754
63	0x3dcca558	0.09992474
64	0x3d2c1b46	0.042018197
65	0x3d084efe	0.033278458
66	0x3c4af280	0.012386918
67	0xbce7856c	-0.028261863
68	0x3cd93694	0.026515283
69	0x3ad94e60	0.0016579144
70	0xbc5c0b58	-0.013430439
71	0xbd16a4ae	-0.036778145
72	0xbd1e9ec0	-0.038725615
73	0xbda5d53a	-0.0809731
74	0x3d3dfc1b	0.046383005
75	0x3d15ac28	0.036541134
76	0x3bb0bde8	0.0053937323
77	0x3cb71cd0	0.022352606
78	0xbdaf48eb	-0.0855883
79	0xbcbb5d9b	-0.022871783
80	0x3d76f7da	0.060294963
81	0x3b572120	0.003282614
82	0xbc0c6c74	-0.008570779
83	0xbd9ec583	-0.07752516
84	0xbdfd30af	-0.12362801
85	0xbd30a2fe	-0.04312419
86	0xbceff042	-0.029289369
87	0xbc21f850	-0.0098858625
88	0xbc81e7c3	-0.015857583
89	0x3a9cfe20	0.0011977591
90	0xbb9ba700	-0.0047501326
91	0x3be679a8	0.0070335455
92	0x3c1e0d58	0.009646736
93	0x3cff3d64	0.031157203
94	0xbc26f400	-0.01019001
95	0xbd7abc71	-0.061214868
96	0xbc9cadf2	-0.019125912
97	0xbcfc9c38	-0.03083621
98	0x3c8dcdd0	0.017310053
99	0x3b53d310	0.0032321848
100	0xbddbd3eb	-0.107337795
101	0x3bf2ad72	0.00740593
102	0x3dc2eebc	0.09518191
103	0xbd171974	-0.03688951
104	0x3c76892c	0.015047353
105	0xbdc38254	-0.095463425
106	0xbcb5cb74	-0.02219174
107	0xbcc635b5	-0.024195531
108	0xbd306873	-0.04306836
109	0xbaf68f60	-0.001881104
110	0xbc8efe17	-0.017455144
111	0xbcc43eb4	-0.02395568
112	0x3d0e3c7e	0.03472566
113	0x3c8a3ec4	0.016875632
114	0xbca5a406	-0.020219814
115	0x3cb66dc0	0.02226913
116	0x3ca9fd54	0.02075068
117	0x3ad1aba0	0.0015996583
118	0xb989a192	-0.00026251056
119	0xba135980	-0.00056209415
120	0x3d16dee4	0.03683366
121	0xbd09a662	-0.03360594
122	0xbd64b620	-0.05583775
123	0xbdc8f640	-0.098125935
124	0x3ddf2369	0.10895426
125	0xbc6b28d8	-0.014353
126	0x3cb6e67c	0.0223267
127	0xbd82fdc5	-0.06396059
128	0x3c15f900	0.0091536045
129	0x3c8d903f	0.017280696
130	0x3cf7fcdc	0.03027194
131	0xbc4c9214	-0.012486
132	0xbb474f90	-0.0030412413
133	0xbc6b9cbc	-0.01438063
134	0xbd2cee63	-0.04221953
135	0x3c84a222	0.016190592
136	0x3d2f969a	0.042868234
137	0xbc48b0b4	-0.012249161
138	0xbbba1e50	-0.005679883
139	0x3cbc4d04	0.022985943
140	0x3d4cdc37	0.0500147
141	0x3c669ee8	0.014075972
142	0xbd0a0570	-0.03369659
143	0xbd043fca	-0.032287396
144	0xbda0caa0	-0.07851148
145	0x3cc1027f	0.02356076
146	0x3d856fa2	0.06515433
147	0x3d1a2968	0.037637144
148	0x3d219722	0.039450772
149	0xbdaaebb0	-0.08345735
150	0x3d03a5d1	0.032140557
151	0x3d91fb21	0.07127977
152	0xbd246e89	-0.040144477
153	0xbd21f2ff	-0.03953838
154	0x3c7f92a8	0.01559893
155	0x3d10575a	0.035239555
156	0x3d02f1ba	0.03196881
157	0x3c7b0f74	0.0153235085
158	0xbce30366	-0.027711581
159	0xbb5f7150	-0.003409464
160	0x3bcf5cb0	0.006328188
161	0x3d098332	0.033572383
162	0xbc8a787a	-0.01690315
163	0xbd29c6ae	-0.04144924
164	0x3cdcf208	0.026970878
165	0x3d225222	0.03962911
166	0xbdad45ce	-0.0846058
167	0xbdd8d498	-0.10587424
168	0x3d8634c8	0.06553036
169	0xbcae5f8e	-0.021285798
170	0xbc972882	-0.018451933
171	0xbd43e9cc	-0.047830388
172	0x3d1e7339	0.038684104
173	0x3dd00564	0.10157278
174	0xba2c5d80	-0.0006575212
175	0xbcb33f27	-0.0218807
176	0xbcc04ee1	-0.023475112
177	0xbbc6bbf8	-0.006064888
178	0xbc9b6a2d	-0.018971527
179	0x3c60e2d4	0.013725955
180	0xb736d000	-1.0896474e-05
181	0xbbd10ab0	-0.006379448
182	0xbcc2d3e5	-0.02378268
183	0xbd0d88f1	-0.034554426
184	0xbda1e044	-0.079041034
185	0xbc083632	-0.008313702
186	0x3cb12be4	0.021627374
187	0x3d323028	0.043502957
188	0xbda12a91	-0.07869447
189	0x3c9df846	0.019283425
190	0x3d3a7bbf	0.04552817
191	0x3c9c05f4	0.019045807
192	0x3b9bf418	0.004759323
193	0xbd84c3a4	-0.06482628
194	0xbb288cea	-0.0025718757
195	0x3d08bd54	0.033383682
196	0x3caf0b70	0.021367759
197	0xbc0ebf54	-0.008712608
198	0xbcb9e715	-0.022693196
199	0x3c9a84b0	0.018862098
200	0xbb8c7598	-0.004286479
201	0xbd1ae3c4	-0.03781487
202	0xba28c840	-0.0006438531
203	0xbd0cf3f2	-0.034412332
204	0x3cbc029c	0.022950463
205	0xbc97d287	-0.018533004
206	0x3e0ee8a5	0.13955934
207	0x3d351e0f	0.04421812
208	0xbc7e7514	-0.015530843
209	0xbd2f69f4	-0.042825654
210	0xbd83e0d4	-0.06439367
211	0xbc9e0902	-0.019291405
212	0x3d727a07	0.059198406
213	0xbcaed8c6	-0.0213436
214	0x3ce6ce20	0.02817446
215	0xbd490fa4	-0.04908718
216	0x3c85ac0c	0.01631739
217	0x3da2bfb1	0.079467185
218	0xbc9d087e	-0.019169088
219	0x3cc76acc	0.024342917
220	0xbc8ae9ee	-0.01695725
221	0x3d079dea	0.033109583
222	0x3c178cf8	0.009249918
223	0x3b858dc0	0.004075736
224	0x3caac290	0.020844728
225	0xbd00cd27	-0.03144565
226	0x3cc678e0	0.02422756
227	0x3c4ae663	0.01238403
228	0x3c355034	0.011066485
229	0xbd06e325	-0.032931466
230	0x3c9d3d8c	0.019194387
231	0x3c812daa	0.015768845
232	0xbdb3fa78	-0.087880075
233	0x3cca63e6	0.024705838
234	0x3da0e329	0.07855827
235	0xbcc1cd5d	-0.023657495
236	0x3aee50a0	0.0018181987
237	0xbd5306f3	-0.0515203
238	0xbce3d6f9	-0.027812468
239	0x3dce2be9	0.10066969
240	0xbc9e7bd4	-0.019346155
241	0xbbaf1178	-0.0053426586
242	0xbce997d2	-0.028514776
243	0xbc14f60c	-0.009091865
244	0xbb425260	-0.002965115
245	0xbd2e3770	-0.042533338
246	0xbd0ae3ee	-0.033908777
247	0x3bc74b38	0.006081965
248	0x3c875c04	0.016523369
249	0xbbc70524	-0.006073611
250	0xbcc788bd	-0.024357194
251	0x3d1e43e6	0.03863897
252	0x3b472a40	0.0030390173
253	0xbc86f41b	-0.01647382
254	0xbddef449	-0.108864374
255	0x3d5be505	0.053685207

fc1.bias f4 [128]
0	0x3da652d4	0.08121267
1	0x3d49b2e5	0.049242873
2	0x3c31ae32	0.010844754
3	0x3d364303	0.0444975
4	0xbdb28144	-0.08716062
5	0x3b7ea7a5	0.0038857248
6	0xbc3d4941	-0.01155311
7	0xbd3eb6c4	-0.046561018
8	0xbd464358	-0.048404068
9	0x39b9e066	0.0003545314
10	0xbd412f6f	-0.047164377
11	0xbce3b381	-0.027795555
12	0xbcdbdb44	-0.026837952
13	0x3db462af	0.08807885
14	0x3d8ba0b0	0.06817758
15	0x3cc88c92	0.024481092
16	0x3cd87df8	0.026427254
17	0xbcea200f	-0.02857974
18	0xbc882a40	-0.016621709
19	0x3d6f2e14	0.058393553
20	0xbd3eee74	-0.046614125
21	0x3c07c95b	0.008287753
22	0x3cf7aee4	0.030234762
23	0xbd5f86ee	-0.05457204
24	0x3ce4b8a5	0.027920077
25	0x3d390da6	0.04517903
26	0x3db2e73f	0.08735513
27	0x3d93e4d2	0.072213784
28	0x3d78960e	0.06068998
29	0x3c642db2	0.01392691
30	0x3c7b51e3	0.0153393475
31	0xbbe5fa7a	-0.0070183845
32	0x3cc39093	0.02387265
33	0x3ce3c416	0.027803462
34	0x3d14c105	0.03631689
35	0x3d5ebfa7	0.054381993
36	0x3d886353	0.066595696
37	0x3d37d2a6	0.044878624
38	0xbd86ab52	-0.065756455
39	0xbc71da5d	-0.0147615345
40	0x3c60e76f	0.013727053
41	0x3a358e01	0.0006925762
42	0xbc1662b7	-0.009178809
43	0x3d0cdc1e	0.034389608
44	0x3b8eba70	0.004355721
45	0x3ce46737	0.027881248
46	0xbc435ffa	-0.011924738
47	0xbd4c7eb0	-0.049925506
48	0x3d8e2f1a	0.06942578
49	0xbcedd765	-0.029033372
50	0x3d9e4b64	0.07729223
51	0x3c6418cb	0.013921927
52	0x3bb89a19	0.0056336042
53	0xbc4bd96f	-0.012441977
54	0x3d42d11c	0.047562703
55	0xbcb2093d	-0.02173292
56	0x3cd4fb66	0.025998782
57	0x3d826e85	0.06368736
58	0x3d80f7f4	0.06297293
59	0x3c0595b5	0.008153369
60	0x3c03e8b8	0.00805109
61	0x3d76fd8a	0.060300387
62	0x3d347c77	0.04406401
63	0x3d9234cb	0.07138976
64	0x3c605e57	0.013694367
65	0xbd720ec4	-0.059096113
66	0xbd0c36c8	-0.03423193
67	0xbd151f72	-0.03640694
68	0x3ce43d5d	0.027861292
69	0x3d63a3f4	0.05557628
70	0x3da99b31	0.082815535
71	0x3ccedb87	0.025251163
72	0x3dba931d	0.09110091
73	0x3ba25763	0.004954265
74	0x3d6c2690	0.057653964
75	0xbd2d61d6	-0.04232963
76	0x3d5ff3fa	0.054676034
77	0xbc5fc0c2	-0.013656797
78	0x3d543dfb	0.05181692
79	0xbc10513a	-0.008808428
80	0x3d329a9f	0.04360449
81	0x3cdccfdd	0.026954586
82	0xbd2818e2	-0.041039355
83	0xbc85c2fc	-0.016328327
84	0x3c73fc71	0.01489173
85	0x3bf80817	0.0075693238
86	0x3d2e2d3b	0.042523604
87	0x3d0e3747	0.034720685
88	0x3d3d5e4c	0.046232507
89	0x3cef84cf	0.029238133
90	0x3d2cbf46	0.0421746
91	0x3ba31751	0.0049771448
92	0x3d3b0077	0.04565474
93	0x3d15bace	0.036555104
94	0xbd47a1ba	-0.04873822
95	0x3d8d059f	0.06885838
96	0x3c7ea0af	0.01554124
97	0x3a44a378	0.00075011654
98	0x3cf3f629	0.029780464
99	0x3d252d42	0.040326364
100	0x3dae6d47	0.08516937
101	0x3d6e0c0e	0.058116965
102	0xbd420190	-0.04736477
103	0xbc83872b	-0.016055664
104	0x3d06ea70	0.03293842
105	0x3c616975	0.013758053
106	0x3d4ffc65	0.05077781
107	0x3c125bc5	0.008933012
108	0x3d28e30f	0.041232165
109	0x3ceb05ce	0.028689291
110	0x3d8a6e10	0.06759274
111	0xbd1164db	-0.035496574
112	0x3d09b527	0.033620026
113	0x3d4f66a6	0.050635003
114	0xbac5c1fe	-0.0015087721
115	0x3cb14f09	0.021644132
116	0x3d5a2fa4	0.05326809
117	0x3d8f1127	0.069856934
118	0x3a368454	0.00069624675
119	0x3d9aa01f	0.07550072
120	0x3d1b4452	0.037906952
121	0x3d5b7149	0.053574834
122	0x3ce608af	0.028080313
123	0x3dc504ee	0.09620081
124	0x3c0ec329	0.008713522
125	0x3d606dfe	0.054792397
126	0x3d50438b	0.050845664
127	0x3cd3765f	0.02581328

fc2.weight f4 [128, 128]
0	0x3dc7bc1d	0.09752677
1	0x3d2421c5	0.040071268
2	0xbc3f34ae	-0.011670275
3	0x3addf0f0	0.0016932767
4	0xbd0701c4	-0.03296067
5	0x3e808c9a	0.2510727
6	0x3e0c2a12	0.13687924
7	0x3b9fdd6f	0.004878692
8	0xbd46e94f	-0.048562344
9	0x3df1bae4	0.11803225
10	0x3cbc7092	0.023002896
11	0x3ca786db	0.020450046
12	0x3dd7881f	0.1052401
13	0x3e1ef414	0.15522796
14	0x3d73955b	0.05946861
15	0x3cb994f8	0.022654042
16	0x3d4015bb	0.046895724
17	0x3e0e8534	0.13918
18	0xbcb0b371	-0.02156994
19	0x3d9593cd	0.073035814
20	0x3c576983	0.013147715
21	0x3e947ab4	0.28999865
22	0x3e3c3115	0.18378098
23	0x3dbbdd1b	0.09173032
24	0x3d5ef1d7	0.054429855
25	0xbc7c9d72	-0.015418397
26	0x3cc67c31	0.024229141
27	0x3dc27c46	0.094963595
28	0x3e7d2a95	0.24723275
29	0x3d08e779	0.033423875
30	0xbd27be31	-0.040952865
31	0x3df9e7cd	0.122024156
32	0x3e0ea87e	0.13931462
33	0xbcd2c025	-0.025726387
34	0x3e71aa79	0.23600186
35	0x3dc38c7f	0.09548282
36	0x3d4fd6c0	0.05074191
37	0x3d76bbea	0.060237803
38	0xbd6599b7	-0.056054797
39	0x3d4c0642	0.049810655
40	0x3e4f206f	0.20227216
41	0x3ce83932	0.028347585
42	0x3e00ceb4	0.12578851
43	0x3e0845a5	0.13307817
44	0x3e16047c	0.14650148
45	0x3d61307d	0.054977883
46	0x3d6f527f	0.058428284
47	0xbca35cb8	-0.019941673
48	0xbd575d94	-0.052579477
49	0x3d702150	0.05862552
50	0x3dcb83a6	0.09937219
51	0x3e439483	0.19099621
52	0xbd877f3f	-0.06616067
53	0x3d603779	0.054740403
54	0x3df97610	0.12180722
55	0xbd26df3b	-0.040740233
56	0x3e380d66	0.17973861
57	0xbda3ad01	-0.07991982
58	0x3cdb9452	0.026804123
59	0x3de7f6e3	0.11326387
60	0x3e3996ab	0.18123882
61	0x3cedbfa0	0.029022038
62	0xbc11696c	-0.008875232
63	0x3dadf07e	0.08493136
64	0x3c98b269	0.01863976
65	0xbcd9472e	-0.026523199
66	0xbd0042be	-0.03131365
67	0xb945ad32	-0.00018851904
68	0x3e2bc0ca	0.16772762
69	0x3dd50992	0.10402216
70	0x3d88213a	0.066469625
71	0x3d526459	0.05136523
72	0x3e35c55e	0.17751071
73	0x3d49564f	0.049154576
74	0x3da7f2dd	0.08200619
75	0x3da8cbb1	0.08241976
76	0x3e2a52e5	0.16633184
77	0x3ea39fd3	0.31957874
78	0xbd8e2faf	-0.06942689
79	0x3d9f91b1	0.0779146
80	0xbc723e69	-0.014785388
81	0xbcf35588	-0.02970387
82	0xbcefc73c	-0.029269807
83	0xbbbda3f4	-0.005787367
84	0xbd8f7976	-0.07005589
85	0x3ced1bd7	0.02894394
86	0x3cc8596d	0.024456704
87	0x3de85b7d	0.11345575
88	0x3db0dcaf	0.08635842
89	0x3d24c23d	0.040224303
90	0x3d5a35df	0.05327403
91	0x3db10cca	0.086450174
92	0xb996479c	-0.00028663583
93	0x3d746638	0.059667796
94	0xbd51b0b1	-0.051193897
95	0x3d22b3aa	0.039722122
96	0x3daef397	0.08542555
97	0x3e3980f0	0.18115592
98	0xbd28e2f4	-0.041232064
99	0x3d3da5f5	0.046300847
100	0x3da59f1c	0.08086988
101	0x3cddb793	0.027065074
102	0x3d9dcaf3	0.07704725
103	0x3dde91b7	0.10867637
104	0x3dbf374a	0.093367174
105	0xbd8f08a7	-0.06984072
106	0x3d2b48c0	0.041817427
107	0x3ea306ae	0.31841034
108	0xbd00e56f	-0.031468805
109	0x3dd68629	0.10474808
110	0xbdf7ef3e	-0.12106179
111	0x3caded0c	0.021231197
112	0xbe195aab	-0.14975993
113	0x3e68a877	0.22720514
114	0xbe0e24c5	-0.13881214
115	0xbd1d645d	-0.038425792
116	0xbcfe561c	-0.03104692
117	0x3df5ea44	0.12007573
118	0x3e218fce	0.15777513
119	0xbc031e60	-0.008002847
120	0x3c306625	0.010766541
121	0x3df7e672	0.12104501
122	0x3e339ef8	0.1754111
123	0x3db5c0ef	0.0887469
124	0xbd1cf43e	-0.038318865
125	0xbcc19fa9	-0.023635702
126	0x3e0903ee	0.13380405
127	0x3e1e4a14	0.15457946
128	0xbd1856d2	-0.037192173
129	0x3e0e7273	0.13910846
130	0x3d09b8f1	0.03362364
131	0x3d6f0b0b	0.05836014
132	0xbd2a33ba	-0.041553237
133	0x3e3dc812	0.18533352
134	0x3df6cf5b	0.12051269
135	0x3d47e5d0	0.04880315
136	0x3b5daa80	0.003382355
137	0x3e262265	0.16224058
138	0x3dcac38d	0.099005796
139	0x3e16fb04	0.14744192
140	0x3de1ea7a	0.11031051
141	0x3d53b77a	0.05168865
142	0x3d8942f9	0.06702227
143	0x3c6ba475	0.014382471
144	0x3e0f5b83	0.13999753
145	0xbd4f7481	-0.050648216
146	0x3d144559	0.036198948
147	0x3e51fe47	0.20507155
148	0x3c5fefb9	0.013667994
149	0xbe488a35	-0.19583972
150	0x3d5bd532	0.053670116
151	0xbbea5e3c	-0.007152347
152	0x3e7b56b8	0.245448
153	0xbc8c1416	-0.017099421
154	0x3e3766c0	0.1791029
155	0xbd8a746a	-0.067604855
156	0xbcad6ea6	-0.021170925
157	0xbd8a2990	-0.06746209
158	0x3db7b5a1	0.0897019
159	0xbd977e85	-0.073971786
160	0x3c81a09e	0.015823659
161	0xbc1c338b	-0.009533773
162	0xbcaca08e	-0.021072652
163	0x3daadda5	0.083430566
164	0xbd015552	-0.03157551
165	0xbde97880	-0.11399937
166	0x3d92176b	0.07133373
167	0x3e85a47f	0.26102063
168	0x3ddde1c0	0.10834074
169	0x3d8e4750	0.069471955
170	0x3e0c4214	0.13697082
171	0x3a60b555	0.00085719425
172	0x3db0ab0a	0.08626373
173	0x3e3eb329	0.18623032
174	0x3d0ecfef	0.03486627
175	0x3d31f745	0.043448705
176	0xbe01cc7d	-0.12675662
177	0x3e091426	0.13386592
178	0xbd54d718	-0.051962942
179	0x3e35a113	0.17737226
180	0xbd74dc02	-0.05978013
181	0x3dd683f7	0.10474389
182	0x3d8ffbdf	0.070304625
183	0x3e1efee5	0.15526922
184	0x3e378360	0.1792121
185	0x3dae4bdf	0.08510565
186	0x3deff698	0.11716956
187	0x3e0bd881	0.13656808
188	0x3e11afc7	0.1422721
189	0x3de45119	0.11148281
190	0x3d67b860	0.056572318
191	0xbea093fc	-0.31362903
192	0x3d7211ac	0.059098884
193	0x3d948dcc	0.07253608
194	0x3d657d12	0.05602748
195	0xbd267f73	-0.04064889
196	0x3d933aeb	0.07188972
197	0x3d89e3e5	0.067329206
198	0xbe84be12	-0.25926262
199	0x3ca168b9	0.019703256
200	0xbec84b54	-0.3911997
201	0x3c8392fe	0.016061302
202	0x3e275cab	0.16343944
203	0x3da80a57	0.08205097
204	0x3d9ca2fe	0.07648276
205	0xbd890d54	-0.06691995
206	0x3c1e55a2	0.009663971
207	0x3cef1416	0.029184382
208	0x3d027397	0.031848516
209	0x3d32b88f	0.04363304
210	0x3d47537a	0.048663594
211	0x3df2aa54	0.11848894
212	0xbe9a30db	-0.301154
213	0x3c35a9cc	0.011087846
214	0x3d2e9abf	0.042628046
215	0x3dd24bc9	0.10268361
216	0x3dfc37c1	0.12315322
217	0x3e27f7c6	0.16403112
218	0x3d54d8e3	0.05196465
219	0x3dc3e1dc	0.09564564
220	0x3d6bc7f9	0.057563756
221	0x3e4d09be	0.20023248
222	0xbdacb936	-0.08433764
223	0x3b8695f1	0.00410723
224	0x3ce14660	0.027499378
225	0x3e115d55	0.1419576
226	0x3dbe15fa	0.092815354
227	0x3cd9daf9	0.026593672
228	0xbcae0bce	-0.021245863
229	0x3de36f5f	0.11105227
230	0x3b898350	0.004196562
231	0x3d954351	0.0728823
232	0x3db462ea	0.08807929
233	0x3c2d6c5f	0.01058492
234	0x3dc4020c	0.09570703
235	0xbdefd6b5	-0.11710874
236	0x3d3cb21f	0.046068307
237	0x3ccd3148	0.025047913
238	0x3d4a95e6	0.04945936
239	0x3d3e7690	0.04649979
240	0x3dd4e05f	0.10394358
241	0x3d2c6b48	0.0420945
242	0x3e7174e8	0.23579752
243	0x3d83790e	0.06419574
244	0xbceafac1	-0.028684022
245	0x3d3407d1	0.043952767
246	0x3c771d88	0.015082724
247	0x3de0a29f	0.109685175
248	0x3cdafc19	0.026731538
249	0x3d6fb918	0.05852613
250	0x3acbd9f2	0.0015552624
251	0xbedd9029	-0.43274048
252	0x3d19ddb3	0.037564944
253	0x3c2b1f7e	0.01044452
254	0xbdce344e	-0.1006857
255	0x3d90dd70	0.07073486

fc2.bias f4 [128]
0	0x3d791eed	0.06082051
1	0xbe3c4f3b	-0.18389599
2	0xbe2b9c52	-0.1675885
3	0x3da40e25	0.0801051
4	0xbd843ba0	-0.06456685
5	0xbdca3da2	-0.09875037
6	0x3d4839f8	0.04888341
7	0x3d7fcb36	0.062449656
8	0x3c30eb0a	0.010798225
9	0x3de36476	0.11103146
10	0x3dd54189	0.104128905
11	0xbc8d858c	-0.017275594
12	0x3da77d82	0.081782356
13	0x3e73cc7d	0.23808475
14	0xbda4e2e9	-0.08051092
15	0xbd8c02db	-0.06836482
16	0xbc15c2f5	-0.00914072
17	0xbdac5e3c	-0.08416411
18	0x3e3f3e67	0.18676148
19	0xbda6fecb	-0.08154067
20	0xbdd32ef7	-0.10311692
21	0xbd0f9550	-0.035054505
22	0xbd96b54f	-0.073588006
23	0xbe22828b	-0.1587011
24	0x3d6d32e4	0.05790986
25	0x3c702172	0.0146564115
26	0xbda2a7f5	-0.079421915
27	0x3de4ee6c	0.11178288
28	0x3cd2e142	0.025742177
29	0x3d2f3ba4	0.042781487
30	0xbd907763	-0.07054021
31	0x3d3a1b48	0.045436174
32	0x3d908468	0.070565045
33	0xbdc4296c	-0.09578213
34	0xbd74a4ab	-0.059727352
35	0x3cc013b8	0.023446903
36	0x3cc84f6a	0.02445193
37	0xbda63a93	-0.08116641
38	0xbda47912	-0.08030905
39	0xbe0c5c64	-0.13707119
40	0xbddb5057	-0.10708683
41	0x3e4de2a8	0.20105994
42	0xbd8f818c	-0.07007131
43	0xbd8453a6	-0.06461267
44	0xbdeb5cc2	-0.114923015
45	0x3da4090b	0.08009537
46	0x3d215db9	0.03939602
47	0xbe286fff	-0.16448973
48	0x3cfdbcc4	0.0309738
49	0x3dc09a5a	0.0940444
50	0x3d715e87	0.05892804
51	0x3d0f9c19	0.035060976
52	0xbd5f8a7c	-0.05457543
53	0x3e027f2c	0.12743825
54	0x3ce4cbf0	0.027929276
55	0x3daa0f58	0.08303708
56	0xbaf1febf	-0.0018462761
57	0xbd6fa729	-0.058509026
58	0x3dcdceed	0.100492336
59	0x3d9ec370	0.077521205
60	0x3d2aa4c7	0.04166105
61	0xbdf95dc8	-0.121760905
62	0x3d56b751	0.052420918
63	0xbd93df96	-0.0722038
64	0xbd3eeb76	-0.04661127
65	0xbd809997	-0.06279295
66	0x3d1d7bdc	0.0384482
67	0xbe1bb9ec	-0.15207642
68	0x3e878af6	0.26473206
69	0xbd1b8122	-0.037964948
70	0x3d8ee697	0.06977575
71	0x3d961989	0.07329089
72	0xbdd7a591	-0.10529626
73	0x3e6d388e	0.23166105
74	0x3dd184d7	0.10230415
75	0x3dc7c168	0.09753686
76	0xbd077ee8	-0.03308001
77	0xbdb0b1e1	-0.08627678
78	0x3c19a5b8	0.009377889
79	0x3d1870ec	0.037217066
80	0xbdadd77b	-0.08488365
81	0x3d8615fc	0.06547162
82	0x3dce6ddd	0.100795485
83	0xbdbdfc0d	-0.092765905
84	0xbda529a0	-0.0806458
85	0xbdebb101	-0.1150837
86	0xbc5d35e5	-0.013501619
87	0x3cdc9326	0.026925635
88	0xbd861930	-0.06547773
89	0xbdcd01ed	-0.10010133
90	0xbc743325	-0.014904772
91	0xbd1619c1	-0.036645655
92	0x3dfcedc6	0.12350039
93	0x3daa90f2	0.083284274
94	0xbd8cfc63	-0.068840764
95	0x3c84d189	0.016213195
96	0x3deef24b	0.116673075
97	0x3d7237df	0.059135314
98	0x3dcf3b0f	0.101186864
99	0xbdb61416	-0.0889055
100	0x3c34386f	0.010999783
101	0xbd3fd99b	-0.046838384
102	0x3c9296b2	0.017894123
103	0xbdbc680b	-0.09199532
104	0x3e1ca346	0.15296659
105	0xbd5914fc	-0.052998528
106	0xbdcbe196	-0.099551365
107	0x3c14d63e	0.009084282
108	0x3d9c63d5	0.07636229
109	0xbdff37af	-0.12461793
110	0x3d954c2e	0.07289921
111	0x3d28da86	0.041224025
112	0xbe0191a2	-0.12653211
113	0xbe25d222	-0.1619344
114	0x3e31cb73	0.17362766
115	0x3d6e8eff	0.05824184
116	0x3d43b76d	0.04778235
117	0x3dd5b00e	0.104339704
118	0xbdc27bd2	-0.09496273
119	0x3d5e6b22	0.05430139
120	0x3cf33671	0.029689046
121	0x3d5cfab3	0.053950023
122	0x3e0283c1	0.12745573
123	0x3cffadb8	0.031210765
124	0x3d20e600	0.039281845
125	0xbd851184	-0.064974815
126	0x3d88121a	0.066440776
127	0x3da20a54	0.07912126

fc3.weight f4 [128, 128]
0	0xbd9c0856	-0.076187775
1	0xbb0a3220	-0.0021087006
2	0x3d934619	0.071911044
3	0x3ce3734f	0.027764944
4	0x3db04757	0.08607357
5	0xbd6cd5b0	-0.057820976
6	0x3d18ded7	0.03732189
7	0xbd731e27	-0.059354927
8	0xbd3b273c	-0.045691714
9	0xbdae1cb7	-0.08501571
10	0x3d8b6f24	0.06808308
11	0x3cda4e74	0.026648737
12	0x3c1ee4bf	0.009698092
13	0x3cdae050	0.026718289
14	0x3d111f4a	0.03543023
15	0xbcb599a0	-0.02216798
16	0x3cf4014c	0.029785775
17	0xbd1faaf3	-0.03898139
18	0xbc8795d0	-0.016550928
19	0xbd81c98e	-0.06337272
20	0x3d925765	0.071455754
21	0x3cd0757c	0.025446646
22	0xbda55c0c	-0.08074197
23	0x3da24343	0.079229854
24	0xbca1fa42	-0.019772653
25	0xbd9e340e	-0.077247724
26	0xbce9dfba	-0.028549064
27	0xbc113e25	-0.008864914
28	0xbdab5961	-0.08366657
29	0x3cfdecc0	0.03099668
30	0x3c03be20	0.008040935
31	0xbd8142be	-0.06311558
32	0x3d16bb34	0.036799625
33	0x3d86a11f	0.065737
34	0x3c0486f0	0.008088812
35	0x3cc6227d	0.024186367
36	0xbd6621d2	-0.056184597
37	0xbd368201	-0.044557575
38	0xbd8ccbb5	-0.068747915
39	0x3d8a5a27	0.067554764
40	0xbdab91e5	-0.083774365
41	0x3d05551d	0.032551873
42	0xbda77794	-0.081771046
43	0x3b6a3b60	0.0035740957
44	0x3c56daa6	0.013113653
45	0xbdaf89ff	-0.085712425
46	0xbda52640	-0.08063936
47	0xbd857714	-0.06516853
48	0x39a7e3c8	0.00032022432
49	0x3d3a9b2a	0.045558132
50	0xbd763a03	-0.060113918
51	0xbc330f9a	-0.010929013
52	0x3cfc72a4	0.030816384
53	0xbd522758	-0.051307052
54	0x3da499e8	0.08037168
55	0x3da15eec	0.07879433
56	0xbb429360	-0.0029689893
57	0xbc5c6190	-0.013450995
58	0xbd558293	-0.05212648
59	0x3d181238	0.03712675
60	0xbd5ba301	-0.05362225
61	0xbd7345d5	-0.05939277
62	0x3cd0221a	0.025406886
63	0xbd08d4fd	-0.033406246
64	0xbd91cf18	-0.07119578
65	0xbdad3082	-0.08456518
66	0xbd643168	-0.05571118
67	0x3b29b720	0.0025896505
68	0x3d929aca	0.0715843
69	0xbd5f60d4	-0.054535702
70	0x3c09f708	0.008420713
71	0xbb306c14	-0.0026919888
72	0x3cfaaad4	0.030599035
73	0xbd8c003f	-0.068359844
74	0xbc43abff	-0.0119428625
75	0xbd966015	-0.07342545
76	0xbd1f9ed7	-0.03896984
77	0x3c7af560	0.015317291
78	0x3c805da7	0.015669657
79	0xbd71cce4	-0.05903329
80	0x3cec5114	0.028847255
81	0xbcc71f8a	-0.024307031
82	0x3cd8110a	0.026375312
83	0x3d236ada	0.039896823
84	0xbc6522d8	-0.013985358
85	0x3cc5ee80	0.024161577
86	0xbd012253	-0.031526875
87	0xbd545031	-0.05183429
88	0x3db39b7d	0.087698914
89	0x3d09b8e6	0.0336236
90	0x3d4f746e	0.050648145
91	0x3da0a9d1	0.0784489
92	0x3ce20b65	0.027593324
93	0xbd7f6bcb	-0.06235866
94	0xbd836f5b	-0.06417724
95	0xbd78566e	-0.0606293
96	0xbd90bf04	-0.07067683
97	0xbbcd2b04	-0.0062612314
98	0x3d0195b2	0.0316369
99	0x3bb21600	0.0054347515
100	0x3d0439a2	0.032281525
101	0x3d41fe3a	0.04736159
102	0x3d04c206	0.032411598
103	0xbc2e5848	-0.010641165
104	0x3d617e24	0.055051938
105	0x3c8a376c	0.01687213
106	0x3c18c49d	0.00932422
107	0xbd905b7c	-0.07048699
108	0xbdaa6d6b	-0.08321651
109	0xbd86a490	-0.065743566
110	0x3d821d27	0.063532166
111	0x3d03e144	0.032197252
112	0xbcb1a7b8	-0.02168642
113	0x3d09b13e	0.033616297
114	0xbc0ba7fb	-0.008523936
115	0x3d801340	0.06253672
116	0x3cba69bc	0.022755496
117	0xbb0f8376	-0.0021898425
118	0x3da7cf21	0.081938036
119	0x3d0c76fa	0.034293152
120	0xbdb4321b	-0.08798619
121	0x3c2c49c1	0.010515631
122	0x3d604034	0.05474873
123	0x3d9eaa59	0.07747335
124	0x3dab91bd	0.08377407
125	0xbd95ad2d	-0.07308421
126	0x3bfd6072	0.0077324444
127	0x3c8feca5	0.017568896
128	0x3d39055e	0.045171134
129	0xbce36fa5	-0.027763197
130	0x3d21d8fd	0.039513577
131	0x3c963f81	0.018340828
132	0xbd573e50	-0.05254966
133	0xbcc6ff1b	-0.024291566
134	0x3e1d632f	0.15369867
135	0x3e13ee25	0.14446314
136	0x3e110d73	0.14165287
137	0x3d521784	0.051291957
138	0xbc4f2b41	-0.01264459
139	0x3d4837ea	0.04888145
140	0x3df4089f	0.11915707
141	0x3e0c8fe3	0.13726763
142	0x3d8acf4f	0.06777822
143	0x3d9ac3ea	0.07556899
144	0x3db970d7	0.090547256
145	0xbc98daf7	-0.018659098
146	0x3eb886a7	0.36040232
147	0x3c01fde3	0.0079340665
148	0x3d78b58d	0.060720015
149	0x3ba68b51	0.005082526
150	0xbc8837ce	-0.016628172
151	0xbb2f8f0b	-0.002678814
152	0xbb8b296c	-0.004246881
153	0xbbb4aab8	-0.0055135153
154	0x3b0387c0	0.0020069927
155	0x3d65faff	0.05614757
156	0x3deb3171	0.114840396
157	0x3c196120	0.009361535
158	0x3ccbef20	0.024894297
159	0x3e0c1cc7	0.13682853
160	0x3ca3ba05	0.019986162
161	0x3d07bda3	0.033139836
162	0xbcbf8f81	-0.023383858
163	0x3e108b85	0.14115722
164	0x3d3025a7	0.043004658
165	0xbd4fe02e	-0.050750904
166	0xbd9d2db4	-0.07674733
167	0x3c408455	0.0117503
168	0xbd8ff1d2	-0.070285454
169	0x3ed1b6a0	0.40959644
170	0xbd07008c	-0.032959506
171	0x3d22e049	0.039764676
172	0x3d3d0ecc	0.04615669
173	0x3e13c633	0.14431076
174	0x3d823cf4	0.06359282
175	0xbd53f35f	-0.05174577
176	0xbca48c66	-0.020086478
177	0x3d16b2c5	0.03679158
178	0x3e1a7f04	0.15087515
179	0x3d4194f1	0.047261182
180	0xbd8d7349	-0.069067545
181	0x3cb386ab	0.0219148
182	0x3e0931af	0.13397859
183	0x3b98928c	0.0046561416
184	0x3d0d3e5a	0.03448329
185	0x3d93d514	0.07218376
186	0x3e1e4f85	0.15460022
187	0x3d0825fd	0.033239353
188	0x3d640931	0.055672828
189	0x3d2382e1	0.039919738
190	0x3dab7303	0.08371546
191	0xbc98ca20	-0.018651068
192	0x3d96daa9	0.07365925
193	0xbdb7ad56	-0.08968608
194	0x3dcfdeee	0.10149942
195	0x3b83b44e	0.0040192967
196	0x3ec4d22b	0.38441595
197	0x3d1be132	0.03805656
198	0x3c997812	0.018734012
199	0xbc1d0d1d	-0.009585646
200	0x3cdfc4a4	0.027315445
201	0x3ec754fc	0.38932025
202	0x3db74917	0.08949488
203	0x3d832729	0.064039536
204	0xbd18b21e	-0.03727924
205	0x3cd5f275	0.02611659
206	0x3d24bbb0	0.040218055
207	0x3de28c6b	0.11061939
208	0xbd83356a	-0.06406672
209	0x3b361a40	0.0027786642
210	0x3e684ae5	0.2268482
211	0x3d86a775	0.06574909
212	0xbdf795d2	-0.12089123
213	0x3d491390	0.049090922
214	0x3d8679dd	0.06566212
215	0x3d84a899	0.0647747
216	0x3c8a6a88	0.016896501
217	0xbccadba7	-0.024762942
218	0x3ac1c892	0.0014784506
219	0x3d7dc149	0.06195191
220	0x3df744ed	0.120736934
221	0x3d9ddc5b	0.07708045
222	0x3ce41cf0	0.02784583
223	0x3c702d10	0.014659181
224	0x3e3ceb8d	0.1844923
225	0x3e24d318	0.16096151
226	0x3a8b34dd	0.0010620613
227	0xbce5d5cb	-0.028056046
228	0x3ca9aa64	0.020711131
229	0x3da93f8e	0.08264075
230	0xbc9eef7e	-0.019401308
231	0x3d300edc	0.04298292
232	0x3e9363b8	0.28787017
233	0x3d1c5212	0.038164206
234	0xbd52753f	-0.051381346
235	0x3d972e54	0.07381883
236	0x3dd5ca4c	0.10438976
237	0x3d657383	0.056018364
238	0x3de0cc0e	0.1097642
239	0x3ddded1a	0.10836239
240	0xbc2f842e	-0.010712666
241	0xbd40d385	-0.04707672
242	0x3e92d490	0.28677797
243	0xbcfd5e33	-0.030928707
244	0x3d7d0d8a	0.06178049
245	0x3e0c3d0c	0.13695163
246	0xbd05579b	-0.03255425
247	0x3e1277ba	0.14303485
248	0x3ddf5f62	0.10906865
249	0x3c7ca5f2	0.015420424
250	0x3e06e52d	0.13173361
251	0x3e00ec40	0.12590122
252	0x3e63c7a7	0.2224413
253	0x3bc4d850	0.006007232
254	0xbba2226e	-0.004947952
255	0x3e1b6a56	0.15177283

fc3.bias f4 [128]
0	0xbcb39476	-0.021921378
1	0x3e6b5291	0.22980715
2	0xbd8a29fb	-0.067462884
3	0x3e215757	0.15755974
4	0xbd224d0a	-0.03962425
5	0x3dbafd30	0.09130323
6	0x3a9d7f0a	0.001201601
7	0xbd03fe93	-0.032225203
8	0x3d7f763e	0.062368624
9	0xbd3aa0a4	-0.045563355
10	0x3d41a4af	0.047276195
11	0x39ff7973	0.00048727877
12	0xbd228f60	-0.039687514
13	0xbd9855b5	-0.07438222
14	0xbdc1e61d	-0.09467719
15	0xbd825742	-0.06364299
16	0xbdab6c99	-0.08370323
17	0x3cc1a8cb	0.023640057
18	0xbe04491f	-0.12918518
19	0x3d320de1	0.043470267
20	0xbd0595fe	-0.032613747
21	0x3df76cf7	0.1208133
22	0xbd76bea4	-0.060240403
23	0x3e943024	0.28942978
24	0x3e367a01	0.17819978
25	0x3bfc41f1	0.0076982905
26	0xbbf142bc	-0.0073626917
27	0x3e2d2ef1	0.16912438
28	0xbd9e7ad2	-0.0773827
29	0xbe3abdda	-0.18236485
30	0xbcb7d9d1	-0.02244273
31	0xbcfb1e6a	-0.030654151
32	0x3e28af55	0.16473134
33	0x39ad5562	0.00033060747
34	0xbcc10fec	-0.023567162
35	0xbc9cd343	-0.019143706
36	0xbe089646	-0.13338575
37	0xbde1b470	-0.11020744
38	0x3bdc3e8e	0.0067213243
39	0x3d02b370	0.031909406
40	0xbd61d22a	-0.05513207
41	0xbda1e3cb	-0.07904776
42	0xbcf60c01	-0.03003502
43	0xbdf39b47	-0.11894851
44	0x3e324e68	0.17412722
45	0x3da04898	0.07826346
46	0x3cb2b43e	0.021814462
47	0x3e411f72	0.18859652
48	0xbc66be6b	-0.014083485
49	0x3e104f79	0.14092816
50	0x3da22e37	0.07918971
51	0xbe46cd17	-0.19414173
52	0x3e16dad4	0.14731914
53	0xbda4f8fc	-0.080553025
54	0xbd328445	-0.043583173
55	0xbcef03f6	-0.029176693
56	0xbe12dc28	-0.14341795
57	0xbd6bc6ba	-0.057562567
58	0x3d1bf09e	0.038071267
59	0xbc8f6445	-0.017503867
60	0x3c972e50	0.0184547
61	0xbd935234	-0.071934134
62	0x3e6cb56d	0.23116083
63	0xbdc362fe	-0.09540366
64	0xbd88ced6	-0.06680076
65	0x3e0bf3a1	0.13667156
66	0xbd845cc3	-0.064630054
67	0xbd8739c5	-0.066028155
68	0xbd8aecac	-0.06783423
69	0x3def9e68	0.117001355
70	0x3e031c62	0.12803796
71	0xbe89577e	-0.26824564
72	0xbdaf557f	-0.08561229
73	0xbd532ba0	-0.051555276
74	0x3c49ea40	0.012323916
75	0x3e0d0338	0.13770759
76	0x3a2353f1	0.0006230465
77	0x3c431698	0.011907242
78	0x3d5ab7ad	0.053397823
79	0x3e196260	0.14978933
80	0x3db15a37	0.08659785
81	0x3e5835b9	0.21114244
82	0xbc212110	-0.009834543
83	0xbccebd67	-0.025236798
84	0x3c6fcc63	0.014636132
85	0xbdf258ba	-0.118333295
86	0x3d4d2149	0.05008057
87	0x3e136e2f	0.143975
88	0x3e0ebb99	0.1393875
89	0x3d08f709	0.033438716
90	0x3e827076	0.25476426
91	0xbd950a4b	-0.07277354
92	0xbd403085	-0.04692127
93	0x3c8ad8b4	0.016949035
94	0x3d43fe59	0.047849987
95	0xbd87b4da	-0.066262916
96	0x3d82d63d	0.06388519
97	0xbc93a16e	-0.018021312
98	0xbdabd32e	-0.08389889
99	0xbbf609bf	-0.007508486
100	0xbdb90f27	-0.09036093
101	0xba2f5d3d	-0.0006689614
102	0xbd88ab79	-0.06673331
103	0xbb84c389	-0.00405163
104	0x3d424c10	0.04743582
105	0xbd8b9567	-0.068156056
106	0x3cce8dbc	0.025214069
107	0xbdb3abd9	-0.08773012
108	0xbd998295	-0.0749561
109	0x3d66f5f0	0.056386888
110	0x3e9af69a	0.30266267
111	0xbe82caf4	-0.25545466
112	0xbe7d4234	-0.24732286
113	0xbdf6429d	-0.12024424
114	0x3c6ef0bd	0.014583764
115	0xbe586c28	-0.21135008
116	0x3ccc2dd4	0.024924196
117	0xbdb58eda	-0.088651374
118	0xbdc627a6	-0.09675531
119	0x3d6342ce	0.05548363
120	0x3ca40a1d	0.020024354
121	0x3d1bf2d3	0.038073372
122	0xbd816d43	-0.06319668
123	0x3ea43ff0	0.3208003
124	0x3e97d806	0.29657
125	0xbd9fc2d6	-0.07800834
126	0x3d95aa60	0.07307887
127	0x3d6ae816	0.05735024

fc4.weight f4 [32, 128]
0	0x3d0b18fe	0.03395938
1	0x3bf5c9f0	0.0075008795
2	0xbd9d1a2c	-0.076710075
3	0xbd028cab	-0.031872433
4	0x3d69adba	0.057050444
5	0xbd5c5bd5	-0.053798515
6	0xbc5a60a8	-0.013328709
7	0xbd7e385d	-0.06206547
8	0x3c7ea9a5	0.015543376
9	0x3d12adbc	0.035810217
10	0x3cbf5308	0.023355022
11	0x3d2f02aa	0.04272715
12	0x3c572d78	0.013133399
13	0x3d50c54a	0.0509694
14	0xbd28ab96	-0.041179262
15	0xbd36010e	-0.0444346
16	0xbd27967a	-0.04091499
17	0x3d1b626a	0.03793565
18	0xbbbab4b6	-0.005697812
19	0x3d639636	0.055563174
20	0x3d48f46e	0.04906123
21	0x3d3095bc	0.043111548
22	0x3d14e71e	0.036353223
23	0xbd273aee	-0.040827684
24	0x3cf0cb40	0.029393792
25	0xbd8497cf	-0.06474268
26	0x3d43e282	0.047823437
27	0x3d5a72a4	0.053331986
28	0x3d06cf1e	0.032912366
29	0xbce0f644	-0.027461179
30	0x3d7a114a	0.061051644
31	0xbd32c733	-0.043647002
32	0xbd8c8049	-0.06860406
33	0xbd992c5c	-0.07479164
34	0x3d915817	0.0709688
35	0xbdca4fe3	-0.098785184
36	0x3d92d6ef	0.071699016
37	0x3a4f5e80	0.0007910505
38	0x3d9d00a5	0.076661386
39	0x3d8d2a9f	0.06892895
40	0x3d95ca8f	0.073140256
41	0xbd2f7b1a	-0.04284201
42	0xbd439bcf	-0.047756013
43	0x3d1bac66	0.03800621
44	0xbb52afd0	-0.003214825
45	0xbd293800	-0.04131317
46	0xbbe52920	-0.006993428
47	0xbdbea579	-0.09308905
48	0xbbcf47b0	-0.0063256845
49	0x3d569977	0.05239245
50	0x3cdcd9c8	0.026959315
51	0xbcaaab70	-0.0208337
52	0x3b9a74c2	0.0047136256
53	0x3d585e0a	0.052824058
54	0x3d742c76	0.059612714
55	0x3d92bcd1	0.0716492
56	0xbd4373c9	-0.047717843
57	0xbc723558	-0.014783226
58	0xbd4942b9	-0.049135897
59	0xbd5ab5c6	-0.05339601
60	0xbb7276e0	-0.0036997125
61	0xbb885800	-0.004160881
62	0xbd9627d2	-0.07331814
63	0xbdafb3a4	-0.085791856
64	0xbd73b714	-0.05950077
65	0x3d52ac4e	0.051433854
66	0xbd7ea9cc	-0.06217365
67	0x3d0002a8	0.031252533
68	0xbc208268	-0.009796716
69	0xbd49be74	-0.049253896
70	0x3bf79698	0.007555794
71	0x3b448e07	0.0029991881
72	0x3ce15c8c	0.02750995
73	0x3cbf5ad0	0.023358732
74	0xbc9ebac0	-0.019376159
75	0x3cdf0bd8	0.027227327
76	0x3da8ac07	0.082359366
77	0xbd670203	-0.056398403
78	0xbd1032ff	-0.035204884
79	0xbd0fb489	-0.03508428
80	0xbd114cbe	-0.035473578
81	0xbd96e061	-0.07367016
82	0xbd16c32e	-0.03680723
83	0x3d92d38f	0.07169258
84	0xbd50e0a4	-0.050995484
85	0x3cdac604	0.02670575
86	0xbda32ef3	-0.07967939
87	0x3b95c721	0.004570857
88	0x3d3fd5d3	0.046834778
89	0xbcd62fd8	-0.02614586
90	0xbd9a6596	-0.07538907
91	0x3d6c651a	0.057713605
92	0xbd1ad90f	-0.03780466
93	0xbd9752af	-0.073888175
94	0x3d61456a	0.05499784
95	0x3d9b098f	0.075701825
96	0x3d4a08ad	0.04932468
97	0x3b042c40	0.0020167977
98	0xbd1e587d	-0.038658608
99	0x3d2f2782	0.042762287
100	0xbd82fb7c	-0.06395623
101	0x3d6da56e	0.058019094
102	0x3c2b6aa8	0.010462441
103	0xbd6f6afa	-0.05845163
104	0xbdda7091	-0.106660016
105	0xbd00c911	-0.031441752
106	0x3d7fbcde	0.062435977
107	0xbd5ffab9	-0.054682467
108	0x3d0f9ba8	0.035060555
109	0xbd090d8b	-0.03346018
110	0x3d3bb50e	0.045826964
111	0x3d95e20c	0.07318506
112	0xbba6f854	-0.005095521
113	0x3c197df8	0.009368412
114	0xbd7ff472	-0.06248898
115	0x3bf0d2bc	0.0073493402
116	0xbdb1fe6d	-0.08691106
117	0x3d94aaa5	0.0725911
118	0x3d5f9d7a	0.05459354
119	0x3d43b8e2	0.04778374
120	0x3c1687e8	0.009187676
121	0xbd4df81a	-0.050285436
122	0xbce95ec4	-0.02848757
123	0xbc6b7a67	-0.014372445
124	0x3cac32f4	0.02102039
125	0xbd2d77cf	-0.042350587
126	0x3d6ca285	0.05777218
127	0xbd5aab66	-0.053386115
128	0xbba45170	-0.005014591
129	0x3d918e0e	0.07107173
130	0x3da2d621	0.07950998
131	0xbdae4f06	-0.08511166
132	0x3d12022c	0.035646603
133	0xbcec9416	-0.028879207
134	0xbd986fe7	-0.07443219
135	0x3c3f4df1	0.0116762975
136	0xbdab4619	-0.083629794
137	0x3c68df48	0.014213391
138	0x3c6701d8	0.014099561
139	0xbda023a4	-0.07819298
140	0xbcf0af24	-0.029380389
141	0x3b649d20	0.0034883693
142	0xbd951e8d	-0.07281218
143	0xbabdc3c0	-0.0014477894
144	0x3cb75594	0.022379674
145	0x3ccc384c	0.024929188
146	0x3c15c6e0	0.009141654
147	0x3d65f39e	0.056140535
148	0x3d59cce2	0.053173907
149	0x3d98e04c	0.07464656
150	0xbcd5aab6	-0.026082378
151	0x3d15e778	0.0365977
152	0xbc1dac0e	-0.009623541
153	0xbcacc4a0	-0.021089852
154	0x3daf123d	0.085484006
155	0x3d85cf3a	0.06533666
156	0x3cbc90c0	0.02301824
157	0xbd5e5bcf	-0.054286774
158	0xbda90969	-0.08253748
159	0xbce92562	-0.028460208
160	0xbd23c22c	-0.0399801
161	0x3cd9e857	0.026600046
162	0x3d092bb2	0.033488937
163	0x3d9b1fcc	0.07574424
164	0x3d8009f3	0.06251898
165	0xbd3249da	-0.04352746
166	0xbdaec7ae	-0.0853418
167	0x3d63519e	0.055497758
168	0xbce8736e	-0.028375354
169	0xbda1687b	-0.07881256
170	0xbd06b0a6	-0.03288331
171	0xbdabc76e	-0.083876476
172	0xbd9fdbfb	-0.0780563
173	0xbd826e9a	-0.06368752
174	0xbb91e9e0	-0.004452929
175	0xbd99cd80	-0.07509899
176	0xbb61be60	-0.0034445748
177	0xbc81571f	-0.015788613
178	0x3c15d55e	0.009145109
179	0xbd714c48	-0.058910638
180	0xbbbc3d1f	-0.005744591
181	0xbd777f1e	-0.060423963
182	0xbd9dc23e	-0.077030644
183	0xbd55a866	-0.05216255
184	0x3cd05dc3	0.025435334
185	0x3ca1d158	0.019753143
186	0xbd8844f3	-0.06653776
187	0x3bd2e780	0.0064362884
188	0x3bba3650	0.005682744
189	0x3d26b0c6	0.040695928
190	0x3d2b079d	0.041755307
191	0x3d6e6422	0.058200963
192	0xbbbde270	-0.0057948157
193	0xbdaa4198	-0.08313292
194	0x3d6515ce	0.055928998
195	0xbd9f28ef	-0.07771479
196	0x3d7f317a	0.062303044
197	0x3c6cb5b7	0.014447621
198	0x3cfd3a05	0.030911455
199	0xbd479725	-0.048728127
200	0x3d90aba7	0.0706399
201	0xbb7b28e0	-0.0038323924
202	0x3ca56254	0.020188488
203	0xbc688304	-0.014191393
204	0x3d9f6f29	0.07784874
205	0x3d3faf12	0.04679782
206	0x3d362ac2	0.04447437
207	0xbc5fc567	-0.013657904
208	0x3d05cc38	0.03266546
209	0xbdaf3dad	-0.085566856
210	0xbcae0d34	-0.02124653
211	0x3da1bc93	0.07897296
212	0x3c950414	0.018190421
213	0x3d44dc1a	0.048061468
214	0xbd790785	-0.060798187
215	0x3d239279	0.03993461
216	0xbcd2fe85	-0.02575613
217	0x3da7a481	0.081856735
218	0x3d8003e4	0.06250742
219	0xbd8346b0	-0.06409967
220	0xbcc78180	-0.024353743
221	0xbd341ef4	-0.04397483
222	0x3b58fee0	0.0033110902
223	0xbdab9ceb	-0.08379539
224	0xbd4db91e	-0.05022537
225	0xbd763b52	-0.060115166
226	0xbd84a1a4	-0.06476143
227	0xbaabcb80	-0.0013106912
228	0x3d9fe367	0.078070454
229	0xbd43d78f	-0.047812995
230	0x3d4f7a82	0.050653942
231	0xbd253778	-0.040336102
232	0x3d550b94	0.052012995
233	0xbd1a41e1	-0.037660483
234	0xbc7085d8	-0.014680348
235	0xbd9df074	-0.077118784
236	0xbd789511	-0.060689036
237	0xbd51a1af	-0.051179584
238	0x3bf53110	0.0074826553
239	0x3c9706a2	0.01843578
240	0x3d9804fe	0.07422827
241	0x3dafc681	0.085827835
242	0x3c418b50	0.011813
243	0xba43dba1	-0.0007471387
244	0xbdb1a0f3	-0.08673277
245	0x3ab9a540	0.0014163628
246	0xbd61115c	-0.054948196
247	0x3db19173	0.0867032
248	0x3ce059c8	0.027386561
249	0xbc56fe48	-0.013122149
250	0x3d95ee9f	0.07320904
251	0xbdb2cd3d	-0.08730552
252	0x3d82e8f3	0.06392088
253	0x3d604ca2	0.054760583
254	0xbc8772e8	-0.016534284
255	0xbce5e9d2	-0.028065596

fc4.bias f4 [32]
0	0xbdd7d2b3	-0.105382346
1	0xbd64e250	-0.05587989
2	0xbd21bcb0	-0.039486587
3	0xbce87c26	-0.028379511
4	0x3ce6af68	0.028159812
5	0xbd4b3e1b	-0.049619775
6	0x3d302042	0.042999513
7	0x3d7fdc3f	0.062465902
8	0xbddad4fb	-0.10685154
9	0xbd1763f0	-0.036960542
10	0xbd9d9b59	-0.07695646
11	0x3dd34ec5	0.103177585
12	0xbdbf8b5d	-0.09352753
13	0x3eafc178	0.34327292
14	0x3da80235	0.08203546
15	0x3de6796d	0.11253629
16	0x3db66660	0.08906245
17	0xbd2e1c8b	-0.04250769
18	0xbe344910	-0.17605996
19	0xbc843e8f	-0.016143112
20	0x3e41cbf5	0.1892546
21	0x3e62251f	0.22084473
22	0x3d881361	0.06644321
23	0x3cf141f3	0.029450392
24	0x3cfd0f60	0.03089112
25	0x3d896a1d	0.067096926
26	0x3e932b5e	0.28744024
27	0x3d4c1505	0.049824733
28	0x3d0478f2	0.032341905
29	0xbd9e4743	-0.07728436
30	0xbda232fb	-0.0791988
31	0xbdc008e5	-0.093766965

fc5.weight f4 [4, 32]
0	0x3d97bb92	0.07408823
1	0xbd1b796d	-0.037957598
2	0x3e041f5e	0.1290259
3	0x3d539010	0.05165106
4	0x3d92be8b	0.071652494
5	0x3da1e180	0.07904339
6	0xbddea073	-0.10870447
7	0x3d09ad0c	0.033612296
8	0xbd197dc0	-0.03747344
9	0x3e307117	0.1723064
10	0x3d85ca6b	0.06532749
11	0xbe6806c0	-0.22658825
12	0x3ced046a	0.028932769
13	0x3df74add	0.12074826
14	0xbe318159	-0.17334498
15	0xbe85c038	-0.26123214
16	0xbda14f4c	-0.07876453
17	0x3d485457	0.048908558
18	0x3dec3e85	0.11535362
19	0x3d3c043d	0.04590248
20	0xbe2c143f	-0.16804598
21	0xbda268d2	-0.07930149
22	0x3de98545	0.11402372
23	0x3dc4373f	0.0958085
24	0xbd8c6503	-0.06855204
25	0x3e087326	0.13325176
26	0xbd5f8dfc	-0.054578766
27	0x3d4f080a	0.050544776
28	0xbe42cada	-0.19022694
29	0xbe25762e	-0.16158363
30	0xbd84b95b	-0.06480666
31	0x3e71b45e	0.23603961
32	0xbd3097a0	-0.04311335
33	0x3e2cae57	0.1686338
34	0x3d1691ab	0.036760014
35	0xbdbb8b7d	-0.09157465
36	0xbc08cc57	-0.0083495
37	0xba5a9674	-0.00083384593
38	0x3def71d2	0.116916314
39	0x3db7c5da	0.08973284
40	0xbd979b39	-0.07402653
41	0xbdce6439	-0.1007771
42	0x3c9f828e	0.019471433
43	0x3d6ff0ce	0.05857926
44	0xbe176fe3	-0.14788775
45	0xbe35d6c7	-0.17757712
46	0xbdb34cd5	-0.08754889
47	0x3c8322eb	0.016007861
48	0xbca05f3a	-0.019576658
49	0xbc0f300e	-0.0087394845
50	0xbe49b004	-0.19696051
51	0x3d0ddfd4	0.034637287
52	0xbd623ec6	-0.055235647
53	0xbd345f40	-0.04403615
54	0x3d5c1fa8	0.053741127
55	0xbd7de210	-0.061983168
56	0xbe063ef2	-0.13109949
57	0xbd8c56f5	-0.06852523
58	0xbe8d5811	-0.27606252
59	0x3e0a7953	0.13522844
60	0x3c83dca0	0.016096413
61	0xbe3aa690	-0.18227601
62	0x3dbe56c5	0.09293894
63	0x3dcee51d	0.10102294
64	0x3e0912d0	0.13386083
65	0xbe0684b2	-0.13136557
66	0x3dafc4e5	0.085824765
67	0x3e014037	0.12622152
68	0xbe091327	-0.13386212
69	0xbbd71b90	-0.006564565
70	0xbdbfcb71	-0.09364975
71	0xbb259b69	-0.0025269634
72	0x3d89829e	0.067143664
73	0xbd3dde04	-0.04635431
74	0xbda3eac3	-0.080037616
75	0xbe1d3b70	-0.15354705
76	0x3df7698e	0.1208068
77	0xbe029acd	-0.12754364
78	0x3e4fd508	0.20296109
79	0xbe003106	-0.12518701
80	0x3d857125	0.06515721
81	0x3d769b2a	0.06020657
82	0xbbd6a610	-0.006550558
83	0xbd5542a6	-0.052065514
84	0x3cc880f0	0.024475545
85	0xbe3d9c59	-0.18516673
86	0x3e052179	0.1300105
87	0xbe0c7cee	-0.13719532
88	0x3e016f3d	0.1264009
89	0xbd965ad6	-0.07341544
90	0xbe0cd886	-0.13754472
91	0x3daa9ef9	0.08331103
92	0xbe18eed1	-0.14934851
93	0x3d58843d	0.052860487
94	0x3d686ffc	0.05674742
95	0xbf1bfb05	-0.609299
96	0x3da301e1	0.07959343
97	0x3e01660f	0.12636589
98	0xbdc0469d	-0.093884684
99	0xbc922723	-0.017840927
100	0x3dfea8f9	0.12434573
101	0xbd9569fa	-0.07295604
102	0xbcefae44	-0.029257901
103	0x3d941cfb	0.0723209
104	0x3b1c68ff	0.0023866293
105	0x3e090bd1	0.13383414
106	0x3d3d1d56	0.046170555
107	0x3d6daf58	0.05802855
108	0xbd482fe5	-0.0488738
109	0xbebcb838	-0.36859298
110	0xbd1981af	-0.03747719
111	0x3e120b40	0.14262104
112	0xbe235457	-0.15950142
113	0x3d1952f6	0.037432633
114	0x3e82dd84	0.25559628
115	0xbdca31b7	-0.098727636
116	0xbcbfc0bd	-0.023407334
117	0xbde57f6d	-0.11205945
118	0xbd081cf7	-0.033230748
119	0x3df4f9fb	0.119617425
120	0x3d0e412c	0.03473012
121	0xbdb18a89	-0.086690016
122	0xbe002c2c	-0.1251685
123	0x3c106235	0.008812477
124	0x3deeba69	0.11656649
125	0x3eee43f7	0.46536228
126	0xbe23eea3	-0.16009001
127	0x3e75fc22	0.24021962

fc5.bias f4 [4]
0	0x3cb17b94	0.021665372
1	0xbe9f86eb	-0.31157622
2	0xbe66d41f	-0.22541855
3	0xbe102228	-0.1407553
