DQN_models/model_updaterate500_gamma0.7_alpha0.001_static.pt (torch, 416763 bytes, 10 tensors)

fc1.weight f4 [128, 514]
000000 a8 80 06 3d 10 25 b4 3b 94 5f 6d 3c bc 44 d6 3c
       0.03283754 0.0054975823 0.01448812 0.026155822
000010 3c 5b 78 bc 70 39 d0 3c e7 c1 05 bd a0 e0 0d 3d
       -0.015158471 0.025418013 -0.032655623 0.034638047
000020 1e eb 16 3d 8a 43 8d 3c c0 fc 31 3d 3d 04 1a bd
       0.03684532 0.01724412 0.04345393 -0.0376017
000030 f8 53 de 3b 62 03 18 bd 70 ff 8b bb 94 e1 1e 3c
       0.006784912 -0.0371126 -0.004272394 0.009697337
000040 24 cf 9c bc 90 87 26 3c ea d9 33 3d 42 72 2d bd
       -0.019141741 0.010164157 0.04390899 -0.042345293
000050 c9 b2 b7 bc 7a e7 0d 3d 38 8e 1b bc 28 9e bc 3c
       -0.022424119 0.03464458 -0.009494357 0.023024634
000060 3e cb 87 bc c7 a3 21 3d f0 a5 c3 bc ec 52 4d 3c
       -0.016576406 0.03946283 -0.023882836 0.012531977
000070 f0 4c 4d bb e2 4f 91 3c 9c 07 35 3c 58 8f 2f 3d
       -0.0031326376 0.017738286 0.0110491775 0.042861313
000080 34 7c 92 3c 00 57 70 b9 e4 ba b6 3c 98 c4 3a bc
       0.01788149 -0.00022920594 0.022305913 -0.011399411
000090 fe 72 08 bd 00 36 b6 3b 95 ac b9 3c 48 3e 06 bc
       -0.03331279 0.0055606365 0.022665301 -0.00819356
0000a0 f8 80 04 3c 05 53 b7 3d b3 ff f4 bc e0 26 42 bb
       0.008087389 0.089513816 -0.029907083 -0.0029625222
0000b0 30 2b 00 3c f0 51 09 3c fe 8f 18 bd fc d6 3f 3d
       0.007822797 0.008381352 -0.037246697 0.046835884
0000c0 30 2d 59 bc 2c 6e 13 bd 98 4c 33 bc f0 ad 4d bb
       -0.013255402 -0.03599374 -0.010943554 -0.0031384192
0000d0 1a 9c 08 bd 5d ee e3 bc 3c 20 b2 3c d0 5c b7 3c
       -0.033351995 -0.027823621 0.021743886 0.022383124
0000e0 98 02 d8 3c 85 c8 2f bd 09 3a 8f bc 60 1d 1c 3b
       0.026368424 -0.04291584 -0.017483728 0.002382122
0000f0 0c 09 75 3c 8c fd bc 3c 93 25 e7 bc 00 29 16 bd
       0.01495577 0.02307012 -0.028216159 -0.036660194
000100 b5 ce ce bc 34 40 bd 3c 9a 2c 0f 3d 3c ef 5c bc
       -0.02524505 0.023101903 0.034954645 -0.013484772
000110 95 4f e4 bc ea 25 08 bd c5 a9 1f bd a8 56 c6 3c
       -0.027869979 -0.033239283 -0.038980264 0.024211243
000120 08 a4 c5 3c 9e 07 8c 3c 28 62 19 bd 7a e1 6b bc
       0.024126068 0.017093476 -0.037447125 -0.0143970195
000130 00 cc 26 3d 26 29 00 3d 00 4d f7 39 b0 48 10 3b
       0.040721893 0.031289242 0.0004716888 0.0022015981
000140 c8 8a 2b bd 80 e9 f9 3b 38 f4 1b bc b4 bc f8 3c
       -0.0418804 0.0076267123 -0.0095186755 0.030363418
000150 ab 05 23 bd 36 a7 b5 bc 6c cd 28 3d 23 f6 e0 bc
       -0.039800327 -0.022174459 0.04121153 -0.027461117
000160 a0 3d f5 3c b0 b4 26 3d 38 a9 e8 bc 5e a4 88 3d
       0.029936612 0.04069966 -0.028401002 0.066719756
000170 d0 fb 78 bc 0c 72 9e bc 7e cf ce bc fc 01 cb 3c
       -0.0151967555 -0.019341491 -0.025245424 0.02478122
000180 70 c3 09 bb 3b f5 93 bc 94 c9 aa bc 98 58 30 3d
       -0.002102103 -0.018061271 -0.020848073 0.04305324
000190 c0 38 cb 3a ab 27 07 bd 90 b6 dd bb 86 3d bd bc
       0.0015504584 -0.032996815 -0.006766148 -0.023100626
0001a0 b4 0d 11 3d bc 5b b6 bc 18 8b 85 3c c3 99 80 bc
       0.03541346 -0.02226054 0.016301677 -0.01569832
0001b0 28 14 26 3d 40 ea fb bb f0 4d 25 bd f8 84 ba 3b
       0.040546566 -0.007687837 -0.04035753 0.0056921206
0001c0 76 35 83 bd 27 b2 f4 3b 54 3a cf bc 54 20 c4 3c
       -0.06406681 0.0074675265 -0.025296368 0.023941197
0001d0 a0 e1 92 ba 14 ca fd 3c c0 c5 de 3c 8b ae 28 bd
       -0.0011206158 0.030980147 0.027193904 -0.041182082
0001e0 80 1c c2 3a d2 f8 c5 bc d0 a8 54 3b ac b7 7f 3c
       0.0014809519 -0.024166498 0.0032449253 0.015607756
0001f0 54 b8 48 3c c4 8b f7 3c 70 67 52 3b 77 e4 9c 3c
       0.0122509785 0.030218013 0.003210511 0.01915191
000200 c8 05 67 3c 96 eb c7 bc 10 06 27 bd 88 17 de 3c
       0.014100499 -0.024404328 -0.040777266 0.02711083
000210 32 fb 05 3d 4c 6a 52 bc 85 06 8b 3d bc dd ac 3c
       0.03271026 -0.012842726 0.06788353 0.021101825
000220 2f c8 02 bd b7 bf dc bc 3c ac da bc 80 a3 4f 3a
       -0.03192919 -0.026946886 -0.026693456 0.0007920787
000230 59 38 86 bc e5 b3 26 bd 1f 5f 93 bc 08 a3 b6 3c
       -0.01638429 -0.040698905 -0.017989693 0.022294536
000240 ae a5 26 bd f6 ee 33 3d 38 58 b4 bb 5c 81 c3 bc
       -0.04068535 0.043929063 -0.0055036806 -0.023865394
000250 71 0a c9 bc c6 68 fc 3c eb 11 82 bc 6f b3 af 3c
       -0.024541112 0.030811679 -0.015877685 0.021447865
000260 a0 61 9a bc 89 b0 d7 bc 06 b2 79 bc a7 c8 da bc
       -0.01884538 -0.026329296 -0.015240198 -0.026707007
000270 ec 8f 22 3d 87 aa 0a 3d 1a 89 92 3c 22 eb 32 bd
       0.039688036 0.033854034 0.01788764 -0.04368127
000280 f9 57 21 bd f0 ee 51 bb 9a 28 10 bd 49 ac d5 bc
       -0.039390538 -0.0032033287 -0.03519497 -0.026083129
000290 40 55 cb bb a8 82 f8 3c ec 55 0e 3d c7 5d 9d bc
       -0.006205231 0.03033574 0.03474991 -0.019209756
0002a0 20 eb fd 3c 54 fb 13 bd e4 02 11 3d 00 eb 04 39
       0.030995905 -0.036128357 0.035403147 0.00012676045
0002b0 d4 78 18 bc 46 45 a0 bc 68 f8 08 3c cf 4b 0c bd
       -0.009306151 -0.019564282 0.008360006 -0.034251984
0002c0 c8 76 dc bb 80 69 49 3c 30 45 3a 3d ac 09 9c bc
       -0.006728027 0.01229322 0.04547614 -0.01904758
0002d0 db 04 21 bd e0 b8 ba 3c 84 07 09 3c 6c 01 29 bc
       -0.03931127 0.022793233 0.008363608 -0.01031528
0002e0 f2 81 08 bd 44 36 2a 3c a0 14 c9 3c 58 20 e5 bb
       -0.03332705 0.0103889145 0.024545968 -0.006992381
0002f0 f9 12 e1 bc 0f 90 26 bd 88 69 bc 3c 12 e0 81 3c
       -0.027474867 -0.04066473 0.02299954 0.015853915
000300 3e e9 08 3d 20 08 10 3c ca 52 54 3d 2b cc 2d bd
       0.033425562 0.008791 0.051836766 -0.042431038
000310 7e 98 22 3d 4e 65 19 bd 64 67 bd 3c 50 88 56 bb
       0.03969621 -0.037450127 0.02312059 -0.0032735057
000320 26 1c 8e 3b 55 fa b2 bc 44 0e 1a bd 2a c2 09 bd
       0.0043368516 -0.021847883 -0.03761126 -0.033632435
000330 6b 18 d1 bc 08 a2 06 3d 40 cd 82 3a c1 39 c1 bc
       -0.025524339 0.03286937 0.0009979382 -0.02358711
000340 0d bd 1d bd 00 dd 9d 3c 50 e7 99 3c 59 42 6f bc
       -0.03851037 0.01927042 0.018787056 -0.014603221
000350 7f 15 34 bd a2 dd 8d bc 18 83 12 bd 2c 30 49 3c
       -0.043965813 -0.017317597 -0.035769552 0.0122795515
000360 98 80 0a bc 9b e6 88 bc b0 d5 28 bd cc 73 dd bc
       -0.008453511 -0.016711524 -0.041219413 -0.027032755
000370 b0 b4 99 bc c4 6f ec 3c 9c 58 21 3d 39 84 87 3d
       -0.018762916 0.028861888 0.039391145 0.06617016
000380 94 08 44 3d ee 4f 84 bc 96 b0 b5 bc 5a fa 88 3c
       0.047859743 -0.016151395 -0.02217893 0.01672094
000390 7c f7 24 3d d6 8a 18 bd ec 64 e2 3c 5a d4 26 3d
       0.040275082 -0.03724178 0.027636014 0.040729858
0003a0 00 1c 49 38 c6 81 1a bd 2b 00 b0 bc a0 31 0b 3b
       4.794821e-05 -0.037721418 -0.021484455 0.0021239296
0003b0 80 4c ea 3b 11 8d 2b 3d 37 ad 28 bd 05 41 b7 bc
       0.007150233 0.04188258 -0.041180816 -0.02236987
0003c0 c8 d2 08 3d 1e b6 05 3d 2f fd ed bc 30 4c 64 3c
       0.03340414 0.032644384 -0.029051391 0.01393418
0003d0 d3 13 7c bd 7a 7b 9f bd 78 d5 fb bc 44 c3 f9 3c
       -0.061542343 -0.07787223 -0.030741438 0.030488618
0003e0 fe 6d 11 3d 04 b8 04 3d f3 42 e0 bc 68 ed 72 3c
       0.035505287 0.032402053 -0.027375674 0.01482711
0003f0 b2 06 06 bd 7c a3 37 3c 90 e6 cb 3b e2 ca ee bc
       -0.03272123 0.011208411 0.0062225536 -0.029149476

fc1.bias f4 [128]
000000 b3 41 09 be ee 18 86 bd 76 57 ad bc 40 f3 f2 be
       -0.13403969 -0.06547724 -0.021159869 -0.4745121
000010 ac 64 1d be 0a 7d aa be 76 ef 8d be 13 d4 44 3d
       -0.15370435 -0.33298522 -0.27721757 0.048053812
000020 45 6c 31 be d0 b6 85 be 96 ca 01 bf 48 a9 20 be
       -0.17326458 -0.26116037 -0.50699747 -0.15689576
000030 86 e7 99 3e fd dd 51 bd 69 b3 68 3d cc ef 50 3c
       0.3005945 -0.051237095 0.056811724 0.0127524845
000040 dd 57 d4 bd 49 f9 d0 be 0c ca 5a bb dc 80 a0 be
       -0.10368321 -0.4081519 -0.003338459 -0.31348312
000050 a7 90 57 be 69 f2 41 bd 6a f1 30 bf 85 ac d5 bd
       -0.21051274 -0.04735032 -0.6911837 -0.10433296
000060 f2 a8 91 bc 5f 74 ab be 6e c9 a7 be 04 aa 04 bf
       -0.017780755 -0.33487222 -0.32770866 -0.51821923
000070 e8 c5 11 bf 54 68 a8 be a7 ef 21 be 08 8b c0 bd
       -0.56942606 -0.32892096 -0.15814076 -0.09401518
000080 6c a4 11 3d db 56 3b be 95 b0 13 be 3d 19 54 bc
       0.035557196 -0.18294851 -0.1442283 -0.01294547
000090 b7 2f 9e bd f3 70 c6 3e 21 d3 39 3e 93 78 21 bd
       -0.07723945 0.38758048 0.18146946 -0.03942163
0000a0 83 63 55 be 3e a9 61 bc 31 45 1b be 7e ca a1 be
       -0.20838742 -0.013773261 -0.15163113 -0.31599802
0000b0 e4 fc ca bc da e1 ac 3e 66 5c 2b bc 46 da e1 bc
       -0.02477879 0.3376606 -0.010459041 -0.027569901
0000c0 1a 96 be bd 41 70 5a bf 94 ef 6c bf 51 41 9f bd
       -0.09305973 -0.85327536 -0.9255307 -0.0777613
0000d0 8b 18 10 bd 4d 1e 1d bf a9 ce 7f 3d 9b 6d 31 bf
       -0.035179656 -0.6137436 0.062452946 -0.6930787
0000e0 4d 06 13 bb 0e 25 f3 be 51 44 3e be a7 5c b4 bd
       -0.0022434175 -0.47489208 -0.18580748 -0.088067345
0000f0 5d a6 a3 be 8f 8f 04 bf d4 5b 6c bd 7e 2d e2 3d
       -0.31962863 -0.51781553 -0.05770476 0.11043833
000100 0c 83 01 3e 1d 3c 30 3d 0a fc 37 3d 00 eb 60 3e
       0.12647647 0.04302608 0.044918098 0.21964645
000110 c7 f2 02 bb 27 1f f1 bd c8 34 c3 be 1e 45 8c be
       -0.0019981132 -0.1177352 -0.38126206 -0.27396482
000120 b2 ff 42 be 58 6b b8 bd f3 b8 c0 be 88 d1 70 bf
       -0.19042853 -0.09004849 -0.37641105 -0.9406972
000130 5a 98 e9 bc 46 20 21 3c 31 2e c6 be 43 f6 3d be
       -0.02851503 0.009834355 -0.38707116 -0.18550973
000140 48 bc 20 bf a6 50 b8 be 7a f2 cf be 1d 2d 41 bd
       -0.62787294 -0.3599903 -0.40614682 -0.047162164
000150 62 65 c7 bd 2b fb f7 bd 0c 5d 31 be c2 63 ee bd
       -0.09736134 -0.12108453 -0.17320651 -0.11640121
000160 ce b1 db be cf 67 56 3e 20 51 b5 3e a8 9b a8 bd
       -0.42909092 0.20938037 0.35413456 -0.08232814
000170 54 0d c4 3d 99 b8 f8 be 19 6d 7b 3d ad 8a 2e 3e
       0.09572855 -0.48578337 0.06138334 0.17045088
000180 df c7 93 be d0 55 83 3d 35 6b 22 bd 44 92 6a 3e
       -0.28863427 0.06412852 -0.03965302 0.22907358
000190 8e 4c 9c 3e 16 ff e9 be 6e a5 0d 3e 40 30 9f be
       0.30527157 -0.45702428 0.13832638 -0.310915
0001a0 c3 a9 a2 bd 4f 9a 1a 3e e3 c5 1f bf 0d ac 3b bd
       -0.07942536 0.15097927 -0.62411326 -0.045818377
0001b0 32 99 92 be dd 34 82 3d 2e 12 8b bd 71 c4 1c 3e
       -0.28632504 0.06357739 -0.06790577 0.15309311
0001c0 dd 52 c4 3d 10 00 2f bf 90 17 66 bf 5d c3 8f be
       0.095861174 -0.6835947 -0.89879704 -0.28078738
0001d0 a3 db 7e 3d 0b 62 b3 be 38 3c 3e 3e c9 a2 41 bf
       0.06222118 -0.35035738 0.18577659 -0.75639015
0001e0 91 3d 32 3e 1f fa 0d bf e4 d6 96 3d 95 c2 d4 be
       0.17406298 -0.5545978 0.07365206 -0.41554704
0001f0 82 66 9d 3e d6 82 1f be a2 fb fa bd 18 16 03 bf
       0.3074227 -0.15577254 -0.122550264 -0.5120559

fc2.weight f4 [128, 128]
000000 de 79 67 3d 74 f0 88 bd 51 73 35 bd ff 5b ce 3d
       0.056512706 -0.06686488 -0.044299427 0.100761406
000010 b0 43 38 bd d8 30 83 bd 40 62 63 bd be e7 8e 3c
       -0.044986427 -0.064058006 -0.05551362 0.017444488
000020 f2 01 e4 bd 64 7f 66 3d fa f8 a0 3d e5 7d e3 bd
       -0.111331835 0.056273833 0.078599885 -0.11107997
000030 20 07 67 3d 4f 58 b5 3c cf 4c 62 bd 66 a3 3f bd
       0.05640328 0.022136835 -0.05524903 -0.04678669
000040 73 a8 b6 bd 64 f8 9f bd 0b 7c 8f bd 83 1a 85 3c
       -0.08918848 -0.078110486 -0.07006081 0.016247993
000050 eb 34 eb bd 5c 32 3d bb bd b9 92 bd 28 9c f5 bd
       -0.11484703 -0.0028869128 -0.07164333 -0.11992675
000060 72 35 a2 3c 71 2d ed bb b0 b4 9a 3d 9e ac de bb
       0.019800875 -0.007238083 0.07553995 -0.00679548
000070 83 e6 ec 3b 83 38 15 3d b7 a4 1e bd b2 be 7d 3d
       0.0072296276 0.036430847 -0.038731303 0.06194944
000080 f7 37 92 bd 6c c6 c8 3c fa 55 e7 bd 74 49 1c bd
       -0.07139581 0.024508677 -0.112956956 -0.038155988
000090 72 f7 5d 3d b5 e1 5d bd 76 5b 06 be b2 06 11 bd
       0.05419106 -0.05417033 -0.13120827 -0.035406776
0000a0 b6 15 01 be ac 16 61 3d 87 c2 3b bd 3a d4 67 bc
       -0.12605938 0.054953262 -0.045839813 -0.01414972
0000b0 7c dc 0a bd d4 8f e1 bb a7 79 bd bd fa 08 2f 3d
       -0.033901677 -0.0068836007 -0.09251719 0.04273317
0000c0 73 8e 96 bd 3b 2c 89 3d 3b 6b ed bd 96 de d3 bd
       -0.07351389 0.066978894 -0.11592718 -0.10345189
0000d0 f7 95 e7 bd 58 ed 8e bd f7 7b 17 3c 71 43 39 3d
       -0.113079004 -0.069788635 0.009245864 0.045230333
0000e0 66 a3 5e bd 47 d2 af bc 9f a5 5a 3d c4 8f 26 bd
       -0.054355048 -0.021462573 0.053380605 -0.04066445
0000f0 96 f0 0a 3c 2b 0f 98 bd de f8 0b 3c b4 6a b9 bd
       0.008480212 -0.07424768 0.008543221 -0.09053555
000100 33 ca 89 bc a8 ed 8b bd 67 d4 12 bd a1 08 d7 bc
       -0.016820049 -0.06832439 -0.035847094 -0.026249232
000110 8c bc de bd 89 9c 99 bd 03 19 f5 bd 65 68 6c bd
       -0.10875806 -0.0750056 -0.11967661 -0.057716746
000120 3e 4d 48 3d cc ef 5d bd 2a eb 0a 3c 38 a9 20 bc
       0.04890179 -0.054183766 0.008478919 -0.00980597
000130 a7 67 af bd 85 1b ad bd 91 04 b5 bd 69 45 8f bd
       -0.08564692 -0.084525146 -0.088387616 -0.06995661
000140 82 d2 55 bd 3f ab d6 3d c4 b0 01 be a7 52 c0 bb
       -0.05220271 0.10481881 -0.12665087 -0.005869228
000150 81 e1 82 bd eb b8 bb bd b0 93 ca 3b 7b b5 cb bd
       -0.06390668 -0.0916613 0.0061821565 -0.09946724
000160 45 e2 e6 bd 4d 6f d7 bc b5 df 74 bc cb 96 02 3d
       -0.11273626 -0.02629819 -0.014945914 0.03188209
000170 38 e6 05 bd 50 c8 6c 3c 3c 2f b2 bd 33 35 36 bd
       -0.032690257 0.014452055 -0.087004155 -0.04448433
000180 64 de d4 3c a9 61 97 bd 40 f4 f7 3b 49 1c 5b bd
       0.02598495 -0.07391674 0.0075669587 -0.05349377
000190 54 62 54 bd 59 62 5a bb 8e f8 cf 3c 17 1f 14 bd
       -0.051851586 -0.003332278 0.025387075 -0.036162462
0001a0 43 33 a8 3d c5 b1 9c 3c f8 e3 cc bb b0 f5 a5 3c
       0.082129024 0.019127736 -0.006252762 0.020258754
0001b0 00 ab 97 bd 92 28 3d 3c e3 61 aa 3d 6f c1 bc bc
       -0.074056625 0.011545317 0.08319452 -0.023041455
0001c0 98 aa ad bd 88 f3 ef bc fa df a0 3b 67 49 88 3d
       -0.08479804 -0.02929093 0.0049095126 0.066546254
0001d0 3e 7d da 3d 65 c6 92 bd f9 ac f4 bd eb c7 19 bd
       0.10668419 -0.07166747 -0.119470544 -0.037544172
0001e0 73 ed e0 3c a8 94 56 bd 2b f2 74 bc 2a d6 50 3d
       0.027456975 -0.052387863 -0.0149503155 0.050985493
0001f0 18 11 d8 bd 9d 8b 18 bd b7 dd a0 bd 31 52 9f 3d
       -0.105501354 -0.03724252 -0.07854789 0.07779349
000200 b4 8f eb bd e9 2a 5d 3f e0 91 3d be a5 28 1a 3e
       -0.115020186 0.863936 -0.18512678 0.15054567
000210 2d 66 96 3d 94 84 a8 bb 59 2c f1 3c 1a 4e 34 3f
       0.07343707 -0.0051427577 0.029440092 0.70431674
000220 26 22 5d be 47 60 ce be 20 80 bb 3c de 52 cb 3e
       -0.21595058 -0.4030783 0.022888243 0.3971166
000230 3b fc 04 3f 60 f8 db 3d 17 d2 d2 3d ee 93 0b bf
       0.51947373 0.10740733 0.10293978 -0.545226
000240 41 62 58 3d de cb 13 be 0a 85 a7 3e d1 f6 ce be
       0.052828077 -0.14433238 0.32718688 -0.4042268
000250 e1 75 16 3f 37 6f 34 be 21 6a b5 3e 79 85 4d 3f
       0.5877362 -0.1762055 0.35432532 0.8028179
000260 c7 d8 7c 3e 17 f5 45 3d fb f3 c2 3e 8b ef 64 3e
       0.24692069 0.04832944 0.38076767 0.22357003
000270 48 3f d5 3d d1 c3 34 bf 5d e1 e3 bd d4 55 74 bd
       0.104124606 -0.7061129 -0.11126969 -0.059652165
000280 cf 7d b1 3e 95 dd 07 bd cd 3d 16 3c 13 20 a1 3e
       0.34666297 -0.0331703 0.009170008 0.31469783
000290 8c 5e c5 3d 12 49 11 bf de ca 87 3d ae f0 05 3e
       0.09637174 -0.5675212 0.06630491 0.13080093
0002a0 5b b6 91 be cc bf 38 3d 14 04 70 3d 8c 7b 5e 3e
       -0.2845944 0.045104787 0.05859764 0.21726817
0002b0 97 7a 32 bf 90 60 ca 3e 87 cd 99 be 16 0d 4b 3e
       -0.6971831 0.39526796 -0.30039617 0.1982921
0002c0 f7 85 2a 3e ba 0c ce bf 22 3d a5 be 1d 5b 28 bf
       0.16652666 -1.6097634 -0.32273203 -0.6576403
0002d0 d6 d8 97 3e 4e 58 d6 3e 95 6d 63 bc 21 eb 07 3e
       0.2965762 0.41864246 -0.013881107 0.13273288
0002e0 ca 92 38 bf c1 1d 71 bf 9e 29 f9 be a0 34 3e bc
       -0.7209898 -0.94186026 -0.48664564 -0.011609226
0002f0 0b 6b 8c 3e aa ba 54 be ae 33 c2 be 81 7a c3 3b
       0.27425417 -0.20774332 -0.37930053 0.0059655313
000300 32 ce 4d bf 50 8e 5c bf 9b 5b a3 be 55 1d 10 bc
       -0.80392754 -0.8615465 -0.31905827 -0.008796056
000310 d4 36 28 3f e1 ef 63 3c c0 bb cb 3e ce a4 39 bd
       0.6570866 0.013912172 0.3979168 -0.045323186
000320 d5 6c bf 3d 87 f2 84 be 01 7d 22 3e 7b 47 8d 3e
       0.0934693 -0.25966284 0.15867998 0.27593598
000330 d3 84 34 be bd 5c 03 bc d7 9c 7d be d7 fc 98 3e
       -0.17628793 -0.008017716 -0.24766861 0.29880401
000340 de 4c 8a be 5d 2a 71 3c 59 c0 bc 3d 07 69 68 3e
       -0.2701177 0.014719573 0.09216375 0.22696315
000350 5f e6 0e bd 56 75 ca 3c ad 1a 8c 3e 41 d0 6e 3e
       -0.034887668 0.024714153 0.27364102 0.2332163
000360 e6 98 ac 3e 33 f7 b4 3e 5b 63 a3 3e c3 98 eb 3e
       0.33710402 0.35344848 0.3191174 0.46014985
000370 f3 1e a9 3e 2c 3a 25 be 83 6a 13 3d 6b 0a 39 bd
       0.33031425 -0.16135472 0.03599025 -0.04517595
000380 fe e9 8f 3e f5 bd bf bd b5 87 59 3e bc 9d 2f 3e
       0.2810821 -0.09362403 0.21243174 0.17150015
000390 75 b7 fe 3e b2 38 8b 3c 3e 3d 83 bc da cf d7 be
       0.49749342 0.016994808 -0.016020413 -0.42150766
0003a0 9b 10 b1 3d 5f 6d 19 3e bc 44 3c 3d cd bd b1 3e
       0.08645745 0.14983128 0.045963988 0.3471512
0003b0 19 6c c2 3d 22 ca 91 bd e0 f6 12 3d 84 67 0e 3f
       0.09493274 -0.07118632 0.03587997 0.556267
0003c0 bb 67 f0 bd 1c e4 6d 3e a1 c6 b2 bd 60 d0 86 bd
       -0.11738535 0.23231548 -0.08729292 -0.06582713
0003d0 20 f4 8e 3e 64 73 bb be b7 80 6f 3d 10 e5 c0 bd
       0.27920628 -0.36611474 0.05847236 -0.0941869
0003e0 f2 2a 2f 3e 41 ed 03 be 29 fd 9a bc 81 68 82 3e
       0.17106226 -0.12883474 -0.018919544 0.25470355
0003f0 0d 1b 79 3d 5a 24 fb bd 6e 4c c0 be d8 da b5 be
       0.060816813 -0.12262793 -0.3755831 -0.35518527

fc2.bias f4 [128]
000000 17 23 22 be fe 09 c6 3e 4e 4e c4 bd 48 ac cd bc
       -0.15833698 0.38679498 -0.09585248 -0.025106564
000010 67 68 48 3e c1 dc da bd e8 00 e2 be 12 e9 96 be
       0.19571076 -0.10686637 -0.44141316 -0.29474694
000020 19 a1 bc 3b bc 4c 9a 3d cc d7 f9 3d 2b 43 b2 bd
       0.005756509 0.07534167 0.12199363 -0.087042175
000030 69 48 be bd aa ef 6f 3e 58 19 16 be 48 65 2e be
       -0.09291155 0.23431268 -0.14658105 -0.17030823
000040 9a a5 a6 be fa 5d eb bd 24 18 b0 bd c4 20 99 be
       -0.3254822 -0.11492534 -0.085983545 -0.2990781
000050 39 83 6b 3e d3 fe 1d 3e 19 e7 b9 bd 5f 11 7f 3e
       0.22999276 0.15429239 -0.090772815 0.2490897
000060 43 77 14 be f0 af 0d 3e 6b 88 07 be 6e ce 0c be
       -0.1449862 0.13836646 -0.13235633 -0.13750622
000070 9f 27 0a be 59 d4 da bd fb 9c 1d be c0 fd 0c be
       -0.13491677 -0.10685033 -0.15391915 -0.13768673
000080 ca ed 20 be 3c 8e ea bd 4d 58 39 3e 9a 74 b0 3e
       -0.1571571 -0.1145291 0.1810009 0.3446396
000090 50 61 99 be b6 00 55 3f 9d 31 c2 bd 61 12 e9 be
       -0.29957056 0.8320421 -0.09482119 -0.45521834
0000a0 87 69 9d 3e 33 d7 92 3e 7d 9f cf be 74 93 6c 3e
       0.30744573 0.2867981 -0.40551367 0.23103124
0000b0 6f fe 26 3f 7b f5 6d 3e 87 61 22 3e 52 fd cf 3e
       0.65231985 0.23238175 0.15857516 0.40622956
0000c0 ef f4 8f 3e 6d 70 a6 bd e5 b3 1d be 8d 9a 6c 3e
       0.28116557 -0.08126912 -0.15400656 0.23105831
0000d0 ac 59 dc be 1b 4f 45 3e b3 f1 00 bf ad 3c c4 bd
       -0.43037164 0.19268458 -0.50368804 -0.095818855
0000e0 0b 1f 12 3e ad 21 02 be 0b 0a e3 3e 9a d7 89 be
       0.14269654 -0.12708159 0.443436 -0.26922303
0000f0 70 59 4b be 0f 99 a0 be cf c0 b7 bd 57 09 38 3f
       -0.19858336 -0.31366774 -0.08972322 0.7188925
000100 22 26 bc bc d8 ad 77 bd 23 fe 4d 3d a6 14 f2 bd
       -0.022967402 -0.060468525 0.05029119 -0.118203446
000110 ee 51 2a 3e 7c 26 6e 3e 38 a4 12 be 4c 83 5d be
       0.16632816 0.23256868 -0.14320457 -0.21632117
000120 31 f1 be 3e f5 03 9d be 59 60 5a be b7 7a f2 3d
       0.3729339 -0.3066708 -0.21325816 0.11839812
000130 f4 35 db be a5 81 fa bd e0 11 ce bd e4 c3 29 3f
       -0.428146 -0.12231759 -0.10062003 0.6631453
000140 e5 7c 00 be 09 6b 21 bd 88 52 45 be 7f d2 d1 3d
       -0.12547643 -0.039408717 -0.19269764 0.10245227
000150 94 84 19 3f c9 bd 90 bd 2c b8 e7 3e 27 d6 e6 3e
       0.59967923 -0.07067449 0.452577 0.4508526
000160 a8 b6 ed bd 71 35 0c 3f 2b d0 4b 3e 23 0c c8 3d
       -0.116071045 0.54769045 0.19903629 0.0976794
000170 14 df 0f be cb 37 cc bc 32 34 f4 bd 95 49 a6 3e
       -0.14049941 -0.024928948 -0.11924018 0.32478014
000180 5d 06 14 be fa bf 77 be 81 dc 2f 3f f0 a4 22 bd
       -0.14455552 -0.24194327 0.6869584 -0.039708078
000190 47 55 46 bd e8 03 4b 3e 79 6b ad bd d1 e1 21 be
       -0.04842117 0.19825709 -0.084677644 -0.15808798
0001a0 e4 7b c1 bc ba af 22 be 43 d6 7c bc b7 5f e3 bd
       -0.023618646 -0.15887347 -0.015431943 -0.111022405
0001b0 52 eb 08 3f ea de 00 bf a2 b4 11 be 7d 6d 1d be
       0.5348407 -0.5034014 -0.14229062 -0.15373798
0001c0 cf eb 13 be 01 0d c2 3d ea 3a e7 bc a0 33 76 be
       -0.14445423 0.094751365 -0.028226335 -0.24043131
0001d0 3f 25 ae bb d1 f2 03 be 9e 74 1b be c8 4c 0b 3e
       -0.0053144987 -0.12885596 -0.15181205 0.13603508
0001e0 e4 19 14 3e 8d 48 ea bd e8 10 e3 bd c2 2a 8f 3e
       0.14463001 -0.11439619 -0.11087209 0.2796231
0001f0 0e 35 5c bd 1c f5 19 be e9 3e 62 be c5 dc 18 be
       -0.053761534 -0.15034908 -0.22094311 -0.14927967

fc3.weight f4 [128, 128]
000000 e0 cb 59 bb 3b e1 1d 3d de 67 54 3d c4 33 71 bd
       -0.0033233091 0.038544875 0.051856868 -0.05888726
000010 b0 89 0f 3d a8 0a d9 bc 12 3e 74 bc f2 39 80 bd
       0.03504342 -0.02649434 -0.014907377 -0.06261052
000020 bd 5c 7c 3d 69 81 db bd 17 4a 1d bd 30 f3 87 bb
       0.06161188 -0.107180424 -0.038400736 -0.0041488633
000030 4d 46 c3 3c 1c b3 3a 3d 03 31 9d 3d b7 46 84 3d
       0.023837233 0.04558097 0.07675364 0.064588
000040 52 a4 86 bd 54 b3 89 bd 37 a7 85 3d e1 3f 1b 3b
       -0.0657431 -0.06723657 0.06526034 0.0023689198
000050 5f ba 53 bb da 7d 80 bc ef 9b 96 bd f6 59 b5 3c
       -0.003230713 -0.01568501 -0.07353961 0.022137623
000060 f6 7b 38 3d da bb 1e 3d 20 57 a9 bc c0 8f 71 bc
       0.045040093 0.038753368 -0.020671427 -0.014743745
000070 4d 3d a7 3d 63 a8 92 bc b8 72 be 3c 8b 47 9f bd
       0.08165989 -0.017902559 0.023248062 -0.077773176
000080 ec 47 6c bd e6 f7 53 3d f3 c7 bd bd 56 d5 ff 3c
       -0.057685778 0.051750086 -0.09266653 0.031229656
000090 c4 ad c4 3c 84 87 d2 bd 6a 8f 14 bd d5 4d 37 3c
       0.02400864 -0.10279754 -0.036269583 0.01118799
0000a0 c0 0b 7b 3c 77 3a 96 bc 2f 18 a2 bd 9a f9 3b 3d
       0.015322626 -0.018338425 -0.07914769 0.045892335
0000b0 79 08 aa bc 42 ef c0 bd 0e a4 ef 3c 51 85 a8 bd
       -0.020755993 -0.09420635 0.029253032 -0.08228553
0000c0 7b a4 67 bd 40 b5 5f 3c 30 b0 fc 3b 2c 98 56 39
       -0.056553345 0.013654053 0.007711433 0.00020465319
0000d0 92 e9 f0 bd 69 ea 32 bd ac 3d fb 3c b1 1a 93 3d
       -0.117633 -0.043680582 0.030669056 0.07182825
0000e0 f8 15 62 bd 78 33 d6 3c e1 89 f3 3c 3f ec 6a 3b
       -0.055196732 0.02614759 0.029728832 0.003584638
0000f0 af d8 76 bd 75 9d 11 3b 7a 78 5d bb e5 67 95 bc
       -0.06026524 0.0022219096 -0.0033793733 -0.018238017
000100 87 ae b7 bd 0d 39 12 bd 68 e9 92 bd 58 35 a4 3c
       -0.08968835 -0.03569894 -0.07173425 0.020044968
000110 7a ca 61 3d 97 5f 06 3d 77 83 80 bc d8 4e df 3c
       0.055124737 0.032806005 -0.015687687 0.027259275
000120 1a 09 9e bd f2 4c 23 3d 9b e1 ab bd 20 5a 41 bd
       -0.0771658 0.039868303 -0.0839264 -0.04720509
000130 58 6a 35 3b 82 e5 51 3d 4e 14 37 3d 94 7c 23 bd
       0.0027681794 0.051244266 0.0446971 -0.03991373
000140 70 94 03 3c ba 9f f0 bd 40 12 f3 bb 8b b9 d7 bc
       0.008030996 -0.117492154 -0.007417947 -0.026333591
000150 5c 4f 89 3c 91 f0 84 3d af 60 c2 bd 52 fc cc bd
       0.016761474 0.06491197 -0.09491097 -0.10009064
000160 a1 cc 6a bc ec 1a d0 3c c3 05 15 bd d2 5d 18 3d
       -0.014331014 0.025403462 -0.036382448 0.03719885
000170 0a 5d 2c 3d 46 6d 0c 3d fe 00 59 bd 32 1b 55 bd
       0.042080916 0.0342839 -0.05297946 -0.05202789
000180 6b 20 a8 3d 89 34 5d bd 49 0b 05 be 28 67 50 bd
       0.08209308 -0.05400518 -0.12992586 -0.050879627
000190 36 36 bd 3c bf fe a6 bd e0 92 56 bb a6 94 2a bd
       0.023097139 -0.08154058 -0.0032741353 -0.04164567
0001a0 66 e0 62 3d 21 56 08 bd 8f 2f 1d bd 14 21 42 bd
       0.055389784 -0.033285264 -0.038375434 -0.047394827
0001b0 96 05 aa bd f4 64 2e bd 90 75 f8 bb 75 33 9d bd
       -0.08301847 -0.042576745 -0.007582374 -0.0767583
0001c0 68 f7 12 3d 05 ae 88 3b 8e 87 3b bb 4d 06 13 3c
       0.035880476 0.0041711354 -0.0028614732 0.00897367
0001d0 01 80 85 bd d1 5e 91 3d 58 ca 86 bc 1a f9 a2 bc
       -0.065185554 0.07098163 -0.016453907 -0.019894172
0001e0 12 15 9c bd 70 58 21 bd 41 cd 60 bd d5 bc 62 3d
       -0.07621206 -0.03939098 -0.054883245 0.055355866
0001f0 58 c1 fa 3c 80 9f 34 bb 14 a8 7f bd cc 2d 8d bd
       0.030609772 -0.002756089 -0.06241615 -0.06893501
000200 b4 fc 8f bd da 70 60 3d 80 39 90 bb 1a a3 e4 bd
       -0.07030621 0.054795124 -0.004401386 -0.11163922
000210 35 55 52 bd d0 25 c4 3c b5 72 3f 3d c4 d4 a0 3c
       -0.05135079 0.023943812 0.046740253 0.019632705
000220 5d e1 89 3c 9b 9c d5 bd bf dc 4b bd f2 50 61 3d
       0.016831094 -0.10430261 -0.049771067 0.055008836
000230 f6 54 48 3d ac 4b 27 3d 0a e7 81 bd 90 ca 24 bd
       0.04890915 0.04084365 -0.06342895 -0.04023224
000240 2b ee 8f bd 40 05 28 bd 06 8f e1 bc f9 c9 c8 bd
       -0.07027849 -0.04102063 -0.02753402 -0.09804148
000250 f6 79 4f 3c a7 cf dd bd e0 05 6f 3b e2 fd ce bc
       0.012663355 -0.10830622 0.0036472008 -0.025267545
000260 b9 e5 8d 3d bc d1 bf 3c fa d3 9a bd 3d 9e 8a 3d
       0.06928582 0.023415439 -0.075599626 0.06768463
000270 09 a4 a4 3d e9 7d e8 bd 25 d9 a2 3d ff c9 9c 3d
       0.080391 -0.113521405 0.07951573 0.07655715
000280 03 52 93 3d 86 a5 2b 3d 6f fe 8e 3d 5c 5f 8a bc
       0.07193377 0.041905902 0.06982123 -0.016891174
000290 7c c0 71 3c 9f 5c 91 bd 33 4f e8 3a fc 7e 8a bd
       0.0147553645 -0.07097744 0.0017723799 -0.067625016
0002a0 d8 73 20 bc 35 dc 72 3d 87 99 3a 3d c8 af 97 bd
       -0.009793244 0.059292037 0.04555657 -0.074065745
0002b0 f2 16 01 bd 67 4d 22 3d 9a 09 34 3d 90 4a 62 bc
       -0.031516023 0.039624598 0.04395447 -0.013811722
0002c0 cc 5d bb bd e4 54 e0 3c f4 c8 6b bd f9 9b b4 3c
       -0.0914875 0.027384229 -0.05756469 0.02204703
0002d0 0f fd 7a 3d f6 b7 32 bd d4 92 44 bd 62 27 34 bd
       0.06127649 -0.04363247 -0.04799159 -0.04398287
0002e0 d2 a6 11 3d 88 94 74 3c 04 62 ae bd 26 7c 5b 3d
       0.035559483 0.014927991 -0.08514789 0.053585194
0002f0 4e c6 83 bd 1d 06 6c 3d aa cf 26 3d 6e d1 01 bc
       -0.06434308 0.057623018 0.040725388 -0.007923467
000300 58 23 7a bd 2b 65 ae 3d 44 50 b4 bd 30 5f 61 3c
       -0.061068863 0.0851539 -0.08804372 0.013755605
000310 4c e8 3c bc 42 10 86 bd 2f 3c e1 bd cf 58 b3 bd
       -0.011529993 -0.0654607 -0.10997807 -0.08757173
000320 06 60 26 bc b0 fb bd bb 7f 1f bb bd 7f e0 df bd
       -0.01015473 -0.0057978258 -0.09136867 -0.10931491
000330 a3 2b b5 3c 04 09 9d bc d8 7f af bc 1b de af bd
       0.022115534 -0.019169338 -0.021423265 -0.08587285
000340 50 f0 ea bb 85 49 c6 bd d7 34 ac bd 6c 40 92 bc
       -0.0071697608 -0.096819915 -0.08408516 -0.017852984
000350 10 17 23 3c 8e 3a 84 bd de aa ed bc e8 14 65 3c
       0.009954229 -0.06456481 -0.02901214 0.013982035
000360 29 7f 19 bd 33 54 32 3d b6 1f 85 bd a6 50 74 bd
       -0.037474785 0.04353733 -0.06500189 -0.059647225
000370 83 86 94 3d 0e 95 e7 bd 96 e2 75 3d d0 50 e4 3c
       0.072522186 -0.11307727 0.060030542 0.027870566
000380 3a 7b 27 3d 03 3f e9 3c 40 e2 92 bd 8a 4e 8f bc
       0.040889002 0.02847243 -0.0717206 -0.017493505
000390 ea 1e 5d bd bb 94 78 3c 3c e4 93 bd a0 2c 73 3c
       -0.05398456 0.015172179 -0.072212666 0.014842182
0003a0 08 0e 11 3c e4 e1 95 bc cc ff ab 3c 9a 2f 46 3d
       0.008853443 -0.01829619 0.020995997 0.04838524
0003b0 22 b5 1b bd 61 22 50 bc 88 62 16 bc b0 af 41 3d
       -0.03801454 -0.012703509 -0.009178765 0.04728669
0003c0 ab 84 9f 3d d5 e0 4f bd ad dd 8b bd 05 89 3f 3d
       0.07788976 -0.050751526 -0.06829391 0.04676153
0003d0 bd f6 9b bd 22 80 69 3d 0f ad 98 3d c4 13 d9 bc
       -0.07615421 0.057006963 0.07454883 -0.026498683
0003e0 7e d2 bf bd 1b 81 96 bd da f9 0f bd f2 16 27 3d
       -0.0936632 -0.07348844 -0.035150386 0.040793367
0003f0 df a6 a3 3d 40 55 f0 bb 77 cf 96 3d 5d 8c ae bd
       0.079908125 -0.0073343813 0.073637895 -0.08522866

fc3.bias f4 [128]
000000 83 a8 9c bd ad bf e7 bd a3 60 61 bc df 03 1c be
       -0.076493286 -0.11315856 -0.01375595 -0.15235852
000010 c1 bc 41 3f 29 60 08 be ee 0a 08 be ec 7b c5 3e
       0.7567864 -0.13317932 -0.1328542 0.38571107
000020 42 4d a1 be 17 6c 49 bd 2d 27 b0 bd 1b 3b 24 be
       -0.31504256 -0.049175348 -0.08601222 -0.16038172
000030 9a 3a db bd ed 93 cc 3e ac 19 d7 bd b8 a0 81 3e
       -0.10704537 0.39956608 -0.105029434 0.2531793
000040 7e 76 05 3e b2 6d 73 3d e8 27 a5 3e 53 4e 85 3e
       0.13033482 0.059430785 0.3225701 0.2603632
000050 f0 6c 29 3e 9b a5 61 bd 26 22 f4 3d 1d fe 12 3f
       0.16545463 -0.055089574 0.11920576 0.57418996
000060 3c c3 96 3e 8c 1a 57 3e 76 75 0a be 5a 2b 20 bd
       0.29445827 0.2100622 -0.1352137 -0.039103843
000070 62 12 1d be 57 63 81 bc 02 2b 8f 3f bf 55 12 be
       -0.15339044 -0.01579444 1.1185 -0.14290522
000080 8d 7d 32 3d c0 66 08 bf 04 35 85 bc 05 c5 db be
       0.043576766 -0.53281784 -0.016260631 -0.4292375
000090 73 2e e0 bd 60 00 fd 3e 58 e4 b0 3e 4c 39 19 3f
       -0.109463595 0.4941435 0.34549212 0.59853053
0000a0 7f 96 aa 3f a3 ca 23 be a4 87 96 bd 49 2d d9 bd
       1.3327178 -0.15995269 -0.0735009 -0.106043406
0000b0 e8 da 3a be de 4e c3 3f ab 92 ef 3b 93 bf a1 3e
       -0.18247569 1.5258443 0.0073111854 0.31591472
0000c0 4b b9 bf 3e 1a 29 89 bd 91 ba f9 bc 5c 87 28 3f
       0.37446055 -0.066972926 -0.03048447 0.6583154
0000d0 12 19 23 3b 2c a0 21 3f 51 16 d1 3e ce 74 55 3f
       0.002488677 0.6313503 0.4083734 0.83381355
0000e0 4b 97 5c 3f 78 fc 0d 3f e0 43 dd 3e 39 02 8b 3f
       0.86168355 0.5546336 0.43215847 1.0860053
0000f0 d3 44 01 be 8c 9d 07 be a0 5c 0c bd ee 2f e7 3e
       -0.1262391 -0.13243693 -0.03426802 0.45153755
000100 a1 aa 0b bd f4 da a9 bc c1 d8 3a 3f 03 b0 ad bc
       -0.03409827 -0.020734288 0.7298699 -0.021202093
000110 99 36 a5 bd 12 4c 7b bd 24 e3 2a 3e eb 73 e2 bd
       -0.08067054 -0.061351843 0.1668821 -0.11057266
000120 ac 60 78 bd 55 e7 14 be 92 01 51 bd d3 c3 aa be
       -0.06063907 -0.14541371 -0.05102689 -0.33352527
000130 46 c7 0f be fe 64 df 3d e2 61 d0 bd 7b 98 06 be
       -0.1404086 0.109079346 -0.1017492 -0.13144104
000140 14 93 05 3f 5e 62 b3 bd 8e 21 06 be da 52 05 3d
       0.5217755 -0.087589964 -0.13098738 0.032549717
000150 1a 21 4e 3e 2a 6c b7 be d7 ac 1a 3f 86 52 9a 3f
       0.20129815 -0.3582471 0.6041998 1.2056434
000160 2e 7f 56 bd 2d 33 7f bd 13 cf 5c 3f 70 a9 52 3f
       -0.05236738 -0.062304664 0.8625347 0.8228979
000170 e3 de ec 3e 71 bc 00 be e6 c7 98 3f 81 51 d0 3f
       0.462638 -0.12571885 1.1936004 1.6274873
000180 df 33 78 bd 79 aa 38 bf 72 11 ad 3b 45 45 9e 3e
       -0.060596343 -0.7213512 0.0052816207 0.30912223
000190 98 36 31 bd 57 4d 84 3f c8 54 a5 3f a3 ed e0 bd
       -0.043264955 1.0336102 1.2916498 -0.109828256
0001a0 bc c8 31 3e 6f 52 f8 bd 44 ec b2 bd a7 5a e5 bd
       0.1736173 -0.12125098 -0.0873647 -0.11198931
0001b0 65 8d 1b be 32 da 40 bc 2a fd f7 bd ae be 49 3e
       -0.15190656 -0.011770772 -0.12108834 0.19701645
0001c0 77 72 91 3f 54 64 9a bd 3c 4f 23 3f 4f 71 5e 3e
       1.1363057 -0.07538667 0.6379278 0.21722911
0001d0 df b2 2c bd 54 da 4c 3f cf f7 8e 3e ea a1 2f 3c
       -0.042162772 0.8002064 0.27923438 0.010719756
0001e0 dd 59 cf bd 53 b3 7f bd d5 fd 56 bd 21 49 5f 3f
       -0.10124562 -0.062426876 -0.052488167 0.8722096
0001f0 1a 1c 10 3c 8d 99 fa bd 0a 93 dc 3e 51 20 38 bd
       0.008795762 -0.12236319 0.43080932 -0.044952694

fc4.weight f4 [32, 128]
000000 ea 89 27 3d f8 c2 10 bd 6d 0d 10 bd 93 2d e8 bd
       0.04090301 -0.035342187 -0.035169054 -0.113368176
000010 f3 49 ca 3c 82 25 5b bd 85 56 91 3d 78 f3 95 bd
       0.024693465 -0.053502567 0.070965804 -0.073218286
000020 90 10 49 bd c0 b6 41 bb 90 2a eb bb ea 1d 84 bd
       -0.04908806 -0.002955839 -0.0071767047 -0.06451018
000030 01 cb 92 3d 68 e3 01 3c 02 00 dd bc ce 44 ea bd
       0.07167626 0.007927753 -0.026977543 -0.11438905
000040 b6 00 9b bd 59 92 cd bd dd 75 f3 bd 00 52 7d 3c
       -0.07568495 -0.10037679 -0.11887715 0.015461445
000050 17 c0 85 bd 45 59 d5 3c 76 9f f7 bc 60 af 98 bd
       -0.06530779 0.026043544 -0.030227404 -0.07455325
000060 cd b7 34 bd b0 ab 20 bd d6 8e 29 3d 50 6b 22 bd
       -0.0441206 -0.039226234 0.041395985 -0.039653122
000070 23 fd fb 3c 55 49 a0 3d 26 da 7a bd 29 b8 99 bd
       0.030760353 0.07826487 -0.0612432 -0.07505829
000080 d3 52 b3 bc b7 1f 9e 3c e6 b9 99 bd 51 72 c9 bd
       -0.02189008 0.019302232 -0.075061604 -0.09836257
000090 a4 78 8c bd 2f 4b 09 be 67 3b d4 bc 51 97 d0 bd
       -0.06858948 -0.13407587 -0.025907231 -0.10185111
0000a0 b6 02 fc bb 12 32 1b 3d bc 13 9f bc 26 14 12 3d
       -0.007690753 0.037889548 -0.01941859 0.035663746
0000b0 a6 e7 70 3d 2b 1f de bd e1 fc 5b bd 19 10 e8 bd
       0.058814667 -0.108457886 -0.05370796 -0.113311954
0000c0 2c 50 aa 3b e8 f5 1c 3c 46 67 60 3d b1 2d 35 bd
       0.0051975455 0.009580113 0.05478599 -0.044233028
0000d0 1a eb 75 3d fc ba 5a 3c c6 7c 6d bd db b6 d1 bd
       0.060038663 0.013350245 -0.05798032 -0.10239955
0000e0 ca 5f 3b 3d 09 71 fc bc 62 93 f7 bd ba cd 85 bd
       0.04574565 -0.030815618 -0.12088658 -0.0653338
0000f0 00 52 70 bb 14 37 1a 3b 23 87 92 bd 57 54 3c 3b
       -0.003666997 0.0023531364 -0.071546815 0.0028736794
000100 b7 78 8a bd 1b 2e ec bd 9f 78 6e 3c 5b b4 5b bd
       -0.06761306 -0.115322314 0.0145551255 -0.053638797
000110 0e 5e 32 3d 6a c6 0a bd d8 45 4d 3d c6 95 6e bd
       0.04354673 -0.03388063 0.050115436 -0.058248304
000120 28 42 0a bc 40 16 df bb 71 56 87 3d bb 58 92 bd
       -0.008438624 -0.0068080723 0.06608284 -0.0714583
000130 cf cf 9c bd f1 17 83 bd 5d be b3 3d d7 21 ab 3d
       -0.07656824 -0.06401051 0.08776543 0.08356064
000140 ac a8 34 3d 93 4f 1d bd d2 06 13 bd 81 10 b0 bd
       0.04410617 -0.038405966 -0.035895176 -0.08596898
000150 4e b1 a7 bd e8 70 27 3d 8a be 3b 3d 21 4d 72 bc
       -0.08188115 0.04087916 0.04583601 -0.014788897
000160 5d 82 57 bd 7a cc 29 3d a8 e1 13 3d 89 98 16 3c
       -0.05261456 0.04145477 0.036103874 0.009191641
000170 be 1c 8d bc 00 b1 40 3a 19 86 1b bc cd d6 3c bd
       -0.01722562 0.0007350594 -0.009492421 -0.046103287
000180 88 2b 67 3c 1f 91 eb bd e8 95 23 3c 82 bc 7a bd
       0.0141095 -0.11502289 0.009984471 -0.06121493
000190 fa d7 9b bd 7f a4 e3 bd 58 72 a5 bd 9e 85 8f bd
       -0.07609554 -0.111153595 -0.0807845 -0.07007907
0001a0 e1 38 b0 bd aa 14 7a 3d 13 be 99 3d b5 83 6a bd
       -0.08604599 0.061054863 0.07506957 -0.057254512
0001b0 3d a6 88 3d 8b 4c b4 bd 99 2d 9d 3d cc de 3f 3c
       0.066723324 -0.08803662 0.07674713 0.011710834
0001c0 54 7d 54 bd 80 e5 ba 3c 30 db 23 bd 22 cc 00 3d
       -0.051877335 0.022814512 -0.040003955 0.031444676
0001d0 4e e6 7c 3d 2e 7d 7e bc 2c be c6 bd 27 82 b4 3d
       0.061743073 -0.015532775 -0.09704241 0.08813887
0001e0 34 3d 90 bc 38 16 76 bc 2f e6 84 bd 80 7b b4 bd
       -0.017607309 -0.015019946 -0.064892165 -0.08812618
0001f0 5d e9 c6 bd 10 05 72 3c e2 41 80 3c 00 99 ce 3a
       -0.09712479 0.014771715 0.015656415 0.001576215
000200 7f e2 37 bd 7a 67 1c 3d 5a cc 41 bc 96 53 50 bd
       -0.044893738 0.03818462 -0.011828506 -0.050860964
000210 13 5a 8e 3c 98 82 82 bd e3 bf b0 3d 1c 8b d2 bd
       0.017376935 -0.06372565 0.086303495 -0.10280439
000220 db f7 d4 3c a2 50 8e bd 1c 57 9c bc 3c e8 f0 3c
       0.025997093 -0.06948973 -0.019084506 0.029407613
000230 53 45 92 3d ba ec 2f bd fc 47 a2 bc e4 59 24 3d
       0.07142129 -0.04295037 -0.019809715 0.04012479
000240 ed 05 b4 bc 23 22 65 bd c2 3f ff bd f2 4c d1 bd
       -0.021975482 -0.05594076 -0.12463333 -0.10219754
000250 83 96 ed bd 55 90 c0 bd 79 60 e0 bd f2 00 26 bd
       -0.116009735 -0.09402529 -0.10955901 -0.040528245
000260 e6 53 2d bd 2d a3 b6 bd 42 35 1f 3d e2 30 40 3d
       -0.04231634 -0.08917842 0.03886915 0.04692162
000270 de 00 d6 bd 61 fb 8a 3d d5 9b 40 3c 12 4d 71 3d
       -0.10449384 0.06786228 0.011755903 0.05891139
000280 40 89 7e bd 6c 05 94 3c 2c 61 6a bd 86 c6 0b 3d
       -0.06214261 0.018068992 -0.057221577 0.034124874
000290 20 b7 d3 3b 39 c5 6f 3b 0b 5f 0d bc 80 64 1d bc
       0.006461039 0.003658606 -0.008628617 -0.009606481
0002a0 5a f9 50 3d ba b4 8a bd a8 93 ce bc 5c 2d fd 3c
       0.05101905 -0.06772752 -0.025216892 0.030905418
0002b0 6a 6d 95 bd fe 8f 83 bd 9b a7 1f bd 29 4d 2c bd
       -0.0729626 -0.06423949 -0.0389782 -0.042065773
0002c0 9c a4 40 3d 9e 28 24 3d 15 6c d9 bd f2 0e 2d 3d
       0.047031984 0.040077798 -0.10616318 0.04225058
0002d0 a8 6c 84 bd c0 42 f8 bd db 01 05 bb d9 46 9d 3c
       -0.06466037 -0.121221066 -0.0020295295 0.019198822
0002e0 e4 57 63 bd b4 28 6f 3c 3d ab 1d bd 29 e3 95 bd
       -0.05550374 0.014597107 -0.038493384 -0.07318718
0002f0 c8 85 9b bd 45 76 e2 bc 9a a9 7f bd 7f 25 11 3d
       -0.07593876 -0.027644286 -0.062417604 0.03543615
000300 de 6a 3d 3d 60 0e 3b 3d ac 8d bb bc a3 3d a6 bd
       0.046244495 0.045668006 -0.022894703 -0.08117225
000310 a4 99 ca 3c df 62 27 bc b1 55 00 3c 0e 41 65 3d
       0.024731465 -0.010216444 0.00783293 0.055970244
000320 d5 95 02 bd 70 a9 de 3b 52 4c 4e 3d 91 2c 22 bd
       -0.031881172 0.006795101 0.050365753 -0.039593283
000330 ec ca c1 3c 3c b3 fb bc a4 cb 7e bd 98 b7 c9 bc
       0.023656331 -0.030725114 -0.062205926 -0.024623677
000340 39 eb f5 bd b8 23 90 3c b7 fd 8f bd 78 5c 35 3c
       -0.12007756 0.017595157 -0.07030814 0.01106941
000350 94 46 78 3c fd de b1 bc cc 46 f3 3c d8 4f 91 3c
       0.015153546 -0.021712774 0.029696845 0.017738268
000360 1a d9 5f bd ae 7d 73 bd 7f 72 06 3d 5c 9a d8 bd
       -0.054650404 -0.05944603 0.032824036 -0.10576317
000370 c6 d0 a4 bc 13 e0 ac bd e4 cb 6d bd 6f b4 a5 bd
       -0.020119082 -0.08441176 -0.058055773 -0.080910556
000380 99 df 8c 3d 5f 63 ce 3c a0 6c be 3c 6e 95 6c bd
       0.06878585 0.025193868 0.023245156 -0.057759695
000390 d4 ac a6 3c e0 b4 a1 3c 68 5d 52 bd 96 8d 4b 3d
       0.020346083 0.019739568 -0.05135861 0.049695574
0003a0 31 74 02 bd 0f d7 88 bd a9 ae 81 3d ee c9 06 3d
       -0.03184909 -0.06681644 0.06332142 0.03290742
0003b0 1a 28 91 bd 41 24 8d 3d 97 ba 24 bd f0 9e 4d 3d
       -0.07087727 0.068916805 -0.04021701 0.050200403
0003c0 7f 50 ef bc f6 1e 24 3d 28 4d b3 bc bb cf e5 bd
       -0.029213188 0.04006859 -0.021887377 -0.11221262
0003d0 42 d0 29 3d d1 58 72 bd 56 53 be bc 58 9f 9a bc
       0.041458376 -0.059166733 -0.023233097 -0.01887481
0003e0 e3 37 a9 3d 82 a6 a8 bd 95 a6 95 bd 73 49 ea bd
       0.08262613 -0.08234884 -0.073071636 -0.114397906
0003f0 48 cc 43 3d 4a c5 67 3d e2 14 d5 bd 51 38 83 3d
       0.04780224 0.056584634 -0.10404374 0.06407226

fc4.bias f4 [32]
000000 12 fa 0b be 15 0d 99 bd 7a e8 5d 3f 24 3b a0 bd
       -0.13669613 -0.07473198 0.86682856 -0.0782378
000010 0a 0c 36 3f 84 f1 4e bd 04 0c c8 bd 7f 28 1d 3f
       0.7111212 -0.050523296 -0.09767917 0.6138992
000020 2b e5 81 3f 4e 17 85 3f 18 54 af 3f a9 9c 83 bd
       1.0148062 1.0397737 1.3697538 -0.06426365
000030 16 10 c6 b9 27 f3 ac 3f 5e c2 b5 3e c8 de d1 bd
       -0.00037777488 1.3511704 0.35499853 -0.1024757
000040 c0 92 8e 3f a7 56 48 bd 86 68 dd 3f be 1d e5 3d
       1.1138535 -0.048910763 1.7297523 0.111873135
000050 49 c3 4c be 6e 44 b5 3f 36 05 1b 3f 4a df 83 3f
       -0.1999637 1.4161508 0.60554826 1.0302517
000060 f9 07 73 bd 2d 67 60 3f b5 1f 8b 3f db da 91 3f
       -0.059333775 0.87657434 1.0869051 1.1394914
000070 e3 6c ca 3f eb b1 e9 3e 85 05 8d 3f 28 ee 90 3e
       1.581448 0.45643553 1.101731 0.283067

fc5.weight f4 [4, 32]
000000 43 09 84 bd 9d 1c ca 3d f5 22 14 3e 26 60 79 bd
       -0.06447079 0.09868739 0.1446646 -0.06088271
000010 a3 5f 09 3e 68 f9 19 3d af c2 6b bd a2 fe 89 3e
       0.13415389 0.037591368 -0.05755871 0.26952082
000020 58 65 72 bc 83 54 43 3a 4a 1f 21 3f f6 44 92 3c
       -0.01479467 0.0007451253 0.6293837 0.017855149
000030 78 02 fa bd 43 f3 19 3e 18 20 21 bd c2 e0 e7 bc
       -0.12207502 0.15034203 -0.039337248 -0.028305415
000040 d1 72 47 be e6 4b 1b 3d 9d 75 1a be 70 ba 5e bd
       -0.19477393 0.03791418 -0.15083928 -0.05437702
000050 58 26 b0 3d 6a 30 ca 3e f9 19 7e 3e d2 b8 89 be
       0.086010635 0.39490062 0.24814595 -0.2689882
000060 7c f9 03 3d 2b 41 79 be 8e 42 92 bc 8e eb 14 be
       0.03222035 -0.24341266 -0.017854001 -0.14542982
000070 e3 ba 03 bf d3 d4 bb 3d 22 2b 74 3e bf 41 82 3e
       -0.5145704 0.091714524 0.23844579 0.25440785
000080 1e 8a f3 3d 38 a9 af bc e3 e5 1d be 73 01 26 bc
       0.11891578 -0.021442994 -0.15419726 -0.010132181
000090 38 51 33 bd 1d 69 51 bc f1 65 21 3e 38 f2 6c 3d
       -0.043778628 -0.012781409 0.15761544 0.057848185
0000a0 24 2a 96 3e df 81 b3 be 56 56 1f be 0a 64 44 bd
       0.29329026 -0.3506002 -0.15560278 -0.047946967
0000b0 5a 4a 1c bb ae 3c 53 3e 4e 3e 34 bd d8 e3 5a bd
       -0.0023848028 0.20628616 -0.04400473 -0.053439945
0000c0 8c ab e1 bd 22 e2 81 bd ad d1 f7 be 1c 03 a6 bd
       -0.11019048 -0.063419595 -0.48402157 -0.08106062
0000d0 94 7c f8 bc 1e a7 c4 3e 36 69 a5 3d 1a d0 9c bd
       -0.030332841 0.3840875 0.08076708 -0.0765688
0000e0 9a 9a 80 3d 29 12 82 3c bc d2 1c be 69 87 8f 3e
       0.06279488 0.0158778 -0.15314764 0.28032997
0000f0 c6 6e a7 be 1b c5 b4 3e 9f e1 f0 bd 79 2e 85 3e
       -0.327017 0.3530663 -0.11761784 0.26012018
000100 fe 67 9c 3d c0 b4 de bd b2 bd c6 3d 6d 64 83 3d
       0.076370224 -0.10874319 0.0970415 0.06415639
000110 25 29 3f 3e 32 04 ee 3c c2 6f 15 3e 7e 02 31 bd
       0.18668039 0.029054735 0.14593413 -0.043215267
000120 eb ca 8a be 71 82 74 3e 7d 72 d3 3d ae 0c 16 3d
       -0.2710794 0.23877884 0.10324571 0.036633186
000130 4d d2 87 3d b0 a2 81 3e b4 ff 5d 3c 7a fd 50 3d
       0.066319086 0.25319433 0.013549734 0.051022984
000140 ba 0b fc bd 95 dc 68 3d ba 39 d7 be 67 8c 2a 3d
       -0.12306924 0.05685099 -0.4203623 0.041637804
000150 7b 5d a8 3d ab 4c c5 3e de ba dc bb c3 07 c1 3e
       0.08220955 0.38535056 -0.0067361435 0.37701234
000160 6e c7 2a bd e5 1d b3 bd 24 38 8d bd c3 e6 f5 bd
       -0.041694097 -0.08745936 -0.068954736 -0.12006905
000170 59 fb 9c be 49 da a0 3e 0e 21 76 be d0 6a 6c 3d
       -0.30660513 0.31416538 -0.24036047 0.05771905
000180 d3 85 8b 3c 0e 43 f7 3c ea a6 ea 3d 6c 2c 88 b9
       0.017031586 0.030183341 0.114576176 -0.00025973038
000190 47 03 25 be 23 59 ef bd 87 95 d7 bd 17 13 c7 bd
       -0.16114531 -0.11686923 -0.10526567 -0.09720438
0001a0 04 f9 32 3c be 52 12 be d0 a4 3e bd 01 bd 83 3d
       0.010923628 -0.14289376 -0.046543896 0.06432534
0001b0 d0 97 99 3d bd dc 20 3e f2 c5 a9 3c 9e b8 0a 3e
       0.07499659 0.15709205 0.02072427 0.13546988
0001c0 71 fb a5 3e 67 41 d5 3b da 10 fb be d7 3d 43 3e
       0.32418397 0.0065080407 -0.49036294 0.19066559
0001d0 d2 62 72 bd b1 28 ce 3e 89 5b 4a be 11 0d 4b be
       -0.059176274 0.4026542 -0.1976148 -0.19829203
0001e0 35 6c d5 3c f3 c8 39 3d 88 9c 98 3e bb 40 6b be
       0.026052574 0.045357656 0.29806924 -0.22973911
0001f0 98 38 8d be 25 1e 8a 3e 6c fd 19 3d cb 17 99 3e
       -0.2758224 0.26976123 0.037595198 0.29900965

fc5.bias f4 [4]
000000 6b c2 1c bf 77 7c 1b 3d 7a a3 00 3e b2 11 2a 3d
       -0.6123416 0.037960496 0.12562361 0.04152078
