DQN_models/model_updaterate1000_gamma0.99_alpha0.001_static.pt (torch, 416627 bytes, 10 tensors)

fc1.weight f4 [128, 514]
000000 00 13 8a ba bc 39 17 bc 9c 6a 99 3c 38 28 e3 bb
       -0.0010534227 -0.009230074 0.018727593 -0.0069322847
000010 94 ce b0 3c 68 59 e7 bb 0b 94 1f bd f4 2c d4 3c
       0.02158288 -0.0070602186 -0.038959544 0.025900342
000020 f6 02 67 bc 78 59 ed 3b 6a 25 f5 bc b2 a7 b5 bc
       -0.014099827 0.0072433315 -0.029925067 -0.02217469
000030 3c 5e 31 3d d9 2f d3 bc 30 d6 1f bd d7 c6 93 bc
       0.04330276 -0.025779651 -0.039022624 -0.01803915
000040 24 26 dc bc 98 f1 15 bc 00 18 c7 3c 00 7b 7c ba
       -0.026873656 -0.009151839 0.024303436 -0.00096313655
000050 d8 74 0f bd 7e 89 1c 3d 80 68 8e 3c b0 3f 4b 3c
       -0.03502354 0.03821706 0.017383814 0.012405321
000060 cf 8a eb be b0 88 e1 be 59 88 e4 be c3 2d e6 be
       -0.4600434 -0.44049597 -0.44635275 -0.44956788
000070 e1 64 de be 08 d8 d3 be df ce c6 be 40 ae bb be
       -0.4343634 -0.41375756 -0.38829705 -0.3665638
000080 df e0 e7 be bf fb db be 87 c8 df be f9 17 f0 be
       -0.4528875 -0.42965505 -0.43707678 -0.4689329
000090 97 7a db be fa eb da be 2d 37 ea be 4a d2 e1 be
       -0.42866966 -0.4275816 -0.4574522 -0.4410575
0000a0 d5 4d e9 be 31 99 e3 be a8 9b 7f bc 6d b5 8f bc
       -0.45567194 -0.44452813 -0.015601076 -0.017542565
0000b0 e0 22 50 bb b0 97 9a 3c c5 3c de be 3f 73 78 bd
       -0.0031759068 0.018871158 -0.43405738 -0.060656782
0000c0 2d 5f c6 be fe 3e d3 be 7d f9 d8 be 56 83 ce be
       -0.38744488 -0.41258997 -0.42377844 -0.40334576
0000d0 10 c7 9b be ee 83 c7 be 80 48 e4 be bf 3f da be
       -0.3042531 -0.38967842 -0.44586563 -0.4262676
0000e0 3e c3 ce be cd 6f c3 be a6 29 e0 be 03 23 ef be
       -0.40383333 -0.38171235 -0.43781775 -0.467064
0000f0 ec ec f2 be 8e 7a da be e6 22 b1 be 0d d9 d6 bd
       -0.47446382 -0.42671627 -0.34596938 -0.10490618
000100 5d 3d cc bc 60 75 cd ba 3b e3 13 bd f4 27 f0 3c
       -0.024931604 -0.0015675239 -0.036105376 0.029315926
000110 24 07 ef be 86 f2 d0 be e8 c6 b1 be 6a 9f 12 bd
       -0.46685135 -0.4081003 -0.34722066 -0.03579656
000120 2c b8 8b 3c c0 44 dc be eb a0 bb be 15 72 b7 bd
       0.017055593 -0.43021202 -0.36646208 -0.08957306
000130 64 45 97 3c 50 6e 14 3d 2b 1b d6 be f8 dc ab be
       0.018465705 0.036238015 -0.41817603 -0.33567023
000140 ad 66 6a bd c0 51 85 3b c7 53 1c bd 67 47 d2 be
       -0.057226826 0.0040685833 -0.038165834 -0.410701
000150 1e 32 b8 be 8c 2a 70 bd 40 06 2f bd b8 0d 1e bd
       -0.35975736 -0.058634326 -0.04273057 -0.038587302
000160 d6 38 c0 bc fc 64 34 3c 0c 03 e0 be f5 90 cf be
       -0.023464601 0.011010405 -0.43752325 -0.4054028
000170 81 f5 3c be be a9 e9 bc 60 85 aa bc 34 06 e8 be
       -0.18453027 -0.028523322 -0.020815551 -0.45317233
000180 f6 97 c1 be 08 94 0d be a9 1f 08 bd 54 c5 ca 3c
       -0.3781125 -0.13826 -0.03323332 0.024752297
000190 f2 b9 d9 be 3c 37 e0 be 5f 78 56 bd 54 e1 a6 3c
       -0.42524678 -0.4379214 -0.05236089 0.020371117
0001a0 6f 1f 2b bd 03 4c f2 be fb 40 ba be 12 1b 6f bd
       -0.041778024 -0.47323617 -0.363777 -0.058375426
0001b0 b8 7d f8 bb 5c b3 6a bc 10 48 16 bd 47 73 ec bc
       -0.007583346 -0.014324989 -0.036689818 -0.028863562
0001c0 7f 70 e4 be dd 55 d3 be 2a 13 cb bd 00 5a c1 39
       -0.44617078 -0.41276446 -0.09915765 0.00036878884
0001d0 9c ce 5d 3c 59 e4 df be 18 6a c8 be 29 f3 73 bd
       0.013538029 -0.43728903 -0.39143443 -0.059558067
0001e0 8c d4 cb 3c 2e 16 8e 3c 09 88 ee be 76 8a c8 be
       0.024881624 0.01734456 -0.46588162 -0.39168137
0001f0 9a 85 bb bd dd b6 2e bd 40 ba d3 3b cd 6c da be
       -0.09156342 -0.04265486 0.0064614117 -0.42661133
000200 4f f8 e0 be 95 85 65 3d 88 34 9b bb e8 43 06 3d
       -0.43939444 0.056035597 -0.004736487 0.032779604
000210 b0 c4 29 3b 86 7a 87 3c fa ea e2 be b5 27 d0 be
       0.0025904588 0.016537916 -0.44319898 -0.40655294
000220 d4 4f fd bd 2c 60 20 3c 5b fe 03 bd 90 64 de be
       -0.12368742 0.009788554 -0.032224994 -0.43436098
000230 9e 13 cb be 03 6c 6b be 68 bb 22 bc 5c 6e 4e 3c
       -0.39663404 -0.22990422 -0.009932376 0.012599554
000240 dd 2f ed be 3c db b6 be d7 5c d4 be dc 87 19 bd
       -0.4632558 -0.35714138 -0.4147708 -0.03748308
000250 93 ca 00 bd 98 01 eb be 77 98 e2 be 04 06 95 bd
       -0.03144319 -0.45899653 -0.44256946 -0.07276538
000260 28 c0 57 3c 00 a8 dd b7 9b 7b 1a bd f2 e9 09 bd
       0.013168372 -2.6423484e-05 -0.037715536 -0.033670373
000270 7b 3c f3 be da 60 da be b7 01 df bc 18 36 85 bb
       -0.4750708 -0.42652017 -0.027222497 -0.0040652864
000280 59 72 1a bd 3f 16 ef be 6b 56 d4 be 6d 0c 02 be
       -0.037706707 -0.4669666 -0.41472182 -0.12700053
000290 b2 0e 07 3d 5c 7e 99 bc 84 0c e8 be e8 13 c9 be
       0.032973 -0.01873701 -0.4532205 -0.39273
0002a0 68 66 db bd a9 d3 f8 bc 44 e0 63 3c 6e d5 d8 be
       -0.10712892 -0.030374365 0.01390845 -0.42350334
0002b0 6a fa bb be 5c 12 cb bd e6 f0 80 3c 88 58 80 bb
       -0.36714488 -0.09915611 0.01573987 -0.0039168037
0002c0 40 c6 b0 3c 68 b3 a6 3c a7 db ea be 7a 0c d1 be
       0.021578908 0.02034922 -0.45870706 -0.4082983
0002d0 66 b5 df be ad be 85 bc 7d 3d 9a bc e9 29 ca be
       -0.43693084 -0.016326273 -0.018828148 -0.394851
0002e0 99 af e4 be cf 3d 99 be 4c ea 27 3d 56 94 cf bc
       -0.4466522 -0.2992997 0.040994927 -0.025339287
0002f0 46 0d cf be 8b d4 5e be 09 dc 72 be 6e b7 7a bc
       -0.40439814 -0.21760766 -0.23716749 -0.015302522
000300 1a 92 2a 3d 0f bc db be 03 97 c8 be 40 82 8b bd
       0.04164324 -0.42916915 -0.39177713 -0.068119526
000310 bc 19 df bc 20 41 0e bd 60 8f a5 3c 94 6b 27 bd
       -0.02723395 -0.034730077 0.020209968 -0.04087408
000320 63 d1 e3 be a2 71 d3 be 32 b4 49 bd 12 20 81 bc
       -0.44495687 -0.41297632 -0.049244113 -0.015762363
000330 80 62 dd 3b 79 88 e4 be de a7 d4 be 40 96 b0 3d
       0.006756127 -0.4463537 -0.41534323 0.08622408
000340 70 b3 1f 3d c6 3e 10 bd f9 98 df be 3a 42 69 be
       0.038989484 -0.035216115 -0.43671396 -0.2277917
000350 c4 10 83 3b 50 19 48 3b 85 0f 26 bd ce c3 db be
       0.0039998014 0.0030532666 -0.040542144 -0.42922825
000360 9b 16 ca be f8 61 c4 be 6d 02 1e bd 88 a3 ac bb
       -0.39470372 -0.38355994 -0.038576532 -0.005268518
000370 b8 c3 69 bc d7 a5 c1 bc 15 61 ef be 07 0b d2 be
       -0.014267854 -0.023638649 -0.46753755 -0.41024038
000380 aa 62 ca be 74 98 28 3d b2 40 2a bd 2c f3 d1 be
       -0.395284 0.041161016 -0.041565605 -0.41005838
000390 ee 0c ba be 44 9e 9b be 38 f7 da bb 00 5e 04 3d
       -0.3633799 -0.30394185 -0.006682303 0.032316208
0003a0 cd e1 dd be c8 ab b1 be bd 4b d0 be 9c b3 bd bc
       -0.43336335 -0.3470137 -0.40682784 -0.023156933
0003b0 f3 ed 05 bd 15 db ed be cb ba cb be ae 68 37 be
       -0.03269763 -0.4645621 -0.3979095 -0.17911026
0003c0 5c 2e 20 3d 1a 7f 1d 3d 68 d7 fa bc dc d4 cf 3c
       0.03910671 0.03845129 -0.030620292 0.025370054
0003d0 27 2d fe be 78 e4 d3 be d1 6b e5 be 78 71 34 3d
       -0.49643824 -0.41385245 -0.4480882 0.044053525
0003e0 5a b5 0c 3d 29 57 e1 be 1f 22 b8 be 25 d4 5d bd
       0.034352638 -0.4401181 -0.35963532 -0.054157395
0003f0 58 65 2f 3c 0c fe 03 3d 4c 01 ea be 3b 82 ea be
       0.010705315 0.0322247 -0.45704114 -0.45802483

fc1.bias f4 [128]
000000 87 cc a7 3e e3 4d cb be 74 c9 d0 3e 5d b0 dd be
       0.3277323 -0.3970786 0.40778697 -0.43298617
000010 78 9a 03 bf f1 73 d6 be 36 65 bf be f2 2f ce bd
       -0.51407576 -0.4188533 -0.37381905 -0.100677386
000020 34 60 1e be 5f db 6d bf 37 57 d0 be 06 8a 50 be
       -0.15466386 -0.9291286 -0.4069154 -0.20365152
000030 60 1b b2 be ef 07 b9 3c 03 35 91 bf e4 1b 46 bf
       -0.3478651 0.02258679 -1.1344303 -0.7738631
000040 19 dc a5 3c 41 f7 61 be db 76 4d 3e 63 68 cf be
       0.020246552 -0.22066976 0.20064871 -0.40509328
000050 71 92 49 bd 1a f6 de be ab a6 a6 be 8b 45 13 bf
       -0.049211923 -0.43547136 -0.32549033 -0.5752799
000060 05 51 95 3d 8a b3 8b bd ae 35 51 3e 67 29 51 bf
       0.07290844 -0.06821354 0.20430633 -0.817038
000070 4b 5a aa be 04 07 25 bf f7 1b 82 bf a3 1e c5 be
       -0.33272013 -0.6446383 -1.0164784 -0.38499936
000080 86 f0 7a be 0b 63 ae be 1e e6 04 bf 08 25 34 3e
       -0.24505815 -0.3405994 -0.5191363 0.17592251
000090 b2 c0 92 be 73 33 09 bf c8 3a 45 bc 70 6c 18 3c
       -0.2866264 -0.5359413 -0.01203794 0.009303197
0000a0 7b 8e 28 bf 7a b7 77 bd b1 ef 0b bf 69 37 a0 be
       -0.6584241 -0.06047771 -0.54662615 -0.31292275
0000b0 43 61 e0 be 52 9b b1 be 75 d6 e1 be 42 3f 33 3e
       -0.43824205 -0.34688812 -0.4410893 0.175046
0000c0 c5 83 36 bf b9 71 13 bf bf 22 d5 be 63 dd b6 be
       -0.71294814 -0.575954 -0.41628072 -0.3571578
0000d0 bd 1e a7 3e e2 46 a9 be 88 cd 00 bf fa d4 f0 be
       0.3264064 -0.33061892 -0.50313616 -0.47037488
0000e0 b1 f1 09 bf 9a 95 98 be 7f dd 0f be a4 82 bb be
       -0.53884417 -0.29801637 -0.14049338 -0.36623108
0000f0 70 2e 48 bf dd 44 7b be b8 d6 28 bd 27 22 9f 3e
       -0.7819586 -0.24537988 -0.041220397 0.31080744
000100 56 31 de 3e 25 fb 70 bf c4 5a 1a be b6 fb 96 3e
       0.43397015 -0.94133216 -0.15073687 0.29488915
000110 9f e8 4e 3f ba ab d3 be 20 25 5a bf 7f 7c 15 bf
       0.808237 -0.41341954 -0.852129 -0.5839309
000120 7e 71 98 be 38 c2 21 bf 49 63 db be f9 6d 1b bf
       -0.29774088 -0.6318698 -0.42849186 -0.6071468
000130 ca 74 4f 3e 75 8e d3 be 5d 92 19 bf 9f e5 e1 3d
       0.20259395 -0.41319624 -0.5998896 0.11030125
000140 d9 b3 38 3e 87 40 4b bf 5b 51 07 bf 8e 3e bb be
       0.18037356 -0.79395336 -0.52858514 -0.36571163
000150 d0 72 5c bf f8 cd d8 3d 55 d8 3d bf bd e5 15 bb
       -0.8611269 0.105861604 -0.7415822 -0.002287253
000160 91 38 4a bf 3a 26 d5 be 0f 93 22 be 1e be 54 bf
       -0.78992563 -0.41630727 -0.15876411 -0.83102596
000170 9f 19 7f bf 6c 2d 46 bd a0 b3 05 3e 5f b3 b7 3c
       -0.9964847 -0.04838316 0.13056803 0.022424398
000180 d4 23 cb be 21 4c ae be ef c2 24 3f 91 ab 12 bf
       -0.39675772 -0.34042457 0.64359945 -0.5729304
000190 1c d7 95 be 13 3c df 3e 52 e6 dc bd 02 59 7a be
       -0.29265678 0.4360052 -0.107861176 -0.24448016
0001a0 53 95 92 be 8a 42 2b bf 2b 8a 23 bf 21 92 4a bf
       -0.2862955 -0.66898406 -0.638827 -0.79129225
0001b0 29 c4 52 3e ba 3b 99 be 69 ca 2d bf 64 2a 2a bf
       0.20582642 -0.2992838 -0.6788698 -0.6647093
0001c0 90 68 2f bf 42 f6 d7 bd e5 e2 c7 3c 49 32 10 bf
       -0.68518925 -0.10545017 0.024400184 -0.5632673
0001d0 71 9f 2f bf d8 bb d2 be e3 41 86 be c1 49 7c 3d
       -0.68602663 -0.41158938 -0.26222143 0.061593775
0001e0 ea f8 8b be 9c f9 da bd 5c 88 99 bd 9a 9d 77 be
       -0.27338344 -0.106921405 -0.074967116 -0.24181214
0001f0 d0 5a f3 be b6 1e 87 be 5e 38 a2 be 56 3d a3 be
       -0.47530222 -0.26390618 -0.3168363 -0.31882733

fc2.weight f4 [128, 128]
000000 b5 3a d1 bd 8f fd f7 bc a2 39 07 bf 71 df 1c bd
       -0.102162756 -0.030272273 -0.52822316 -0.038299028
000010 53 7e 4f 3e dd ce b7 3e 15 5e 30 be a0 e8 46 bf
       0.20263033 0.35900012 -0.1722339 -0.7769871
000020 b9 da 4d 3d e3 9b 82 bf 70 a0 10 be 84 ba c8 be
       0.05025742 -1.0203823 -0.14123702 -0.392048
000030 bf ce 5c be c5 c3 d2 bd e0 5d 6a bf f6 f5 09 be
       -0.21563242 -0.10291246 -0.9154949 -0.13472733
000040 c9 6b 10 3f c2 ab d6 bf 45 3c ef be 3a 2c ac 3e
       0.5641447 -1.6771166 -0.4672567 0.33627492
000050 6f 0c f2 be 18 b6 e1 be 74 e6 9b be 2d a2 07 bd
       -0.4727511 -0.4408424 -0.3044926 -0.033113647
000060 ff b9 49 3c e2 d6 7d bf 0f ca 20 be d7 d5 c3 be
       0.012312411 -0.9915601 -0.15702079 -0.38249084
000070 93 72 56 be f7 e3 af be 9f 5c 3a 3e 2a 96 b1 bc
       -0.20942144 -0.3435361 0.18199395 -0.02167805
000080 d0 fd 86 bb ce f4 ef be af 2a c9 be f6 3a 2e be
       -0.0041196123 -0.4686646 -0.39290377 -0.1701468
000090 ad ad c2 be d7 8a a6 3d 8c 17 47 bf 48 da a1 be
       -0.3802313 0.0813195 -0.77770305 -0.31611848
0000a0 e9 24 8e bf cb 9c 07 bf 74 32 86 3e 04 9c 03 be
       -1.1105014 -0.5297362 0.26210368 -0.12852484
0000b0 61 91 3b 3f 90 ff 51 3e ed af 37 3d ec 23 a5 be
       0.73268706 0.20507646 0.04484551 -0.3225397
0000c0 0d cf 15 be 27 f2 a3 bd d8 5f 8e 3e 39 e3 54 be
       -0.14629765 -0.08005171 0.27807498 -0.20789804
0000d0 7e 35 2f bf 5e 84 6e be fb e6 f7 bc 62 67 66 3d
       -0.68441 -0.23292682 -0.030261507 0.056250937
0000e0 73 a1 ae be a7 98 07 3e 1a b1 de 3c 35 74 01 be
       -0.3410755 0.13241826 0.027184058 -0.12641986
0000f0 c9 1f 28 bc d2 79 11 3e 2b a9 94 3a 35 5b 3a bc
       -0.010261484 0.14206627 0.001134192 -0.0113742845
000100 05 9f 26 bd c5 db 22 bf 92 2c 84 3b fb aa 76 bf
       -0.040678997 -0.6361659 0.0040336335 -0.96354645
000110 64 4e f5 bb dc 02 2d 3d 0e ff 93 be d2 bc dc be
       -0.0074861515 0.042239055 -0.2890553 -0.43112808
000120 3f c7 f3 bf e3 52 39 be 36 4f 1d bd c9 ad a1 be
       -1.904518 -0.18098025 -0.03840562 -0.315779
000130 e3 3f ea be af 3f 09 3e 14 db f4 bd 18 9c 60 3e
       -0.45751867 0.134032 -0.11955848 0.21934545
000140 4f 57 7c be af e4 e5 be 9c cd a8 be cc 9b 64 bf
       -0.2464268 -0.44901034 -0.32969368 -0.8930023
000150 d8 bc 23 bf 8f c8 df bd 2e 4b af be 2c 97 87 bf
       -0.6396003 -0.109269254 -0.34237045 -1.0593009
000160 01 f6 28 be dc 40 aa 3e 0b 1a de be 5f cc 65 bf
       -0.16500093 0.3325261 -0.43379244 -0.8976497
000170 fd f9 d8 3e f7 d2 15 bd 29 ce 1d 3e 49 ed c1 bd
       0.42378226 -0.036578145 0.15410675 -0.09469087
000180 a2 42 72 be 0b e0 0c 3f 2b 9f 5f bf 65 f4 e0 be
       -0.23658231 0.5502936 -0.87352246 -0.43936458
000190 e1 49 ef bd 7e f2 1d bf 8b c4 c2 be c4 6e 13 3e
       -0.11684013 -0.6169814 -0.38040575 0.14397722
0001a0 46 95 47 be 37 ce 46 3c e0 1a 01 bf 32 a2 a7 be
       -0.19490537 0.012134126 -0.50431633 -0.32740933
0001b0 2f 5d ad be 9b 44 d7 3d 3c dc 0b bf 5d 84 85 bf
       -0.33860156 0.10511132 -0.54632926 -1.0431019
0001c0 d5 d8 b9 3d 58 5f 00 3f 0a 28 27 bc 56 b2 e8 be
       0.090745606 0.50145483 -0.010202417 -0.4544856
0001d0 cc af fb 3d 4a 47 59 3e e0 1b a0 be 5f c2 69 3b
       0.1228939 0.21218601 -0.31271267 0.0035668833
0001e0 e2 e2 68 3e be 39 20 3e f9 c7 61 bd 9e c1 c8 be
       0.22742799 0.15647027 -0.05512235 -0.39210218
0001f0 a4 24 3d bf a2 38 61 bf 98 0f 47 3c 48 dd f9 bd
       -0.73884034 -0.8797704 0.012149714 -0.12200409
000200 0b 28 51 bf a5 20 f9 be c1 7d 18 c0 f1 c8 35 be
       -0.81701726 -0.48657718 -2.3826754 -0.17752434
000210 51 0b ab bd 77 51 2e bf a3 53 0e be f0 13 50 bf
       -0.08351768 -0.68093055 -0.13899092 -0.8128042
000220 10 ad de bb ab c6 3f be 38 af 1d be d0 a8 8c bf
       -0.006795533 -0.1872813 -0.15398872 -1.0989017
000230 c3 db 1d be bd 87 45 bf 5c ab ad be c4 1b 87 be
       -0.15415864 -0.77160245 -0.339198 -0.2638837
000240 7d 9f a4 bf 25 61 c8 bf e3 9b d6 3e b2 12 c2 3e
       -1.2861172 -1.5654646 0.41915807 0.37904888
000250 cd 23 a0 bf 93 f5 db 3d 58 80 ec be 3a ac 7a be
       -1.2510926 0.10740199 -0.4619167 -0.24479762
000260 49 14 a6 be e4 76 27 bf be 29 42 bf a7 4a 5b bf
       -0.3243735 -0.6541579 -0.75844944 -0.85660785
000270 e5 92 a7 be ae a0 ad 3b b7 02 4d be 30 73 c4 bd
       -0.3272926 0.0052986955 -0.20020567 -0.09592283
000280 64 50 14 3e cb 5f 13 bf 8a 32 c4 be 32 9d ee bf
       0.14483792 -0.57568043 -0.38319808 -1.8641722
000290 f0 37 c4 be a0 cb 63 be b2 59 1c be 48 45 9f bf
       -0.38323927 -0.22245646 -0.15268591 -1.2443018
0002a0 ef 50 88 be 2a b5 91 bf a5 7c ad bd 29 e0 86 be
       -0.26624247 -1.1383412 -0.0847104 -0.26342896
0002b0 06 21 24 3f df 72 10 bf f7 b1 19 be a5 a9 97 bf
       0.6411289 -0.5642528 -0.15009294 -1.1848646
0002c0 7f 60 96 be 1d c9 1a 3e 2b 8d fd 3d 42 71 95 be
       -0.29370496 0.15115781 0.12380441 -0.2918797
0002d0 09 9f 57 bf 0f 8d 81 bf 0e 45 17 3d e3 7a 06 bf
       -0.84227043 -1.0121173 0.03693109 -0.5253126
0002e0 b2 8a 6c bf 61 4f 24 3e 0d ca 54 bd e0 f3 14 be
       -0.9239913 0.16045906 -0.051950503 -0.14546156
0002f0 a5 ca b6 be 2f 98 ef bc 4d 02 b9 be 95 96 68 bf
       -0.3570148 -0.029247371 -0.36134568 -0.9085477
000300 86 46 1c bf 5f 8f 88 bf 39 26 0f be 99 e0 86 bd
       -0.6104511 -1.0668753 -0.13979425 -0.06585807
000310 73 42 20 bf fa 3f d7 bc 24 a1 07 be d9 a3 f0 be
       -0.62601393 -0.026275624 -0.13245064 -0.47000006
000320 3c 91 94 bf b3 68 2d bb 22 cc 09 bd 78 55 3e bf
       -1.1606822 -0.002646011 -0.03364194 -0.74349165
000330 92 66 f8 be a7 68 9e 3c a9 dd 19 bf 13 81 01 bf
       -0.48515755 0.019337012 -0.6010385 -0.50587577
000340 bf 09 9d 3e 0c fb a1 bd 17 a5 7a 3e f4 a9 f6 bf
       0.30671498 -0.079092115 0.2447704 -1.9270616
000350 69 c1 4b bf 59 c0 15 be 6d 51 04 bf 88 86 06 bf
       -0.79591995 -0.14624156 -0.51686746 -0.5254903
000360 3a 04 7c be 9a ad ba 3d 42 e1 58 bd c7 30 96 be
       -0.24610987 0.09115143 -0.052949198 -0.2933409
000370 02 cd 07 bf 21 71 3f 3d 19 ce 74 bf 51 cc 4d be
       -0.5304719 0.046738748 -0.9562698 -0.20097472
000380 3f b4 18 3e 7c ae f3 3e 54 3b 1d be 03 f8 80 bf
       0.14912508 0.4759406 -0.15354663 -1.0075687
000390 c5 e4 51 bc a5 ea a4 be 98 dc d6 be 5c 86 4a be
       -0.012810891 -0.3221027 -0.41965175 -0.19777817
0003a0 b4 3f 41 3d bd e0 10 bf 40 0a 93 bb 34 c5 82 be
       0.047179893 -0.56592923 -0.004487306 -0.2554108
0003b0 a7 a7 b1 bd df 43 99 bd e8 e8 fc be b1 48 9f bf
       -0.08674555 -0.074836485 -0.49396443 -1.2444059
0003c0 84 56 3d be 09 1a b5 bd 9a 2c c7 be 83 a0 27 bf
       -0.18490034 -0.088428564 -0.38901216 -0.65479296
0003d0 5b 68 a5 be 9b 2e 33 bd 69 50 86 3e d5 1d f5 bf
       -0.3230618 -0.04374562 0.26233223 -1.9149729
0003e0 cb 07 0b bf 69 64 7d bf c0 88 7e 3d 1c 57 2c be
       -0.54308766 -0.9898134 0.062142134 -0.16830105
0003f0 22 21 db be 0a 25 30 bf eb df 32 be 3b b9 6c be
       -0.42798716 -0.6880652 -0.1746823 -0.23117535

fc2.bias f4 [128]
000000 bb 5a a1 be 51 e3 f5 3d a4 00 bb be 4f 54 de bd
       -0.31514534 0.12006248 -0.36523926 -0.10855924
000010 dc a2 80 be fc 57 1a be 76 eb 4c bf 76 e4 e8 be
       -0.25124252 -0.15072626 -0.80046785 -0.45486802
000020 2c 25 05 3e 02 6b c7 be f4 6f e4 bc 55 4f 84 bd
       0.13002461 -0.38948828 -0.027885415 -0.06460444
000030 ad da 2a be bc 13 3d bf f9 0f b8 be 82 66 eb be
       -0.1668498 -0.7385824 -0.35949686 -0.45976645
000040 73 79 a6 be ad 6e 04 be 78 00 da be 1b 4c 0c be
       -0.32514533 -0.12932844 -0.42578483 -0.13700907
000050 4e e5 a5 3e aa ab 24 bf 4f 9b 06 3e 90 2a ae be
       0.32401508 -0.6432444 0.13145183 -0.34016848
000060 6a 69 d0 bd 8a 2f 89 be d9 87 43 be a3 ec 29 3f
       -0.10176356 -0.26794082 -0.1909479 0.66376704
000070 1a e6 61 3f c4 90 dd bd f5 82 e1 be 1b 27 b7 3c
       0.8824173 -0.108186275 -0.44045225 0.022357514
000080 6c 35 9b be a0 75 a1 be 19 3b e0 be 59 2b 25 3f
       -0.30314195 -0.31535053 -0.43795088 0.6451927
000090 4e 3e 27 bf 00 bf 8f 3e 5e ff aa be 83 81 06 bf
       -0.65329444 0.2807541 -0.33397955 -0.5254137
0000a0 59 c3 87 be 09 6c e2 be 5e a1 cc 3c f9 97 16 bf
       -0.26516226 -0.4422305 0.02497929 -0.5882564
0000b0 03 a7 0e bf 7c 0d 83 bf 94 3a 78 bd 4c f0 0f 3f
       -0.5572359 -1.023849 -0.06060274 0.5622604
0000c0 5b 9d ae bd 71 ef b7 3f a5 31 c3 3e b7 c2 9e 3e
       -0.08526107 1.4369947 0.38123813 0.3100793
0000d0 49 96 36 3c 19 eb 4f be f4 bd 2d be e7 6b 4b 3e
       0.011144229 -0.20304526 -0.16966993 0.1986538
0000e0 89 49 60 be 1d 8e 74 bf f7 2a da 3d ef f6 31 bf
       -0.21903051 -0.9552935 0.10652726 -0.69517416
0000f0 2b 5a f0 be 4f 75 bb be 9b 03 1d bf 12 52 3d be
       -0.46943793 -0.36612937 -0.61333627 -0.18488339
000100 b7 c7 56 be f4 43 c0 3e 30 8f 21 be a3 ac 01 bd
       -0.20974623 0.37551844 -0.15777278 -0.03165878
000110 c5 aa 10 3f 60 9d 2f bd e0 27 ff be fa 6e 9d be
       0.56510574 -0.042874694 -0.4983511 -0.3074873
000120 c3 ad aa 3d fc ad 62 be 92 bd 8f be db 3f ec 3e
       0.08333924 -0.22136682 -0.28074318 0.46142468
000130 e1 b1 62 be 37 49 16 3e e4 77 3b 3e 78 e7 45 3e
       -0.22138168 0.14676367 0.18307453 0.1932658
000140 b6 9c 19 be 76 c6 e9 3e d4 f0 a4 3e c8 14 5f 3d
       -0.15001187 0.45659226 0.32214987 0.054463178
000150 d3 f6 5f 3f 2f 03 fb be 91 82 e4 3d 62 6d 8e be
       0.87486 -0.49025866 0.11157716 -0.27817827
000160 4a 53 2e bd de 1e 96 be 5e 67 0a be 60 df e4 be
       -0.0425599 -0.29320425 -0.13515994 -0.44701672
000170 e7 f3 15 be f1 f1 a1 be da 54 0c be d0 af 2f 3e
       -0.14643823 -0.316299 -0.13704243 0.17156911
000180 a6 3f 04 3e f0 06 23 bf 8e 3c cf be 5a 62 e9 3d
       0.12914905 -0.6368246 -0.40475887 0.11395712
000190 0e c9 ae 3e a7 83 e1 3d 87 30 67 bd 90 4c e7 3e
       0.34137768 0.11011439 -0.056442764 0.451756
0001a0 b0 c9 53 3e d3 91 e4 bd 78 78 ae be 22 15 d4 bd
       0.20682406 -0.11160626 -0.34076285 -0.10355593
0001b0 08 6d d5 3d c7 49 99 be 09 17 0a 3e 3b c7 3c bd
       0.10421187 -0.299391 0.1348535 -0.04608844
0001c0 2d fb 30 be a7 89 a6 be 1d 63 2f 3f d5 12 f6 bd
       -0.17283316 -0.32526895 0.6851061 -0.12015311
0001d0 fb 1f ff 3e 9d ca 15 be d2 c9 af 3c 93 49 08 bf
       0.49829087 -0.14628072 0.02145854 -0.53237265
0001e0 c3 53 f5 be 7d 74 63 be 8f 47 f0 be ad b8 11 bf
       -0.47915468 -0.22212406 -0.46929595 -0.5692242
0001f0 30 e0 92 3e 6b f2 7e 3e 4a 61 9f 3e e7 6b 77 3f
       0.28686666 0.24897163 0.31128913 0.9664902

fc3.weight f4 [128, 128]
000000 26 07 80 3e 74 a3 53 be 34 58 bd be c0 dc b5 bd
       0.25005454 -0.20667821 -0.36981356 -0.08879995
000010 07 f3 32 bd 7c fc e6 3c 97 f4 17 bf 1d 25 a3 bd
       -0.0436888 0.028196566 -0.5935759 -0.07966063
000020 c4 a7 50 be 6d d3 d5 bd 4c 92 9f bb c4 8b fd 3d
       -0.20376498 -0.10440717 -0.004869735 0.12380174
000030 7a 83 c7 3d 8c 42 5c be cc ac 8c 3d 71 a4 4c bd
       0.09741874 -0.2150976 0.06868896 -0.04996151
000040 b4 27 92 be b7 9f d9 3b fb b9 3d 3d 92 87 c4 bd
       -0.28545916 0.006641354 0.046319943 -0.095961705
000050 2c ff b0 be 63 4a 20 3d e0 87 b3 be 6b d5 4a bd
       -0.3456968 0.03913344 -0.35064602 -0.049519937
000060 bb d2 ab be 7f 1f 89 3e 08 7e 6d 3d 54 5a 0c 3e
       -0.33559212 0.26781842 0.05798152 0.13706332
000070 3d b8 a7 be d6 21 10 3e ec bd 10 3f f6 04 0a be
       -0.3275775 0.14075407 0.565398 -0.13478455
000080 35 32 02 be c6 9c 13 3d 25 4e 5b 3d 5a 24 9d be
       -0.12714465 0.036038183 0.05354132 -0.30691797
000090 a8 f8 bc be 50 db bc 3b 4e c6 9b 3d 77 cb 1d 3e
       -0.3690846 0.005763449 0.07606183 0.15409647
0000a0 6d 8c 90 3e 11 d4 bb be 26 45 e1 be 38 f3 07 3d
       0.28232136 -0.3668523 -0.4399807 0.033190936
0000b0 63 57 b8 be 3b 67 47 be ce db 54 3b 0f e1 cf be
       -0.3600417 -0.19472973 0.0032479647 -0.40601394
0000c0 52 f1 bd 3b 3e d2 43 be f9 e0 02 bf e0 c9 a1 be
       0.00579659 -0.1912317 -0.5112453 -0.3159933
0000d0 f6 2f b5 bd 12 00 17 3e 62 e7 e9 3e b4 20 f6 be
       -0.088470384 0.1474612 0.45684344 -0.48071826
0000e0 b1 1e d4 3d 15 8b 2f be bf ed 94 be 33 ca f0 bd
       0.103574164 -0.171429 -0.29087636 -0.117573164
0000f0 92 81 97 3d fd ff 76 bd 36 36 6a bd d4 0d 5b 3d
       0.073977605 -0.060302723 -0.057180606 0.053479984
000100 e5 b1 c9 bc e1 cb 5f be c8 24 59 be 00 ef b1 be
       -0.02462096 -0.21855117 -0.21205437 -0.34752655
000110 82 ea c8 be b2 cc be be f1 62 d7 be 87 69 df 3e
       -0.39241415 -0.37265545 -0.42067674 0.43635198
000120 85 ed 87 3e 3b fd 30 3d 8c 3e 12 be b7 48 26 be
       0.265484 0.04321025 -0.14281672 -0.16238676
000130 20 ad be 3e 16 ce c4 bc 5b 53 1f bf 08 d7 af be
       0.3724146 -0.02402405 -0.62236565 -0.34343743
000140 61 6d 7b 3d 14 3e eb be 45 e9 11 be 80 44 90 3e
       0.06138361 -0.459458 -0.14249142 0.2817726
000150 cf 82 af be 09 8e b8 bc c0 44 4f be d0 a7 ee bc
       -0.34279487 -0.022528665 -0.2024107 -0.029132754
000160 49 fe a7 be 12 4a cf be 79 8d 55 3d 6b 4c 66 be
       -0.32811192 -0.404862 0.052136872 -0.22490089
000170 f9 9a e8 3d 26 06 ea bd 08 99 99 be c7 19 93 be
       0.11357684 -0.11426954 -0.29999566 -0.28730604
000180 c5 a1 25 be 4b 48 66 3d 9c 64 df bd 1d 7e a5 be
       -0.16174991 0.056221288 -0.109078616 -0.3232278
000190 96 b4 13 bd 80 f7 a0 be 64 2d 40 3e 2b 2e 44 bd
       -0.036060892 -0.31438828 0.18767315 -0.04789559
0001a0 05 49 c3 be cc d5 ca 3c 86 e3 b5 be de 1d bd 3d
       -0.38141647 0.02476015 -0.3552515 0.09234212
0001b0 96 cf fb be 44 61 b5 3d ed 23 4f be 33 6a 94 3d
       -0.49181813 0.088564426 -0.20228548 0.072468184
0001c0 0b bd a8 3b 32 1c 8c 3c 6c 96 a4 be b5 65 d3 bc
       0.005149489 0.017103288 -0.32146013 -0.025805334
0001d0 8d 54 e3 bd 1e 87 98 bc 8b 44 ad be 9b d8 8e be
       -0.11100111 -0.018619116 -0.33841357 -0.27899632
0001e0 72 c1 ef bd 67 bf 43 bd 7f 44 82 be 7b 18 96 3e
       -0.11706819 -0.047789957 -0.25442883 0.29315552
0001f0 c7 5f fa bb 10 ea 71 3c 89 72 ec be db 01 a2 bd
       -0.007640812 0.0147652775 -0.46181133 -0.0791051
000200 58 0b b9 3e 22 f2 24 bf d2 a5 fd 3c e7 99 4c 3d
       0.36141467 -0.64431965 0.030962858 0.04995146
000210 50 12 04 bd 9f d1 bd bd ee f1 8a bf 00 0c a9 3d
       -0.032244027 -0.09268498 -1.0855081 0.08254242
000220 3a 22 e9 bf 00 0e a6 bd 5a 05 b4 3e a0 cf 5d bf
       -1.821357 -0.08108139 0.35160333 -0.86644936
000230 0d f7 56 be ab 27 6b 3e a0 fc 96 bf 75 85 c6 be
       -0.2099268 0.22964351 -1.1795845 -0.38773695
000240 19 ce 3c bf 25 b0 a9 bc b6 31 22 be 4f 69 b6 3d
       -0.7375198 -0.020713875 -0.15839276 0.08906805
000250 fe 7d 07 3f 1a e8 06 3c 3f 3b 53 c0 75 db 02 3e
       0.52926624 0.008234048 -3.300491 0.12779029
000260 bf f7 4c 3e 07 ce 5e be 3d 1b ee be 6b b9 d7 be
       0.20016383 -0.2175828 -0.46505156 -0.4213365
000270 ac f9 1e 3f da 24 c0 bd 96 66 fe 3d 1a 6e 30 3e
       0.6209972 -0.09382029 0.124219105 0.172295
000280 4e 10 c8 be 82 ee 49 c0 56 51 42 bf 82 59 e9 3d
       -0.3907494 -3.1551824 -0.7590536 0.113940254
000290 65 01 c4 bd db d0 dd be 53 ee 53 bf e1 92 88 bf
       -0.095705785 -0.43323407 -0.8278553 -1.0669824
0002a0 e7 c9 c1 be ac 96 fd be 51 9b eb be d7 a1 45 bf
       -0.37849352 -0.49529016 -0.46016935 -0.77200073
0002b0 88 0e 28 3c f9 59 85 bf 3d 8c fd bf cc bb e5 3e
       0.010257371 -1.0418082 -1.9808422 0.4486984
0002c0 22 2f 9f bd 80 ed 1e 3f 79 1f b1 bf 2d 53 9b 3e
       -0.07772662 0.62081146 -1.383773 0.30336896
0002d0 36 75 66 3d 77 e0 06 be e9 4d 6a bf 90 86 2c c0
       0.056264125 -0.13171564 -0.9152513 -2.695713
0002e0 2e 1f 82 3c 41 a4 50 bf 56 f4 55 bf 81 26 92 bf
       0.015884008 -0.8150063 -0.8357595 -1.1418
0002f0 68 21 b3 be 0d c9 16 3e f6 8e 1f 3e b8 43 5c bc
       -0.34986424 0.14725132 0.15581879 -0.01344388
000300 89 d4 0e 3e d4 10 1e 3f e3 74 ce bd 34 61 6b bf
       0.13948263 0.6174443 -0.10080888 -0.91945195
000310 23 2f ef 3e b2 48 32 c0 33 02 0f be 14 9a 84 bf
       0.4671565 -2.785687 -0.13965683 -1.0359521
000320 17 ca e4 3e 86 b2 73 bd 65 c8 4b bd d0 a6 50 bf
       0.44685432 -0.059496425 -0.049751658 -0.81504536
000330 3e e7 98 3d 14 90 0f be e7 4a 18 3d 85 6c d1 be
       0.07465981 -0.14019805 0.037180807 -0.40903106
000340 d1 94 cb bc f4 04 51 c0 11 42 91 3d 87 0a 09 be
       -0.024851235 -3.2659273 0.07092679 -0.13382922
000350 8f 6d 85 3e 1c d1 2d bf 57 e3 e0 bf e4 0b 25 bf
       0.2606015 -0.678972 -1.7569379 -0.6447127
000360 3a 6e 1c 3f 33 1a e2 bd cd 3d 94 bd 32 9e 58 bd
       0.6110569 -0.11040153 -0.0723835 -0.05288524
000370 77 5a 1d be 5f 0f fc 3e 87 17 9a 3e c7 84 a5 bf
       -0.15366541 0.49230477 0.30096075 -1.2931145
000380 a4 84 e8 bd 5b f0 d3 3d eb 2c bb 3e bc aa d6 bf
       -0.11353424 0.103485785 0.36557707 -1.6770854
000390 12 d2 c1 3c 15 d9 db 3d ca 42 2d be 7f 82 1f bf
       0.02365974 0.107347645 -0.1692001 -0.62308496
0003a0 ad c6 e7 bf 13 bb 92 bd ec a3 cc be 7d bc 3f 3d
       -1.8107506 -0.07164588 -0.39968812 0.046810616
0003b0 c6 d4 cc bf 9a 30 5f 3d c2 4f 12 3f fe 27 1f 3e
       -1.6002433 0.05448971 0.5715295 0.155426
0003c0 22 c6 27 bd 7a 42 79 bf 57 14 b8 3e c1 fc 01 3c
       -0.04096044 -0.9736706 0.35953018 0.007933796
0003d0 d5 3e 04 bf 90 13 77 be ec 87 fc bc eb 1e 32 3e
       -0.51658374 -0.24128556 -0.030826531 0.17394607
0003e0 38 71 a7 3d 73 f8 a3 3e a8 b4 bb bc 2a 1c 49 bd
       0.08175892 0.3202549 -0.022913292 -0.049099125
0003f0 b3 33 08 c0 e4 67 3d bf f0 2a 71 c0 04 d0 66 be
       -2.1281555 -0.7398665 -3.7682457 -0.22540289

fc3.bias f4 [128]
000000 f9 8c 86 3f a3 38 c6 3f 22 06 10 be 85 bd 1e bd
       1.0511771 1.5486034 -0.1406484 -0.03875496
000010 eb 89 f9 bd 6f 65 9d 3f 58 97 8d 3e 72 85 25 3f
       -0.12184509 1.229658 0.2765453 0.64656746
000020 93 c3 38 bc 34 58 13 be d8 aa c0 bd 81 34 75 3f
       -0.011277097 -0.14389116 -0.09407586 0.9578324
000030 53 56 20 3d a2 bc 36 3f d9 4b 55 3f 9c 04 4f 3e
       0.039144825 0.7138158 0.8331886 0.20216602
000040 ba e9 d3 3f a5 b4 de 3d 82 53 12 be 3b 56 36 be
       1.6555703 0.10874299 -0.14289668 -0.17806332
000050 73 5c 0d be 56 8b 95 3f af 31 4c 3e bd b5 a4 3e
       -0.13804798 1.1683147 0.19940828 0.32169905
000060 4d 80 88 3f d9 07 aa bc 9e e1 3b be e1 d0 ed 3e
       1.0664154 -0.020755695 -0.18347785 0.46448424
000070 3d be 95 3f c1 5c 22 be c8 b4 f0 bd 23 91 02 be
       1.1698681 -0.15855695 -0.11753231 -0.12750678
000080 51 e1 a3 3f 95 01 eb bc f8 0d b5 3e 52 e3 b0 3f
       1.2803136 -0.028687278 0.3536222 1.3819373
000090 e4 bf ae 3e e0 9e 1c be 99 ec f6 bd 59 d0 b7 3e
       0.34130776 -0.15294981 -0.12056846 0.35901144
0000a0 50 8d fe bd bb f1 3f 3e b8 08 34 3f 17 fb 0e be
       -0.12429297 0.18744557 0.70325804 -0.1396297
0000b0 14 e3 12 3f 02 28 93 3f 98 03 aa bd 2c b3 d3 bd
       0.57377744 1.1496584 -0.08301467 -0.10336909
0000c0 af f7 a1 3f 2b ba 90 3f 5a fa 08 40 4b e4 e3 bd
       1.2653712 1.1306814 2.1402802 -0.11127528
0000d0 d7 e9 f0 3e 4e fb f4 bd 07 26 2d bd fc d6 68 be
       0.47053406 -0.11961995 -0.042272594 -0.2273826
0000e0 59 19 0c 40 24 dc 4a 3f 52 ab fb 3d ab 9e 58 3e
       2.189047 0.7924216 0.12288536 0.21154277
0000f0 af f5 a2 bd af e0 cd 3e 2d 82 2b be a6 a9 ea 3e
       -0.07957017 0.40210482 -0.16748877 0.45832556
000100 2d 25 91 3f 15 4c cb 3b 87 71 3a bd 29 77 8e bd
       1.133947 0.006204138 -0.045518424 -0.06956322
000110 31 f6 9c 3f c4 63 20 bc 92 a6 c0 be 62 85 3c 3f
       1.2262632 -0.009789411 -0.37627083 0.73641026
000120 8e d8 90 bc 0d 6d 2b 3d ff c8 71 3f d3 7c e7 3f
       -0.017681386 0.041852046 0.9444732 1.8084968
000130 05 ea 0c be b9 1a 76 3f af f5 3e bf e9 1c d8 bd
       -0.13761146 0.96134526 -0.74593633 -0.10552389
000140 76 dd 89 3f 1c f0 e7 3f af a1 ed 3f 9a f9 99 3f
       1.077071 1.812015 1.8564967 1.2029297
000150 5e ec 94 3f ed 20 06 bd fa ed 1b 3e 3e ff 6f 3f
       1.1634634 -0.032746244 0.152275 0.93748844
000160 f4 5a 13 3f 6e 46 a8 3d 2e 65 46 bd 66 a9 26 be
       0.5756066 0.082165584 -0.048436336 -0.16275558
000170 aa 57 95 3f 4a 48 16 be b4 c8 de bd e2 ec f0 bd
       1.1667378 -0.14676014 -0.10878125 -0.11763932
000180 7f 23 f4 bd f4 d1 0f be d1 89 2a be 25 81 39 bd
       -0.11920833 -0.14044935 -0.16654135 -0.045289177
000190 dc 28 b4 3e b7 de ba bd b2 e4 06 be 7d fc 69 3e
       0.35187423 -0.09124511 -0.13173178 0.22850223
0001a0 69 7b 91 3e 8d 2a ec 3e 49 3c db bd 81 fb 8a 3f
       0.28414467 0.46126214 -0.10704858 1.0858003
0001b0 ef 20 d5 bc 3e 7e 04 be 6e 02 a5 bd 4b 4a 14 3f
       -0.02601668 -0.12938783 -0.08057104 0.5792586
0001c0 6b 28 04 40 7e ba d1 3f d8 86 a2 bd ea f4 bb bd
       2.064967 1.6385038 -0.07935876 -0.09177573
0001d0 cf 14 b0 bd e3 08 be bd da 17 cc bc 2e ae df 3e
       -0.08597719 -0.09279039 -0.024913717 0.43687576
0001e0 6f 44 e8 bc c3 22 9f 3f a2 03 a2 bd 04 f9 0c be
       -0.028352944 1.2432483 -0.07910849 -0.13766867
0001f0 dd 86 5a 3f cf a5 9e 3d 1b 5f cf bd 0c 4c a3 3f
       0.85362035 0.07746469 -0.10125562 1.2757583

fc4.weight f4 [32, 128]
000000 b2 92 61 3d 5e eb 0e bf 79 74 19 3d f7 25 dc 3d
       0.05507154 -0.5582789 0.037464593 0.10749429
000010 92 59 d5 3c db 83 cf bc 3f 88 05 3e 83 fa c6 3d
       0.026043687 -0.025331428 0.13040255 0.0971575
000020 34 60 b0 3d eb 43 a2 bd 7e 42 95 bd a0 16 2e 3f
       0.08612099 -0.079231106 -0.07288073 0.68003273
000030 0c 1a a4 bc bb c1 a1 3e 87 bc 82 3c 10 7e dd bd
       -0.020031951 0.31593117 0.015959037 -0.1081506
000040 1a f4 27 bf 1a 6d 9e 3e 5b 84 3a 3c f5 cc f5 3c
       -0.65606844 0.30942613 0.011384095 0.030004958
000050 c4 06 36 bc 03 9d 94 be 9f c0 b6 be fb 8c cf bb
       -0.0111100115 -0.2902604 -0.35693833 -0.006333945
000060 f7 4c f3 bd 8c a1 87 bd 78 63 9c 3d b6 ef 19 bc
       -0.11879914 -0.066226095 0.0763616 -0.00939553
000070 ae 09 2f be 40 c7 cd bc 57 db c7 3d 75 06 ce bc
       -0.17093536 -0.025119424 0.09758633 -0.025149563
000080 04 a7 da bd 1e b0 2d 3d 43 9e 74 bc 10 d0 ba 3e
       -0.10676387 0.042404287 -0.014930311 0.36486864
000090 e1 64 01 bd 0c 11 80 3d ad 4d 8c 3c 53 94 e5 3d
       -0.031590346 0.062532514 0.017126882 0.11209931
0000a0 56 1e 96 3c 18 4c c5 3d 1c d1 0c be bc 15 12 bd
       0.018325012 0.09633654 -0.13751644 -0.03566526
0000b0 b2 ff c5 3e 33 52 a2 3e b9 87 80 bb b9 0e 1d be
       0.38671643 0.31703338 -0.0039224294 -0.15337647
0000c0 99 6c 7c 3c db 06 26 be ba 6f 9b be 21 c4 8b ba
       0.015406751 -0.16213553 -0.30358678 -0.0010663309
0000d0 e8 01 79 bb 79 55 d6 3d a0 7a a7 3d 70 f2 b0 3c
       -0.003799552 0.10465521 0.08177686 0.021599978
0000e0 fd 48 1c 3f e8 ec 71 3d d3 d4 15 3e 09 79 90 bd
       0.6104887 0.059063822 0.14631967 -0.070543356
0000f0 09 08 d2 3d c1 fa ad 3d 2e d0 33 3c fc fd 94 3d
       0.10255439 0.08495093 0.010974927 0.07275006
000100 3d 39 c4 3d 45 ea 6f bd f4 fa ef bb 35 82 09 3d
       0.0958123 -0.058573026 -0.007323617 0.03357144
000110 90 22 60 3c 78 8a dd 3b d4 8b 08 3e 9b a8 85 3d
       0.013680115 0.0067608915 0.1333459 0.065262996
000120 8e ca 04 bc f7 1e 55 bd cd 84 50 be 8e 09 08 bf
       -0.008104933 -0.052031484 -0.2036316 -0.5313958
000130 24 13 e9 3d 5c 0e cd be 98 ff 81 bd 9c ca 62 bd
       0.11380604 -0.40050018 -0.06347579 -0.055369005
000140 dd f4 14 be 3d 29 09 bf 61 93 fa 3e 61 28 ab be
       -0.14546533 -0.5357855 0.48940566 -0.33429244
000150 ed e4 92 3d cf 72 8f bd d2 07 7c be 97 bc 1e 3f
       0.071725704 -0.0700432 -0.24612358 0.62006515
000160 4a 23 66 bd e4 7b 93 3d 13 e6 57 bd 88 77 34 3b
       -0.056185998 0.07201365 -0.05270965 0.0027537066
000170 69 28 9a be cb 5c 35 3c 4e 45 e0 3c a7 0c 73 3c
       -0.30108956 0.011069487 0.027376797 0.0148345595
000180 f2 fc a4 bd e8 2e 3d be b4 d6 9e bd 7b 5c af bc
       -0.08056058 -0.18474925 -0.07755795 -0.021406403
000190 6e fe 4f 3d 66 90 f2 3c 42 4a 1a bd 3e 76 ac 3a
       0.050779752 0.02960987 -0.037668474 0.0013157798
0001a0 31 7f 35 3d 36 9d 1a be b5 5b 12 3d f9 5a 3a be
       0.044310752 -0.15099034 0.03573199 -0.18198766
0001b0 97 93 1b bb ee 8d 8e 3d ed 9c bb 3c 81 f1 82 be
       -0.0023739093 0.06960665 0.022901976 -0.25574878
0001c0 1c d0 0d 3e 1f 13 9b 3e b9 91 b9 3b ab 91 2b bd
       0.13848919 0.30288026 0.0056631234 -0.041886967
0001d0 27 c7 ca 3c 68 01 d5 3b 5e d5 24 bb 29 fa 74 be
       0.024753166 0.006500412 -0.002515159 -0.23923554
0001e0 3d 3d ee bc 5e fd b5 be b2 3a 0d 3c d4 4f f8 3c
       -0.029081935 -0.35544866 0.008619951 0.030311503
0001f0 5a 3f ed bd 4a 28 bf 3c 75 81 83 bc 5f 36 f2 bc
       -0.11584349 0.023334641 -0.01605294 -0.029566942
000200 50 40 ba bd bf 67 cb 3f 7b 46 9c bd 0f 20 ab bd
       -0.09094298 1.5891036 -0.076306306 -0.08355724
000210 be 29 93 3d 04 35 0f 3f 63 67 50 bf 2e df dd be
       0.07185696 0.5594027 -0.81407756 -0.43334335
000220 c5 14 0a 3d 70 3e 7b 3c 54 54 c4 bc fc 7b cb be
       0.033711214 0.0153347105 -0.023965992 -0.3974303
000230 48 7a 7b bf 12 54 5c 3e 54 c0 a3 3c fc 02 52 be
       -0.9823346 0.21516445 0.01998917 -0.20508951
000240 81 2a 85 be 89 54 70 3e 04 de 80 3c 96 36 f3 bc
       -0.2600899 0.23469748 0.015730865 -0.029689115
000250 80 20 a9 bd 78 27 13 3c ac b8 86 3e f7 ca 9b bf
       -0.08258152 0.008981578 0.26312768 -1.2171315
000260 91 b5 37 3f 78 c8 8f bd 41 8b 88 bc 62 53 c7 be
       0.71761423 -0.07020658 -0.016667964 -0.38930804
000270 e9 85 50 3f 2d 51 62 3d a5 6e 99 3d e3 72 56 bd
       0.8145433 0.055253197 0.07491807 -0.05235566
000280 4e a3 18 bf 38 e0 b2 3c 61 17 6d be 00 b5 f8 be
       -0.59624183 0.021835431 -0.2315345 -0.48575592
000290 9d cb ab 3d ee b8 9b bd ca 49 a7 3c a5 c7 9c bd
       0.083884455 -0.07603632 0.020420928 -0.07655267
0002a0 b1 8c 4a 3d af 04 40 3e e4 a1 ad bd 36 a3 15 3d
       0.04945058 0.18751787 -0.08478144 0.036532603
0002b0 8b 45 cf be d7 51 0c be 87 b6 6d 3d e6 c0 8f 3d
       -0.40482745 -0.13703094 0.0580354 0.07019214
0002c0 d3 4f b1 3e 00 e2 83 bf b5 ef 3f 3f 34 42 5b bd
       0.34631214 -1.0303345 0.7497514 -0.053529933
0002d0 6d 03 6d be 14 d3 83 bc a4 ac 78 bd e4 c7 ab bb
       -0.23145838 -0.01609186 -0.060711518 -0.0052423347
0002e0 a8 67 12 bf 48 06 6f bd 91 f3 a4 bf 14 78 53 bd
       -0.57189417 -0.0583556 -1.288683 -0.051628187
0002f0 56 6e ad ba 71 41 9b bd 6f 19 a6 3d 71 65 ef bc
       -0.0013231735 -0.07580841 0.0811032 -0.029223176
000300 c3 9f a8 c0 ed bc 1b bf 4d 58 91 3c 17 09 21 3d
       -5.269502 -0.6083515 0.0177423 0.03931531
000310 e3 62 b7 bc 7f 2d 93 3d d9 24 17 bc ff 86 fa be
       -0.02238602 0.07186412 -0.009225094 -0.4893112
000320 fa 40 84 bd b2 63 85 be 34 24 63 3d dd 39 e8 3e
       -0.06457706 -0.26052624 0.055454448 0.45356646
000330 5a 72 75 3d 8d 7a 62 3f 4e c3 44 bd f1 d3 3e bd
       0.059923507 0.8846825 -0.04803782 -0.04658884
000340 7a 4c 18 be 5e 96 3f 3f e9 1f eb 3e 8a af 1e 3e
       -0.14872923 0.7483882 0.45922783 0.1549665
000350 7b 9c 2b 3b 1a 9f c8 3b a3 95 c7 3d e8 1c b0 3d
       0.00261858 0.006122482 0.09745338 0.085992634
000360 ae 06 7b bb ec 59 fd bd da 5e 0c bf c9 59 15 bc
       -0.0038303542 -0.12370667 -0.5483223 -0.009115645
000370 b9 83 2b 3f c8 46 c6 bc 5d 67 1d 3e a3 87 51 bd
       0.6699787 -0.024203673 0.15371461 -0.051154744
000380 ac 2a 8a 3d 0c 5a b0 be db 55 14 bd 0c f8 fb 3b
       0.0674642 -0.344437 -0.03621469 0.0076894816
000390 75 04 ab bd b1 b9 d6 bb 50 7b 91 3b ee 07 9d bd
       -0.083504595 -0.006552898 0.004439749 -0.07667528
0003a0 c6 37 e5 bd 64 e0 a4 be 9b cd 82 bd b0 7e b3 3d
       -0.111922786 -0.32202446 -0.063868724 0.08764398
0003b0 fc 85 5a 3d 47 e7 41 3d 96 98 76 3d ac d8 32 be
       0.053350434 0.047339704 0.06020411 -0.17465466
0003c0 f2 f2 b5 bf d5 e3 cc 3e 49 28 89 3d da e0 83 bd
       -1.4214766 0.40017572 0.06697137 -0.064393714
0003d0 46 61 7c bd ba c3 4c bd 6b e4 0f 3c fb 29 42 be
       -0.061616205 -0.049991347 0.008782486 -0.18961327
0003e0 07 36 44 bf b8 ff b3 3e 8a b2 5f 3d 6e 84 5e 3d
       -0.7664494 0.35156035 0.054613627 0.054325514
0003f0 05 b2 41 3f 5e 83 76 bc c0 20 f8 bc 87 3f ab be
       0.7566226 -0.015045969 -0.030289054 -0.33446905

fc4.bias f4 [32]
000000 6c a7 be 3f 27 b7 4f 3f 01 d1 15 be e3 5d 11 be
       1.4894843 0.81138843 -0.1463051 -0.14195971
000010 47 39 cc bd 10 8a 94 3f d2 c7 99 3f f6 2d b4 bd
       -0.09971862 1.1604633 1.2014105 -0.08797829
000020 25 c4 53 3f 71 55 df bd 0c d0 eb 3f 9c 80 1e be
       0.8272117 -0.109049685 1.8422866 -0.15478748
000030 fe 22 8b 3f 8a e3 2f 3f 14 23 3e 3f 8d d3 0b 3f
       1.0870054 0.6870657 0.74272275 0.54619676
000040 c9 0b a1 3f ba 0c 87 3e 5e 5a bb bb 35 dd da 3e
       1.2581722 0.26376897 -0.0057175597 0.42746893
000050 4f 66 3d 3f db b5 81 3f 74 e0 0e 3f 5a cf 69 3f
       0.73984236 1.0133623 0.5581124 0.9133202
000060 b9 68 ac bd 08 96 e5 bd 36 74 bf bd b5 4a 84 3d
       -0.08418412 -0.11210257 -0.09348337 0.06459562
000070 28 10 7d 3f 00 94 c8 bc be b5 e3 3e 8f 1a c3 3e
       0.9885278 -0.024484634 0.44474596 0.381062

fc5.weight f4 [4, 32]
000000 8e 96 05 bf e0 d1 6d be d0 d4 29 3d 49 2b 15 3e
       -0.52182853 -0.23224592 0.04146272 0.14567293
000010 c6 c0 ec 3c ec 44 a3 3e 65 24 6f 3c 22 d1 5b bc
       0.028900515 0.3188852 0.0145960795 -0.01341656
000020 94 e1 37 3e 91 36 61 3d d8 ac ca 3e d8 96 de 3c
       0.17957145 0.05498368 0.39584994 0.027171537
000030 61 3d df 3e 41 78 c3 3e ad 2a 68 3d c9 db fb 3e
       0.43601516 0.38177684 0.056681324 0.4919112
000040 7d 5b 6e bf ef 05 36 bd 16 1c 59 3e 36 10 63 bf
       -0.9310835 -0.044439252 0.2120212 -0.8869661
000050 ee 21 6e 3f ff 1a cf be 71 47 77 bf 8b 10 54 bb
       0.9302052 -0.40450284 -0.96593386 -0.0032358493
000060 27 3d 0c 3d 59 81 d1 3c 2e d2 48 bd 2e f1 e6 bc
       0.034238007 0.025574373 -0.049028568 -0.028191175
000070 77 e6 c1 be a1 8b 88 3e 60 26 b6 bd 9c 91 73 3f
       -0.37871143 0.26669028 -0.08894038 0.9514406
000080 66 9e 41 bf 1f 92 c5 bd f1 09 3d bd 42 94 21 3d
       -0.7563232 -0.09647011 -0.04615206 0.03944803
000090 ce af 50 3d 43 f9 01 3e 59 56 23 3f 6d c6 de 3b
       0.05094891 0.12692742 0.6380363 0.0067985565
0000a0 f1 b8 8d bf 5a f2 80 bd f9 af e5 be eb 69 26 bd
       -1.1072065 -0.06296225 -0.4486082 -0.040628355
0000b0 88 c9 70 be 49 4d 72 3f 3e 7a 16 be aa de 19 bd
       -0.23514378 0.9464918 -0.14695069 -0.037565865
0000c0 2f 77 9b 3e 43 b4 8e be 79 f8 0e bd f7 bb 85 3f
       0.30364367 -0.27871904 -0.03490493 1.0447987
0000d0 f6 7c 4e be e9 38 a0 be 60 0f 8c 3f df 1a e8 3e
       -0.20164856 -0.3129342 1.0942192 0.45333
0000e0 62 26 54 3c 93 9b bc bd 99 a5 0b 3e 64 57 71 be
       0.012948604 -0.09209361 0.13637389 -0.23568493
0000f0 ab cd 4a be 5d f2 c9 3d 71 88 9c bc 3f 86 76 be
       -0.19805019 0.0986068 -0.01910803 -0.24074648
000100 16 d8 43 bf b5 e1 d0 3c 03 af 8f 3d 12 2e 26 3d
       -0.76501596 0.02549825 0.07015803 0.04057128
000110 57 dd 03 3e 10 d3 02 3f 13 39 e2 be 17 51 0c 3c
       0.12877403 0.51103306 -0.4418417 0.008564255
000120 60 3a 78 3b 59 1e 8a bd 24 c1 25 bf 0a 0c 42 bc
       0.003787659 -0.067440696 -0.64747834 -0.011843691
000130 3e a8 8b 3f 40 3f da bd 37 c0 80 3d 7c a5 03 bf
       1.0910718 -0.10656595 0.06286662 -0.51424384
000140 82 b7 1f 3f a8 a1 1a 3e bf e5 3d 3e 26 a1 0e 3e
       0.62389386 0.1510073 0.18544672 0.13928661
000150 34 ce ab be c0 2b 9c bb 52 df 0d 3e 48 38 32 3d
       -0.33555758 -0.0047659576 0.13854721 0.043510705
000160 61 86 7c bd c0 92 be bd 3e f1 49 bc 7f 3e 82 3e
       -0.06165159 -0.09305334 -0.012325583 0.25438306
000170 06 07 b9 be b2 d9 16 3d e2 e2 fb bd eb 84 a1 be
       -0.3613817 0.036828704 -0.12299134 -0.3154672
000180 59 83 82 bf f7 98 8a 3f 0b 52 a2 bd 8c 02 35 3d
       -1.0196334 1.0827931 -0.07925805 0.044191882
000190 6c 1e b6 bd 00 1e f8 bd 97 f0 0c bf fb 41 7c 3d
       -0.08892521 -0.12115097 -0.5505461 0.06158636
0001a0 7c eb f0 3c 58 ac c1 3c a0 8e c0 3e b3 3d 56 3c
       0.029409163 0.02364175 0.37608814 0.013076234
0001b0 8d b5 9d 3e ca 55 13 3f 6b f6 ea be 66 e7 79 bf
       0.30802575 0.5755278 -0.45891127 -0.9761871
0001c0 38 3f 1e 3d 68 62 ed 3f 07 2c f4 bd ef 20 56 bf
       0.03863451 1.8545656 -0.1192246 -0.83644
0001d0 5f 34 9c be 2e 42 14 3f bb 41 7f bf 7f 95 d9 be
       -0.30508706 0.5791348 -0.9970967 -0.4249687
0001e0 fb cc 24 be 97 fa db bd ec 58 cc 3c c0 15 ad be
       -0.16093819 -0.107411556 0.024944745 -0.33805656
0001f0 00 fc 22 3f 51 5e dc 3d 8a 10 51 3e 31 71 77 be
       0.6366577 0.10760177 0.20416465 -0.24164273

fc5.bias f4 [4]
000000 9a a8 b6 be 41 ab 10 be 64 42 6f 3e 1e d0 70 be
       -0.35675508 -0.14127828 0.2336517 -0.2351689
