DQN_models/model_updaterate1000_gamma0.99_alpha0.0001_dynamic.pt (torch, 416715 bytes, 10 tensors)

fc1.weight f4 [128, 514]
-0.030005194 -0.019208184 0.03992784 0.024194218 -0.029452007 0.01394945 0.005938541 -0.012088638
-0.014926752 -0.039799344 0.009550922 -0.03920905 0.03348276 -0.023295574 -0.03402349 0.0026623309
0.03282831 0.034301467 0.03582588 -0.042332206 0.025508888 0.009832088 0.025862731 0.039341815
-0.047310114 -0.055086087 -0.07573358 -0.06043965 -0.08126211 -0.0732255 -0.053255368 -0.038997147
-0.059309207 -0.040491216 -0.046947446 -0.08467011 0.1509649 0.10858242 0.07787912 0.05749389
0.05059515 -0.09578558 -0.032874547 -0.0035226718 -0.029617 -0.0031782947 0.06939704 0.033244807
-0.06818729 -0.03752733 -0.036657717 -0.089682914 -0.04071826 -0.13565497 -0.039920725 -0.07202996
0.020770477 -0.02840865 0.072670765 0.084405 -0.033481732 0.07622509 0.12996854 -0.039455514
0.027357504 -0.005289439 -0.010958087 -0.032732047 -0.0415829 -0.015121341 -0.01501847 -0.04118337
-0.043380078 -0.07166497 -0.027569387 -0.06366234 -0.039729632 0.002473157 -0.02935177 -0.106533654
-0.08089205 0.00048362836 0.017222378 0.044011742 0.023454534 0.038640995 0.027042963 0.017088111
-0.03994646 -0.0237836 -0.044481337 0.09494797 0.10624171 -0.034865 -0.041409258 -0.07651276
-0.04076867 -0.062205438 -0.028563403 0.017050732 -0.027949672 -0.01550561 -0.047049653 -0.034485113
0.02098234 0.08151577 0.054705665 -0.032984395 -0.02637511 -0.029089388 -0.03387194 0.011407759
0.07047907 -0.04055642 -0.028384263 0.018270422 0.016170043 -0.0740925 -0.07285193 -0.09020796
0.030472033 -0.0016868301 0.023930827 -0.11466371 -0.13890374 0.03192606 -0.016199164 0.08114968
0.012055902 0.0124028325 0.006772712 0.035175063 -0.0028691702 -0.016298095 0.1322813 -0.007721446
-0.026235322 -0.02882301 0.029829219 0.102344126 -0.05331346 0.17585403 0.0397456 -0.020467801
-0.020574098 -0.10614932 -0.06226603 0.01631103 0.035766818 0.08975534 0.00044739444 0.1895647
-0.012108471 0.040288113 -0.015588846 -0.022640942 0.043517448 0.15822731 -0.05988119 0.026553735
0.021435492 0.2311192 0.008927434 0.034533072 0.037304312 -0.006524142 0.030314269 -0.013664823
0.06409972 -0.011904817 0.010422058 0.07627135 0.09438209 -0.06280557 -0.009588763 0.012600545
0.035742447 0.019637123 -0.046648446 -0.03768312 -0.04445484 0.034803167 -0.033435393 -0.018863508
-0.055963065 0.054216955 -0.0010598265 0.038857423 -0.060909986 0.0068847723 -0.021707762 0.033473015
0.0001074709 0.07159859 -0.013549294 0.03806012 0.006455254 -0.022839377 -0.00936133 0.025586382
0.028816976 0.042859886 -0.1347884 -0.032684207 -0.016063621 0.090857 0.035533447 0.025234744
-0.028215129 0.020058379 0.08651968 -0.12542324 -0.13812771 0.039043017 -0.03930581 -0.090516165
0.05890371 -0.09215423 0.015425015 0.01516068 -0.004714966 0.0042174496 -0.16346537 -0.00069080375
0.019966472 -0.0027645826 0.026783578 0.05158843 0.16751371 0.15509953 -0.02980119 -0.036045194
0.12256832 0.07729986 -0.079509 -0.006460432 0.016766619 0.10378728 0.050534446 -0.13028578
-0.013393091 -0.014905009 0.0036638454 0.034065 0.102227286 -0.06231906 -0.0015934869 0.0064325705
-0.024532173 0.0038359745 0.08331889 0.2570592 0.01845739 -0.013802407 0.13667223 -0.12486148
00000000: 74cd f5bc 7b5a 9dbc 608b 233d f432 c63c
00000010: 5645 f1bc 3c8c 643c 1898 c23b 6c0f 46bc
00000020: 568f 74bc a304 23bd 787b 1c3c ab99 20bd
00000030: 3825 093d 5cd6 bebc 375c 0bbd 807a 2e3b
00000040: fa76 063d b27f 0c3d 28be 123d 8964 2dbd
00000050: 04f8 d03c c416 213c 14de d33c e224 213d
00000060: 40c8 41bd f3a1 61bd 351a 9bbd 918f 77bd
00000070: c06c a6bd 40f7 95bd 4d22 5abd 79bb 1fbd
00000080: 36ee 72bd 1eda 25bd f74b 40bd 8667 adbd
00000090: 8b96 1a3e 7660 de3d 177f 9f3d b77e 6b3d
000000a0: dc3c 4f3d 3b2b c4bd 76a7 06bd a0dc 66bb
000000b0: 5a9f f2bc f04a 50bb 0920 8e3d b52b 083d
000000c0: c7a5 8bbd 42b6 19bd 6726 16bd adab b7bd
000000d0: 31c8 26bd 23e9 0abe ea83 23bd 7284 93bd
000000e0: d926 aa3c 42b9 e8bc 69d4 943d 87dc ac3d
000000f0: 2424 09bd e61b 9c3d 7916 053e 1b9c 21bd
00000100: d81c e03c 0853 adbb 8c89 33bc 0a12 06bd
00000110: d552 2abd 80bf 77bc 0710 76bc e5af 28bd
00000120: 4faf 31bd 15c5 92bd 32d9 e1bc 6761 82bd
00000130: 8abb 22bd b014 223b 2073 f0bc 512e dabd
00000140: bbaa a5bd 808f fd39 f215 8d3c a845 343d
00000150: b923 c03c 0546 1e3d 3489 dd3c 5efc 8b3c
00000160: e69e 23bd d3d5 c2bc 1032 36bd 1574 c23d
00000170: 4195 d93d 9ace 0ebd c19c 29bd b9b2 9cbd
00000180: 0dfd 26bd 21cb 7ebd ccfd e9bc faad 8b3c
00000190: b6f6 e4bc 3e0b 7ebc 23b7 40bd 4340 0dbd
000001a0: 28e3 ab3c bdf1 a63d 0c13 603d a51a 07bd
000001b0: 9d10 d8bc de4c eebc 4ebd 0abd 9ce7 3a3c
000001c0: 5557 903d 7d1e 26bd 1d86 e8bc daab 953c
000001d0: 0a77 843c cfbd 97bd 6533 95bd f3be b8bd
000001e0: 7ca0 f93c a018 ddba 950a c43c cfd4 eabd
000001f0: c83c 0ebe e6c4 023d 1cb4 84bc ce31 a63d
00000200: 1e86 453c 4035 4b3c a0ed dd3b ba13 103d
00000210: b008 3cbb 9583 85bc c074 073e 2f04 fdbb
00000220: 75eb d6bc 3c1e ecbc 685c f43c cc99 d13d
00000230: 375f 5abd 1413 343e 48cc 223d 17ac a7bc
00000240: 038b a8bc d164 d9bd aa0a 7fbd b69e 853c
00000250: 3a80 123d a6d1 b73d 4490 ea39 401d 423e
00000260: 9c62 46bc 2605 253d 5c68 7fbc 7f79 b9bc
00000270: 5a3f 323d 5706 223e fb45 75bd 3887 d93c
00000280: 7c99 af3c 83aa 6c3e 5f44 123c 8d72 0d3d
00000290: 68cc 183d 78c8 d5bb a155 f83c 6ce2 5fbc
000002a0: b746 833d 6c0c 43bc 48c1 2a3c 2734 9c3d
000002b0: 664b c13d 35a0 80bd 301a 1dbc 8472 4e3c
000002c0: ac66 123d 08de a03c 7112 3fbd 9e59 1abd
000002d0: 4716 36bd c48d 0e3d 8df3 08bd a587 9abc
000002e0: 8739 65bd 9912 5e3d e0e9 8aba f628 1f3d
000002f0: c07c 79bd a899 e13b 7ad4 b1bc 001b 093d
00000300: 0062 e138 48a2 923d dcfd 5dbc eee4 1b3d
00000310: 9886 d33b a519 bbbc 4460 19bc 889a d13c
00000320: 9411 ec3c d98d 2f3d f805 0abe e0df 05bd
00000330: db97 83bc 3c13 ba3d 858b 113d 18b9 ce3c
00000340: 6a23 e7bc 7851 a43c 3b31 b13d f36e 00be
00000350: 5a71 0dbe 92eb 1f3d 21ff 20bd 8a60 b9bd
00000360: 0445 713d 5bbb bcbd 34b9 7c3c 8064 783c
00000370: 0080 9abb 8832 8a3b 7763 27be 0e17 35ba
00000380: ba90 a33c 002e 35bb 3c69 db3c 644e 533d
00000390: b788 2b3e 69d2 1e3e a021 f4bc 20a4 13bd
000003a0: 1905 fb3d 644f 9e3d 9dd5 a2bd 08b2 d3bb
000003b0: 265a 893c 6d8e d43d 35fd 4e3d a369 05be
000003c0: b26e 5bbc 2434 74bc 201d 703b be87 0b3d
000003d0: 8a5c d13d 4542 7fbd 8cdc d0ba 50c8 d23b
000003e0: b2f7 c8bc f964 7b3b 18a3 aa3d 439d 833e
000003f0: f433 973c 7e23 62bc cef3 0b3e 60b7 ffbd

fc1.bias f4 [128]
-0.03205188 0.12599713 -0.038991436 0.021377377 -0.04319154 0.21359923 0.18825988 0.047980838
0.104101405 -0.074588664 0.03922887 -0.07592476 -0.013184903 -0.052688047 0.041849636 0.09429483
0.109037906 0.1972266 -0.030839546 0.18788067 0.020058116 -0.01644372 -0.04613113 -0.08249781
-0.016304057 -0.083054245 -0.009288338 0.15719488 -0.08094488 0.024081206 0.08856436 0.1459031
-0.123037465 0.08119603 -0.062788956 0.30011 -0.039714888 0.1769687 -0.006833951 0.105188176
0.13023153 0.029451111 0.10615655 -0.09801012 0.21531819 -0.03365909 0.012834664 -0.053324454
0.02629396 -0.046902314 0.09282903 -0.03243136 0.09788985 0.10664996 -0.04101654 -0.067122236
0.023245268 0.044858463 -0.04785904 -0.030459385 0.0060047633 -0.0740396 -0.16573994 -0.034891654
0.0948772 -0.07929976 0.09411488 0.03169931 -0.06255167 -0.07771159 0.079866 0.029769927
0.16699418 -0.046615914 0.011448275 0.11777148 -0.04687569 0.024238905 0.017214652 0.104519606
0.06802376 0.105384886 -0.06491488 0.031896517 0.039387833 -0.09589636 0.11923721 0.15954958
-0.0021398212 -0.06298297 -0.046410177 0.007401046 0.04864548 0.085944764 0.007263733 0.1223445
0.09190733 0.07321009 -0.11698303 0.23850974 0.11437068 0.156321 0.003999338 0.06475804
0.12668051 -0.00648901 -0.06852092 -0.08380199 -0.021231117 0.18444996 0.14479342 0.046572503
-0.099979125 0.023525422 -0.013856235 0.047390793 -0.06988967 0.008346199 0.018878441 0.027191238
0.109388545 0.0030693843 -0.012811905 0.04103423 -0.05202968 -0.050146315 -0.07406791 0.1866005
00000000: d548 03bd 6405 013e 7cb5 1fbd 9c1f af3c
00000010: 9de9 30bd c2b9 5a3e 33c7 403e 8e87 443d
00000020: 1e33 d53d f1c1 98bd 74ae 203d 717e 9bbd
00000030: 7e05 58bc 6ccf 57bd 866a 2b3d a61d c13d
00000040: 444f df3d c5f5 493e 37a3 fcbc ca63 403e
00000050: eb50 a43c fbb4 86bc fff3 3cbd 9df4 a8bd
00000060: 1690 85bc 5818 aabd 1d2e 18bc b2f7 203e
00000070: 6ec6 a5bd f345 c53c 3b61 b53d 9f67 153e
00000080: 11fb fbbd 1b4a a63d 7f97 80bd 05a8 993e
00000090: 14ac 22bd 4837 353e 56ef dfbb e66c d73d
000000a0: 6a5b 053e 7543 f13c 9b68 d93d 88b9 c8bd
000000b0: 5f7c 5c3e 1dde 09bd 7c48 523c be6a 5abd
000000c0: 6e66 d73c a41c 40bd 251d be3d bfd6 04bd
000000d0: 797a c83d 4b6b da3d f600 28bd 6277 89bd
000000e0: dc6c be3c 82bd 373d d707 44bd f685 f9bc
000000f0: 9bc3 c43b 13a2 97bd bbb7 29be 8dea 0ebd
00000100: fa4e c23d ea67 a2bd 4dbf c03d 23d7 013d
00000110: 171b 80bd 4127 9fbd c990 a33d 10e0 f33c
00000120: 8600 2b3e 54f0 3ebd 8c91 3b3c 2c32 f13d
00000130: b900 40bd ab90 c63c be05 8d3c 600e d63d
00000140: 0b50 8b3d 08d4 d73d 18f2 84bd eca5 023d
00000150: 2355 213d 5065 c4bd a332 f43d f760 233e
00000160: 3e3c 0cbb 37fd 80bd 9918 3ebd 7984 f23b
00000170: 7c40 473d cf03 b03d 9c04 ee3b c18f fa3d
00000180: e939 bc3d 2cef 953d cd94 efbd e63b 743e
00000190: 2d3b ea3d 9d12 203e e10c 833b dd9f 843d
000001a0: 89b8 013e c3a1 d4bb b254 8cbd 61a0 abbd
000001b0: e1ec adbc 73e0 3c3e ba44 143e cfc2 3e3d
000001c0: dbc1 ccbd 63b8 c03c 4305 63bc d91c 423d
000001d0: 5122 8fbd 7fbe 083c f6a6 9a3c 29c0 de3c
000001e0: 1a07 e03d b927 493b 06e9 51bc 8213 283d
000001f0: 131d 55bd 3966 4dbd ebb0 97bd 3414 3f3e

fc2.weight f4 [128, 128]
0.103369035 0.18243697 0.048939172 -0.31265813 0.03937798 0.6122106 -0.14315256 0.0056027044
0.1723938 -0.068357065 -0.12720235 -0.08910335 -0.23691672 0.2491573 -0.1733065 -0.18825457
-0.09782565 0.20224565 0.17653483 0.045355346 -0.13109364 -0.03006202 0.09613436 -0.048238363
0.22236894 -0.19867367 0.022842139 -0.014400769 0.0023769108 0.35632873 0.007882605 0.11947192
-0.03328787 -0.00940545 -0.07477466 0.5061849 0.09947014 0.24251285 -0.07022971 0.023287483
-0.04096434 0.008727595 -0.06429166 -0.24167919 0.5106828 0.21645632 -0.12663034 -0.20124067
0.08571168 -0.19366492 0.073077425 -0.025439864 0.2224972 -0.22097147 0.14029697 -0.16881008
0.019237358 -0.010347958 -0.18227042 0.1665784 0.10322514 0.07814278 0.22189598 0.07202276
0.084103614 0.26047292 0.26642475 0.072689995 0.0065254904 -0.11663986 -0.3426761 -0.03917928
0.33597422 -0.13857704 0.026524782 0.28665316 0.07360826 0.07421346 0.25298247 -0.11238226
-0.24488851 0.28826052 -0.03245513 0.23221704 0.20274854 -0.13216424 0.16369617 0.16559587
0.2121611 -0.1400939 -0.09322021 0.31764784 0.02465021 -0.07319313 -0.15851757 0.20162946
0.008981099 0.36415893 0.12072143 0.51892555 0.39699975 0.05969055 0.132511 -0.13242409
0.19537197 -0.15686682 0.17149943 -0.053778183 -0.07241663 0.6404921 0.36642587 0.44827777
0.11579425 0.35054252 0.2192072 -0.32403618 -0.03889481 0.17756233 0.14292033 -0.15342873
0.15861517 0.18018793 0.16687001 0.13408831 0.2033971 -0.06714313 0.11574814 0.0325015
0.018212868 0.38245833 -0.12729883 0.10316387 0.10871811 -0.29927117 -0.07721546 0.19950436
-0.17832749 0.10802786 -0.051393386 0.16264354 -0.0132609615 -0.10165648 0.05350236 -0.027364073
-0.022553919 -0.293508 -0.033006467 -0.43808678 0.04315002 -0.066952206 0.030059265 0.080680415
0.19015802 0.3433106 0.13767417 -0.5207991 -0.032529265 -1.1207207 0.021613136 0.22086245
0.17399465 -0.15297163 0.11591826 -0.99341667 0.05365499 -0.5620302 0.10561866 -0.15193298
-0.13153195 -0.048377685 0.058459952 0.07921115 -0.14946677 0.2815801 0.28640226 0.1277807
-0.007645455 0.07894551 -0.06920178 0.061733197 0.475945 0.43860868 -0.0737866 0.17744146
0.2768496 0.032686703 0.09360288 -0.08268507 -0.029295037 -0.08979757 0.6857666 0.052832033
0.043264866 -0.060752098 -0.32194355 -0.24514112 0.17527889 0.0899477 0.17214906 -0.13381116
-0.23206457 0.13899219 0.12565139 0.020676117 -0.012588058 -0.056926638 -0.0017919162 0.0006749758
-0.11195513 -0.020436909 0.07334088 -0.010188315 -0.07673551 0.07643014 -0.03115379 0.04270301
0.29821625 0.15363926 -0.0065346453 0.05620432 -0.0027230622 -0.42707247 -1.2197264 -0.63786554
0.294021 0.08871241 0.02172859 -0.0680987 -0.41442373 -0.2058417 -0.055612072 0.08097261
0.1055948 0.25174007 0.10787599 0.035893306 0.1288934 -0.1532424 -0.5338131 0.025816126
0.1784839 0.1965246 0.0032578185 -0.114531785 -0.15443641 -0.31421763 -0.12901133 -0.35641715
-0.12732124 0.028164655 0.034821756 -0.025914164 0.21108992 -0.006328391 -0.036804788 -0.23882283
00000000: 25b3 d33d c2d0 3a3e 7174 483d ba14 a0be
00000010: ce4a 213d d5b9 1c3f 9696 12be e496 b73b
00000020: 0088 303e cafe 8bbd 5541 02be d17b b6bd
00000030: 4c9a 72be 1723 7f3e 4277 31be cec5 40be
00000040: d058 c8bd 7c19 4f3e 8cc5 343e 87c6 393d
00000050: 693d 06be a044 f6bc 17e2 c43d 9795 45bd
00000060: afb4 633e 1c71 4bbe 701f bb3c 34f1 6bbc
00000070: f2c5 1b3b b870 b63e 0b26 013c b2ad f43d
00000080: dd58 08bd 5119 1abc 7523 99bd 5595 013f
00000090: 00b7 cb3d 4a55 783e 98d4 8fbd 64c5 be3c
000000a0: 39ca 27bd 30fe 0e3c 59ab 83bd c07a 77be
000000b0: 1cbc 023f baa6 5d3e 62ab 01be 0912 4ebe
000000c0: 9b89 af3d 1950 46be 9ea9 953d 4367 d0bc
000000d0: 4ed6 633e 5846 62be 02aa 0f3e 8ddc 2cbe
000000e0: aa97 9d3c 7b8a 29bc 19a5 3abe 8793 2a3e
000000f0: b467 d33d 5209 a03d b338 633e ab80 933d
00000100: 843e ac3d b55c 853e d368 883e 7ede 943d
00000110: c8d3 d53b e1e0 eebd 3e73 afbe 747a 20bd
00000120: d004 ac3e 24e7 0dbe 804a d93c 34c4 923e
00000130: edbf 963d 3afd 973d eb86 813e ac28 e6bd
00000140: 0ec4 7abe e296 933e acef 04bd 4eca 6d3e
00000150: 509d 4f3e 1056 07be f89f 273e f791 293e
00000160: c240 593e c674 0fbe 3dea bebd bda2 a23e
00000170: 3def c93c 48e6 95bd 6e52 22be f477 4e3e
00000180: 7625 133c 0a73 ba3e cc3c f73d 4ed8 043f
00000190: 8d43 cb3e 147e 743d f7b0 073e 2e9a 07be
000001a0: 970f 483e b2a1 20be 8c9d 2f3e 8346 5cbd
000001b0: 2c4f 94bd 4af7 233f 2c9c bb3e aa84 e53e
000001c0: 8925 ed3d 4f7a b33e da77 603e 12e8 a5be
000001d0: 2a50 1fbd e6d2 353e b559 123e 6c1c 1dbe
000001e0: 046c 223e 2f83 383e f9df 2a3e 724e 093e
000001f0: 5447 503e 5682 89bd 5c0d ed3d 4b20 053d
00000200: 2733 953c 94d1 c33e a05a 02be 9447 d33d
00000210: 9aa7 de3d 123a 99be 2423 9ebd df4a 4c3e
00000220: 7b9b 36be b63d dd3d df81 52bd 078c 263e
00000230: 8144 59bc 4631 d0bd 4a25 5b3d 9f2a e0bc
00000240: ffc2 b8bc ae46 96be ca31 07bd e94c e0be
00000250: 13be 303d 3d1e 89bd d93e f63c c63b a53d
00000260: c9b8 423e 68c6 af3e 75fa 0c3e 1753 05bf
00000270: 683d 05bd c773 8fbf 080e b13c c429 623e
00000280: a72b 323e 98a4 1cbe 8d66 ed3d 8e50 7ebf
00000290: 56c5 5b3d 36e1 0fbf 994e d83d 5294 1bbe
000002a0: 50b0 06be ae27 46bd b473 6f3d 7539 a23d
000002b0: d10d 19be 442b 903e 51a3 923e f2d8 023e
000002c0: ba86 fabb 2fae a13d aab9 8dbd f3db 7c3d
000002d0: 10af f33e 5191 e03e 6e1d 97bd 37b3 353e
000002e0: 3bbf 8d3e 7ee2 053d deb2 bf3d ca56 a9bd
000002f0: 25fc efbc cae7 b7bd 668e 2f3f 6766 583d
00000300: 8036 313d 31d7 78bd c9d5 a4be 4606 7bbe
00000310: 4f7c 333e 8036 b83d d847 303e cb05 09be
00000320: 56a2 6dbe f853 0e3e c2aa 003e f660 a93c
00000330: 243e 4ebc e82b 69bd bbde eaba dcf0 303a
00000340: bb48 e5bd 4e6b a7bc be33 963d e4ec 26bc
00000350: 8227 9dbd 6887 9c3d 3c36 ffbc 5ae9 2e3d
00000360: cdaf 983e 9c53 1d3e 9420 d6bb 8036 663d
00000370: 6775 32bb 3ea9 dabe ff1f 9cbf 284b 23bf
00000380: ec89 963e daae b53d 2800 b23c 5577 8bbd
00000390: 592f d4be 2bc8 52be 7cc9 63bd f8d4 a53d
000003a0: 1642 d83d 13e4 803e 16ee dc3d dc04 133d
000003b0: a2fc 033e 93eb 1cbe faa7 08bf 577c d33c
000003c0: 7cc4 363e bf3d 493e 2081 553b a48f eabd
000003d0: 9424 1ebe 22e1 a0be 8c1b 04be 4f7c b6be
000003e0: 8060 02be 90b9 e63c 42a1 0e3d f149 d4bc
000003f0: f527 583e 645e cfbb 9ec0 16bd f98d 74be

fc2.bias f4 [128]
0.112832285 -0.15812737 -0.14878629 0.088934995 0.1282313 0.064976126 -0.042651225 -0.089271024
-0.08488763 -0.038489476 -0.13646555 0.072815135 -0.07415381 -0.1974487 0.03633027 0.064720795
-0.06246943 0.15340352 -0.20358068 0.060201813 -0.036472995 0.14255296 -0.037816115 0.09930218
0.09000086 -0.026317317 0.007299553 -0.002575394 -0.18155089 0.060811218 -0.11659816 0.00076029083
0.051941536 0.059907775 -0.05884973 -0.08011156 -0.16389996 0.0031249616 0.025174964 -0.06255558
0.04378435 0.06732516 -0.09778851 0.0629831 0.04114458 0.15342449 0.08727341 0.06854016
-0.11272862 -0.0996606 0.039385855 0.05994998 0.084909804 -0.033180922 0.08915973 0.02918398
0.111867055 -0.18819009 -0.03520934 -0.19754794 -0.13940239 -0.06998931 0.007698373 0.037904575
-0.19453876 0.043654114 0.03055327 -0.14310442 -0.044360843 -0.11166328 -0.07495175 -0.0511025
0.06944384 -0.090376146 -0.011074704 -0.09161769 -0.022639856 0.1638884 0.020426622 0.040349375
0.17373872 -0.017442878 0.006047152 0.018717935 0.03886022 -0.048628792 -0.025497625 0.2396308
0.014528261 -0.0087714745 0.23966543 -0.081677906 -0.083235346 -0.04474443 0.099956214 0.11919412
-0.118325025 -0.045471054 0.047263402 0.05004066 -0.05230738 -0.0065353555 -0.045453917 -0.14558214
-0.023705745 -0.05610289 -0.120136514 -0.095633514 0.09358909 0.08801719 -0.07329756 0.15712027
0.09346516 -0.02805639 -0.072455645 -0.08171926 0.023908084 0.06484169 -0.18879151 0.20925951
0.063017055 -0.12110581 0.16721053 0.12077678 -0.048169605 -0.116768695 -0.075370975 0.12453311
00000000: 9d14 e73d 24ec 21be 6f5b 18be 8d23 b63d
00000010: 114f 033e 3412 853d 0db3 2ebd bad3 b6bd
00000020: 91d9 adbd 24a7 1dbd a0bd 0bbe 1a20 953d
00000030: f4dd 97bd fe2f 4abe 0dcf 143d 568c 843d
00000040: f2df 7fbd d015 1d3e 7477 50be 2d96 763d
00000050: b564 15bd 67f9 113e 12e5 1abd f15e cb3d
00000060: 5f52 b83d 6a97 d7bc 1731 ef3b f1c7 28bb
00000070: 7ae8 39be 2f15 793d 04cb eebd 414e 473a
00000080: a6c0 543d db61 753d 6a0c 71bd 8811 a4bd
00000090: 64d5 27be 28cc 4c3b ba3b ce3c 241d 80bd
000000a0: 3857 333d c6e1 893d 5845 c8bd 49fd 803d
000000b0: 3887 283d 4f1b 1d3e 67bc b23d c95e 8c3d
000000c0: 43de e6bd db1a ccbd 1053 213d 1c8e 753d
000000d0: 31e5 ad3d b8e8 07bd 6099 b63d 3e13 ef3c
000000e0: 8e1a e53d e7b4 40be ab37 10bd 024a 4abe
000000f0: 80bf 0ebe 8e56 8fbd a242 fc3b d441 1b3d
00000100: 2b35 47be a8ce 323d da4a fa3c f789 12be
00000110: b7b3 35bd b8af e4bd 4e80 99bd db50 51bd
00000120: 9238 8e3d 2117 b9bd ad72 35bc 0ea2 bbbd
00000130: 3877 b9bc 5cd2 273e bb55 a73c 6345 253d
00000140: 90e8 313e 5ee4 8ebc 3027 c63b 5b56 993c
00000150: e52b 1f3d fc2e 47bd 65e0 d0bc c761 753e
00000160: f107 6e3c 3bb6 0fbc db6a 753e bf46 a7bd
00000170: 4b77 aabd ef45 37bd d8b5 cc3d 0c1c f43d
00000180: 6454 f2bd db3f 3abd 4597 413d 6ff7 4c3d
00000190: 4340 56bd 8926 d6bb e32d 3abd 7c13 15be
000001a0: 8d32 c2bc 25cc 65bd 220a f6bd 81db c3bd
000001b0: a3ab bf3d 5b42 b43d 081d 96bd 23e4 203e
000001c0: a96a bf3d 84d6 e5bc a063 94bd 6d5c a7bd
000001d0: e3da c33c b8cb 843d 9052 41be 2048 563e
000001e0: 160f 813d 5306 f8bd 3d39 2b3e d159 f73d
000001f0: 7e4d 45bd 6d24 efbd 195c 9abd 370b ff3d

fc3.weight f4 [128, 128]
-0.088489816 -0.008838333 -0.06413172 -0.035827298 0.055447113 0.0044244826 0.03573506 0.030884996
0.0024923831 0.08400657 -0.063642636 -0.040383026 -0.020793766 0.033724636 0.046266522 0.0043840455
-0.02942716 -0.016013581 0.04508234 0.034028295 0.052984126 -0.049610395 0.04553076 0.052881286
-0.087477095 0.0011681977 -0.030179746 -0.02271267 0.080809586 0.034485433 -0.027939357 0.041693844
-0.035742313 0.07830355 -0.075783126 -0.024939314 -0.033543147 -0.073540054 -0.006636369 -0.044833183
0.03834144 -0.022087263 0.08436396 -0.048846528 -0.0077435775 0.046052612 -0.011905672 -0.014510189
0.021885889 -0.08424378 -0.06393053 0.07089795 -0.05007318 0.06874243 0.0005843687 0.031915665
0.050193857 0.05371725 -0.051930007 0.04462842 -0.0433258 -0.013930675 -0.070887215 -0.013553828
-0.021383822 0.05685285 -0.012311073 -0.065812 -0.054185666 0.04773294 -0.044410117 0.07999978
-0.024875421 -0.08273941 -0.015141301 0.028962031 -0.03886741 0.032695416 0.060843416 -0.0612901
-0.06920494 -0.058328077 0.06733348 0.065963425 -0.043933876 0.0133285895 -0.047055017 -0.07427599
0.03504069 0.019392215 -0.03649721 -0.0478694 -0.04364176 -0.06772251 0.03525585 -0.08354189
-0.08570063 0.04225202 -0.039000295 0.060114983 0.067509465 -0.03453213 -0.06312231 -0.024051532
0.046428528 -0.0042670593 -0.08527389 0.06361798 -0.0010533116 -0.060219847 -0.024719853 0.03547978
-0.061204683 0.06860105 0.041814633 0.08057195 0.01649461 -0.055130046 0.07015597 0.016771976
-0.09129013 -0.041467536 0.05059848 0.03201786 0.06355014 0.030704744 -0.065229625 -0.005463937
0.057492793 -0.013571312 -0.03215585 0.07613802 0.27128333 0.22164996 0.0786993 -0.046040263
-0.093427956 -0.07384457 -0.20215763 0.46240798 -0.027764183 0.008410552 -0.0029465882 0.10475356
-0.08140253 0.08038511 -0.18382831 -0.016376082 0.40057397 0.35295567 -0.038702223 0.036512922
0.0054385616 0.00231668 -0.041564632 0.03351487 -0.11819182 -0.033364188 -0.1785212 -0.041170504
-0.054093767 0.44808486 0.05455799 0.036916856 -0.11622518 -0.037419822 0.10278823 -0.03737919
0.0699411 0.1380392 -0.064767726 -0.016004078 -0.057523508 0.2545256 -0.035057053 0.1478383
0.031360533 -0.074505985 0.30942366 0.14390923 -0.031351704 0.087697126 0.043356072 0.09544902
0.069242075 -0.18557227 -0.057982914 -0.21690126 -0.13893835 0.0015593328 0.06572192 0.08219812
-0.01390098 0.15763581 -0.003864929 -0.093414254 0.000115229755 -0.13021624 -0.1347454 -0.051911786
-0.012554846 -0.076440945 0.018444085 -0.07422553 -0.064850345 0.09815258 -0.07538514 0.05242442
0.06231533 0.19872136 -0.0278283 0.10858124 0.21883889 -0.014660229 -0.010757205 0.13844004
0.062299255 0.03247427 0.09401825 0.05361318 -0.0743162 -0.05165642 0.39476618 0.09708475
0.036566712 -0.053945016 0.05215928 0.07070312 -0.017618857 0.11020948 -0.0271353 -0.11619619
-0.031602997 -0.036809243 -0.083801195 -0.1284814 0.09676223 0.047512405 -0.032142423 0.08406715
0.5250343 0.065845795 0.024977518 -0.028386833 0.078192435 0.14894891 -0.054951888 -0.011408747
0.12864564 -0.15025015 1.0032457 0.068875514 0.09999119 -0.020501778 0.07484783 0.12672253
00000000: 263a b5bd a8ce 10bc 7e57 83bd a5bf 12bd
00000010: 831c 633d 40fb 903b ed5e 123d 8802 fd3c
00000020: 4057 233b a30b ac3d 1257 82bd ac68 25bd
00000030: b057 aabc d822 0a3d f781 3d3d 0aa8 8f3b
00000040: 3a11 f1bc ea2e 83bc 42a8 383d 4161 0b3d
00000050: e205 593d 4534 4bbd 767e 3a3d 0c9a 583d
00000060: 3127 b3bd 361e 993a 843b f7bc ec0f babc
00000070: 7f7f a53d 9940 0d3d 14e1 e4bc 2ac7 2a3d
00000080: 8866 12bd 9d5d a03d 2f34 9bbd 884d ccbc
00000090: 8a64 09bd 2b9c 96bd e675 d9bb 00a3 37bd
000000a0: ea0b 1d3d 59f0 b4bc 03c7 ac3d 4c13 48bd
000000b0: d6bd fdbb aaa1 3c3d 0210 43bc 25bc 6dbc
000000c0: 094a b33c 0188 acbd 02ee 82bd f232 913d
000000d0: 8919 4dbd d5c8 8c3d 5230 193a 00ba 023d
000000e0: 1398 4d3d 9e06 5c3d 8fb4 54bd 4acc 363d
000000f0: 6576 31bd 7c3d 64bc 512d 91bd e010 5ebc
00000100: 202d afbc 89de 683d 62b4 49bc 71c8 86bd
00000110: caf1 5dbd 9e83 433d 62e7 35bd edd6 a33d
00000120: 8ac7 cbbc 4873 a9bd 3813 78bc c841 ed3c
00000130: 6f33 1fbd a1eb 053d f236 793d 540b 7bbd
00000140: 52bb 8dbd 6ce9 6ebd 23e6 893d d517 873d
00000150: 02f4 33bd 2860 5a3c c3bc 40bd 031e 98bd
00000160: d486 0f3d 6cdc 9e3c 197e 15bd b412 44bd
00000170: b4c1 32bd 19b2 8abd 7068 103d 0318 abbd
00000180: d083 afbd 7410 2d3d c6be 1fbd 213b 763d
00000190: 6742 8a3d 9071 0dbd 4546 81bd b807 c5bc
000001a0: d72b 3e3d b0d2 8bbb 14a4 aebd 254a 823d
000001b0: 460f 8aba 16a9 76bd 4a81 cabc 3f53 113d
000001c0: c3b1 7abd b57e 8c3d d245 2b3d e802 a53d
000001d0: b41f 873c 0bd0 61bd efad 8f3d 6265 893c
000001e0: 52f6 babd ddd9 29bd 5a40 4f3d 2925 033d
000001f0: 9326 823d 8488 fb3c 1c97 85bd d30a b3bb
00000200: 907d 6b3d 355a 5ebc dab5 03bd 40ee 9b3d
00000210: a6e5 8a3e 35f8 623e 192d a13d b794 3cbd
00000220: 2857 bfbd d23b 97bd 6902 4fbe bdc0 ec3e
00000230: b671 e3bc 69cc 093c 8c1b 41bb 0989 d63d
00000240: 5fb6 a6bd f3a0 a43d 7d3d 3cbe 2227 86bc
00000250: 0818 cd3e 9bb6 b43e 3986 1ebd 938e 153d
00000260: f635 b23b 71d3 173b ad3f 2abd e346 093d
00000270: 8e0e f2bd e3a8 08bd 43ce 36be 67a2 28bd
00000280: 6d91 5dbd 616b e53e 3378 5f3d 2136 173d
00000290: 7807 eebd 8745 19bd a382 d23d ec1a 19bd
000002a0: 483d 8f3d 265a 0d3e f1a4 84bd fc1a 83bc
000002b0: c59d 6bbd 2e51 823e fc97 0fbd ec62 173e
000002c0: e773 003d 9896 98bd c76c 9e3e f15c 133e
000002d0: a56a 00bd 8d9a b33d 2396 313d c77a c33d
000002e0: cace 8d3d a806 3ebe 7e7f 6dbd 5d1b 5ebe
000002f0: db45 0ebe 8762 cc3a 3799 863d 7d57 a83d
00000300: f0c0 63bc 486b 213e c04a 7dbb f94f bfbd
00000310: 81a7 f138 6857 05be b3fa 09be 74a1 54bd
00000320: d7b2 4dbc 128d 9cbd 0d18 973c 8e03 98bd
00000330: 42d0 84bd 3804 c93d 8663 9abd fdba 563d
00000340: 5c3e 7f3d 9d7d 4b3e 2df8 e3bc d75f de3d
00000350: 4d17 603e 7531 70bc fd3e 30bc 3ac3 0d3e
00000360: 812d 7f3d bd03 053d a48c c03d 7e99 5b3d
00000370: 1833 98bd af95 53bd cb1e ca3e 5fd4 c63d
00000380: fac6 153d 73f5 5cbd f8a4 553d cccc 903d
00000390: 6c55 90bc 82b5 e13d d94a debc 45f8 edbd
000003a0: 2572 01bd 4ac5 16bd f69f abbd a190 03be
000003b0: 472b c63d 5e9c 423d c6a7 03bd 662b ac3d
000003c0: a668 063f 29da 863d a79d cc3c 818b e8bc
000003d0: 5b23 a03d 1086 183e 3b15 61bd c1eb 3abc
000003e0: afbb 033e 2ddb 19be 5b6a 803f 9b0e 8d3d
000003f0: 2ec8 cc3d 58f3 a7bc d249 993d 8dc3 013e

fc3.bias f4 [128]
-0.043342277 0.12716325 0.31078377 -0.044104844 0.16700625 0.13965465 0.20305853 -0.13632715
-0.04089158 -0.12640898 0.023598766 0.12789975 -0.07242384 0.15485577 -0.0047332947 0.18999411
-0.16627884 -0.043910015 -0.035221595 0.014113298 -0.06836649 0.112110786 0.069354594 0.012070119
0.2370109 0.055006806 0.10462393 0.36175823 0.27766305 -0.022684716 -0.104985304 -0.0071693263
-0.03111932 0.15689102 0.18315366 -0.08149718 0.13234827 0.33588713 0.02852466 -0.009278204
0.0005771868 0.09658199 -0.076605074 0.029134048 0.06963941 -0.067979686 0.2766436 -0.023210071
0.049159605 -0.22147001 0.13639581 -0.043958418 0.018906265 0.067999125 -0.07570057 -0.02415967
-0.015194397 0.06778699 0.14014116 0.11066977 0.1091347 -0.16986333 0.0541379 0.059331823
0.09165272 -0.09239417 -0.0064070644 -0.13700828 -0.05920055 0.074804015 0.14859773 0.1806824
0.02514855 -0.0017041595 -0.09260193 0.3260618 -0.1791276 0.036681388 0.04212008 -0.06640255
0.25136 0.19325282 0.25133455 0.008129229 0.09689569 0.16974913 -0.04312688 0.12461897
0.14142421 -0.09076556 0.059145823 0.2958136 0.039875012 -0.06258806 -0.06289689 0.15572709
-0.13291733 -0.2282368 0.03740755 0.12452196 -0.099578746 -0.05285423 0.21486576 -0.011018993
-0.16552763 -0.01660777 0.042920582 0.06540289 -0.03139002 0.05392446 0.06732681 0.1816257
-0.08119118 -0.19384618 0.05713042 -0.06949262 -0.057578057 0.27760422 -0.0005918253 -0.07530487
-0.07326072 -0.08181177 -0.002007361 0.04062002 -0.04255006 -0.099423766 -0.08028415 0.21396632
00000000: ac87 31bd 1537 023e 0d1f 9f3e 48a7 34bd
00000010: b003 2b3e a101 0f3e 93ee 4f3e 5899 0bbe
00000020: ee7d 27bd 5b71 01be 3352 c13c 27f8 023e
00000030: f352 94bd 8392 1e3e c119 9bbb d18d 423e
00000040: 0045 2abe fdda 33bd 8544 10bd 763b 673c
00000050: bb03 8cbd 579a e53d c809 8e3d c0c1 453c
00000060: fcb2 723e d14e 613d 1245 d63d 6038 b93e
00000070: da29 8e3e 4cd5 b9bc 8902 d7bd abec eabb
00000080: f2ed febc 0aa8 203e a28c 3b3e fee7 a6bd
00000090: 4e86 073e 66f9 ab3e 8cac e93c 9c03 18bc
000000a0: 5a4e 173a c7cc c53d 1fe3 9cbd 87aa ee3c
000000b0: 1b9f 8e3d ef38 8bbd 3ba4 8d3e 0c23 bebc
000000c0: 955b 493d 09c9 62be 58ab 0b3e be0d 34bd
000000d0: 50e1 9a3c 2043 8b3d e708 9bbd 80ea c5bc
000000e0: ecf1 78bc e8d3 8a3d 2a81 0f3e d5a6 e23d
000000f0: 0382 df3d a7f0 2dbe b4bf 5d3d ed05 733d
00000100: 6cb4 bb3d 2839 bdbd 5af2 d1bb e64b 0cbe
00000110: 477c 72bd d932 993d 012a 183e cf04 393e
00000120: 5504 ce3c 1b5e dfba 15a6 bdbd 92f1 a63e
00000130: 3a6d 37be 393f 163d 1b86 2c3d 0ffe 87bd
00000140: 42b2 803e 11e4 453e ecae 803e 7530 053c
00000150: 3f71 c63d b7d2 2d3e d0a5 30bd 3b38 ff3d
00000160: 82d1 103e 4be3 b9bd e442 723d e174 973e
00000170: fb53 233d 2b2e 80bd 16d0 80bd ec76 1f3e
00000180: 7b1b 08be e8b6 69be a938 193d 5f05 ff3d
00000190: f1ef cbbd ad7d 58bd c505 5c3e 0289 34bc
000001a0: 1380 29be 050d 88bc 7ecd 2f3d f3f1 853d
000001b0: d292 00bd e5df 5c3d a3e2 893d 16fc 393e
000001c0: 9047 a6bd 9d7f 46be 9601 6a3d 2652 8ebd
000001d0: f8d6 6bbd 2422 8e3e b924 1bba 7139 9abd
000001e0: b709 96bd ee8c a7bd ee8d 03bb 2e61 263d
000001f0: f948 2ebd b09e cbbd 046c a4bd fd19 5b3e

fc4.weight f4 [32, 128]
-0.023778103 0.22249201 0.07646683 0.06890792 -0.0665423 -0.13997929 0.083265245 -0.29761755
-0.0782824 -0.34917262 -0.04073467 0.017623503 0.070526674 0.010433682 0.017707951 -0.390701
-0.038433075 -0.0056739952 0.05764011 0.041871816 0.21023947 0.18872933 -0.14141747 0.020831734
0.04864421 -0.03669236 -0.5822602 0.0964992 0.15135384 -0.033580966 0.06335773 -0.038361624
-0.023131374 -0.019157507 0.21395878 0.05867163 0.10259053 0.014664498 0.0548084 0.21008351
-0.07957243 -0.5417893 0.11006168 0.215257 0.1290334 0.021846225 0.20505765 0.00055851135
0.07491305 -0.33682495 -0.12935714 -0.06432284 -0.06019866 0.16524911 0.031064382 0.05841697
-0.010737352 -0.10068095 -0.11966072 -0.003853851 -0.14052442 0.009540556 -0.07720767 0.043997295
0.14167574 -0.042011864 -0.024906335 -0.13087694 -0.08599488 -0.124857254 -0.09720789 0.123560965
0.12149723 0.06900327 0.041832555 0.26520693 0.05763846 0.042592313 0.018490527 0.0061490536
0.2073655 0.17648397 0.13254075 -0.015778175 -0.019643452 -0.4188041 0.08139813 0.0066109453
-0.12469615 -0.07979466 0.15220283 0.06966851 -0.000135311 0.039294872 -0.045681786 -0.42457902
0.03789286 0.14242138 -0.06769736 -0.060551614 0.003912072 0.09515184 0.20211163 -0.14110114
0.2144069 -0.2411322 0.027611088 0.083719514 0.29289034 -0.040996965 -0.017913291 -0.12035246
-0.03134829 0.11201416 -0.113651276 0.07306476 0.0694977 0.11720492 0.15659237 0.015452549
-0.40701437 -0.021838203 -0.07360174 0.15924485 0.060273908 -0.19921486 0.055825014 0.013835196
0.082263075 0.058284808 0.0077832756 0.15046255 0.15253253 -0.18743749 -0.18699151 0.2579038
-0.100565314 -0.10915987 0.058596715 0.09150705 -0.030140119 -0.004171605 -0.009159149 -0.4152987
-0.02454023 0.011464997 0.12868367 -0.049771275 0.12518582 -0.20585316 -0.038873006 0.043029405
-0.22975208 0.05124195 0.03451157 -0.051564824 -0.13243088 -0.2848241 0.037801024 -0.1228009
0.032223295 0.06788659 -0.5711568 0.055427186 -0.21751732 0.039209444 0.015202738 -0.04579683
-0.0013711764 -0.54482484 0.042173006 -0.08017175 0.017856086 0.0052413694 -0.09625467 0.08380399
0.17976442 -0.26877838 0.0700688 -0.43296826 0.16680558 0.090334 -0.08300778 -0.022540659
0.039493226 0.08685787 0.13521422 0.09603383 0.088460445 -0.10053809 0.09461955 -0.060933646
-0.001638888 0.019020364 -0.0058722594 -0.27900046 -0.04096007 0.08143478 -0.2544927 0.18022133
0.19902933 0.07200395 0.06699633 -0.13454224 -0.0039417846 0.11644004 0.026569232 0.03853003
-0.430758 -0.049783356 -0.30708167 0.1290488 -0.15944502 -0.013708497 -0.07090731 0.12018092
0.039672524 -0.013258558 0.1333924 -0.18685153 0.20790459 0.049868036 0.1061699 -0.32519415
-0.09227419 0.038113505 -0.02479513 0.082910545 -0.19392534 0.0669364 -0.12321761 -0.75663054
-0.033386063 0.030446531 0.10877343 -0.06620397 0.008591903 -0.28466976 0.0066378242 0.02523914
-0.006095232 0.121585436 0.071304746 -0.06775787 -0.2358474 -0.08191141 -0.059780378 -0.03174795
-0.067438714 0.0016418546 0.058258254 0.15989488 0.093492575 0.0021510492 0.052243702 0.0025341387
00000000: 4cca c2bc f2d4 633e a49a 9c3d 981f 8d3d
00000010: 5447 88bd bb56 0fbe f886 aa3d 5461 98be
00000020: 8652 a0bd c1c6 b2be 66d9 26bd 2a5f 903c
00000030: 4a70 903d 09f2 2a3c 4410 913c f609 c8be
00000040: 006c 1dbd ecec b9bb 0918 6c3d c881 2b3d
00000050: 0449 573e 4342 413e becf 10be 50a7 aa3c
00000060: 273f 473d ba4a 16bd 010f 15bf 5fa1 c53d
00000070: 80fc 1a3e 328c 09bd b3c1 813d 1421 1dbd
00000080: 027e bdbc 34f0 9cbc 0318 5b3e aa51 703d
00000090: fc1a d23d 5d43 703c c67e 603d 2220 573e
000000a0: dff6 a2bd b4b2 0abf 0568 e13d 556c 5c3e
000000b0: 5521 043e dbf6 b23c a2fa 513e 1069 123a
000000c0: 036c 993d 5274 acbe 3376 04be b1bb 83bd
000000d0: df92 76bd 1037 293e bb7a fe3c a246 6f3d
000000e0: b8eb 2fbc d031 cebd ae10 f5bd e490 7cbb
000000f0: a2e5 0fbe fe4f 1c3c 0e1f 9ebd 8236 343d
00000100: 7213 113e a214 2cbd 5f08 ccbc 9b04 06be
00000110: 151e b0bd 29b5 ffbd ee14 c7bd 880d fd3d
00000120: 8ad3 f83d 9651 8d3d 9d58 2b3d 34c9 873e
00000130: 4e16 6c3d 4775 2e3d 7279 973c 007e c93b
00000140: 9f57 543e 37b8 343e c3b8 073e 3b41 81bc
00000150: 4eeb a0bc 7e6d d6be 10b4 a63d a1a0 d83b
00000160: b260 ffbd 626b a3bd 0fdb 1b3e 5dae 8e3d
00000170: 45e2 0db9 a9f3 203d d31c 3bbd 6c62 d9be
00000180: 8b35 1b3d e9d6 113e eaa4 8abd f804 78bd
00000190: d730 803b f8de c23d 5af6 4e3e d17c 10be
000001a0: 7b8d 5b3e 5ceb 76be a630 e23c 2375 ab3d
000001b0: b9f5 953e 6fec 27bd e5be 92bc 5a7b f6bd
000001c0: 1167 00bd ae67 e53d 00c2 e8bd faa2 953d
000001d0: cf54 8e3d 2209 f03d c059 203e b02c 7d3c
000001e0: 3064 d0be 08e6 b2bc 82bc 96bd 1511 233e
000001f0: c6e1 763d fbfe 4bbe c5a8 643d 05ad 623c
00000200: 8b79 a83d 0dbc 6e3d d90a ff3b db12 1a3e
00000210: 7d31 1c3e 9def 3fbe b47a 3fbe f80b 843e
00000220: 30f5 cdbd 368f dfbd 1c03 703d 0c68 bb3d
00000230: 69e8 f6bc f6b1 88bb 4110 16bc 08a2 d4be
00000240: 9808 c9bc afd7 3b3c a7c5 033e f7dc 4bbd
00000250: b630 003e 2ccb 52be 4d39 1fbd 9a3f 303d
00000260: 2144 6bbe 14e3 513d 015c 0d3d a335 53bd
00000270: f69b 07be 77d4 91be 3fd5 1a3d 0a7f fbbd
00000280: 93fc 033d 2008 8b3d 5537 12bf 9e07 633d
00000290: dcbc 5ebe 159a 203d e814 793c 7595 3bbd
000002a0: 0cb9 b3ba a479 0bbf 9abd 2c3d 1631 a4bd
000002b0: ed46 923c cbbf ab3b 2b21 c5bd 6da1 ab3d
000002c0: 2a14 383e 529d 89be 3b80 8f3d 04ae ddbe
000002d0: 15cf 2a3e 0801 b93d fcff a9bd 30a7 b8bc
000002e0: a6c3 213d 8ae2 b13d 9975 0a3e 62ad c43d
000002f0: c02a b53d eae6 cdbd e5c7 c13d 8f95 79bd
00000300: f5cf d6ba 98d0 9b3c 156c c0bb 26d9 8ebe
00000310: bfc5 27bd 47c7 a63d de4c 82be f18b 383e
00000320: 58ce 4b3e cf76 933d 5f35 893d 71c5 09be
00000330: 162a 81bb 1e78 ee3d b8a7 d93c aad1 1d3d
00000340: 508c dcbe a2e9 4bbd cf39 9dbe 5e25 043e
00000350: 8e45 23be 9b99 60bc da37 91bd 6a21 f63d
00000360: a87f 223d 6c3a 59bc 0498 083e 0256 3fbe
00000370: f1e4 543e 6d42 4c3d 9b6f d93d d97f a6be
00000380: 40fa bcbd e81c 1c3d 281f cbbc 01cd a93d
00000390: 5d94 46be f415 893d 8459 fcbd 8ab2 41bf
000003a0: d3bf 08bd 016b f93c 9bc4 de3d f295 87bd
000003b0: 0ec5 0c3c 3cc0 91be 1b82 d93b 50c2 ce3c
000003c0: 83ba c7bb c901 f93d 3908 923d a3c4 8abd
000003d0: fb81 71be 2bc1 a7bd 45dc 74bd 230a 02bd
000003e0: 4f1d 8abd 8033 d73a 35a0 6e3d 7cbb 233e
000003f0: 0979 bf3d 9ef8 0c3b 7efd 553d cb13 263b

fc4.bias f4 [32]
0.013271021 0.06028019 0.040850066 -0.13905896 0.04612048 0.12982865 -0.039852947 0.15189666
0.08174194 -0.15451749 0.33615533 0.26240593 0.06110854 0.043866158 0.11249339 -0.20651868
-0.2634939 0.19157541 -0.059689615 0.18656313 0.22866869 -0.15013644 -0.07708656 -0.0009491191
-0.1408342 0.0048814 -0.28015658 0.23669952 0.16483484 -0.021093426 -0.08420876 0.10110804
00000000: b26e 593c 5ce8 763d 6652 273d 7965 0ebe
00000010: d4e8 3c3d cdf1 043e d83c 23bd cc8a 1b3e
00000020: 5168 a73d d539 1ebe 8d1c ac3e 125a 863e
00000030: f34c 7a3d 00ad 333d ef62 e63d a279 53be
00000040: ace8 86be 582c 443e 197d 74bd 680a 3f3e
00000050: 2028 6a3e 5ebd 19be 8fdf 9dbd 4ece 78ba
00000060: d736 10be 27f4 9f3b af70 8fbe 5c61 723e
00000070: 77ca 283e 1fcc acbc a475 acbd bb11 cf3d

fc5.weight f4 [4, 32]
0.40388346 -0.14654607 0.36894417 -0.07854682 -0.009718351 -0.21934617 -0.01561075 0.1955213
-0.35630476 0.012040082 0.49567646 0.25433925 -0.0022141417 -0.24320936 -0.2817924 0.479265
-0.0063956613 0.5677003 0.11615778 0.15920086 0.28422812 -0.2353231 -0.1509014 -0.3048606
-0.4064707 0.16033424 -0.080829374 -0.44078907 -0.30634427 0.07457551 0.022164803 0.31154457
-0.465486 -0.23119721 0.28334633 -0.14646721 -0.072758414 -0.0538551 0.11532891 0.562686
-0.21266773 -0.27141404 0.47756815 0.4836023 -0.32242236 -0.299405 -0.16957264 -0.28366753
-0.339349 0.26914206 -0.078434885 0.2604589 0.57568866 -0.28612658 0.07338185 -0.08244793
-0.3223532 0.11784923 -0.18012393 0.17159438 -0.111436985 -0.049163476 -0.030188888 0.12983322
-0.107515275 -0.2853557 0.46938306 -0.04671671 -0.3114161 -0.32066503 -0.07913999 -0.1465873
0.10790063 -0.2509054 -0.08473632 0.58987755 -0.36467087 -0.03860162 -0.14327727 0.21009073
-0.106239215 -0.2861094 0.1244484 -0.15486874 0.4121982 0.027326776 -0.15552099 0.007987843
0.17819683 0.08409184 -0.06993477 -0.114351735 -0.31197274 0.059597533 -0.16450341 0.5643095
0.088788144 0.18312478 0.12525855 -0.35975903 0.03481949 -0.01485863 -0.03578825 0.4746962
0.43217894 0.016226552 0.6150054 0.40886343 -0.31957105 0.37482613 0.16267155 -0.033349145
-0.0060384274 0.27729586 -0.049463734 -0.091942 0.4174241 -0.30235422 0.08636676 -0.33892244
0.3600762 0.059288718 -0.22578551 -0.073723465 -0.26089457 0.1714198 -0.037382416 -0.024676723
00000000: d0c9 ce3e 2c10 16be 40e6 bc3e 28dd a0bd
00000010: b839 1fbc 489c 60be 3bc4 7fbc bc36 483e
00000020: 946d b6be c443 453c 4ec9 fd3e c138 823e
00000030: 221b 11bb e00b 79be 1847 90be 3962 f53e
00000040: b292 d1bb cf54 113f 21e4 ed3d 8d05 233e
00000050: 5986 913e 8af8 70be e685 1abe b016 9cbe
00000060: ed1c d0be a92e 243e df89 a5bd 1baf e1be
00000070: 28d9 9cbe 0cbb 983d f692 b53c c582 9f3e
00000080: 2e54 eebe f6be 6cbe c512 913e 80fb 15be
00000090: 5d02 95bd 2a97 5cbd 9031 ec3d 310c 103f
000000a0: 92c5 59be c8f6 8abe d083 f43e b89a f73e
000000b0: 8b14 a5be 9d4b 99be 73a4 2dbe df3c 91be
000000c0: 27bf adbe fdcc 893e 78a2 a0bd de5a 853e
000000d0: 5560 133f 2f7f 92be 3949 963d 76da a8bd
000000e0: 7b0b a5be f05a f13d 6872 38be 70b6 2f3e
000000f0: 1339 e4bd a45f 49bd b04e f7bc 00f3 043e
00000100: f830 dcbd 241a 92be fa52 f03e 055a 3fbd
00000110: ee71 9fbe 352e a4be 2614 a2bd fb1a 16be
00000120: 01fb dc3d ac76 80be 3c8a adbd 3702 173f
00000130: 24b6 babe bb1c 1ebd 47b7 12be 0622 573e
00000140: f293 d9bd ee7c 92be cede fe3d e995 1ebe
00000150: a40b d33e 67dc df3c e540 1fbe 71df 023c
00000160: 3b79 363e 5838 ac3d f639 8fbd 3e31 eabd
00000170: e4ba 9fbe 8b1c 743d 9573 28be 9676 103f
00000180: 8fd6 b53d 1085 3b3e c743 003e 5632 b8be
00000190: e29e 0e3d 9c71 73bc b396 12bd 610b f33e
000001a0: 8f46 dd3e 8ced 843c fe70 1d3f 8c56 d13e
000001b0: d19e a3be 36e9 bf3e 5f93 263e 1d99 08bd
000001c0: 00de c5bb b9f9 8d3e 7c9a 4abd 164c bcbd
000001d0: 9db8 d53e 2cce 9abe 0ee1 b03d 3e87 adbe
000001e0: e85b b83e bad8 723d 5134 67be 54fc 96bd
000001f0: f993 85be ac88 2f3e 4e1e 19bd d726 cabc

fc5.bias f4 [4]
-0.1634563 0.47335264 -0.30868277 0.017283345
00000000: 1761 27be 475b f23e ab0b 9ebe cd95 8d3c
