DQN_models/model_updaterate500_gamma0.99_alpha0.0001_dynamic.pt (torch, 416703 bytes, 10 tensors)

fc1.weight f4 [128, 514]
-0.016545294 0.043733403 0.028512098 -0.03432643 -0.032510385 -0.018102394 -0.02946514 0.022812106
-0.009167716 0.018200811 0.034117974 -0.02926516 -0.0075713024 0.021480829 -0.0368572 0.02693034
-0.03977588 -0.030664911 -0.007848814 0.0045053363 -0.0131482165 0.025569871 0.040652104 -0.00021365657
-0.013897106 0.006043191 0.031799674 0.063427255 0.028267676 -0.035441432 -0.123403154 -0.052403692
0.0435821 0.050918046 0.023914132 0.012985107 0.13566066 0.15214509 0.14044537 0.122012466
0.15183017 0.087994084 0.006486956 0.007154256 -0.03312536 -0.024187136 0.010853176 0.012562912
0.022872722 -0.002669632 -0.05035183 0.1502612 -0.15347438 0.053454746 -0.15168552 -0.092753634
-0.14214343 -0.07266424 0.037876736 0.14942798 -0.024601016 0.049416948 0.0660818 0.030570963
0.009061951 -0.023970835 0.026321411 -0.02102384 0.024897175 0.012928822 -0.0054934532 -0.025625227
0.011979494 -0.06334596 -0.043762065 0.13018276 0.029333413 -0.015494378 0.056214307 0.03455775
0.028158478 0.036238708 0.01338461 -0.11146527 0.013431374 0.08590745 -0.04133424 -0.039799828
0.024212852 0.026604548 -0.06349733 0.02687065 0.054770175 -0.027472952 -0.03591972 -0.069786035
-0.070963964 0.098286465 -0.032560315 0.03278774 0.07040177 0.059185218 0.033623602 -0.001238618
-0.022306137 -0.094624266 0.039419226 0.10758966 0.04079116 0.042252854 0.031615153 -0.03774931
-0.09021502 0.101592615 0.13862947 0.044102162 0.037859134 -0.020947099 -0.02670264 0.07871351
-0.004425913 0.016358238 -0.1481863 -0.14546931 0.12827069 0.012838174 -0.033249795 -0.09412459
-0.01733289 0.025376588 -0.027647328 -0.016878983 -0.0030905977 -0.020822156 -0.07024286 0.117163
0.10155347 -0.029026289 0.0138361715 -0.16434665 -0.16451979 0.005448694 0.022244312 0.038824655
-0.14180657 0.07032354 0.02144316 0.03801842 -0.00037005916 -0.13252524 -0.19783443 0.054391187
0.043010257 0.01644105 -0.0027221628 0.030751742 -0.04998939 0.002085067 0.13656586 0.023702547
0.0064254776 -0.13848713 -0.058862187 0.14364181 0.011721179 -0.039093908 -0.16655576 -0.093062885
0.055674963 0.014680222 -0.014868466 -0.14743733 -0.13223998 0.08993537 0.040531985 0.027941294
-0.018878331 0.004451353 0.083163425 0.11110361 0.116684385 -0.0071260184 0.041179083 -0.114510044
-0.06770373 0.09988576 0.036379956 0.003850568 -0.13646455 -0.129198 0.044040315 -0.04074027
0.037693806 0.016786516 0.0641792 0.03550062 -0.018955652 -0.042493973 0.007441867 -0.039435655
-0.026240071 0.09710647 0.09288231 0.03320548 -0.029613 -0.11707759 -0.10480628 0.10303355
-0.031457942 0.020114332 -0.13661994 -0.16130601 0.04001861 0.009905528 0.031369537 -0.116765566
-0.006028887 0.04791167 -0.016917063 0.027349532 0.018278804 0.039872803 -0.030142032 -0.025947884
0.13467407 -0.0043720864 0.008968823 -0.11811072 -0.0530557 -0.1646017 0.00840177 -0.037556846
-0.1648353 -0.02940603 0.040663734 -0.0061642677 0.033384383 -0.060672574 0.018285133 0.11101876
0.028142907 0.018880256 -0.013184829 -0.030317567 -0.053275455 -0.11569063 0.113797486 -0.0033147447
0.0056069195 -0.09289638 -0.06678698 0.13991438 0.02811823 0.031953342 0.015218016 0.0063992837
00000000: ff89 87bc cc21 333d 3492 e93c df99 0cbd
00000010: 9c29 05bd 794b 94bc e160 f1bc 74e0 ba3c
00000020: 3034 16bc de19 953c 4abf 0b3d 7dbd efbc
00000030: b018 f8bb 90f8 af3c 93f7 16bd 049d dc3c
00000040: 08ec 22bd fb34 fbbc 5098 00bc 80a1 933b
00000050: 9e6b 57bc e877 d13c d282 263d 0009 60b9
00000060: b0b0 63bc f605 c63b 6040 023d 26e6 813d
00000070: 9d91 e73c 092b 11bd cbba fcbd 41a5 56bd
00000080: 2583 323d 718f 503d 92e7 c33c 7cbf 543c
00000090: a1ea 0a3e eccb 1b3e e9d0 0f3e ace1 f93d
000000a0: 5e79 1b3e 3e36 b43d 8890 d43b 406e ea3b
000000b0: 75ae 07bd 1a24 c6bc 85d1 313c acd4 4d3c
000000c0: 935f bb3c fef4 2ebb b83d 4ebd 12de 193e
000000d0: 6328 1dbe 5df3 5a3d 7353 1bbe 9ef5 bdbd
000000e0: 0c8e 11be fdd0 94bd a324 1b3d a603 193e
000000f0: 1288 c9bc 6d69 4a3d e555 873d f56f fa3c
00000100: 9478 143c 7c5e c4bc 00a0 d73c 303a acbc
00000110: 29f5 cb3c 69d3 533c 6d02 b4bb ffeb d1bc
00000120: a445 443c 87bb 81bd da3f 33bd a14e 053e
00000130: a04c f03c 22dc 7dbc f940 663d 6d8c 0d3d
00000140: 9cac e63c 0a6f 143d 204b 5b3c e747 e4bd
00000150: 440f 5c3c 3ff0 af3d 184e 29bd 2505 23bd
00000160: 085a c63c c8f1 d93c e30a 82bd d61f dc3c
00000170: b156 603d f50e e1bc 8e20 13bd fbeb 8ebd
00000180: 8e55 91bd 6a4a c93d f75d 05bd 704c 063d
00000190: ce2e 903d 336c 723d e7b8 093d 2059 a2ba
000001a0: 5cbb b6bc 5eca c1bd 0e76 213d f857 dc3d
000001b0: a214 273d 5411 2d3d e47e 013d 059f 1abd
000001c0: a7c2 b8bd ca0f d03d e2f4 0d3e 78a4 343d
000001d0: 2e12 1b3d 4099 abbc 7fbf dabc 8c34 a13d
000001e0: 4007 91bb b601 863c 26be 17be e8f5 14be
000001f0: 6459 033e 3457 523c f030 08bd 65c4 c0bd
00000200: b4fd 8dbc 90e2 cf3c a67c e2bc cb45 8abc
00000210: a08b 4abb 3a93 aabc 7ddb 8fbd 28f3 ef3d
00000220: 44fb cf3d 8ac8 edbc 1cb1 623c 7d4a 28be
00000230: e077 28be f58a b23b b439 b63c 9a06 1f3d
00000240: be35 11be ca05 903d 91a9 af3c 34b9 1b3d
00000250: 8004 c2b9 b2b4 07be 1c95 4abe 4bc9 5e3d
00000260: 862b 303d 62af 863c 5066 32bb 14eb fb3c
00000270: adc1 4cbd 9fa5 083b ecd7 0b3e d82b c23c
00000280: d08c d23b 92cf 0dbe 7a19 71bd d716 133e
00000290: 300a 403c ef20 20bd 988d 2abe c197 bebd
000002a0: 6e0b 643d 5085 703c de9a 73bc d0f9 16be
000002b0: eb69 07be 0930 b83d de04 263d 24e5 e43c
000002c0: bba6 9abc a8dc 913b 9651 aa3d 4a8a e33d
000002d0: 39f8 ee3d 6081 e9bb 66ab 283d 3e84 eabd
000002e0: 41a8 8abd e890 cc3d 2603 153d d059 7c3b
000002f0: 5dbd 0bbe 7b4c 04be 9e63 343d 45df 26bd
00000300: d264 1a3d e083 893c 6270 833d 1969 113d
00000310: e248 9bbc 290e 2ebd e8da f33b 4887 21bd
00000320: 6bf5 d6bc c2df c63d 1539 be3d 7802 083d
00000330: f696 f2bc 60c6 efbd ada4 d6bd 4103 d33d
00000340: 0bda 00bd d0c6 a43c 19e6 0bbe 672d 25be
00000350: 8eea 233d cc4a 223c 587d 003d c922 efbd
00000360: f88d c5bb 073f 443d a795 8abc 200c e03c
00000370: 6ebd 953c aa51 233d 6cec f6bc a890 d4bc
00000380: 00e8 093e b843 8fbb f8f1 123c 08e4 f1bd
00000390: ef50 59bd 598d 28be 94a7 093c 35d5 19bd
000003a0: 96ca 28be eae4 f0bc 048f 263d a0fd c9bb
000003b0: 10be 083d ce83 78bd b4ca 953c ce5d e33d
000003c0: f48b e63c c4aa 9a3c 2e05 58bc 8c5c f8bc
000003d0: 5d37 5abd 36ef ecbd a80e e93d 303c 59bb
000003e0: 40ba b73b 7540 bebd 9dc7 88bd b745 0f3e
000003f0: 3458 e63c 82e1 023d fc54 793c 15b1 d13b

fc1.bias f4 [128]
0.1588989 -0.06246071 0.0094177695 0.057034753 -0.03846958 0.017730627 0.10743075 0.020248162
0.0036182343 0.120781355 0.15190884 -0.014230578 0.17718028 0.24186677 -0.082653634 0.03005877
0.14913127 0.16542938 0.06252811 0.1180676 -0.00688059 0.072689325 -0.034542974 0.06725615
-0.074166164 -0.055028465 -0.090159975 0.19638397 0.096603125 0.05129484 -0.058493335 0.14057049
0.11111677 0.05284606 0.069045916 0.18787713 0.011392304 0.15538983 -0.0652046 0.124306574
0.003070498 0.12679683 -0.064970054 0.16913353 0.15169027 0.041720632 0.09747669 0.029186329
0.023615299 0.21475276 -0.024885697 0.1683514 -0.014077773 -0.008249549 -0.03882712 0.12107782
-0.11768358 -0.048182186 0.17355056 0.11679745 0.07478764 0.14661197 0.017233932 -0.0719187
0.11412257 0.11998976 0.23100972 -0.07754145 -0.022169797 -0.07230059 0.0058761067 -0.030925889
0.096281715 0.05265012 0.0023267472 -0.0043410324 0.0056417207 -0.03267171 0.076269366 -0.07293176
0.19459343 -0.08536997 0.1085255 0.021071741 -0.12732923 0.19080009 0.026393238 0.05463007
0.17528005 -0.06509704 0.18976422 -0.07798915 0.06709081 -0.012048097 0.110510126 -0.013298787
0.08309805 -0.07201288 0.2066737 0.00012690693 0.055372857 -0.03584853 -0.028541043 0.025106229
-0.0038216817 -0.03176949 0.040573552 0.06856609 0.018004663 0.08758588 -0.029846648 -0.058263972
-0.052617207 0.14225376 0.110853694 0.16219743 0.20837983 0.030594436 0.09474082 0.21942379
-0.12453341 -0.044924255 0.075743206 0.004328739 0.1636562 0.18669163 -0.059063025 0.06684903
00000000: 65b6 223e cdd6 7fbd fd4c 1a3c 469d 693d
00000010: 4792 1dbd d23f 913c a704 dc3d 79df a53c
00000020: e61f 6d3b 375c f73d fe8d 1b3e 5f27 69bc
00000030: bf6e 353e ecab 773e 4f46 a9bd cf3d f63c
00000040: deb5 183e 5266 293e bd0e 803d 6dcd f13d
00000050: 9376 e1bb 24de 943d ef7c 0dbd 98bd 893d
00000060: 6ee4 97bd 8765 61bd cba5 b8bd e118 493e
00000070: dcd7 c53d 8a1a 523d b596 6fbd b6f1 0f3e
00000080: 3091 e33d 1c75 583d f267 8d3d dd62 403e
00000090: c9a6 3a3c 831e 1f3e fd89 85bd 7294 fe3d
000000a0: 683a 493b 07d7 013e 050f 85bd 5731 2d3e
000000b0: b254 1b3e 41e3 2a3d dca1 c73d 2b18 ef3c
000000c0: df74 c13c 26e8 5b3e 17dd cbbc 4f64 2c3e
000000d0: 76a6 66bc 1e29 07bc 3009 1fbd a6f7 f73d
000000e0: 1704 f1bd af5a 45bd 3db7 313e 8033 ef3d
000000f0: 432a 993d 7321 163e 2d2e 8d3c 1d4a 93bd
00000100: 18b9 e93d 31bd f53d d08d 6c3e 0dce 9ebd
00000110: 6f9d b5bc 5512 94bd 5b8c c03b 4a58 fdbc
00000120: 592f c53d a7a7 573d 577c 183b 383f 8ebb
00000130: 2fde b83b c5d2 05bd 1d33 9c3d 3f5d 95bd
00000140: 8043 473e 73d6 aebd 9e42 de3d a59e ac3c
00000150: 9862 02be 1961 433e a236 d83c c8c3 5f3d
00000160: 9d7c 333e 9951 85bd 8d51 423e c7b8 9fbd
00000170: e866 893d 6265 45bc 2253 e23d 28e3 59bc
00000180: 4f2f aa3d 7d7b 93bd 45a2 533e 5212 0539
00000190: a6ce 623d e8d5 12bd e8ce e9bc 94ab cd3c
000001a0: 2e75 7abb ba20 02bd 7430 263d 616c 8c3d
000001b0: 847e 933c 3a60 b33d f580 f4bc 34a6 6ebd
000001c0: 2485 57bd f8aa 113e 4307 e33d 1517 263e
000001d0: 8661 553e 2fa1 fa3c 7a07 c23d a1b0 603e
000001e0: 5f0b ffbd 7f02 38bd 411f 9b3d 18d8 8d3b
000001f0: 7e95 273e 172c 3f3e 12ec 71bd 25e8 883d

fc2.weight f4 [128, 128]
-0.16057812 0.101075485 0.18018197 -0.081784695 0.36049438 0.17786099 0.23724012 0.07292322
0.10346739 -0.3079245 0.07543588 0.06904887 -0.32775328 -0.4358323 0.041996047 0.123281844
-0.50542253 -0.32901475 0.12328695 -0.066847995 -0.099103205 -0.053363696 -0.043693908 0.039392818
0.05487487 -0.019736616 0.0065267184 0.28428778 0.13444883 0.098177046 -0.04670541 -0.19590364
0.08198711 -0.05325608 0.049210712 -0.2766363 -0.020638527 0.3116276 0.091252655 0.00397931
0.03469371 0.38434988 0.08533012 0.5331347 -0.28355184 0.48609015 -0.1516399 -0.017223656
-0.017307231 0.015135643 0.095852695 -0.050477155 0.32490507 0.34646133 0.009546449 -0.36531967
0.05628033 0.02164822 0.010231183 -0.29870805 0.06312864 -0.07136031 -0.035818078 0.09714434
0.0866481 0.103288606 0.41080353 0.186205 0.043404963 -0.12734011 -0.07762056 0.0598834
0.032042127 0.029543659 0.12918895 -0.039829813 -0.020889545 -0.071570195 0.03721108 0.10904408
-0.25163022 0.13421555 0.18537697 -0.104949765 0.43869957 -0.43558934 -0.19834924 -0.02575718
0.0154739395 0.4359907 -0.6082594 0.114971444 -0.027612263 -0.37678283 -0.30209187 -0.058660634
-0.07672433 0.013785284 -0.19580318 -0.01590325 0.010641132 0.09173641 -0.08950009 0.010717221
0.32778934 0.1542312 -0.3161 -0.078877635 0.04748961 0.23575245 0.002506297 0.0670738
0.054481834 -0.4466473 -0.0038072495 0.035189062 -0.65935373 -0.052452322 0.18268415 -0.14199196
0.39044857 0.0941224 0.040852085 0.13247867 -0.3342651 -0.17013484 0.11082548 0.15845796
-0.1009867 0.08863743 0.15120278 0.16031949 0.26365712 0.21302171 0.24227343 0.049978282
0.092922844 -0.019004934 0.06872215 0.15647908 -0.008513401 -0.20446704 0.103269346 0.1974335
-0.4171303 -0.15581559 0.27547893 -0.007880792 0.0634143 0.06289217 -0.01387733 0.045758802
0.1647131 0.016807698 0.09863904 0.3280866 0.034155596 -0.034972485 0.08755268 -0.0018623208
-0.00046309098 -0.094476886 0.06004562 -0.14321575 -0.0060006566 0.20333357 0.012990993 0.12080164
-0.07161394 0.34562445 0.08880677 0.46938792 -0.14013849 0.40347686 -0.01783689 0.04443146
0.09242415 -0.2498756 0.15913087 -0.109937064 0.2061612 0.22689478 -0.008561688 -0.19742653
0.05212763 0.17918678 -0.07215678 -0.15739392 0.15067832 -0.017095288 0.026826957 0.15016831
0.06748562 0.34918705 0.16826454 0.05332815 0.09094402 0.002107235 0.08650941 0.027555583
0.22767271 -0.10498125 0.2151629 -0.025945384 -0.022134509 0.036454383 0.08699118 0.10773536
-0.14119543 0.23947446 0.51457214 -0.13955496 0.108246274 -0.1782368 -0.13864012 0.07483994
0.03055705 0.3976351 -0.45768306 0.17059076 0.037907228 -0.36577907 -0.16785413 -0.06037456
0.034648694 0.04051762 -0.10899634 5.226646e-06 -0.09074655 -0.056492634 -0.043718036 0.28313854
0.56674886 0.08393343 -0.25575578 0.02593777 -0.001360702 0.5702011 0.05024021 0.19668281
-0.027406765 -0.11870994 -0.026659295 0.102056906 -0.22191522 -0.0010600721 0.15385093 -0.00308765
0.47143984 -0.0776613 -0.1265126 0.25066102 -0.025868911 -0.10748242 0.07484768 0.34937102
00000000: 976e 24be aa00 cf3d 9f81 383e bc7e a7bd
00000010: b892 b83e 3121 363e 13ef 723e c558 953d
00000020: b6e6 d33d 48a8 9dbe 207e 9a3d 7e69 8d3d
00000030: 47cf a7be 6925 dfbe 0c04 2c3d 317b fc3d
00000040: 5f63 01bf 9f74 a8be de7d fc3d 9ae7 88bd
00000050: 9ff6 cabd e493 5abd 62f8 32bd 5d5a 213d
00000060: 79c4 603d afae a1bc 15de d53b 2b8e 913e
00000070: f4ac 093e 0c11 c93d 2c4e 3fbd f79a 48be
00000080: dce8 a73d 0c23 5abd 2c91 493d 46a3 8dbe
00000090: 2112 a9bc a78d 9f3e ace2 ba3d df64 823b
000000a0: fe1a 0e3d 82c9 c43e 8fc1 ae3d 847b 083f
000000b0: b52d 91be cfe0 f83e 7d47 1bbe a018 8dbc
000000c0: e5c7 8dbc 7dfb 773c 6b4e c43d 22c1 4ebd
000000d0: f559 a63e 6163 b13e b668 1c3c 2e0b bbbe
000000e0: 3486 663d 9c57 b13c b1a0 273c 43f0 98be
000000f0: 9749 813d 5b25 92bd fab5 12bd 9df3 c63d
00000100: 8f74 b13d fa88 d33d d754 d23e 86ac 3e3e
00000110: 67c9 313d 7265 02be 87f7 9ebd 4c48 753d
00000120: 9b3e 033d 8b05 f23c 1c4a 043e 9624 23bd
00000130: 8d20 abbc 6593 92bd a56a 183d 8152 df3d
00000140: add5 80be cd6f 093e 76d3 3d3e e7ef d6bd
00000150: 3b9d e03e 9105 dfbe 101c 4bbe b900 d3bc
00000160: 6886 7d3c 2c3a df3e e3b6 1bbf 2676 eb3d
00000170: 1d33 e2bc aee9 c0be c9ab 9abe 2246 70bd
00000180: a521 9dbd acdb 613c a180 48be 8847 82bc
00000190: 2458 2e3c 4de0 bb3d d34b b7bd 4897 2f3c
000001a0: 01d4 a73e c9ee 1d3e dcd7 a1be 998a a1bd
000001b0: 7784 423d 1769 713e b040 243b fd5d 893d
000001c0: 5828 5f3d f4ae e4be 0c83 79bb 6822 103d
000001d0: 68cb 28bf 3fd8 56bd 8e11 3b3e 5766 11be
000001e0: e0e8 c73e 3fc3 c03d 8454 273d 7da8 073e
000001f0: cc24 abbe d437 2ebe 78f8 e23d ce42 223e
00000200: 1dd2 cebd 8a87 b53d e7d4 1a3e cb2a 243e
00000210: 11fe 863e 5d22 5a3e 8716 783e 07b6 4c3d
00000220: 554e be3d 3cb0 9bbc 33be 8c3d 0d3c 203e
00000230: cb7b 0bbc cf5f 51be e17e d33d 022c 4a3e
00000240: 1a92 d5be 1f8e 1fbe 930b 8d3e 701e 01bc
00000250: 5bdf 813d 9ccd 803d be5d 63bc 956d 3b3d
00000260: 8daa 283e 4cb0 893c 4403 ca3d f8fa a73e
00000270: bde6 0b3d 4f3f 0fbd d24e b33d 1e19 f4ba
00000280: 05cb f2b9 197d c1bd 65f2 753d 26a7 12be
00000290: 28a1 c4bb ad36 503e 2dd8 543c da66 f73d
000002a0: 54aa 92bd b0f5 b03e 53e0 b53d 9d53 f03e
000002b0: 7780 0fbe 8594 ce3e ab1e 92bc c3fd 353d
000002c0: df48 bd3d 64df 7fbe 34f3 223e af26 e1bd
000002d0: ec1b 533e 1b57 683e 5246 0cbc 2e2a 4abe
000002e0: c883 553d bd7c 373e efc6 93bd df2b 21be
000002f0: 6b4b 1a3e 6b0b 8cbc 35c4 db3c b9c5 193e
00000300: e735 8a3d a5c8 b23e 8a4d 2c3e 9e6e 5a3d
00000310: dc40 ba3d 8919 0a3b d82b b13d 3fbc e13c
00000320: 0923 693e 6900 d7bd aa53 5c3e 6a8b d4bc
00000330: 6e53 b5bc 3151 153d 6f28 b23d 5ba4 dc3d
00000340: 8995 10be cb38 753e 00bb 033f 7fe7 0ebe
00000350: 39b0 dd3d b583 36be adf7 0dbe af45 993d
00000360: c752 fa3c d496 cb3e 6f55 eabe 58af 2e3e
00000370: 9c44 1b3d 6547 bbbe f4e1 2bbe 514b 77bd
00000380: caeb 0d3d cef5 253d 7939 dfbd 8c60 af36
00000390: 54d9 b9bd d264 67bd af11 33bd 89f7 903e
000003a0: 7416 113f 4ae5 ab3d 6cf2 82be 727b d43c
000003b0: 9559 b2ba b3f8 113f aec8 4d3d 3867 493e
000003c0: 2784 e0bc 321e f3bd 9864 dabc 3603 d13d
000003d0: be3d 63be 1ef2 8aba 198b 1d3e 2c5a 4abb
000003e0: 9060 f13e e30c 9fbd 858c 01be a456 803e
000003f0: 0aeb d3bc be1f dcbd be49 993d c2e0 b23e

fc2.bias f4 [128]
-0.031867888 0.04367367 -0.13918357 -0.06861338 -0.070317574 0.033192955 0.26593012 -0.08727641
-0.0039809775 0.008624924 0.025997194 -0.015041446 0.021051645 0.015219711 0.16307303 -0.06959727
0.0078079184 0.0075553358 -0.049686402 0.036834985 0.10271258 0.00912316 0.046522822 -0.05874971
-0.050221235 0.2800169 0.2566401 0.026791506 -0.022368345 0.11537711 0.01814597 -0.042829636
0.03431398 0.314629 0.008418648 -0.005642046 0.034207873 -0.040536884 0.19704297 -0.017976966
-0.04902446 0.09753491 0.05608347 0.10598122 -0.017450282 0.06618386 -0.109171376 -0.06324847
-0.033800274 0.022124529 -0.0011559342 -0.19672026 0.034205105 -0.11397362 0.2104283 0.014510093
-0.06826634 0.04812403 -0.06492179 -0.06492766 0.30598345 0.0760545 -0.0043934975 0.06145022
0.04473617 0.22843447 0.022569425 0.032971263 0.009199102 0.0706502 -0.049653016 -0.01452662
0.21314673 0.030609973 -0.052882772 0.093452565 -0.049138293 0.015441701 -0.19684403 -0.059616297
0.008869467 0.008176052 0.12876609 -0.12666191 -0.03722861 0.22854003 0.04252875 0.005733599
0.228189 -0.08418581 -0.047625784 -0.1329635 -0.010875805 0.01744729 0.012186821 -0.12463367
-0.06316123 -0.04582531 0.116482705 -0.021762094 0.008544787 -0.13157274 -0.038093477 -0.019547125
-0.00044370297 0.022024347 -0.09956359 -0.07115176 0.05506105 -0.039063014 -0.039373133 0.20585869
0.22989814 0.06311161 0.20657147 -0.013418621 -0.004878427 -0.047954153 0.024675436 0.07328476
-0.07203895 0.002386591 -0.07532166 -0.061374374 -0.005252473 -0.042743422 -0.12754582 0.15239057
00000000: e787 02bd 2ae3 323d 2386 0ebe 2c85 8cbd
00000010: a902 90bd 56f5 073d fe27 883e f9bd b2bd
00000020: dc72 82bb 8e4f 0d3c 11f8 d43c 6670 76bc
00000030: 8074 ac3c 185c 793c 9efc 263e 0389 8ebd
00000040: 91d9 ff3b c092 f73b f883 4bbd 48e0 163d
00000050: f95a d23d 4e79 153c b78e 3e3d 89a3 70bd
00000060: c8b4 4dbd 605e 8f3e 5566 833e dc79 db3c
00000070: d23d b7bc d64a ec3d dba6 943c 216e 2fbd
00000080: d18c 0c3d 0d17 a13e 5eee 093c eae0 b8bb
00000090: 8e1d 0c3d 010a 26bd a2c5 493e 6e44 93bc
000000a0: dfcd 48bd 62c0 c73d c8b7 653d af0c d93d
000000b0: e5f3 8ebc 678b 873d 3e95 dfbd 6a88 81bd
000000c0: 2872 0abd 803e b53c b782 97ba 0971 49be
000000d0: a71a 0c3d 006b e9bd 847a 573e bebb 6d3c
000000e0: 39cf 8bbd b41d 453d b7f5 84bd cbf8 84bd
000000f0: dda9 9c3e 76c2 9b3d 54f7 8fbb 3ab3 7b3d
00000100: 463d 373d baea 693e 84e3 b83c e00c 073d
00000110: d5b7 163c 0db1 903d f660 4bbd 0f01 6ebc
00000120: 2343 5a3e c4c1 fa3c 9b9b 58bd 0f64 bf3d
00000130: 3c45 49bd 30ff 7c3c 7b91 49be 3830 74bd
00000140: 3e51 113c d9f4 053c 42db 033e a9b3 01be
00000150: 077d 18bd 6606 6a3e a032 2e3d eae0 bb3b
00000160: 61aa 693e 9c69 acbd 4113 43bd 9527 08be
00000170: 6f30 32bc 9eed 8e3c 3bab 473c f03f ffbd
00000180: ad5a 81bd 52b3 3bbd 7c8e ee3d 6b46 b2bc
00000190: 6fff 0b3c 01bb 06be e807 1cbd 4b21 a0bc
000001a0: cea0 e8b9 676c b43c ffe7 cbbd 04b8 91bd
000001b0: b287 613d 8a00 20bd b945 21bd 9fcc 523e
000001c0: 6b6a 6b3e a940 813d 7987 533e c7d9 5bbc
000001d0: 36db 9fbb 936b 44bd 2424 ca3c 5216 963d
000001e0: 2889 93bd 5a68 1c3b 3e42 9abd b263 7bbd
000001f0: f01c acbb ba13 2fbd 5f9b 02be 460c 1c3e

fc3.weight f4 [128, 128]
-0.25721106 -0.067245275 -0.21763429 -0.0063171703 0.035094213 0.30219427 0.18846391 -0.077939555
0.42660555 0.21101807 0.18063724 -0.06997729 -0.12734132 -0.17701685 0.07996156 0.14465623
-0.23522498 0.00046070185 -0.066459045 -0.083855435 0.02514075 -0.09536246 -0.044122323 -0.031648487
0.08923701 0.13907103 0.27126685 -0.069373265 -0.036945812 0.08254465 -0.05376852 -0.05902122
-0.2265417 0.19064818 -0.004344109 -0.28477177 -0.08125277 -0.11520172 0.16249083 -0.072470665
-0.18752043 -0.00799538 -0.0133373 0.06263721 -0.14186017 0.058143083 -0.15552384 -0.090688445
-0.21453327 -0.084443115 0.008447989 -0.38172194 0.1664372 -0.14028704 0.50420624 0.121110365
0.042017527 0.1803589 -0.035235092 -0.05255124 0.075018786 0.053108763 0.14928412 0.23722596
-0.03001919 0.24748899 0.019182485 0.054341283 0.27247173 0.2487857 0.16737184 -0.039048128
0.0647728 -0.022373747 -0.26413265 0.08965081 -0.16279171 -0.0033798218 -0.06547156 -0.05811758
-0.08150014 0.0031725322 0.019429367 -0.118750356 0.016292498 0.071590886 -0.017224887 -0.12305795
0.043299124 0.17181216 -0.10090581 0.14426781 -0.07802254 0.03022322 -0.10805842 -0.30569178
0.025631182 0.041486602 -0.16472457 0.013729718 0.00446133 -0.23614915 -0.02048764 -0.15113957
0.304983 -0.053603157 -0.12621082 0.0014636862 -0.08490362 0.0055761607 -0.1384572 -0.035473242
0.12789705 -0.02867106 0.116823554 -0.11426985 -0.06501716 -0.06673505 0.27709484 -0.061368894
-0.6243395 -0.1026794 -0.01747378 0.04923555 -0.1288276 0.2955236 -0.138338 0.027054904
0.27300343 0.18531317 0.11869813 -0.13128233 -0.009731385 -0.34312472 0.007771247 0.12908392
-0.24568251 -0.2732187 -0.26866227 0.11502925 0.059663452 0.2658112 0.09413963 -0.16928336
0.25280517 0.049151517 0.16914158 0.05739487 0.16531104 0.23455693 0.036779247 0.12692669
-0.1518928 0.1502464 -0.19824515 0.15137824 0.17858712 0.12406325 0.38361868 0.010703064
0.12852928 0.062176377 0.08433115 0.17572394 0.13962364 0.08591728 0.14009191 0.077692814
0.19204286 0.15643755 0.05297223 0.09644887 0.16995198 0.1044917 0.054431055 0.077273354
0.13049382 0.23623794 0.1424595 0.2608672 -0.08694842 0.012422777 -0.46300903 -0.2642596
0.0076554064 -0.061475717 0.10339182 0.10898918 0.09164026 0.044110272 0.08550933 -0.05699046
0.16834132 0.16461131 0.068032704 0.1423514 -0.22867337 -0.23481822 0.0102475695 0.14154822
0.13685918 0.12853105 0.21450442 0.020390278 0.14499994 0.07605213 0.08868776 0.10014435
0.065876976 0.09381894 0.017818443 0.24133481 0.13088678 0.13282973 0.06695609 0.12747018
0.13555029 -0.3940644 0.13575143 0.011236887 0.19746447 0.084844805 0.17441475 0.15264066
-0.015033356 -0.062387038 0.12110026 0.00029765166 0.14456747 0.15140454 0.085693136 0.09769152
-0.3261885 0.10686204 0.0046723103 -0.08891076 0.14360419 -0.08927447 0.18958257 0.0950913
0.047017127 0.037888434 0.03158182 0.013479065 0.0018454925 0.4801653 -0.15638457 0.067360856
0.40475208 0.17415024 -0.061275553 -0.23902957 0.2110011 0.1149931 0.16876525 0.08208247
00000000: 2bb1 83be e4b7 89bd 86db 5ebe 4400 cfbb
00000010: f3be 0f3d 35b9 9a3e affc 403e c69e 9fbd
00000020: 0b6c da3e 1f15 583e f8f8 383e 4150 8fbd
00000030: c365 02be e843 35be e3c2 a33d c320 143e
00000040: d1de 70be 5b8a f139 ae1b 88bd 66bc abbd
00000050: f9f3 cd3c 654d c3bd 9cb9 34bd d8a1 01bd
00000060: e5c1 b63d a368 0e3e 7de3 8a3e 9213 8ebd
00000070: 7e54 17bd 2b0d a93d 613c 5cbd 3cc0 71bd
00000080: 8cfa 67be 4739 433e 0759 8ebb 9bcd 91be
00000090: da67 a6bd e1ee ebbd ff63 263e 806b 94bd
000000a0: 5b05 40be 0eff 02bc b184 5abc f047 803d
000000b0: cb43 11be 7127 6e3d a441 1fbe ddba b9bd
000000c0: 9cae 5bbe 83f0 acbd 6f69 0a3c 0f71 c3be
000000d0: 836e 2a3e 68a7 0fbe a913 013f b608 f83d
000000e0: 921a 2c3d 01b0 383e ac52 10bd f83f 57bd
000000f0: 73a3 993d 9388 593d f0dd 183e 5deb 723e
00000100: ceea f5bc c16d 7d3e 9624 9d3c f794 5e3d
00000110: 6a81 8b3e aec1 7e3e 8663 2b3e eef0 1fbd
00000120: 9aa7 843d 2649 b7bc 653c 87be d89a b73d
00000130: dfb2 26be 0080 5dbb f415 86bd b30c 6ebd
00000140: 8ce9 a6bd 42ea 4f3b 562a 9f3c 6333 f3bd
00000150: d877 853c 3e9e 923d 351b 8dbc ce05 fcbd
00000160: 6c5a 313d 87ef 2f3e b5a7 cebd f1ba 133e
00000170: 48ca 9fbd b096 f73c bc4d ddbd a283 9cbe
00000180: 7cf8 d13c dbed 293d 8fad 28be 9cf2 603c
00000190: 5930 923b 15d1 71be b2d5 a7bc 55c4 1abe
000001a0: bb26 9c3e fc8e 5bbd 693d 01be 29d9 bf3a
000001b0: f3e1 adbd 3ab8 b63b b9c7 0dbe 644c 11bd
000001c0: 72f7 023e 92df eabc 3041 ef3d 5006 eabd
000001d0: b727 85bd 63ac 88bd 60df 8d3e f35d 7bbd
000001e0: b7d4 1fbf 9449 d2bd 2c25 8fbc 37ab 493d
000001f0: 62eb 03be df4e 973e 7aa8 0dbe 3fa2 dd3c
00000200: 1bc7 8b3e bcc2 3d3e 0118 f33d e06e 06be
00000210: 6370 1fbc 0bae afbe f2a5 fe3b 932e 043e
00000220: 3294 7bbe 52e3 8bbe 1a8e 89be 7594 eb3d
00000230: aa61 743d 6818 883e 47cc c03d 9e58 2dbe
00000240: ae6f 813e 1a53 493d 7333 2d3e e216 6b3d
00000250: 4c47 293e b12f 703e d6a5 163d 12f9 013e
00000260: c989 1bbe 31da 193e c700 4bbe e602 1b3e
00000270: 8bdf 363e e014 fe3d ab69 c43e e75b 2f3c
00000280: 2e9d 033e a8ac 7e3d cfb5 ac3d faf0 333e
00000290: 80f9 0e3e 66f5 af3d 4174 0f3e 691d 9f3d
000002a0: e2a6 443e 2a31 203e 69f9 583d fc86 c53d
000002b0: e407 2e3e bfff d53d 19f3 5e3d 7e41 9e3d
000002c0: 2ca0 053e 5ce8 713e e7e0 113e 6390 853e
000002d0: 0312 b2bd e788 4b3c 850f edbe 094d 87be
000002e0: 34da fa3b f6cd 7bbd 17bf d33d b835 df3d
000002f0: e3ad bb3d f9ac 343d 841f af3d d46e 69bd
00000300: ab61 2c3e de8f 283e bb54 8b3d 91c4 113e
00000310: 5a29 6abe 3074 70be 6ce5 273c 04f2 103e
00000320: d024 0c3e a59d 033e 0ca7 5b3e 8309 a73c
00000330: dd7a 143e 38c1 9b3d eea1 b53d 7b18 cd3d
00000340: 82ea 863d 2524 c03d fcf7 913c 7920 773e
00000350: 2f07 063e 8404 083e 4620 893d 8b87 023e
00000360: b2cd 0a3e cfc2 c9be 6c02 0b3e ec1a 383c
00000370: 2034 4a3e 1dc3 ad3d c899 323e d54d 1c3e
00000380: 774e 76bc 8d89 7fbd 6a03 f83d 210e 9c39
00000390: 7f09 143e cb09 1b3e e27f af3d 7e12 c83d
000003a0: 2e02 a7be 7cda da3d 2e1a 993b d816 b6bd
000003b0: fa0c 133e 89d5 b6bd ef21 423e 3abf c23d
000003c0: 0895 403d e730 1b3d f05b 013d 4cd7 5c3c
000003d0: 74e4 f13a 3ad8 f53e 4723 20be 7df4 893d
000003e0: aa3b cf3e 7154 323e 13fc 7abd 2bc4 74be
000003f0: ac10 583e 8181 eb3d ccd0 2c3e db1a a83d

fc3.bias f4 [128]
0.15888385 -0.019133689 -0.16224614 -0.040081233 0.035493884 -0.1112465 -0.18515186 -0.08114369
0.06419064 -0.05407001 -0.169048 -0.017661404 -0.021442976 -0.036506414 0.06734544 -0.017061025
0.19544858 0.03797215 0.0878995 -0.19446987 0.119047984 -0.009745207 -0.0076723555 0.09453444
-0.009398072 0.07426064 -0.27647406 0.078940876 0.015745696 -0.061871093 0.2062219 0.11393712
0.032315236 0.33113724 0.14130275 0.06175719 0.06793183 0.079206385 -0.07224755 0.17281196
-0.011174957 0.029440101 0.01781149 0.0679344 -0.018820543 -0.06538982 0.1488491 0.04225342
-0.0740517 -0.08725138 0.14750938 0.062171925 -0.014688365 0.11364291 -0.029768744 -0.050063625
-0.13361022 0.069914445 -0.029777957 0.22435881 0.10542963 0.016406901 0.19091101 -0.006758484
-0.056167137 0.005756093 0.33220926 -0.09661893 -0.10861738 0.095359944 -0.034228127 -0.060581364
0.12660316 0.04950585 -0.16461475 0.20638353 -0.042178184 0.2608233 -0.0015350933 -0.030651255
-0.17207232 -0.037275326 -0.090833336 0.26104572 0.109511584 -0.010724955 0.13779603 0.05145521
-0.026084209 0.06541001 0.03059842 -0.004287517 -0.16138607 -0.07404627 0.2655386 0.24133392
0.06574669 -0.115486704 -0.024790002 0.074335724 -0.028665356 -0.4508771 -0.42821768 -0.028827485
0.009461492 0.24640475 0.16545586 0.07570188 -0.08377594 -0.03250953 0.16189659 -0.038949132
-0.0025755067 0.24365515 -0.01668162 0.14159845 0.09813004 -0.07911893 0.050711785 0.019410018
0.10168432 -0.0599257 -0.05488466 0.13612534 -0.013645039 0.026169913 0.07235836 0.059968077
00000000: 73b2 223e 41be 9cbc da23 26be 382c 24bd
00000010: 0962 113d 34d5 e3bd 7398 3dbe aa2e a6bd
00000020: 6276 833d 8478 5dbd eb1a 2dbe a6ae 90bc
00000030: 2ea9 afbc c087 15bd 68ec 893d 90c3 8bbc
00000040: ac23 483e af88 1b3d a704 b43d 1c23 47be
00000050: 6ecf f33d 5caa 1fbc 6268 fbbb 469b c13d
00000060: 5ffa 19bc f615 983d 028e 8dbe c1ab a13d
00000070: 1efd 803c 8b6c 7dbd d52b 533e dd57 e93d
00000080: fb5c 043d d28a a93e abb1 103e 1bf5 7c3d
00000090: d81f 8b3d f536 a23d 86f6 93bd 9ef5 303e
000000a0: 2b17 37bc 5e2c f13c 67e9 913c 3121 8b3d
000000b0: 8a2d 9abc 19eb 85bd e66b 183e ec11 2d3d
000000c0: 6ba8 97bd dab0 b2bd b30c 173e fda7 7e3d
000000d0: 78a7 70bc 9dbd e83d 95dd f3bc 840f 4dbd
000000e0: 1ed1 08be 4e2f 8f3d e7f0 f3bc 51be 653e
000000f0: 7deb d73d c467 863c 2d7e 433e 4676 ddbb
00000100: 830f 66bd 9c9d bc3b 5517 aa3e 25e0 c5bd
00000110: ca72 debd 134c c33d cb32 0cbd 2a24 78bd
00000120: 42a4 013e a5c6 4a3d c590 28be 3456 533e
00000130: 08c3 2cbd a28a 853e 2f35 c9ba 5718 fbbc
00000140: ba33 30be 03ae 18bd d406 babd c9a7 853e
00000150: 9c47 e03d b9b7 2fbc 671a 0d3e b3c2 523d
00000160: 8dae d5bc aff5 853d 8aa9 fa3c 4d7e 8cbb
00000170: 6442 25be 92a5 97bd adf4 873e 3d20 773e
00000180: 33a6 863d 4b84 ecbd 6714 cbbc 543d 983d
00000190: 9cd3 eabc 5dd9 e6be 593f dbbe 9e27 ecbc
000001a0: 6004 1b3c 8751 7c3e 436d 293e 9609 9b3d
000001b0: b892 abbd b728 05bd 38c8 253e 2089 1fbd
000001c0: d5c9 28bb bc80 793e e5a7 88bc 2fff 103e
000001d0: 67f8 c83d 1b09 a2bd 29b7 4f3d c201 9f3c
000001e0: de3f d03d a774 75bd bdce 60bd 7164 0b3e
000001f0: 718f 5fbc 4962 d63c 9f30 943d 16a1 753d

fc4.weight f4 [32, 128]
-0.17370075 0.11984183 0.01624701 0.07119619 -0.06192673 0.098311834 -0.060676277 0.05684675
-0.051741585 0.051468365 0.10414893 -0.10622048 0.13890478 -0.032371514 -0.064166486 0.04949739
-0.196765 0.098567225 0.15971851 -0.1851196 -0.025438849 0.036261637 -0.07322572 0.13474931
0.12627873 0.08913865 -0.043794412 -0.069419175 0.19588432 0.07380419 -0.2528216 0.13161388
0.16894855 0.013474154 0.10812812 0.14485262 0.20074064 0.11845957 -0.25475818 -0.082944654
-0.0070561767 0.15836355 0.21836074 0.18140471 -0.28960794 0.07748267 0.05141271 0.18409315
-0.037326764 -0.026212694 0.20398591 0.16062093 0.18001884 0.14932612 0.06274133 0.10724485
0.13511337 0.115326285 0.017272444 -0.101748385 -0.45366192 0.05418981 -0.19879559 0.14276274
0.01130492 0.16539612 0.1543963 0.09213089 0.06801899 -0.07512314 0.2329259 0.041383337
-0.23163022 0.0856743 0.08701658 -0.14021719 0.10573232 0.15570968 -0.06623475 0.097445495
-0.38279682 0.02736065 0.08297253 -0.13047479 -0.15972593 0.24140942 -0.23832783 -0.050577708
0.08062863 0.11237132 0.10284035 0.09325643 0.13798404 -0.043129344 -0.005057492 0.08455248
0.1973798 0.28647038 0.04948429 -0.025221573 0.08195019 -0.16659291 -0.19517125 0.05849936
0.17879356 -0.1611038 -0.009828607 -0.22952262 -0.04489738 0.13139595 0.06618809 0.034347516
0.24173193 0.19182374 0.11359044 0.06949594 0.21144563 -0.046758145 0.08004931 0.105590574
0.17836043 -0.07014623 0.0075390097 0.23406503 0.03701154 0.0049944962 -0.23132734 0.22493593
-0.13258743 -0.03657252 0.011711754 0.005217695 -0.029564286 0.17654194 -0.034949414 -0.043503296
-0.019559775 -0.06632084 -0.13819927 0.23484665 -0.019485468 0.058425907 0.05061728 -0.06663218
0.10117531 0.06956707 0.08645805 0.77367276 -0.043317184 -0.0064642867 -0.043115787 0.015251507
-0.09825515 0.031696398 0.23931049 -0.16870284 -0.082668714 0.05997863 -0.10066849 -0.07038165
0.20215659 0.30955744 0.044432543 -0.117782205 0.19026475 -0.002603637 0.2842049 0.3986959
0.044688217 0.06403184 -0.08519759 0.003769499 0.6585629 -0.0695646 -0.10391371 -0.0074300356
-0.08062745 -0.05945279 0.10867884 -0.133573 0.031888258 0.012763896 -0.009401358 -0.048660163
-0.009951234 0.007738508 -0.036735803 -0.09096748 0.14930445 -0.06322612 -0.19545808 0.07592433
-0.013332309 0.03902335 0.019958608 0.059117135 -0.21778741 0.27473897 0.49299413 -0.13884403
0.04717788 -0.037965268 0.0225901 -0.15809979 -0.09847523 -0.17481866 0.06551444 0.0023553558
0.367264 0.03127564 -0.0695852 -0.12443768 -0.006929168 -0.07941634 -0.01337281 -0.049674634
0.066230066 0.108201355 -0.13144056 0.054378364 -0.030054467 -0.061204158 0.08713085 0.33443534
0.106526874 0.052418385 0.50467896 0.0910991 0.024076998 0.7660223 0.38982615 0.0746567
0.1857545 -0.23709507 -0.23154074 0.42518565 -0.003870898 0.085305534 0.22439979 -0.30269226
0.0060023954 -0.0047558467 0.021270772 0.024735695 -0.038988568 0.03998982 0.14106254 0.0451949
0.16791949 -0.02860796 0.08685241 -0.0529702 0.27167183 0.035447855 0.20677817 0.027555976
00000000: 9cde 31be a26f f53d 7318 853c 4fcf 913d
00000010: e2a6 7dbd b757 c93d b087 78bd 23d8 683d
00000020: fcee 53bd 7ed0 523d 094c d53d 1f8a d9bd
00000030: 0e3d 0e3e fe97 04bd b869 83bd c6bd 4a3d
00000040: c47c 49be 9ddd c93d 408d 233e fe8f 3dbe
00000050: 2265 d0bc 1587 143d 5ef7 95bd b9fb 093e
00000060: 364f 013e 538e b63d c561 33bd a42b 8ebd
00000070: e695 483e a726 973d d571 81be cac5 063e
00000080: d900 2d3e b3c2 5c3c 4772 dd3d 3f54 143e
00000090: f48e 4d3e ee9a f23d aa6f 82be e3de a9bd
000000a0: 8037 e7bb 0e2a 223e f599 5f3e 28c2 393e
000000b0: 7e47 94be 3caf 9e3d 2296 523d ea82 3c3e
000000c0: f3e3 18bd 01bc d6bc afe1 503e d079 243e
000000d0: dc56 383e f2e8 183e 877e 803d 30a3 db3d
000000e0: 295b 0a3e 3030 ec3d f17e 8d3c 7561 d0bd
000000f0: 6046 e8be 22f6 5d3d 1291 4bbe 6530 123e
00000100: 4538 393c 9a5d 293e 101a 1e3e 1faf bc3d
00000110: 8a4d 8b3d 29da 99bd 2184 6e3e 9381 293d
00000120: 7930 6dbe 0276 af3d c035 b23d 1895 0fbe
00000130: 308a d83d 5c72 1f3e 16a6 87bd 8191 c73d
00000140: f2fd c3be 7123 e03c 80ed a93d 2f9b 05be
00000150: 328f 23be 0834 773e 360c 74be 922a 4fbd
00000160: a020 a53d ef22 e63d f69d d23d 3afd be3d
00000170: b04b 0d3e 65a8 30bd 51b9 a5bb da29 ad3d
00000180: ee1d 4a3e 3fac 923e 0ab0 4a3d 799d cebc
00000190: 80d5 a73d 5597 2abe f9da 47be 069d 6f3d
000001a0: a915 373e 65f8 24be 2a08 21bc fa07 6bbe
000001b0: 51e6 37bd a98c 063e 9f8d 873d fbaf 0c3d
000001c0: 9388 773e 716d 443e 1ba2 e83d e353 8e3d
000001d0: 3485 583e 7885 3fbd e5f0 a33d df3f d83d
000001e0: 1ea4 363e d4a8 8fbd cc09 f73b beae 6f3e
000001f0: 6a99 173d dfa8 a33b 13e1 6cbe 9b55 663e
00000200: 00c5 07be 11cd 15bd a8e2 3f3c 33f9 aa3b
00000210: cd30 f2bc 69c7 343e 1e27 0fbd 8330 32bd
00000220: d23b a0bc 38d3 87bd 1c84 0dbe a47b 703e
00000230: fd9f 9fbc 0150 6f3d 1154 4f3d 7476 88bd
00000240: 0035 cf3d 2e79 8e3d eb10 b13d 6b0f 463f
00000250: 5c6d 31bd 5ed2 d3bb 2e9a 30bd 75e1 793c
00000260: ff39 c9bd 15d4 013d cf0d 753e 70c0 2cbe
00000270: 374e a9bd 27ac 753d 482b cebd 4124 90bd
00000280: 2302 4f3e 507e 9e3e e6fe 353d cc37 f1bd
00000290: c3d4 423e c8a1 2abb 4e83 913e de21 cc3e
000002a0: fe0a 373d 2023 833d 137c aebd b309 773b
000002b0: 9497 283f e377 8ebd b6d0 d4bd a877 f3bb
000002c0: 0120 a5bd c584 73bd 0393 de3d 5cc7 08be
000002d0: 439d 023d a91f 513c 2708 1abc e14f 47bd
000002e0: 800a 23bc 4f93 fd3b 4878 16bd 284d babd
000002f0: 44e3 183e b27c 81bd 2a26 48be 377e 9b3d
00000300: c26f 5abc f3d6 1f3d 3c80 a33c cf24 723d
00000310: aa03 5fbe 96aa 8c3e ba69 fc3e 212d 0ebe
00000320: 983d 413d 7881 1bbd e00e b93c e9e4 21be
00000330: 62ad c9bd aa03 33be 6f2c 863d 505c 1a3b
00000340: 070a bc3e e31a 003d af82 8ebd 2fd9 febd
00000350: 130e e3bb 09a5 a2bd a119 5bbc a177 4bbd
00000360: a1a3 873d ac98 dd3d 5b98 06be d9bb 5e3d
00000370: c934 f6bc 36b1 7abd a971 b23d 1c3b ab3e
00000380: c32a da3d a9b4 563d a432 013f 2a92 ba3d
00000390: 203d c53c 0a1a 443f 4b97 c73e 9de5 983d
000003a0: 6d36 3e3e 0dc9 72be 0419 6dbe efb1 d93e
000003b0: e4ae 7dbb abb4 ae3d 0fc9 653e 7bfa 9abe
000003c0: beaf c43b efd6 9bbb 0b40 ae3c 83a2 ca3c
000003d0: 7ab2 1fbd 5ecc 233d b372 103e 4a1e 393d
000003e0: 16f3 2b3e 3e5b eabc addf b13d 48f7 58bd
000003f0: 9218 8b3e c531 113d a8bd 533e 12bd e13c

fc4.bias f4 [32]
0.08825886 -0.112626016 0.12466654 0.047160067 0.18731965 -0.047957685 -0.2741729 0.27138084
0.21837614 -0.020480461 -0.0041568717 -0.03661987 0.20761155 -0.24236976 0.02328501 0.30888766
-0.16240373 0.2789485 0.20039685 0.3701642 0.102061026 -0.033624843 -0.037508894 -0.29183093
-0.013783093 -0.23722786 -0.052421957 -0.02912583 0.068235844 -0.054347865 -0.024850301 -0.08878883
00000000: 10c1 b43d 78a8 e6bd 2c51 ff3d ea2a 413d
00000010: b9d0 3f3e 476f 44bd 6460 8cbe 6ef2 8a3e
00000020: ff9d 5f3e a4c6 a7bc 5e36 88bb b8fe 15bd
00000030: 1f98 543e c72f 78be 35c0 be3c 8626 9e3e
00000040: 2a4d 26be 56d2 8e3e d534 4d3e 2986 bd3e
00000050: 5f05 d13d 34ba 09bd eda2 19bd dd6a 95be
00000060: 7bd2 61bc dceb 72be 68b8 56bd 4b99 eebc
00000070: 3cbf 8b3d de9b 5ebd dc92 cbbc ebd6 b5bd

fc5.weight f4 [4, 32]
-0.115863666 -0.1553749 -0.15834793 0.15527898 0.010605334 -0.13954957 -0.4061057 0.26467046
-0.024139015 0.06617793 -0.1179066 -0.25292024 0.5321921 0.30415455 -0.18698369 0.40686318
-0.2785986 0.2430606 0.72128206 0.648829 -0.042579792 0.009789405 0.06974887 -0.1888271
-0.167542 -0.26926535 -0.022711605 -0.2918246 -0.007110941 -0.055996135 -0.12995988 -0.15950623
-0.25215587 0.28516212 -0.39277378 -0.018713994 -0.11253823 0.11454186 0.19799934 0.56895125
-0.26932982 0.16493933 -0.041015815 -0.17135504 0.4687388 0.09660057 -0.18732122 -0.027046284
0.0036427637 0.5318397 0.3776772 0.102500595 -0.31198302 -0.0991377 0.11388753 0.14213347
0.071572244 -0.24889372 0.16663985 -0.296412 -0.20336288 0.02877517 0.19346896 0.13741754
-0.26679444 -0.2568838 -0.17717105 -0.10504294 -0.39277646 0.13661504 0.025918104 0.33964324
-0.22524941 -0.13621482 0.17885241 -0.23645051 0.33738923 0.76290065 -0.046005163 -0.059554458
-0.26858154 0.74114496 0.22151677 0.37993518 -0.13725221 -0.07036438 -0.06624004 -0.21248005
-0.144848 0.18251264 -0.02834399 -0.13069092 -0.29156622 0.1440806 -0.12813926 0.18150972
-0.26057675 0.28251743 0.3705497 0.06836569 0.142682 -0.06334791 -0.17309974 0.48642808
-0.364988 0.009584633 -0.09132143 -0.34684017 0.5886202 -0.9474076 -0.309887 -0.42155573
-0.032651395 0.26569343 0.22362019 0.45152232 -0.19498688 -0.025204787 0.024938347 0.15782279
-0.30512062 -0.058693755 -0.1670841 0.079980746 -0.135056 0.16626142 0.2029462 -0.14198546
00000000: ee49 edbd 991a 1fbe f625 22be 7401 1f3e
00000010: ffc1 2d3c 15e6 0ebe 16ed cfbe e382 873e
00000020: 2fbf c5bc 4b88 873d 0479 f1bd c37e 81be
00000030: be3d 083f 25ba 9b3e a778 3fbe 5f50 d03e
00000040: 7aa4 8ebe e1e4 783e f1a5 383f a819 263f
00000050: 2668 2ebd be63 203c 7fd8 8e3d e45b 41be
00000060: 2190 2bbe 26dd 89be b00d babc 096a 95be
00000070: e602 e9bb 345c 65bd 3414 05be 9a55 23be
00000080: 931a 81be c500 923e a519 c9be 174e 99bc
00000090: 727a e6bd ec94 ea3d 57c0 4a3e caa6 113f
000000a0: 99e5 89be dbe5 283e 3300 28bd b277 2fbe
000000b0: 88fe ef3e 85d6 c53d 22d1 3fbe 2b90 ddbc
000000c0: 6fbb 6e3b a626 083f e85e c13e d5eb d13d
000000d0: 3dbc 9fbe b508 cbbd de3d e93d 708b 113e
000000e0: 7894 923d ffdd 7ebe a3a3 2a3e 50c3 97be
000000f0: 5c3e 50be e8b9 eb3c ba1c 463e 2fb7 0c3e
00000100: 4899 88be 4686 83be 546c 35be c120 d7bd
00000110: ff19 c9be d0e4 0b3e 3452 d43c b8e5 ad3e
00000120: c8a7 66be e67b 0bbe 1625 373e 1520 72be
00000130: 48be ac3e 754d 433f e96f 3cbd 60ef 73bd
00000140: 8583 89be adbb 3d3f 4bd5 623e dd86 c23e
00000150: d88b 0cbe 331b 90bd dca8 87bd 5f94 59be
00000160: 0953 14be 98e4 3a3e a831 e8bc d7d3 05be
00000170: 2b48 95be dd89 133e f036 03be afdd 393e
00000180: 516a 85be 20a6 903e b1b8 bd3e 5003 8c3d
00000190: 3b1b 123e 8dbc 81bd 0f41 31be 1a0d f93e
000001a0: b5df babe dd08 1d3c bb06 bbbd 0995 b1be
000001b0: d0af 163f 4e89 72bf 82a9 9ebe 27d6 d7be
000001c0: 78bd 05bd f808 883e b1fc 643e ef2d e73e
000001d0: a4aa 47be 457a cebc 814b cc3c 4c9c 213e
000001e0: c538 9cbe dd68 70bd 1818 2bbe f2cc a33d
000001f0: 1f4c 0abe 6f40 2a3e 21d1 4f3e a364 11be

fc5.bias f4 [4]
0.43197587 -0.14847852 -0.11143053 -0.14245155
00000000: f12b dd3e c10a 18be b135 e4bd d2de 11be
