DQN_models/model_static_updaterate1000_gamma0.99_alpha0.001_dynamic.pt (torch, 416851 bytes, 10 tensors)

fc1.weight f4 [128, 514]
0	0x3b008b20	0.0019614175
1	0x3ccfc3a8	0.02536185
2	0x3a7de900	0.0009685904
3	0x3c8b1084	0.016975649
4	0xbc453660	-0.01203689
5	0xbc80f0f7	-0.015739901
6	0x3bf4bd80	0.007468879
7	0x3d142bc4	0.03617455
8	0xbcb9de3d	-0.02268898
9	0xbcf787b1	-0.03021607
10	0xbc44a3e8	-0.012001969
11	0x3cec6468	0.028856471
12	0xbcb63f0b	-0.022246858
13	0xbc1f2a78	-0.009714715
14	0x3c029a94	0.007971425
15	0xbb35e1f0	-0.0027753077
16	0x3d16d91e	0.036828153
17	0xbcd3df85	-0.025863418
18	0x3c663eb4	0.0140530355
19	0x3cf9d684	0.030497797
20	0xbd0f23c5	-0.03494622
21	0x3d1fca4e	0.039011292
22	0x3ceab340	0.028649926
23	0x3d1d0af2	0.038340516
24	0xbc2bb4e3	-0.0104801385
25	0x3d57322a	0.052538075
26	0xbe8e2da2	-0.2776919
27	0xbe360faf	-0.1777942
28	0xbe9eeb17	-0.31038734
29	0x3e80f4fb	0.25186905
30	0xbdcbfb14	-0.09959999
31	0x3d878150	0.06616461
32	0xbe92afe7	-0.28649828
33	0x3d25a4a5	0.04044022
34	0xbda1be2c	-0.078976005
35	0xbd51e362	-0.05124224
36	0xbedf9ce2	-0.4367438
37	0xbe867428	-0.26260495
38	0xbc1df2a4	-0.00964037
39	0xbe818d9e	-0.25303358
40	0xbe8aa775	-0.27080885
41	0xbe2a6bde	-0.1664271
42	0x3ca2a118	0.019852206
43	0xbc976a81	-0.018483402
44	0xbc067684	-0.008206967
45	0x3bf4e620	0.007473722
46	0xbe9b85f6	-0.30375642
47	0xbb86f4dc	-0.004118545
48	0xbda58da0	-0.080836535
49	0xbe3f8747	-0.18703948
50	0xbe9d9566	-0.30778044
51	0xbe8cf227	-0.27528498
52	0xbd85846a	-0.065193966
53	0xbe3a70d7	-0.18207107
54	0x3d8bd7e3	0.068282865
55	0xbbb3a924	-0.0054828096
56	0x3dc5f2f3	0.096654795
57	0xbb49c650	-0.003078837
58	0x3aacad25	0.001317416
59	0xbe543c34	-0.2072609
60	0xbe0d32fc	-0.1378898
61	0xbe0cff12	-0.13769177
62	0x3a44abc5	0.00075024023
63	0x3e1ac4fe	0.15114209
64	0x3c4992d4	0.012303073
65	0xbcc87daf	-0.024473993
66	0x3b0c3080	0.0021391213
67	0xbd2556bf	-0.04036593
68	0x3ddd0fba	0.10794015
69	0xbe2b58e9	-0.16733135
70	0xbe7aaa51	-0.24479033
71	0x3ce1a378	0.027543768
72	0xbd0a585c	-0.033775672
73	0x3efa47b5	0.48882833
74	0x3eaa821e	0.33302397
75	0x3e7a9165	0.24469526
76	0x3cf99764	0.030467696
77	0xbbd77818	-0.0065755956
78	0x3baf4b78	0.0053495727
79	0x3c932444	0.017961629
80	0x3c037ef8	0.008025877
81	0x3c4e32b0	0.012585327
82	0xbcb462b8	-0.022019729
83	0x3ed99f57	0.4250438
84	0xbdfd1a51	-0.12358535
85	0xbd8a8d9f	-0.06765293
86	0xbc4170b4	-0.011806656
87	0x3c822624	0.015887327
88	0x3cc1980c	0.023632072
89	0xbcc6c8ea	-0.024265725
90	0xbe813996	-0.25239247
91	0x3d58af76	0.052901708
92	0x3d7d5351	0.061847035
93	0xbbcd30e0	-0.00626193
94	0x3d0ef074	0.034897283
95	0x3f9d4f04	1.2289739
96	0x3fb08954	1.3791909
97	0x3baea56d	0.005329779
98	0xbbef3788	-0.007300321
99	0x3bef3200	0.0072996616
100	0x3e990c73	0.2989231
101	0xbc1f15c7	-0.009709782
102	0x3e7dc76a	0.24783102
103	0x3d1eaef4	0.038741067
104	0xbc512ad8	-0.012766562
105	0xbe9dc71e	-0.30815977
106	0xbe948a22	-0.29011637
107	0xbbacf688	-0.0052784123
108	0x3cf1d5c8	0.029520884
109	0xbc9559ec	-0.018231355
110	0xbcc0c9e5	-0.02353377
111	0xbcf4fc1b	-0.02990537
112	0xbe6c94c6	-0.23103628
113	0xbba24ddd	-0.0049531297
114	0x3cc995d9	0.024607586
115	0x3d02ec2c	0.031963512
116	0xbc65dadc	-0.014029231
117	0x3f769a18	0.9632888
118	0xbe965729	-0.29363373
119	0x3e8e40e8	0.27783895
120	0x3d09a5e6	0.03360548
121	0x3cb28400	0.021791458
122	0x3cdd5eb8	0.027022704
123	0x3ed4805b	0.41504177
124	0x3eab434a	0.33449775
125	0xbada8780	-0.0016672462
126	0xbd12a1d3	-0.03579886
127	0xbeb08a8a	-0.34480697
128	0xbda83f9c	-0.082152575
129	0xbe8ca2d6	-0.27467984
130	0xbbe04778	-0.0068444572
131	0x3d275db8	0.04086086
132	0x3c834016	0.01602177
133	0xbd1976c1	-0.03746677
134	0xbe3693c5	-0.17829807
135	0xbe5bf4f5	-0.21480162
136	0xbe68ed4e	-0.22746775
137	0xba181340	-0.00058012083
138	0xbd2bd0dc	-0.04194723
139	0xbd859d7b	-0.06524178
140	0xbd8a0390	-0.06738961
141	0xbe0f1552	-0.13972977
142	0xbb24f080	-0.0025167763
143	0x3cf04238	0.02932845
144	0x3c6e5646	0.014546936
145	0x3e8e2397	0.27761528
146	0x3ef50108	0.4785235
147	0x3c5bd7d8	0.01341816
148	0xbc48a814	-0.012247104
149	0xbe65ce73	-0.22442035
150	0xbe118125	-0.14209421
151	0xbea89c80	-0.329319
152	0xbb7d6210	-0.0038663186
153	0x3c7b1e60	0.015327066
154	0xbcbefba2	-0.023313347
155	0xbc70a174	-0.014686931
156	0xbe3f3d10	-0.18675637
157	0xbdb9c149	-0.09070069
158	0xbe39cffc	-0.18145746
159	0x3ccfb6f4	0.025355794
160	0x3cec3454	0.028833546
161	0x3f1de594	0.61678433
162	0xbe4a379c	-0.19747776
163	0xbd9f3895	-0.07774464
164	0xbcaa22d4	-0.02076856
165	0xbcade66a	-0.021228034
166	0x3cb680d6	0.02227823
167	0xbdafbd54	-0.08581033
168	0x3f3a143a	0.72687113
169	0xbcedff36	-0.029052358
170	0xbc8d94ca	-0.017282862
171	0x3e8f0978	0.27936912
172	0xbf00428b	-0.50101537
173	0xbd5a41b2	-0.05328531
174	0x3b6e5160	0.0036364421
175	0x3b839a50	0.004016198
176	0x3c6cb414	0.014447231
177	0x3cac59fc	0.021039002
178	0xbdd46c74	-0.10372248
179	0xbe10e303	-0.14149098
180	0xbe40e953	-0.18839006
181	0xbd028c96	-0.031872354
182	0xbcd3c977	-0.025852902
183	0x3d7e6b2c	0.062113926
184	0xbe343065	-0.17596586
185	0xbd98178d	-0.07426367
186	0x3d148ef6	0.03626915
187	0x3d2725ee	0.040807657
188	0x3d1d8e97	0.038466062
189	0x3d6f6512	0.058445998
190	0x3d702e94	0.05863817
191	0x3c920fbc	0.017829768
192	0xbd125bbe	-0.035732023
193	0x3e30d3b5	0.1726826
194	0xbec767e9	-0.38946465
195	0xbe87754a	-0.26456672
196	0x3d1776d4	0.036978558
197	0x3b0f2670	0.002184298
198	0xbd20bffd	-0.039245594
199	0x3a6ce9c0	0.0009037517
200	0xbdc6d051	-0.09707702
201	0xbdb7c0f0	-0.08972347
202	0xbe055dc2	-0.13024047
203	0x3d2b2d68	0.04179135
204	0x3d03321c	0.03203021
205	0xbe9028f1	-0.28156236
206	0xbe94e430	-0.29080343
207	0xbe90667f	-0.28203198
208	0xbd30faf4	-0.043208078
209	0xbc04198c	-0.0080627315
210	0x3b3f82c6	0.0029222234
211	0xbd6ccba5	-0.057811398
212	0x3d20a944	0.039223924
213	0xbcb8cc29	-0.022558289
214	0xbb84afc0	-0.0040492713
215	0xbe636b9f	-0.22209023
216	0xbdb6c2f8	-0.08923906
217	0xbe395aa6	-0.18100986
218	0x3d3304ae	0.043705635
219	0xbc8e3334	-0.0173584
220	0x3d0e6530	0.03476447
221	0x3c9729c8	0.01845254
222	0xbe10beb7	-0.14135252
223	0x3c1aa9f8	0.009439938
224	0xbe989f03	-0.29808816
225	0x3d13ef20	0.03611672
226	0x3d00f1de	0.031480663
227	0xbdf0e21e	-0.117618784
228	0xbe8a83cc	-0.27053678
229	0xbe90e81d	-0.28302088
230	0xbcbeb1fe	-0.023278233
231	0xbc0abf1c	-0.008468416
232	0xbe6abe97	-0.22924267
233	0xbe515126	-0.20441112
234	0x3f8d45b7	1.10369
235	0x3d21f5b2	0.039540954
236	0x3c36d818	0.011159919
237	0x3ef39331	0.47573236
238	0x3f3b6889	0.73206383
239	0xbeaaac6c	-0.33334672
240	0x3c1aa520	0.009438783
241	0x3c8c8c68	0.017156795
242	0xbd088c2f	-0.033336814
243	0x3d04d97e	0.03243398
244	0xbe8d66c4	-0.27617466
245	0x3cc68d70	0.024237365
246	0xbd8aa2cf	-0.067693345
247	0x3d2c9422	0.042133458
248	0xbd2d6d6e	-0.04234069
249	0xbefdad79	-0.49546412
250	0xbea9c1d6	-0.33155698
251	0xbe5ce0ce	-0.21570131
252	0xbc546726	-0.012964046
253	0x3a11b840	0.00055587664
254	0xbe0ea0c5	-0.13928516
255	0xbeaae9ce	-0.33381504

fc1.bias f4 [128]
0	0xbf04bfd4	-0.51855206
1	0xbdaf4cc2	-0.08559562
2	0x3f0a7feb	0.5410144
3	0x3e97dad1	0.2965913
4	0x3e07cb7c	0.13261217
5	0xbf53ce13	-0.8273632
6	0xbf5f7097	-0.87281173
7	0xbf61e087	-0.88233227
8	0xbef507d5	-0.47857538
9	0xbf3e5a58	-0.74356604
10	0x3e981ec8	0.29710984
11	0xbd864584	-0.06556228
12	0xbe7c03c8	-0.24610817
13	0xbdc720f0	-0.09723079
14	0xbee8b264	-0.454486
15	0xbedd56db	-0.43230328
16	0xbf20c21f	-0.62796205
17	0x3e91aa52	0.28450257
18	0x3eda6856	0.42657727
19	0x3dbeb9e4	0.093127996
20	0xbf499e24	-0.7875693
21	0x3fa105ea	1.257993
22	0xbeea718a	-0.45789748
23	0xbe920043	-0.28515825
24	0x3cb13209	0.021630304
25	0xbda4ca29	-0.080463715
26	0xbe1935c0	-0.1496191
27	0x3f78b564	0.9715178
28	0x3fd5a749	1.6691676
29	0xbf6d7f73	-0.927726
30	0x3f10b795	0.56530124
31	0xbe89b5f3	-0.2689663
32	0xbeb68aaf	-0.35652682
33	0xbe96ea07	-0.29475424
34	0xbe7d4a7f	-0.24735449
35	0xbf2e3c41	-0.6806069
36	0xbe69c0f5	-0.22827514
37	0xbd9ac70c	-0.075574964
38	0xbf8c0552	-1.0939124
39	0xbf311be6	-0.69183195
40	0xbec0b643	-0.37639055
41	0x3dfc5994	0.12321773
42	0xbf6728f2	-0.9029685
43	0x3f1ffab0	0.62491894
44	0xbf1b9bbf	-0.60784525
45	0xbf17b969	-0.5926729
46	0x3f929476	1.1451557
47	0x3ddd4e86	0.10805993
48	0x3e653cbb	0.22386448
49	0xbf6145e6	-0.8799728
50	0xbf268e7c	-0.65061164
51	0xbf6bf291	-0.92167
52	0xbdd43bbe	-0.103629574
53	0xbf855b4c	-1.0418487
54	0x3df9441b	0.12171193
55	0xbea4b0b5	-0.32166067
56	0x3f0f7b26	0.56047285
57	0xbdafd262	-0.08585049
58	0xbea93924	-0.33051407
59	0xbf74d538	-0.95637846
60	0xbefbb641	-0.49162486
61	0x3fee6aa9	1.86263
62	0xbf0a1a62	-0.53946507
63	0xbf26f211	-0.65213114
64	0xbf9ac8c1	-1.2092515
65	0xbe27782b	-0.16354434
66	0xbf011898	-0.5042815
67	0xbee3e574	-0.44510996
68	0xbf2fc0cd	-0.68653566
69	0x3eddf5a1	0.43351462
70	0x3df9e51f	0.122019045
71	0x3f0fea4b	0.5621688
72	0x3fcaf888	1.5857096
73	0x3d0d7ebb	0.034544688
74	0xbf702624	-0.938082
75	0xbf15d286	-0.5852436
76	0xbf8ad359	-1.0845748
77	0x3eb7a166	0.35865325
78	0x3e561d4f	0.20909618
79	0xbea5f90a	-0.32416564
80	0xbf4c73a9	-0.79863983
81	0xbf4ee829	-0.80823
82	0x3faa860c	1.3322158
83	0x3f4de0c1	0.8042107
84	0xbe988d6b	-0.29795393
85	0xbf118c7b	-0.5685498
86	0xbeeef7cd	-0.46673432
87	0xbedc3afa	-0.43013746
88	0xbf73d59a	-0.95247805
89	0xbe4d9fac	-0.20080441
90	0x3fda4d03	1.7054752
91	0x3e9f6d29	0.3113797
92	0x3fc37e2f	1.5272883
93	0xbe88b842	-0.26703078
94	0x3ef0fdda	0.47068673
95	0x3f499bc4	0.78753304
96	0xbe5f5c84	-0.21812636
97	0x3fb2ccdd	1.3968769
98	0xbf452ed7	-0.77024597
99	0x3f47bed3	0.7802555
100	0xbeed23c0	-0.46316338
101	0x3dee285a	0.1162879
102	0xbec324e1	-0.38114074
103	0xbf287175	-0.6579812
104	0xbef5a529	-0.4797757
105	0x3e82293b	0.2542208
106	0xbe73378f	-0.23751663
107	0x3da2bc27	0.079460435
108	0x3fae9841	1.3640214
109	0x3f46a8b5	0.77601177
110	0xbeea91cf	-0.45814368
111	0xbf1647ca	-0.5870329
112	0x3df8e806	0.1215363
113	0xbf52660b	-0.82186955
114	0xbf183800	-0.5946045
115	0xbf2109c7	-0.62905544
116	0x3e131edf	0.14367245
117	0xbe7287d1	-0.23684622
118	0xbe971593	-0.29508647
119	0x3d7a0fb2	0.061050124
120	0xbc086b1c	-0.008326318
121	0xbef96c13	-0.48715267
122	0xbf3ff0b3	-0.7497665
123	0x3f48dbcc	0.78460383
124	0xbf93f22e	-1.1558282
125	0xbf82125c	-1.0161853
126	0xbf03da4e	-0.5150498
127	0xbf0bf6fe	-0.54673755

fc2.weight f4 [128, 128]
0	0x3e2fc43c	0.17164701
1	0x3d7082bb	0.058718424
2	0xbf4e4370	-0.8057165
3	0x3dc79e4a	0.09746988
4	0x3d9604ae	0.07325111
5	0xbf9fa410	-1.2471943
6	0x3e4ac64a	0.19802204
7	0x3f4d10a4	0.80103517
8	0xbf15f274	-0.5857308
9	0x3e1e8faf	0.15484498
10	0x3e1ee064	0.15515286
11	0xbe3f234e	-0.18665811
12	0x3ea1b830	0.31585836
13	0x3d403fcd	0.046935845
14	0x3ee9dfab	0.45678458
15	0xbd92b074	-0.07162562
16	0x3ca3127e	0.019906279
17	0xbf39910d	-0.72486955
18	0xbf5535f7	-0.8328547
19	0xbf7bfd26	-0.9843315
20	0xbe98c561	-0.29838088
21	0xbed6ea0f	-0.41975448
22	0xbd97e130	-0.07415998
23	0xbdf34fc2	-0.11880447
24	0x3e0a46db	0.13503592
25	0x3e82a61b	0.25517353
26	0xbf39864b	-0.7247054
27	0xbc5be18d	-0.013420475
28	0xbf511666	-0.816748
29	0xbe0e3920	-0.13888979
30	0x3c067f82	0.008209111
31	0x3ed39a96	0.41328877
32	0xbf3d4390	-0.7393122
33	0xbdb37536	-0.087625906
34	0x3ef3747b	0.47549805
35	0xbd9be9c0	-0.07612944
36	0xbfc31f36	-1.52439
37	0x3deada01	0.11467362
38	0x3f27e27a	0.6557995
39	0x3e4a23fe	0.19740292
40	0xbe84d7f5	-0.25946012
41	0xbf0fd2ec	-0.56181216
42	0x3e27b953	0.1637929
43	0xbe9c6afd	-0.30550376
44	0x3f5ff41a	0.87481844
45	0xbe6e89b2	-0.23294714
46	0xbebb14fa	-0.3653944
47	0xbf60effc	-0.8786619
48	0xbc964e6e	-0.018347945
49	0x3f20fa0e	0.62881553
50	0x3efa65bc	0.48905742
51	0xbe48fe2c	-0.19628209
52	0x3f0fbfc1	0.5615197
53	0x3ed3e83b	0.41388115
54	0x3f0f37c2	0.55944455
55	0xbd83fdc5	-0.06444887
56	0x3e526987	0.20548068
57	0xbd27e467	-0.040989306
58	0xbf5963b7	-0.8491778
59	0x3f5a1d53	0.85200995
60	0xbeb005cf	-0.34379432
61	0x3e2cd526	0.16878185
62	0x3d240ff8	0.04005429
63	0xbf459e17	-0.7719435
64	0x3ef1d1c8	0.47230363
65	0x3e956d04	0.29184735
66	0xbf0b061e	-0.5430621
67	0x3e3ec287	0.18628894
68	0xbf220f2e	-0.6330441
69	0xbf8166ec	-1.0109534
70	0x3dc3579b	0.09538194
71	0xbf9e8365	-1.2383848
72	0xbff9cb26	-1.9515121
73	0x3ec6f9ca	0.3886245
74	0xbee7acd2	-0.4524904
75	0xbebdb974	-0.37055552
76	0xbedd992f	-0.43280932
77	0x3f8da598	1.106616
78	0x3846ded1	4.7414393e-05
79	0x3f2f9145	0.6858104
80	0x3f6749e1	0.90347105
81	0xbe8db3b0	-0.27676153
82	0xbeae688b	-0.34064135
83	0xbfb219f5	-1.3914171
84	0xbf12df54	-0.5737202
85	0xbe5ad1ed	-0.21369143
86	0x3e884eae	0.26622528
87	0xbcfbe9b4	-0.030751087
88	0xbee2f3e9	-0.44326714
89	0x3f0231b5	0.50857097
90	0x3f84b9fb	1.0369257
91	0xbf01806e	-0.50586593
92	0xbf05299c	-0.52016616
93	0xbf1239d4	-0.5711949
94	0xbefd1c9a	-0.49435884
95	0xbf689f6a	-0.90868247
96	0x3ee26465	0.4421722
97	0x3e5e71d0	0.21723104
98	0xbf08e153	-0.5346882
99	0xbf1ce68d	-0.6128929
100	0xbf28beab	-0.65915936
101	0xbedbeb98	-0.4295318
102	0xbea1c080	-0.31592178
103	0xbf001dd1	-0.50045496
104	0xbf1d45ec	-0.6143482
105	0xbd46be54	-0.048521355
106	0x3ed6ab7e	0.41927713
107	0xbebd01ea	-0.36915523
108	0xbe142e2c	-0.14470738
109	0xbf4b0822	-0.79309285
110	0x3eb6f5d1	0.35734418
111	0x3e448054	0.19189578
112	0xbf36d61f	-0.7142047
113	0xbedf648a	-0.43631393
114	0xbe9c9f9b	-0.3059052
115	0x3e63fea6	0.2226511
116	0xbe2dff6b	-0.16991965
117	0xbf018230	-0.50589275
118	0x3f151bbd	0.5824545
119	0x3f0c978f	0.5491876
120	0xbe369407	-0.17829905
121	0xbea12704	-0.3147508
122	0xbc3429f0	-0.010996327
123	0xbf16b6fd	-0.5887297
124	0x3f39b4d0	0.7254152
125	0x3ed4403c	0.41455257
126	0x3ec72e46	0.3890249
127	0xbe8f1d22	-0.27951914
128	0x3f35e911	0.71058756
129	0xbdada773	-0.08479204
130	0xbc84f0c1	-0.016228082
131	0xbd00523c	-0.031328425
132	0xbc8a83b0	-0.016908497
133	0x3ef0e2d4	0.47048056
134	0xbe9c2e85	-0.30504242
135	0x3f321337	0.6956057
136	0x3f703aa8	0.938395
137	0xbee3b847	-0.4447653
138	0xbe09ec1f	-0.1346898
139	0x3e83cda1	0.2574282
140	0xbe08f8ac	-0.13376111
141	0x3d794880	0.060860157
142	0xbf01f156	-0.50758874
143	0xbe8f2bba	-0.27963048
144	0x3f5e56e6	0.86851346
145	0xbf189b57	-0.5961203
146	0xbd4fcc3b	-0.05073188
147	0x3d6a637d	0.057223786
148	0x3f927e8a	1.1444867
149	0x3f1452ce	0.5793885
150	0xbe1d3c67	-0.15355073
151	0xbd12b42e	-0.035816364
152	0x3f808875	1.0041643
153	0x3f146c29	0.5797754
154	0x3f872399	1.0557739
155	0x3e840c1f	0.25790498
156	0x3e94ee03	0.2908784
157	0xbdb2d5ef	-0.08732211
158	0xbe4da4ec	-0.20082444
159	0xbef81e03	-0.48460397
160	0x3f0218c1	0.5081902
161	0xbf100146	-0.56251943
162	0x3edaa1a9	0.42701462
163	0xbe2eb17b	-0.17059891
164	0xbf273091	-0.6530848
165	0xbd294bcb	-0.041332047
166	0x3ef29d18	0.47385478
167	0xbf0ff572	-0.56233895
168	0x3dcf63d4	0.101264626
169	0xbe64c761	-0.22341682
170	0xbe405381	-0.18781854
171	0x3f0bf848	0.5467572
172	0xbeb081c0	-0.3447399
173	0xbedd368b	-0.43205675
174	0x3ec78d81	0.38975146
175	0xbebb34f3	-0.36563835
176	0x3fac7b27	1.3475083
177	0x3f500f23	0.81273097
178	0xbe5cd53c	-0.21565717
179	0xbfb02ffc	-1.3764644
180	0xbf3d83eb	-0.74029416
181	0xbfb16a54	-1.3860574
182	0xbf0e76cd	-0.55650026
183	0x3e4b1542	0.19832328
184	0xbec87442	-0.39151198
185	0xbc5873e4	-0.013211224
186	0x3cc39e08	0.023879066
187	0xbe6411b9	-0.22272386
188	0x3e68c1a4	0.22730118
189	0xbe9fabd8	-0.31185794
190	0x3edd6e24	0.43248093
191	0xbf164bfc	-0.5870969
192	0xbeb90f20	-0.36144352
193	0xbe4d5055	-0.20050175
194	0xbdea06a0	-0.11427045
195	0x3eba2229	0.36354187
196	0x3e7c99bd	0.24668022
197	0x3e254589	0.16139807
198	0x3faf8f99	1.3715698
199	0xbf0ead31	-0.5573302
200	0x3ed07927	0.40717432
201	0x3fd655f8	1.6744986
202	0xbf251c27	-0.6449608
203	0xbea69e15	-0.32542482
204	0xbf20faa1	-0.6288243
205	0x3ebe197c	0.37128818
206	0x3e2bff4c	0.16796607
207	0xbe87bee9	-0.2651284
208	0x3f173e60	0.5907955
209	0xbf224790	-0.63390446
210	0xbd4f6659	-0.050634716
211	0x3f0b33da	0.54375994
212	0xbf18f7ac	-0.5975292
213	0xbf67fdab	-0.9062144
214	0xbd609400	-0.054828644
215	0xbe1a0615	-0.15041383
216	0x3ce548c6	0.027988803
217	0x3d8d1a7a	0.06889816
218	0xbe15daf9	-0.14634313
219	0x3f07447d	0.5283888
220	0xbdfa2885	-0.1221476
221	0x3f4ba9d5	0.7955602
222	0x3ec60290	0.3867383
223	0xbe192322	-0.14954808
224	0xbe3ef16d	-0.18646784
225	0x3e331590	0.17488694
226	0xbedf2e21	-0.4358988
227	0xbebda975	-0.37043348
228	0x3d9e9989	0.07744128
229	0x3f2d32ec	0.67655826
230	0x3f42af18	0.7604842
231	0x3ddd4a07	0.10805135
232	0x3f913a1c	1.1345859
233	0x3f24ee3a	0.64426005
234	0x3f276ffb	0.65405244
235	0xbf2da4b5	-0.6782945
236	0x3d9ff27e	0.078099236
237	0x3edaf315	0.42763582
238	0x3c1c93bd	0.009556708
239	0xbedfbb64	-0.43697655
240	0xbe226794	-0.15859824
241	0x3e72e33b	0.23719494
242	0x3eb3a7d3	0.35088977
243	0xbfc171b3	-1.5112823
244	0xbfac7a01	-1.3474733
245	0x3f202566	0.62557065
246	0xbf65b29f	-0.8972568
247	0xbf0c7182	-0.548607
248	0x3f7ab317	0.9792952
249	0xbd3c4bb3	-0.04597063
250	0xbf92a219	-1.1455718
251	0x3f0151d4	0.50515485
252	0xbe7c856f	-0.24660276
253	0xbe035531	-0.12825467
254	0xbe0614ab	-0.13093822
255	0x3dbf1cd9	0.09331674

fc2.bias f4 [128]
0	0x3f95e1e7	1.1709565
1	0x3f1ab400	0.6043091
2	0xbfa13aef	-1.259611
3	0xbf03467d	-0.5127943
4	0x3e5dbd11	0.21654154
5	0xbebd8f5a	-0.3702343
6	0x3f48519e	0.7824954
7	0xbc5197d3	-0.012792545
8	0x3d906849	0.07051141
9	0xbd3a937f	-0.04555082
10	0xbf55d345	-0.83525497
11	0x3c0be085	0.008537416
12	0x3eec8693	0.46196422
13	0xbf4cde16	-0.80026376
14	0x3f7c27bb	0.98498124
15	0x3e8f1ca9	0.27951553
16	0x3f5fd25f	0.87430376
17	0x3e7f2e37	0.24919973
18	0x3f1527b0	0.58263683
19	0x3fc40af2	1.531584
20	0xbef0fcc8	-0.47067857
21	0xbf0422ca	-0.51615584
22	0x3ee97448	0.45596528
23	0xbd815049	-0.06314141
24	0xbef74819	-0.48297194
25	0xbfaf3fcc	-1.3691344
26	0xbd93d196	-0.0721771
27	0xbdff2029	-0.12457306
28	0x3fc2ae62	1.5209467
29	0xbdc08ac2	-0.09401466
30	0x3f540ef7	0.82835335
31	0x3f400de1	0.7502118
32	0xbe0662d3	-0.13123636
33	0xbec2f63d	-0.3807849
34	0x3ca21236	0.019784074
35	0x3e924d75	0.2857472
36	0x3f0a05a6	0.5391487
37	0x3f16fd12	0.58979905
38	0x3f8760c2	1.0576403
39	0x3e131f00	0.14367294
40	0x3fa0ca09	1.2561656
41	0x3ec0f5ec	0.37687624
42	0xbdd5f529	-0.10447151
43	0xbd7d4969	-0.061837588
44	0xbeaa975f	-0.33318612
45	0xbde576ab	-0.11204275
46	0xbf609735	-0.87730724
47	0xbdad1ee2	-0.08453156
48	0x3f360989	0.711083
49	0x3fbab0a9	1.4585162
50	0x3fc9fde6	1.5780609
51	0x3f84b361	1.0367242
52	0x3e220454	0.15821964
53	0x3f2e6798	0.6812682
54	0xbea0224a	-0.3127616
55	0xbde275e1	-0.1105764
56	0xbda8b738	-0.08238071
57	0xbdab8bf5	-0.08376304
58	0x3f9a00a8	1.203145
59	0xbf3f0ca5	-0.7462867
60	0x3f91b584	1.1383519
61	0xbe998177	-0.29981586
62	0xbeeca228	-0.46217465
63	0x3f4e0ff2	0.8049308
64	0x3f8ba611	1.0910054
65	0x3fb59a55	1.4187723
66	0xbfbab42d	-1.4586235
67	0xbe18eb7b	-0.14933579
68	0x3fad2286	1.3526161
69	0x3fbddb33	1.4832519
70	0xbe0af75c	-0.13570923
71	0xbd5bb6cd	-0.05364113
72	0x3e1c00d1	0.15234686
73	0x3f028011	0.50976664
74	0x3e156d6f	0.14592527
75	0x3e8147bb	0.25250039
76	0xbe1f9db6	-0.15587506
77	0xbf1d033a	-0.6133305
78	0x3da95d29	0.08269722
79	0x3f854a3f	1.0413283
80	0xbf0a20e8	-0.5395646
81	0x3e4af1a6	0.19818744
82	0xbe03c9fc	-0.1287002
83	0xbe011f4c	-0.12609595
84	0x3f9187af	1.1369532
85	0x3db209e2	0.08693291
86	0xbe1b5923	-0.15170722
87	0xbee11e72	-0.4396854
88	0xbee29008	-0.44250512
89	0xbf8b9846	-1.0905845
90	0x3eafd86b	0.343448
91	0x3f97aacc	1.1848998
92	0x3e21c11a	0.15796319
93	0xbf4b856c	-0.7950046
94	0xbe17d2db	-0.14826529
95	0x3f880b57	1.0628461
96	0x3f73fa4e	0.9530381
97	0x3ebeafec	0.37243593
98	0x3e9fa845	0.31183067
99	0xbe09614a	-0.13416019
100	0xbe4f79a6	-0.20261249
101	0x3f1ebacd	0.62003785
102	0x3e8a3d7a	0.27000028
103	0xbe04ee4d	-0.1298153
104	0xbd633106	-0.055466674
105	0xbea0ecf2	-0.31430775
106	0x3fa15069	1.2602664
107	0x3fbcd897	1.4753598
108	0x3f834dc5	1.0258108
109	0xbe104013	-0.14086942
110	0x3f2e04d0	0.67976093
111	0xbdd7b0ed	-0.10531793
112	0x3d0be102	0.03415013
113	0x3e902d61	0.2815962
114	0xbea0e9f0	-0.3142848
115	0x3e638037	0.22216879
116	0x3d6a10c2	0.057144888
117	0xbea74df7	-0.3267667
118	0xbdbc9914	-0.09208885
119	0x3f66733d	0.9001959
120	0xbdfe32ce	-0.12412034
121	0xbdba888d	-0.09108076
122	0x3e7a03a6	0.24415454
123	0x3f2a0d49	0.6642652
124	0xbd96a727	-0.073561005
125	0x3f963bf5	1.1737047
126	0xbe9aac2b	-0.3020948
127	0x3ef507ea	0.478576

fc3.weight f4 [128, 128]
0	0xbe1f9831	-0.155854
1	0x3c1effff	0.009704589
2	0x3bd86cd5	0.0066047707
3	0xbd20de68	-0.039274603
4	0xbd540693	-0.051764082
5	0xbdf10276	-0.117680475
6	0x3d8d780b	0.06907662
7	0xbd2b0b26	-0.04175868
8	0xbdd24c57	-0.10268467
9	0xbc8f8e54	-0.017523922
10	0xbd1c703d	-0.038192976
11	0x3d19e418	0.037571043
12	0xbdd1cf65	-0.102446355
13	0xbd5e86ad	-0.054327656
14	0xbd84ebe4	-0.06490305
15	0xbdbb4ea6	-0.091458604
16	0xbd3c6862	-0.045997985
17	0x3cb7f048	0.022453442
18	0xbddfc9f9	-0.10927195
19	0xbcefaf86	-0.0292585
20	0xbc33b987	-0.010969526
21	0xbd8dbacc	-0.06920394
22	0xbdaf5694	-0.08561435
23	0x3d617862	0.055046447
24	0x3ca5a6fe	0.02022123
25	0x3d09a9eb	0.033609312
26	0x3d61f102	0.055161484
27	0xbda7710e	-0.0817586
28	0xbe244d99	-0.16045226
29	0x3adb0d00	0.0016712248
30	0x3c899679	0.016795384
31	0xbe08aba0	-0.1334672
32	0xbcbf7f1c	-0.02337604
33	0x3bbd3274	0.0057738367
34	0x3d59ec6e	0.053203993
35	0x3cacc02f	0.021087734
36	0xbd92c601	-0.071666725
37	0xbdc45457	-0.09586399
38	0x3d19f9d0	0.037591755
39	0xbcc5ad71	-0.024130555
40	0xbd281379	-0.041034196
41	0xbd8f865d	-0.0700805
42	0x3dac03fb	0.08399197
43	0xbd925f2e	-0.0714706
44	0xbdc43e80	-0.095822334
45	0xbdab15e4	-0.08353785
46	0xbdf268a2	-0.118363634
47	0xbcfee6c0	-0.03111589
48	0x3d59b65a	0.05315242
49	0xbd2e5237	-0.042558875
50	0xbdad1379	-0.0845098
51	0x3ca0dc1b	0.019636204
52	0xbdefda19	-0.11711521
53	0xbe04c7cd	-0.12966843
54	0x3cbd6ee3	0.023124164
55	0xbd47a2c0	-0.048739195
56	0xbcc61d65	-0.024183938
57	0x3c83d16c	0.016091071
58	0xbd6c53bd	-0.057697047
59	0xbd38109a	-0.044937707
60	0xbdd96d3e	-0.106165394
61	0xbc88fa77	-0.016720993
62	0xbd2d8bcd	-0.042369653
63	0x3d833c57	0.06407993
64	0xbe19b202	-0.15009311
65	0xbe554188	-0.2082578
66	0x3bd91466	0.006624746
67	0xbc935bd8	-0.01798813
68	0xbcf42cee	-0.02980658
69	0xbd1b63f5	-0.037937123
70	0xbd314cd2	-0.043286152
71	0xbd9c7fe6	-0.07641582
72	0x3da95935	0.08268968
73	0xbce0b247	-0.02742876
74	0xbcd99388	-0.026559606
75	0xbde1a4d2	-0.11017765
76	0x38d84800	0.00010313094
77	0xbd431d96	-0.047635637
78	0x3ba693bb	0.005083529
79	0xbdfb5343	-0.1227174
80	0xbdd14705	-0.10218624
81	0xbcc5a02b	-0.024124226
82	0x3c0140d8	0.007888995
83	0xbd7a706e	-0.061142378
84	0xbdaeb9c3	-0.08531525
85	0x3cf80cca	0.030279536
86	0xbda2d87f	-0.079514496
87	0xbe2cf834	-0.16891557
88	0xbbdeef87	-0.006803456
89	0xbe0b5ece	-0.13610384
90	0xbca4e077	-0.020126564
91	0x3d18bb80	0.03728819
92	0xbe1434c9	-0.14473261
93	0x3cba5a1c	0.022748046
94	0x3d677c76	0.05651518
95	0x3d2519fd	0.040307987
96	0x3a8a425b	0.001054834
97	0x3c47dd10	0.0121987015
98	0x3d3a954d	0.04555254
99	0xbd2c561d	-0.04207431
100	0xbcd9ae26	-0.026572298
101	0xbdbd5716	-0.09245126
102	0xbd9b20f5	-0.075746454
103	0xbd56ee30	-0.052473247
104	0xbd0aa888	-0.03385213
105	0xbe19787a	-0.14987364
106	0xbb86ef8f	-0.004117913
107	0xbd3488fa	-0.044075944
108	0xbdd6eb76	-0.10494129
109	0x3da50a83	0.080586456
110	0xbe223056	-0.15838751
111	0x3c42f628	0.011899509
112	0xbd50c6ea	-0.05097095
113	0xbcfd3070	-0.030906886
114	0xbdd2d95e	-0.10295366
115	0xbca3f3e8	-0.020013765
116	0x3dac61f5	0.08417121
117	0xbd3f2fe0	-0.046676517
118	0x3d26f822	0.04076398
119	0xbd8722f2	-0.06598462
120	0xbdf380e2	-0.11889817
121	0xbd62ff9d	-0.055419553
122	0xbdba4afc	-0.090963334
123	0xbdd2b9ab	-0.102893196
124	0xbde30c1e	-0.110862955
125	0xbdfdf117	-0.123995
126	0xbc666925	-0.014063154
127	0xbc224230	-0.009903476
128	0xbde3f1a6	-0.11130075
129	0x3b85b80a	0.004080777
130	0x3cca0dba	0.024664748
131	0x3d36f310	0.044665396
132	0xbd085b65	-0.033290286
133	0x3d2fb16c	0.042893812
134	0xbd80cef8	-0.06289476
135	0xbd951efc	-0.072813004
136	0xbe139d8c	-0.14415568
137	0xbd9b3b86	-0.075797126
138	0xbd2592e3	-0.040423285
139	0xbc0f9f6c	-0.0087660365
140	0xbd7b1da5	-0.061307568
141	0xbe12edb8	-0.14348495
142	0xbe17b8da	-0.14816609
143	0xbd028c7b	-0.031872254
144	0xbddd4f59	-0.1080615
145	0xbd30d8d5	-0.043175537
146	0xbd93a4ad	-0.07209144
147	0xbd42bb5c	-0.04754196
148	0xbd2e3e07	-0.042539623
149	0x3c6dbc55	0.014510234
150	0x3c61f3de	0.013791053
151	0xbc276e60	-0.010219187
152	0xbd258a82	-0.040415294
153	0x3d3d77d5	0.04625686
154	0x3d9d356d	0.07676206
155	0x3bc89310	0.006121047
156	0xbd4e3e37	-0.0503523
157	0x3d66d542	0.056355722
158	0xbe0fc4c1	-0.140399
159	0xbcd379a5	-0.02581484
160	0x3d849503	0.06473734
161	0xbe0adb57	-0.13560234
162	0xbd726a55	-0.059183437
163	0xbcdb6e7f	-0.026786087
164	0xbce23d00	-0.027616978
165	0xbd82e893	-0.06392016
166	0xbdaecae7	-0.08534794
167	0xbd744643	-0.05963732
168	0xbd9fc3f8	-0.0780105
169	0xbd7df719	-0.06200323
170	0x3d902703	0.07038691
171	0x3ac30284	0.0014878069
172	0xbd67159b	-0.05641709
173	0xbda7be27	-0.081905656
174	0x3d5e4eb3	0.054274272
175	0x3d92bbfd	0.07164762
176	0x3d3176d2	0.043326207
177	0x3c44349d	0.011975435
178	0x3c8298fd	0.015942091
179	0xbd8a6acc	-0.06758651
180	0x3cb711af	0.0223473
181	0x3c55584c	0.01302154
182	0x3c4e25cb	0.012582253
183	0xbd1ea4db	-0.038731437
184	0x3c3906e5	0.011293148
185	0x3d251da2	0.040311463
186	0xbc4a8bc7	-0.012362427
187	0xbd6d8499	-0.057987783
188	0xbdf882ff	-0.121343605
189	0x3cb30175	0.02185128
190	0x3b8ae850	0.0042391196
191	0xbd8075a1	-0.06272436
192	0xbc2997df	-0.01035115
193	0x3d038a63	0.032114398
194	0xbdb1099b	-0.0864441
195	0x3d84bf21	0.064817674
196	0xbd95717f	-0.07297038
197	0xbb2c7ac0	-0.0026318282
198	0x3b84bf00	0.0040510893
199	0x3d548a7b	0.051889878
200	0xbc5189f8	-0.012789242
201	0xbdb36e57	-0.0876128
202	0xbd2fd3b9	-0.042926524
203	0x3d355706	0.044272445
204	0xbd9704d0	-0.07373965
205	0x3c998668	0.018740848
206	0xbdf303b7	-0.11865943
207	0xbdb3d62a	-0.08781083
208	0xbd77de0b	-0.06051449
209	0xbc846b50	-0.016164452
210	0xbd893dfe	-0.06701277
211	0x3da891a5	0.082309045
212	0xbd196987	-0.037454154
213	0xbcd538d3	-0.026028072
214	0xbd00219f	-0.031282064
215	0xbd31e409	-0.043430362
216	0xbd946ad5	-0.07246939
217	0x3d119c2f	0.03554934
218	0xbdb48353	-0.088141106
219	0xbd3991d4	-0.04530509
220	0xbe07d20a	-0.13263717
221	0x3c8c88f7	0.017155154
222	0x3c182410	0.009285942
223	0xbd3ea9ff	-0.04654884
224	0xbca684be	-0.020326968
225	0xbdae6092	-0.08514513
226	0x3c259406	0.010106092
227	0x3d2aaa5e	0.04166638
228	0x3d878590	0.06617272
229	0x3c3cbebd	0.011520085
230	0xbcddece4	-0.027090497
231	0xbd53a965	-0.05167522
232	0xbcc9e4c3	-0.024645215
233	0xbc51057d	-0.012757656
234	0xbc7fe499	-0.015618467
235	0x3c349ed4	0.011024196
236	0x3d33f56a	0.043935217
237	0xbd2cb77c	-0.04216717
238	0xbc86f279	-0.016473042
239	0xbd223a07	-0.03960612
240	0xbdf444a4	-0.11927155
241	0xbad4ec33	-0.0016244709
242	0xbd9a9ccc	-0.07549438
243	0xbd535517	-0.05159482
244	0xbd1a8c61	-0.037731532
245	0xbd14e02c	-0.0363466
246	0x3d514b46	0.051097177
247	0xbd44adf4	-0.048017457
248	0xbc1a666c	-0.009423833
249	0xbd1e508e	-0.03865104
250	0xb9a1a424	-0.00030830607
251	0xbddcc758	-0.10780209
252	0xbd267fba	-0.040649153
253	0xbdb0b882	-0.08628942
254	0xbd1833bc	-0.037158713
255	0xbdc97cd5	-0.09838263

fc3.bias f4 [128]
0	0xbdde4a9e	-0.10854076
1	0xbe15acad	-0.14616652
2	0xbd71c467	-0.059025194
3	0x3f806f0e	1.0033891
4	0xbe892527	-0.26786157
5	0xbe0d5c9b	-0.13804857
6	0x3edd6bb5	0.43246236
7	0xbde1ae84	-0.11019614
8	0x3f922bde	1.1419637
9	0xbe1585e8	-0.14601862
10	0x3f6a9f8f	0.9164972
11	0xbe060d18	-0.13090932
12	0x3fca700a	1.5815442
13	0x3ea67a86	0.32515353
14	0x3ec91efc	0.39281452
15	0x3fbe9deb	1.4891943
16	0x3f011343	0.50420016
17	0x3ec9108e	0.39270443
18	0x3e822c18	0.25424266
19	0xbe086876	-0.13321099
20	0x400b77cb	2.1791866
21	0x3fbd6c8e	1.4798753
22	0x3e818fc2	0.2530499
23	0x3f691177	0.91042274
24	0xbe1735bb	-0.1476659
25	0x3fe5972a	1.7936757
26	0x3f88c810	1.0686054
27	0xbdd2f5bc	-0.10300776
28	0x3f804152	1.0019934
29	0xbe335059	-0.17511119
30	0xbe2b7e9f	-0.16747521
31	0x3f38272b	0.71934766
32	0x3f132323	0.5747549
33	0x3f1b822e	0.60745513
34	0xbe080338	-0.13282478
35	0xbf4d8ca6	-0.8029274
36	0x3f6777c9	0.9041715
37	0x3f23d176	0.6399149
38	0x3ed10155	0.4082133
39	0xbe0bbaea	-0.13645521
40	0x3ebdcd2c	0.37070596
41	0x3c8dcebd	0.017310495
42	0xbd0b13d4	-0.033954456
43	0x3f84a300	1.0362244
44	0xbe0a48a7	-0.13504277
45	0x3fa86293	1.3155082
46	0x3fcd7fe6	1.6054657
47	0x3f54bbf2	0.8309928
48	0xbe09364d	-0.1339962
49	0x400ccd10	2.200016
50	0x3f32d12d	0.69850427
51	0xbcd928e2	-0.026508752
52	0xbe03828f	-0.12842773
53	0x3f9c17e0	1.2194786
54	0xbe2231dd	-0.15839334
55	0x3ea9d925	0.3317348
56	0xbd8316fc	-0.06400868
57	0xbe386db9	-0.18010606
58	0xbdba1577	-0.09086125
59	0x3ecf76de	0.40520376
60	0x3f75fe68	0.9609132
61	0xbf064e85	-0.5246356
62	0xbe17c238	-0.14820182
63	0xbdfe3ab1	-0.12413538
64	0xbc9a4530	-0.01883182
65	0x3fb1ed11	1.3900472
66	0xbe3fc5cf	-0.18727802
67	0xbd910f69	-0.070830174
68	0x3fb16526	1.3858993
69	0x3fbc1961	1.4695245
70	0x3f722813	0.945924
71	0x3e1be776	0.15225014
72	0xbdd97898	-0.106187046
73	0xbeacb88d	-0.3373455
74	0x3e19ab47	0.15006743
75	0xbe7263fe	-0.23670956
76	0xbdf4e8b6	-0.119584486
77	0x3f811998	1.0085936
78	0x3f54f097	0.8317961
79	0xbd467796	-0.04845389
80	0x3f9c3c6f	1.2205943
81	0x3f4bffa5	0.7968696
82	0x3fae0f86	1.3598487
83	0x3ee8732e	0.45400375
84	0x3ff89376	1.9420002
85	0xbe314ce5	-0.17314489
86	0x3f008ded	0.5021656
87	0x3ec397df	0.38201806
88	0x3fe4d4b0	1.7877407
89	0x3f83ab28	1.0286608
90	0x3f8402a1	1.0313302
91	0xbf39307b	-0.723396
92	0xbd288eb2	-0.04115171
93	0xbeb514c2	-0.353674
94	0x3f959c8a	1.1688397
95	0x3f8e118b	1.1099104
96	0xbe1b50d9	-0.1516756
97	0x3f85805d	1.0429798
98	0x3f0bf3b5	0.5466874
99	0xbddb4091	-0.107056744
100	0x3feb0900	1.8362122
101	0x3fb66bd8	1.4251661
102	0xbe305f2f	-0.1722381
103	0x3ff37ad7	1.9021863
104	0xbe243ba4	-0.16038376
105	0x3fbbece7	1.4681672
106	0x3faf2f06	1.3686225
107	0x3f87e4f4	1.0616746
108	0xbfb2a591	-1.3956777
109	0xbddbefc3	-0.1073909
110	0x3f9bc1b7	1.2168492
111	0x3f06dfbc	0.5268514
112	0x3f277228	0.65408564
113	0x3e48882a	0.19583192
114	0xbe4f56fc	-0.20248026
115	0x3f228979	0.63491017
116	0x3fae0ebe	1.3598249
117	0x3fdc9388	1.7232523
118	0x3f8baf24	1.0912824
119	0x40253287	2.581209
120	0xbf64fa57	-0.8944449
121	0x3eb0fe29	0.3456891
122	0xbe29c653	-0.16579561
123	0x3fec95ab	1.8483175
124	0xbdea9136	-0.11453478
125	0x3fadae23	1.3568767
126	0x3f40b9b5	0.75283366
127	0x40086acd	2.1315186

fc4.weight f4 [32, 128]
0	0xbda1fe8b	-0.07909878
1	0x3ca0a98c	0.019612096
2	0x3e8388e5	0.2569038
3	0x3eb3ac4d	0.35092393
4	0xbd379a1b	-0.0448247
5	0x3db483e9	0.08814222
6	0xbcdec21e	-0.027192172
7	0x3d3028d1	0.043007676
8	0xbc852663	-0.016253656
9	0x3e9027f4	0.28155482
10	0x3dacf47b	0.084450684
11	0x3d181117	0.037125673
12	0xbf2179af	-0.630763
13	0x3e4b117e	0.19830891
14	0xbcadcf66	-0.02121706
15	0xbf3d5362	-0.7395536
16	0x3f0bd76c	0.5462558
17	0xbcc5359f	-0.02407342
18	0x3d8c6490	0.06855118
19	0xbda4a7d4	-0.08039823
20	0xbe42c9d9	-0.19022311
21	0x3f088213	0.5332348
22	0xbef178a7	-0.47162363
23	0xbe8b36aa	-0.27190143
24	0x3d57985e	0.052635543
25	0xbdce3100	-0.1006794
26	0xbf8f519a	-1.1196778
27	0x3c5af7d0	0.013364747
28	0x3d9a2730	0.07527006
29	0xbe95cbd6	-0.29257077
30	0xbea93cee	-0.33054298
31	0x3ed4fdde	0.41599935
32	0xbea709ed	-0.3262476
33	0xbd7d2b98	-0.061809152
34	0x3c8b4f39	0.01700555
35	0xbf26a894	-0.6510098
36	0x3e5a4f0b	0.21319215
37	0x3ea291fb	0.31752
38	0xbe195016	-0.14971957
39	0x3d42a216	0.04751786
40	0xbf63405d	-0.88770086
41	0xbdc9980a	-0.09843452
42	0x3d59dc92	0.053188868
43	0x3de397de	0.11112951
44	0x3d1f033e	0.03882145
45	0x3d575a9b	0.052576642
46	0x3e4e1882	0.20126536
47	0xbe83daae	-0.25752777
48	0x3c360270	0.01110898
49	0xbeda37ca	-0.4262069
50	0x3e19cac6	0.15018758
51	0xbda9ba3a	-0.08287473
52	0x3c3a99d8	0.011389218
53	0x3f644017	0.89160293
54	0xbd55c094	-0.05218561
55	0x3e03b21c	0.12860912
56	0x3bf64aba	0.0075162323
57	0x3d5c9b6e	0.053859167
58	0x3d8afb5f	0.067862265
59	0xbdb4cd0a	-0.088281706
60	0x3e084394	0.13307029
61	0xbe9f4929	-0.31110504
62	0xbd402b24	-0.046916142
63	0xbc1da215	-0.009621163
64	0xbde6ca5b	-0.11269065
65	0xbe2bb6eb	-0.16768996
66	0x3da525a3	0.08063819
67	0xbd8d1b39	-0.06889958
68	0xbf2e9eaa	-0.6821085
69	0x3e8b30d8	0.27185702
70	0xbbd6fd3f	-0.006560951
71	0xbf351a83	-0.7074358
72	0xbd693fa7	-0.05694547
73	0xbed4099d	-0.41413584
74	0x3f2a73d0	0.66582966
75	0xbecdc263	-0.40187368
76	0x3c9e942b	0.019357761
77	0xbfa03194	-1.251513
78	0xbf1327fe	-0.574829
79	0x3d2c0557	0.04199728
80	0x3ed8656c	0.4226488
81	0xbd2ed58f	-0.042684134
82	0xbfc8c742	-1.5685809
83	0x3ee16b43	0.44027147
84	0xbee18a0f	-0.44050643
85	0xbd5e1631	-0.054220382
86	0xbd8f3892	-0.06993212
87	0x3e1c9c9b	0.15294115
88	0x3de863b7	0.11347144
89	0x3f4a86ae	0.79111755
90	0xbd734efe	-0.059401505
91	0xbf58b6f9	-0.84654194
92	0xbe6f1c4a	-0.23350635
93	0xbc913381	-0.017724754
94	0x3ef5ecd1	0.4803224
95	0xbe15a428	-0.14613402
96	0x3bed0d3c	0.0072342437
97	0xbf74eaac	-0.9567058
98	0x3eac821c	0.33693016
99	0xbd9981be	-0.074954495
100	0xbdff0be8	-0.12453443
101	0xbdb94e98	-0.09048194
102	0xbd35d3a0	-0.044391274
103	0x3e96454f	0.29349753
104	0xbd929ce7	-0.07158833
105	0x3eba3228	0.3636639
106	0xbe89061e	-0.2676248
107	0x3e5fd8e9	0.21860088
108	0xbf13e07e	-0.5776442
109	0xbd8d64ae	-0.06903969
110	0xbce441a4	-0.027863331
111	0x3ec61336	0.38686532
112	0xbe9b3532	-0.30314022
113	0xbbf5d504	-0.0075022
114	0xbe5bc60e	-0.2146227
115	0xbe846b02	-0.2586289
116	0x3e9d608b	0.3073772
117	0x3dc94d85	0.09829239
118	0x3e23fdf5	0.16014846
119	0xbf06c7f7	-0.5264887
120	0xbee36a36	-0.4441697
121	0x3e015052	0.12628296
122	0x3d0f1728	0.034934193
123	0x3e002151	0.12512709
124	0xbccd17b8	-0.025035724
125	0xbed38ff5	-0.41320768
126	0xbf57a087	-0.8422932
127	0x3d1dfb00	0.03856945
128	0x3d12e36c	0.035861418
129	0xbd28462f	-0.041082557
130	0x3db459a1	0.08806158
131	0xbd0b5339	-0.034014914
132	0xbdd4d38b	-0.10391911
133	0xbd365ac2	-0.044520147
134	0x3d591476	0.05299803
135	0x3da52137	0.08062976
136	0xbc9c8e41	-0.0191108
137	0x3c724d28	0.014788903
138	0xbd60ac26	-0.054851674
139	0x3cb860ba	0.02250706
140	0xbda8f728	-0.08250266
141	0xbccd1c0c	-0.025037788
142	0xbdf0524e	-0.117344484
143	0x3d812dcb	0.063075624
144	0xbe0e37ac	-0.13888425
145	0x3c2eec10	0.010676399
146	0x3d157b52	0.03649456
147	0xbd7e9422	-0.06215299
148	0x3bc339a0	0.005957797
149	0xbc102199	-0.008797073
150	0x3a39590f	0.00070704607
151	0x3ac9b540	0.00153891
152	0xbdae7ca9	-0.08519871
153	0xbe08c51e	-0.13356444
154	0xbca83376	-0.020532351
155	0xbcc5f274	-0.024163462
156	0xbde0f2d3	-0.10983815
157	0x3d199c26	0.03750243
158	0xbd13a11f	-0.03604233
159	0x3d1dcc42	0.038524874
160	0x3c96f24f	0.018426089
161	0xbd51d883	-0.051231872
162	0xbd55f35a	-0.05223403
163	0xbddc112b	-0.10745462
164	0xbdf50fbc	-0.11965892
165	0xbdbefb75	-0.09325305
166	0xbd7a03fa	-0.06103895
167	0x3d56a83a	0.052406527
168	0xbd70e1cd	-0.05880909
169	0x3adddac0	0.0016926154
170	0xbcec9df6	-0.028883915
171	0xbdc60d86	-0.09670548
172	0xbd8753a8	-0.06607753
173	0xbcacf529	-0.021112995
174	0x3db2ae45	0.087246455
175	0x3b150ff9	0.0022745116
176	0x3da727cd	0.08161888
177	0xbce5bab8	-0.028043136
178	0xbe079343	-0.1323977
179	0xbd966aa2	-0.07344557
180	0xbcc97a18	-0.024594352
181	0xbd565899	-0.052330587
182	0xbd31ab1e	-0.04337608
183	0xbddd5fbe	-0.10809277
184	0x3c9ec2f7	0.019380076
185	0x3d30109e	0.042984597
186	0xbd825f5e	-0.06365846
187	0x3cba8dbe	0.022772666
188	0xbc71b68f	-0.014752998
189	0xbcdb24f2	-0.026751015
190	0x3d3f2a3e	0.046671145
191	0x3d45c37e	0.04828214
192	0xbd9976e2	-0.07493378
193	0x3c7d6918	0.015466951
194	0x3a910140	0.0011062995
195	0xbae65b00	-0.0017574728
196	0xbcd0198e	-0.02540281
197	0x3caf4069	0.021393018
198	0xbd9c6ff0	-0.07638538
199	0xbd6803d8	-0.05664429
200	0xbc9fec08	-0.019521728
201	0x3b5a2d31	0.0033291096
202	0xbc0e8022	-0.008697541
203	0xbd867090	-0.06564438
204	0x3d58a466	0.052891158
205	0xbce37e39	-0.027770149
206	0xbd97e8e9	-0.07417471
207	0xbb61459d	-0.0034373768
208	0xbdbc4029	-0.09191925
209	0x3c17d66d	0.009267432
210	0xbe028390	-0.127455
211	0x3da97779	0.08274741
212	0xbdb702fa	-0.089361146
213	0x3d25376e	0.040336065
214	0xbdec12ae	-0.11527
215	0xbdbefdbc	-0.0932574
216	0x3b711f86	0.003679247
217	0xbd26a8aa	-0.040688194
218	0xbd287cee	-0.041134767
219	0xbda00cda	-0.07814951
220	0xbdf3ffb5	-0.119140066
221	0x3d2fa26f	0.042879518
222	0xbd97dbde	-0.07414983
223	0xbdb6c776	-0.08924763
224	0x3ba62828	0.005070705
225	0x3bcebd04	0.0063091535
226	0xbdb93a1f	-0.09044289
227	0xbda65883	-0.08122351
228	0xbd1d2e39	-0.03837416
229	0x3cf3c81f	0.029758511
230	0xbcd41c90	-0.025892526
231	0x3c3b3677	0.01142656
232	0xbd0eff92	-0.0349117
233	0xbddaa276	-0.10675518
234	0xbc3a62ef	-0.011376127
235	0xbdad854b	-0.08472689
236	0x3c3cd59f	0.011525541
237	0x3d71dfa2	0.059051163
238	0xbd89c3d8	-0.06726807
239	0x3bc79908	0.006091241
240	0x3d27fe9d	0.041014303
241	0x3d0ade47	0.033903386
242	0xbe32fcff	-0.17479323
243	0xbe178526	-0.14796886
244	0xbe277498	-0.1635307
245	0x3cc05c74	0.023481585
246	0xbd6042f5	-0.054751355
247	0xbde0c861	-0.10975719
248	0xbe1c2910	-0.15250039
249	0xbd4c82b3	-0.049929332
250	0x3d42344a	0.047413148
251	0xbd4dc0f3	-0.05023284
252	0x3bf699f0	0.007525675
253	0xbd59259c	-0.053014383
254	0xbe02c944	-0.12772089
255	0xbd72824b	-0.05920629

fc4.bias f4 [32]
0	0x3e65c9c4	0.22440249
1	0xbdcf759c	-0.10129854
2	0x3ea4f27a	0.32216245
3	0x3fec3cb9	1.8456031
4	0x3fd51c1b	1.6649202
5	0x3f0e6ee3	0.5563795
6	0x3f1514ba	0.5823475
7	0x3d52dd27	0.05148044
8	0xbd805cdd	-0.06267712
9	0xbd99ab05	-0.075033225
10	0x3f35dbfe	0.71038806
11	0xbd89965d	-0.06718133
12	0x3fad58d3	1.3542732
13	0x3f52869b	0.8223664
14	0xbdd420d6	-0.103578255
15	0x3dab7266	0.08371429
16	0x3ed16095	0.40894
17	0x3fc2c6a8	1.5216875
18	0xbc8ccd06	-0.017187607
19	0x3f1c850b	0.6114051
20	0x3f9034c0	1.1266098
21	0xbd8cb086	-0.06869607
22	0x3f6e4384	0.9307177
23	0x3fd0a6a0	1.630085
24	0x3f3b054f	0.73054975
25	0xbcf3b898	-0.029751107
26	0x3fcdfb5a	1.6092331
27	0xbd1500d3	-0.03637774
28	0x3f8e8947	1.1135644
29	0xbdc58dd8	-0.09646195
30	0xbe10af79	-0.14129438
31	0xbd196229	-0.03744713

fc5.weight f4 [4, 32]
0	0x3eb8a65e	0.36064428
1	0x3e22ecbc	0.1591062
2	0xbe7c7561	-0.24654151
3	0x3c696b84	0.014246825
4	0x3f13906a	0.57642233
5	0x3dfd1fde	0.12359594
6	0x3e3f3bd3	0.18675165
7	0xbd9f71f3	-0.07785406
8	0x3dacb514	0.084329754
9	0x3dab6e39	0.08370633
10	0x3e6df848	0.23239243
11	0x3dcae1fe	0.09906386
12	0x3e11379d	0.14181371
13	0xbe0b8ec6	-0.13628682
14	0xbd08fc08	-0.03344348
15	0xbe654758	-0.22390497
16	0x3dbee4e0	0.09320998
17	0x3e88260d	0.2659153
18	0xbe3e3581	-0.18575098
19	0x3e442bd0	0.19157338
20	0xbc641026	-0.013919866
21	0x3cbe1fc2	0.023208503
22	0x3ee92e6d	0.45543233
23	0xbd202d83	-0.039105903
24	0x3e8eafc4	0.27868474
25	0x3d261372	0.04054589
26	0xbef4e84a	-0.47833472
27	0x3e076e2f	0.13225625
28	0xbed0a729	-0.40752533
29	0x3cd8369d	0.02639323
30	0x3c3b12c6	0.01141805
31	0xbb213373	-0.0024597317
32	0xbcaf8c5e	-0.021429237
33	0x3dc01bc6	0.09380297
34	0x3f079c0c	0.52972484
35	0x3ea405a4	0.32035553
36	0x3ed66cda	0.41879922
37	0x3ebcdf9d	0.36889353
38	0xbc150ffa	-0.009098047
39	0xbea2e764	-0.31817162
40	0xbd3b9ba0	-0.045802712
41	0x3d25aaac	0.04044597
42	0xbe52e0d1	-0.20593573
43	0xbd786e54	-0.060652092
44	0x3f05a9c8	0.5221219
45	0xbe16f3e7	-0.14741479
46	0x3e1eb066	0.15496978
47	0xbed9d066	-0.42541808
48	0x3de78e56	0.11306445
49	0x3e591a34	0.21201402
50	0x3caf3c64	0.021391101
51	0x3e803b30	0.25045156
52	0x3ed062d7	0.4070041
53	0xbe1a73bb	-0.1508321
54	0xbe5fd8a1	-0.21859981
55	0xbe87fbf6	-0.26559418
56	0xbe2bc8cc	-0.16775817
57	0xbe0fb455	-0.14033635
58	0xbea0a103	-0.31372842
59	0xbd9a7bd4	-0.075431496
60	0xbe8796ef	-0.2648234
61	0x3d595c80	0.05306673
62	0xbd4eaf65	-0.050460238
63	0x3d917bb0	0.0710367
64	0x3c832304	0.016007908
65	0xbd8c8572	-0.0686139
66	0x3ecc9c12	0.39962822
67	0xbd803eef	-0.06262004
68	0x3f1326a2	0.57480824
69	0xbd010615	-0.03149994
70	0x3c21bcbc	0.009871658
71	0x3e89ee39	0.26939562
72	0xbe247b6f	-0.16062711
73	0xbd88ba89	-0.06676204
74	0x3dd6d18f	0.10489189
75	0x3ca2971a	0.019847441
76	0xbe9f741e	-0.31143278
77	0xbe1d362d	-0.15352698
78	0x3df1ce90	0.11806977
79	0xbd87f015	-0.06637589
80	0xbe86e512	-0.26346642
81	0x3d5b4e31	0.053541366
82	0xbe12207b	-0.14270203
83	0x3eae0d2a	0.33994418
84	0x3ea92e2d	0.33043042
85	0xbd82f717	-0.06394785
86	0xbe90eec5	-0.28307167
87	0xbd68aa65	-0.056803126
88	0xbd9b0766	-0.075697705
89	0x3de37efe	0.11108206
90	0xbf3a18f6	-0.7269434
91	0x3dfbb2cc	0.12289962
92	0x3eac5306	0.33657092
93	0xbdde0ac3	-0.108418964
94	0x3dc0985c	0.0940406
95	0x3dcfe776	0.101515695
96	0xbeb9dd22	-0.36301523
97	0xbe33882a	-0.17532411
98	0xbe35dd21	-0.17760135
99	0x3e2c9bdc	0.1685633
100	0x3eb34203	0.350113
101	0xbcd0df46	-0.02549709
102	0x3eca4538	0.39505935
103	0x3d9e2db5	0.07723562
104	0xbda57367	-0.08078652
105	0x3c04460c	0.008073341
106	0xbe40a206	-0.18811807
107	0x3d5d6b88	0.054057628
108	0x3df3416d	0.11877713
109	0xbdaf5793	-0.08561625
110	0x3a5a9e48	0.0008339626
111	0x3c8ed560	0.01743573
112	0xbd976c31	-0.07393683
113	0x3f0a754d	0.54085237
114	0x3ddac763	0.10682561
115	0x3ea36da9	0.31919602
116	0x3ea08c17	0.3135688
117	0xbe249500	-0.16072464
118	0x3dfc3c91	0.123162396
119	0xbe5e6c5c	-0.21721023
120	0x3e113ae5	0.14182623
121	0xbd86b121	-0.065767534
122	0xbdddc78f	-0.108290784
123	0x3da397f3	0.079879664
124	0xbe8bfdb6	-0.27342004
125	0xbcff26a4	-0.031146355
126	0x3cfd5e0d	0.030928636
127	0x3d870ee3	0.06594636

fc5.bias f4 [4]
0	0x3e8c1be2	0.27365023
1	0xbf7da070	-0.99072933
2	0x3f83d201	1.0298463
3	0xbeae286c	-0.34015214
