DQN_models/model_updaterate500_gamma0.7_alpha0.001_dynamic.pt (torch, 416679 bytes, 10 tensors)

fc1.weight f4 [128, 514]
00000000: e4cb 8c3c 98b5 dcbb 1c16 283d d86a bb3c
00000010: 46df ebbc 085f 0ebc 3005 27bb c00a 303a
00000020: c0c7 66ba 7825 a1bb ea1d 113d b051 e6bb
00000030: 0000 06b7 5097 58bc b812 053d dcd5 af3c
00000040: 00fd f33c 801a b33a f1e2 d1bc 006f e23a
00000050: 3c76 533c e8dd f5bc 3c53 b6bc 0711 93bc
00000060: 0c3e cabe 1b9c c1be 9c53 d1be c404 a4be
00000070: d70b bebe 4fc2 c4be b1dd c4be d52f bbbe
00000080: 8cb7 3bbe 7ecd 94bd 89a2 433f d2ff bdbe
00000090: 8912 27be 03d5 b1be 3ee1 cbbe 830d b5be
000000a0: 3b43 b6be dc27 a2bd 28c9 ac3c 7839 8c3c
000000b0: 0076 a438 003c 9db9 8c28 c6be 3c34 803e
000000c0: 0e86 a43e 36a0 4bbe 44b9 bdbe 25ad 903e
000000d0: 5c04 e7ba 71a3 5bbe 0403 c2be e94d 83bd
000000e0: 7787 c3be 3a05 983d 0f41 883f 05a6 b9be
000000f0: 51a9 afbe f4c2 b0be 21e7 bdbe e8ac da3c
00000100: 6277 c1bc 0056 b0b9 ee72 9bbc 6a23 33bd
00000110: 1621 bebe 218d aebe ed13 0c3f 9895 06bc
00000120: c9d7 debc a414 bd3c b708 d83e 7040 e53e
00000130: 90b7 113b b870 a63c 8bac dbbe 9fa0 bdbe
00000140: 0283 223f 10b7 f53c bc8b 1a3d 80e0 aabe
00000150: 75bd 903e 31ed f53d 56e6 1dbd 21c6 e4bc
00000160: 30f9 78bb 48d2 233c b12a aebe 99da 5c3e
00000170: e61a 833f 88c8 bb3c a2bb 2f3d b39e c1be
00000180: 90be 9b3e f766 f83e bb38 88bc fdd5 04bd
00000190: ea84 283c a42d b6be be36 873f 9d33 2bbd
000001a0: 7994 ddbc 2924 bbbe ae06 23be a960 48bd
000001b0: b06f c33c 74ca 273d 6834 813c dcdb e83c
000001c0: 6dea bdbe a114 bbbe 2973 5c3f 8e3e 083d
000001d0: b24c 803c fc3e b9be 237f a8bc 847a 20be
000001e0: 601e 0c3d a496 d0bc 2ac5 b53e d786 b2be
000001f0: 99b8 3b3f 7055 0b3b c4f8 043c 3511 26be
00000200: c35e 413f 6b8c 583e 5c09 133d 529c 2c3d
00000210: 1e87 b7bc 061d acbc e68f bfbe 8179 a4be
00000220: ed5c 1d3f 192a c1bc 74f5 fb3c dfda cdbe
00000230: fb11 a4be dbb1 d33e c0c0 803b 98b4 853b
00000240: c9ae 9e3e a517 8a3e 8139 9c3e 4096 da3b
00000250: 0420 eebc 8fcb 98be c50c e03d b943 81bc
00000260: a465 39bc 0054 4cbb 08d6 033c fe09 1abd
00000270: a5d8 8dbe 4ba2 b2be 9774 853e 9d5a 07bd
00000280: 0035 89ba df45 babe 95ad 4a3f fd6c 873e
00000290: 801b 303a 6c71 b03c 11f7 8f3d 537c 3fbd
000002a0: b659 a83e ecbd 193d 1c58 ff3c 9ad6 a7be
000002b0: 783f 013f 7c69 ef3e 387b 213d 9b3a cebc
000002c0: 88c8 303d c496 4c3c 9037 0d3f 144c 04be
000002d0: 6f16 f33e 983f bdbb 4865 f33b e0a7 51be
000002e0: 579d 093f 3a77 273e 88a3 c7bb 7cf8 023d
000002f0: a6ef cbbe 6205 b93c b819 41ba e0a2 c8ba
00000300: c52f f6bc a9ec bfbe f517 9f3e b62c acbd
00000310: 8eb4 2fbd ee9d c6bc e41a 0fbd 9a17 c7bc
00000320: 4218 2fbe b4b5 61bd 25c6 353f ccbb d93c
00000330: 084b 2c3c 54e9 b8be fb4f f73e 927f 3f3f
00000340: 75cb e8bc dafe 1d3d fcab b7be cd75 3c3f
00000350: a91f 073f a0c8 7ebc 2444 26bd 5f32 c2be
00000360: 5320 b0be 7634 133e f8d6 6fbc 3a49 343d
00000370: e116 0abd 44c9 343c 17cd abbe 4da4 823e
00000380: fd16 92be a402 a63c 50df 303c 0de0 303d
00000390: d6a5 84be b1c3 913f 90f7 6f3b e553 fcbc
000003a0: 3c5a a9be 5928 b2be 6e96 143f f43f 5f3c
000003b0: f80a 17bd 1d94 a5bc 4c3c babd 9b51 bbbe
000003c0: 6410 dc3c 1829 ef3c adb2 ddbc 88b4 e83b
000003d0: 8ff3 a7bc 1707 22bd a4a6 c2be 100b cb3b
000003e0: 60b0 9aba dd63 b1be 4661 393f a788 933f
000003f0: be52 05bd 002b 9b3b 2654 b1be 0fd5 a0bc
0.017187066 -0.006735515 0.04103671 0.022878096 -0.028792989 -0.008689649 -0.002548527 0.0006715469
-0.0008803569 -0.0049177967 0.03542892 -0.007028781 -7.987022e-06 -0.013219669 0.032488555 0.02146428
0.029783726 0.0013664514 -0.02562091 0.0017275512 0.012906607 -0.03001304 -0.022256486 -0.017952455
-0.39500463 -0.37814412 -0.408841 -0.32034886 -0.37118408 -0.38429496 -0.38450387 -0.3655993
-0.18331736 -0.07265757 0.76419884 -0.37109238 -0.16315664 -0.34732828 -0.39820284 -0.3536187
-0.35598168 -0.07917759 0.021092013 0.017117247 7.8421086e-05 -0.00029990077 -0.3870281 0.25039852
0.32133526 -0.19885334 -0.3705541 0.282571 -0.00176252 -0.21449067 -0.37892926 -0.064113446
-0.3818929 0.07422872 1.0644854 -0.36259475 -0.34308866 -0.34523737 -0.370904 0.026693776
-0.023616496 -0.0003363341 -0.018975701 -0.043734945 -0.37134618 -0.34092048 0.54717904 -0.008214377
-0.027202504 0.023081131 0.4219415 0.44775724 0.0022234656 0.02031742 -0.42905077 -0.37036607
0.6348115 0.029994518 0.037730917 -0.33374405 0.28269544 0.12008131 -0.038549744 -0.027926506
-0.0037990324 0.009998865 -0.34016946 0.21567763 1.0242584 0.02292277 0.04290355 -0.3781639
0.30418825 0.48516056 -0.016628614 -0.032430638 0.010285595 -0.35581696 1.0563581 -0.04179727
-0.027048336 -0.36551026 -0.15920517 -0.048920307 0.023856968 0.04096456 0.01577206 0.02842515
-0.37092915 -0.36539176 0.8611322 0.03326278 0.015661571 -0.36180866 -0.020568436 -0.15671736
0.034208655 -0.025462456 0.35501987 -0.348685 0.7332855 0.0021260642 0.008115951 -0.16217501
0.7553522 0.21147315 0.035897598 0.042141266 -0.022403296 -0.021009933 -0.37414473 -0.3212395
0.6146992 -0.023579644 0.03075669 -0.40206048 -0.32044968 0.4134663 0.0039292276 0.0040803663
0.30992725 0.26971164 0.30512622 0.006670743 -0.029068 -0.29842803 0.109399356 -0.015779363
-0.011315737 -0.0031177998 0.0080466345 -0.037607186 -0.2770435 -0.34889445 0.26065513 -0.0330454
-0.0010468066 -0.36381432 0.79171115 0.2645034 0.0006717965 0.021538459 0.07029546 -0.046749424
0.32880944 0.03753464 0.031169944 -0.32780915 0.5048747 0.46760166 0.03942415 -0.02517443
0.04315999 0.012487117 0.55162907 -0.12919647 0.47478053 -0.005775403 0.007427845 -0.20474195
0.53755707 0.16354075 -0.0060924925 0.031975254 -0.39831275 0.022585575 -0.0007366198 -0.001530733
-0.030052075 -0.37485245 0.31072965 -0.084069654 -0.0428968 -0.024245229 -0.034937754 -0.024303246
-0.17099097 -0.055104926 0.7100547 0.026578806 0.010515936 -0.36115515 0.48303208 0.7480403
-0.028417328 0.038573124 -0.358734 0.7361725 0.52782685 -0.015550762 -0.040592328 -0.37929055
-0.3439966 0.14375481 -0.014638655 0.044015147 -0.033713225 0.011034314 -0.3355491 0.25515977
-0.28533164 0.020264931 0.010795429 0.04318242 -0.25907773 1.1387845 0.0036616065 -0.030801723
-0.33076656 -0.34796408 0.5804204 0.013626087 -0.036875695 -0.020212227 -0.09093532 -0.36585698
0.026863284 0.0291944 -0.027062738 0.007101599 -0.02050188 -0.039557543 -0.38017762 0.006196387
-0.0011801831 -0.34646502 0.7241405 1.1526078 -0.032549612 0.0047353506 -0.34634513 -0.019632844

fc1.bias f4 [128]
00000000: f907 5abe 72e8 42be b903 69bf 9363 02bf
00000010: 81ac 48be a133 5dbe c95c 4cbe f6e8 febd
00000020: db28 673e cbd5 0cbe b6ed a63d b200 98be
00000030: 5e10 1abf 8268 b3be 2072 41be af28 aebe
00000040: ad50 6abd 2d12 8bbd be45 b7bd 1d1b d1be
00000050: 8e97 f6bd 0ada febd eeb7 9dbe 9818 d73c
00000060: 1fe9 0ebf 089b bb3d cd32 fdbe a078 b73e
00000070: b333 7ebb 1dc0 e1bd c9bc 8e3e 027f 7f3e
00000080: 3915 d0bb 1ed1 ffbe 63dc 32be 5853 31bf
00000090: f8b4 14be 43e9 d3be a199 e23d 2f75 fd3b
000000a0: 3803 3f3e c2de 7abe aad6 45be 182b f1be
000000b0: 6879 05bf 4af0 6dbe 5131 febe a6bc c0be
000000c0: 2d34 afbe bdc5 a4bd 9d2e 44bf 8a66 e7be
000000d0: 2271 153e 58a1 0d3e 0617 ad3c d65a c5be
000000e0: c7ad 53be f939 0ebf 8232 823e 5c77 24bf
000000f0: 7ac3 b2be 9cbf 94be e943 e5be db3f a4be
00000100: cdc8 84be b953 ccbd 1056 6a3c beb9 07be
00000110: 6783 413e 91d2 5fbe 0c6d 2dbe d66a 40bf
00000120: 527e 7cbf 04f8 34bf ff0e ce3d 5ddf 06bf
00000130: d3a0 e1be e287 67be c98b 41bf 6954 34bf
00000140: 607b 8cbe 2d64 4dbe fb6d 833e e40c acbc
00000150: f09c 20bf 0dcb cebc 3eae 22bf 1465 b9be
00000160: bb45 19bf d9c5 debe 8aee 4e3e fc1b 81be
00000170: 85b8 17bf c89e c5be e957 03bf e0d2 9fbd
00000180: 3619 893d 64ce 97be bea2 82bd 2863 fabe
00000190: 6dd2 f0be 210c 4abe d06d 8e3e 98df b5bd
000001a0: c1f3 cebe f7a7 76be 3cfd 1bbf 7252 12be
000001b0: e71b 17be 0c93 bcbe 6824 d0be ae71 06bf
000001c0: 267f 09bf 98cb debe b250 19bf 2bca 20bf
000001d0: de73 f9bb 91e2 b33d ea4e 163e 911e d9bd
000001e0: cce6 56bd 7a93 993e ce78 17bd 1d11 3fbf
000001f0: 1a41 14bd 74eb a9bd 220c 0abe 35d4 26bf
-0.21292104 -0.19033983 -0.91021305 -0.5093319 -0.19597055 -0.21601726 -0.1995727 -0.124467775
0.22574179 -0.1375343 0.081508085 -0.2968803 -0.60181224 -0.3504067 -0.18891191 -0.34015414
-0.057205845 -0.06790576 -0.08948849 -0.40840998 -0.120406255 -0.124439314 -0.3080439 0.026256844
-0.55824465 0.09160429 -0.4945282 0.35834217 -0.003878814 -0.11022971 0.27878407 0.24950793
-0.006350186 -0.4996423 -0.17466883 -0.692678 -0.14522159 -0.41388902 0.11064459 0.0077349166
0.18653572 -0.24499038 -0.19320169 -0.4710319 -0.52138376 -0.23236194 -0.49647 -0.37643927
-0.34219494 -0.08045528 -0.76633626 -0.4519542 0.14593938 0.13831079 0.021129142 -0.38545865
-0.2067176 -0.5555721 0.2542916 -0.6424463 -0.34914762 -0.29052436 -0.44778374 -0.32079968
-0.2593445 -0.09976906 0.014302745 -0.13254449 0.18897782 -0.21857668 -0.1693613 -0.7516302
-0.9863025 -0.7069094 0.10061454 -0.52684575 -0.44068012 -0.22610429 -0.7560392 -0.704413
-0.27437878 -0.20057745 0.25669846 -0.02100224 -0.6273947 -0.025243307 -0.6354712 -0.3620993
-0.59872025 -0.4351032 0.20208183 -0.25216663 -0.5926593 -0.38597703 -0.51306015 -0.07803893
0.06694262 -0.2964965 -0.06378697 -0.48903775 -0.47035542 -0.1973119 0.27818155 -0.08880538
-0.40420344 -0.24087511 -0.6093328 -0.14289263 -0.14756738 -0.36830938 -0.40652776 -0.5251721
-0.5370964 -0.43514705 -0.59888756 -0.62808484 -0.0076126894 0.087834485 0.14678541 -0.10601533
-0.0524662 0.29995328 -0.036980443 -0.7463549 -0.0361949 -0.08296862 -0.13481191 -0.6516755

fc2.weight f4 [128, 128]
00000000: f443 93be 7fcc 56bf 5191 b13e d95b 08bf
00000010: 07ba f9be bdb7 24bf 4680 b9be 49aa 90be
00000020: b744 353f 4082 1b3e e25b 18be bdab 4abf
00000030: 1977 ff3e 0621 d63e 9df3 003d 51f5 793e
00000040: 0756 b83e f5ac c8bc a8d7 4f3d cf09 903e
00000050: 4b82 d3be 1792 ccbe 5c1d f4be 15ad a1bf
00000060: 82c8 1fbe 1464 5abf 4f6a 42be dfb6 1fbf
00000070: 0fcf 913e d8be 0abf 77e4 fd3e e1a2 12bf
00000080: 27be acbf 4437 4b3d 93c1 b4be da44 b93d
00000090: 179b 34bf 7652 983e c616 afbf 17eb 113e
000000a0: 02d8 e2bd 6222 ebbe 4fc5 f5bc dff0 973f
000000b0: 75e5 843e fb55 163f e717 933f f8d0 b33e
000000c0: 0998 8b3e ba03 1abd b66c c1be c6ea c9be
000000d0: c45c a2be 545c 49bf 92e5 fbbe 02be bcbe
000000e0: d9dd 053e 0b37 e4be a3b6 8b3d 613e bb3e
000000f0: 37b7 883f 838f 44bf 0804 c3bc 010c 533f
00000100: 09ce cebd ae82 d4be 7b13 dabe 9b75 77bf
00000110: b5d4 003e bbdc 813f dec6 7d3f b3a6 413e
00000120: 5171 123f 3871 89bf 91f7 b1be 02eb e1bd
00000130: 28df 0ebe e21b 303e 3dfe 98be b4dd b33f
00000140: 2f0b 15bf 916f 413e 8c6a 75be 92e3 0d3f
00000150: 1ece 563f 19e3 f5be 7cf0 4e3f b662 40be
00000160: ac48 953d 5ab3 fabe 0738 1fbe 6524 5abe
00000170: 15f1 1f3e 86ce 6f3f b6ec ad3e 7633 0fbf
00000180: d5f6 dabe 3ccd 583f c712 633f 6f26 acbe
00000190: e7c0 04bf a337 e03e 0a96 a2bf 07ce 0ebd
000001a0: 51b1 f7bf 0fc6 85bf 7b59 07bf 6573 a5be
000001b0: 678e debe 50a9 003e 746b abbe 4fcd cabe
000001c0: 77be 853e 9d10 343f caad c9be 09bc cd3f
000001d0: 01b4 b1be fbba 76be 828b 32bf 73bc 15bc
000001e0: 7de2 d93e 2a08 3abf c535 523d 0ca0 3e3e
000001f0: f57e 2fbe 1565 8f3d bbf9 c1bf 0afd 433f
00000200: 3af6 59bc 520b c2be 51d4 763e d246 4bbf
00000210: 9552 713f da5f b8be 14b2 e3bc 5c5c b23e
00000220: 4ebd b43e 4d7e 84bf f932 bdbe ec69 813e
00000230: 4761 b0be f13b d5be 5b74 443d 2609 883f
00000240: de0c 113f e1d4 5e3c 75c2 273c af2a f8be
00000250: 26e8 eabd 780e b8bd 1bb6 20bf 7f3f 94bf
00000260: 6e17 d9bd acb2 21bf 21d5 0b3e 8139 c7be
00000270: 182f 06be 7513 aebe beca 2ebf 87a9 11bf
00000280: f28e e1be df65 043f 1cc6 e9bf 315b 06bf
00000290: 812a e53e 6145 083e bdab 76bf 0e52 183f
000002a0: 2197 893e 657c 3b3f 3f9a fcbd 21fc 7f3f
000002b0: 2eac 543f 23fa d53e 7553 56bf 1b9d 133e
000002c0: 50ac 2c3f 6f48 ed3d 5820 333f 2372 abbe
000002d0: 37cc 01bf 6d90 d6bc db4f ecbd 8383 193f
000002e0: d6ea d63d 9a48 0e3f f11e 92be fe19 ee3d
000002f0: 9327 803e 43e8 1c3e 459e ed3e 1c63 cdbe
00000300: 3483 85bf 615a d93d 08d5 67bf 5eb0 63be
00000310: c80a 8c3e 7e19 b8be ee49 33bf b1a4 3f3f
00000320: b879 933c 2421 12bf 71c8 e3bd 6764 293d
00000330: fec6 2dbf 6d8b 963d dd6e 173f e789 0a3f
00000340: 5702 a3bd 7a4d 81bf 9f5d 903d 91a3 0b3f
00000350: 12bf 7b3e b3c1 09be af3f 903f 5c77 d33d
00000360: 09f6 18bf 6d2c f6be a6a0 b9be e5d8 43be
00000370: 2af4 34be b01b 2d3d 73ea 66be aa4f 0cbe
00000380: 27be 0d3e 590c 9f3e 567a 6dbf 9683 82be
00000390: 7c90 c43b 8b8d 42bf 9008 cf3e 0696 fa3e
000003a0: 62ca b23e 01e3 a33e bc3f 253f 69a5 e5be
000003b0: ebb6 30bf 37c4 7e3e b01e 3fbf ed82 9ebf
000003c0: d66b 45bf f96d 1abf 50ad 9fbe 3b11 14bf
000003d0: 0cf1 653e 8603 653e bf67 41bf 8852 95ba
000003e0: 2c93 1ebf 5f4e 06c0 f87e 163c 93b5 1c3d
000003f0: 081c 143f bb8d 86bd 296e 3bbf 8d7c 46be
-0.28762782 -0.83905786 0.3468118 -0.5326515 -0.4877474 -0.6434286 -0.36230677 -0.28254917
0.70807976 0.15186405 -0.148788 -0.791683 0.49895552 0.4182207 0.031482328 0.24409987
0.36003134 -0.024496535 0.050742775 0.28132483 -0.41310343 -0.39955208 -0.4767865 -1.2630945
-0.15603831 -0.8530896 -0.18985866 -0.62388414 0.28478286 -0.54197454 0.49588367 -0.57279783
-1.349553 0.049613252 -0.35303935 0.090463355 -0.7054915 0.29750413 -1.3678825 0.14249836
-0.110763565 -0.4592467 -0.03000131 1.1870383 0.25956312 0.58724946 1.149167 0.35120368
0.2726443 -0.03760121 -0.37778252 -0.3943693 -0.317114 -0.78656507 -0.49198586 -0.36863714
0.1307291 -0.44573244 0.068219446 0.3657103 1.0680913 -0.7678148 -0.023805633 0.8244019
-0.10097892 -0.4150595 -0.42592987 -0.96663827 0.12581141 1.0145487 0.9913157 0.18911247
0.5720416 -1.0737677 -0.3475919 -0.11031152 -0.13952315 0.17198136 -0.29881468 1.4052033
-0.5822019 0.18890215 -0.23966426 0.5542537 0.8390826 -0.48024824 0.808357 -0.18787655
0.07289252 -0.4896496 -0.15548716 -0.21302946 0.15619309 0.93674505 0.3396966 -0.559379
-0.42766443 0.8468816 0.88700527 -0.33623073 -0.51856846 0.43792447 -1.2702038 -0.03486445
-1.9350988 -1.0451068 -0.5287091 -0.32314602 -0.4346802 0.12564588 -0.33480418 -0.39609763
0.26121876 0.7033785 -0.39390403 1.6073009 -0.34707645 -0.24094765 -0.6974412 -0.009139168
0.4255561 -0.7266871 0.05132081 0.1861574 -0.17138274 0.07001702 -1.5154337 0.7655798
-0.013303334 -0.37899262 0.2410443 -0.7940494 0.94266635 -0.3601063 -0.027794875 0.3483609
0.35300678 -1.0351044 -0.36952952 0.25276124 -0.34449217 -0.41647294 0.047962528 1.0627792
0.5666026 0.013600559 0.010239233 -0.48470065 -0.1147006 -0.08987135 -0.6277787 -1.1581877
-0.10600172 -0.63163257 0.13655521 -0.3891106 -0.13103902 -0.3399922 -0.6827811 -0.56899303
-0.4405437 0.5171794 -1.8263583 -0.524829 0.4475899 0.13307716 -0.963558 0.59500206
0.26873115 0.73236686 -0.123341076 0.99994093 0.83075225 0.41792402 -0.83721095 0.144154
0.6745043 0.11586081 0.6997123 -0.33485517 -0.5070223 -0.026191914 -0.11538669 0.59966296
0.1049401 0.5557953 -0.2853923 0.11626051 0.25030193 0.15322976 0.46409813 -0.40114677
-1.0430665 0.106129415 -0.90559435 -0.22235247 0.27351975 -0.3595695 -0.7003468 0.74860674
0.018002376 -0.5708182 -0.111222155 0.041355517 -0.67881763 0.07350812 0.5915354 0.5411667
-0.07959431 -1.0101769 0.07049107 0.5454646 0.24584606 -0.13452797 1.1269435 0.103255
-0.5975042 -0.4808077 -0.36255378 -0.19125707 -0.17671266 0.042262733 -0.22550373 -0.13702264
0.13842069 0.31064108 -0.92764795 -0.25491017 0.005998669 -0.7599723 0.4043622 0.48942584
0.3492003 0.32009128 0.64550376 -0.4485276 -0.6902911 0.24879538 -0.746562 -1.2383705
-0.7711767 -0.60324055 -0.31186914 -0.5783879 0.22455233 0.22364625 -0.7554893 -0.0011392394
-0.61943316 -2.0985334 0.009185545 0.0382591 0.5785527 -0.06570002 -0.73214966 -0.1938345

fc2.bias f4 [128]
00000000: 0eec 47be 31c3 87be 58f4 373f 7e0f 7a3d
00000010: cb5b 0e3f c1c8 683d 7d53 d9bd 3afd a63d
00000020: d149 95bd 67cd 02be 061e c7be 7146 ed3d
00000030: 69ed f7be 503b e4bc a5d5 843e 91f2 063f
00000040: b5ee 44be e3a9 5ebe e26d 3ebe 31a7 5f3e
00000050: 7d08 18bf 7ad6 4f3f 8732 8ebd 75ff 453e
00000060: dbd7 4fbe f9f2 67bc c317 14bf ca10 9c3e
00000070: 6982 c63d 4737 4bbd c26f 15be dc91 4a3e
00000080: 206d b03e 9c8d 823e 3f01 c1be 16ce 89bd
00000090: 0818 68bd d9b7 d9bd da97 9d3e 94b7 3b3d
000000a0: 2f8d 21be 4327 edbe 235b c3bc f437 e8be
000000b0: 89ed c4bd 15ea 14be e6ca 933e 7f3f 0abe
000000c0: 6e98 acbe 0d34 8fbe f73d d23e c569 07bf
000000d0: 4fae 01bf e185 c4bd 8cea 81be b51f 0d3e
000000e0: c676 563d 60ed 0a3e de18 68be 762e 2f3e
000000f0: d59b c8bd 95f6 edbd d85e d2be fb6f 02be
00000100: 9a7e aabd 8fe5 87bd 8bcf 06bf 3135 a8be
00000110: ad1d 1fbe 4b5a 28bf 91c0 20be b171 6abe
00000120: c919 413e 667d e4bd 8960 a83e d5e7 393f
00000130: 9dc1 83be c610 16bf 907e a6be be21 d7bd
00000140: 5b77 13be 5bc0 bd3e 3f2c 3f3f 0546 00bf
00000150: 4b51 c2bd 27ad a13e 728d d23e 8a4e 363e
00000160: 98f9 edbd 4c91 0f3e 15d5 c03d 6b25 6c3e
00000170: 71e6 4c3f bda0 88bd 52c7 47bd 1f2c b7be
00000180: a822 13bd 39a5 453f 3c3a fdbe 96cf dbbd
00000190: bf9c 11bc 2dc9 34bf ee8b 20be 03c5 05bf
000001a0: 7c1c bbbd c539 98be c30f 843e 1cff 3cbe
000001b0: f6de cabe 0963 bcbe c9c9 25be 5c48 dfbd
000001c0: 37cf 80be 4d94 a6bd 2b8a f13b f87c ffbe
000001d0: 81ee a3bd b6a2 de3c be61 03be 7a94 0dbe
000001e0: 0284 853a 2ce5 cd3e 9b82 ce3d a302 1abe
000001f0: d412 6c3e 4a31 2abc 3047 b2be c67a 47bd
-0.19523641 -0.26516107 0.71857214 0.06104993 0.55608815 0.05683208 -0.10611627 0.08153768
-0.0728947 -0.12773667 -0.38890094 0.11585701 -0.48423317 -0.027860314 0.25944248 0.52713877
-0.19231685 -0.21744494 -0.18596604 0.21841122 -0.5938795 0.8118664 -0.06943231 0.1933573
-0.20297186 -0.01415705 -0.5784876 0.3048156 0.096928425 -0.049613263 -0.14593413 0.19782203
0.34458256 0.25498664 -0.37696263 -0.06728761 -0.056663543 -0.10630769 0.30779916 0.04582937
-0.15776514 -0.46319017 -0.023847168 -0.4535519 -0.09615619 -0.1454242 0.28865737 -0.13500784
-0.33710045 -0.279694 0.410629 -0.52895766 -0.506566 -0.09595848 -0.25374258 0.13781627
0.052359365 0.13567114 -0.22665736 0.17107567 -0.097953476 -0.116192974 -0.41087985 -0.1273803
-0.083249286 -0.06635582 -0.52660435 -0.32853082 -0.15538664 -0.65762776 -0.15698458 -0.22894932
0.18857493 -0.1115673 0.3288615 0.7261937 -0.25733653 -0.58619344 -0.32518435 -0.10504483
-0.14400999 0.37060818 0.7467689 -0.5010684 -0.09488162 0.31577417 0.4112354 0.17803398
-0.11619872 0.1402027 0.09415642 0.23061149 0.80039126 -0.066712834 -0.04877407 -0.3577585
-0.035921723 0.77205235 -0.49458492 -0.10732953 -0.008887469 -0.7061947 -0.15678379 -0.5225374
-0.09136292 -0.29731575 0.25793275 -0.18456692 -0.3962323 -0.36794308 -0.16190256 -0.10902473
-0.25158092 -0.08133755 0.0073712072 -0.4990003 -0.080044754 0.027177196 -0.12830254 -0.1382617
0.0010186436 0.40213907 0.10083505 -0.15040068 0.23054057 -0.010387728 -0.34819937 -0.04870107

fc3.weight f4 [128, 128]
00000000: 3ed4 083e f23e 163e 79ac 1f3d b28b f5be
00000010: 98b1 a5be 710e f7be 1601 5ebd 1251 75bd
00000020: 45a5 363d ee34 6abf ed3b 7cbd 1232 1abf
00000030: deb5 d8bd 22ea 58bf d97c 3bbe c970 d63e
00000040: 4228 16bd dc00 633f 4000 513f d387 27bf
00000050: aaae 083f 70fb d8bd 84f5 98bf 5d24 31be
00000060: 3774 ff3e 0cd9 f1bd 9bca 88bf 22e3 a5be
00000070: 338a 35be 4ec1 3c3f f547 49bd 6686 44be
00000080: a6f0 08bf b358 073d 8169 c3bd 892d 13bc
00000090: d1fd 2fbf 4439 e93c 88aa a2be 1509 e73d
000000a0: 8847 35bd dbc9 31bf fb46 193e 9ad9 65be
000000b0: 1e0b 53bd cd96 713d 42f2 693e 38cc 8b3d
000000c0: 2de3 59be d692 263f 3221 c2bd 50a5 afbd
000000d0: 530f 0a3e 34c4 ab3c bc7e 413f b504 b73e
000000e0: cec9 9bbf 7e76 89bc 97c9 af3e eb05 8fbe
000000f0: 6c79 8bbe bc13 e5bc f303 72be dc8e c1bd
00000100: b229 8abd 8a54 bbbd b9d6 a2bf c9ba 8abe
00000110: c5f2 b83c 81f0 3c3f 23a3 92bd 3c8d e93d
00000120: 5949 a9be f7fa 60bf 0ffa 14bf 00db 0dbf
00000130: 2a63 adbf 5e5e 2abf 37ec c83d fc44 e8be
00000140: cfc3 373d efdc 13bf 77e7 0dbe eccf cbbf
00000150: e4a3 d53d 2601 10be 955e a0be 294b 5bbf
00000160: eaec 513d 3097 6c3f a652 073e 49e2 843e
00000170: 4f44 7c3e af97 cdbe 6119 31bc 0de5 253d
00000180: 22a8 693d ee87 edbe 2006 6d3e 5121 22bd
00000190: ef0e 92bd 99e3 473f 2a21 113d f296 32be
000001a0: 016f b33d a349 0a3e 6fbc ec3d 1379 9abe
000001b0: b1b3 bebe b8c8 883e dec3 573d f0f1 d9bc
000001c0: 1f16 643f c6b1 e03e 6e8d 2ebe 4b61 03bf
000001d0: 8dc7 a1be 3337 953e 5178 a9bd fe62 5f3d
000001e0: a37e d8bf 8dea 68bf fa94 1cbf 6645 a83d
000001f0: cacd 4abf f04b ecbe 2ea9 b53c 6d11 28be
00000200: 23a8 1a3d 9720 0c3b 9b87 233d 5e86 21bd
00000210: 9ee2 a7bd b01c cebd 7c5e 0c3d 08cc 4b3c
00000220: f442 003d 52eb d3bc 9a10 b8bd b807 36bd
00000230: 104b 95bb 30d1 d6bb 9947 ab3c 70f3 45bc
00000240: 6cad 8ebd ab50 d0bd 4be5 cf3c 3db9 7fbd
00000250: 5cd8 05bc f407 e9bd f63d 8d3b 01d3 e4bd
00000260: fb04 c63c e085 c7ba 95dc 6abd 2826 4bbc
00000270: 06d6 8ebd 815f cabd 4bf1 d5bd 51f7 dcbd
00000280: 6539 b93c 2a23 77bd 10a1 473d f580 373d
00000290: 8222 4fbd 4734 963d 8e9d 013b 36ff 80bd
000002a0: 2380 a53d 1e20 62bd 672e 613d c15a b6bd
000002b0: e3be 01bd e88a fbbc a278 0bbd 5800 073d
000002c0: 0efa 9bbd 4f58 e2bb 1a7d 04be c15c f23c
000002d0: d33b d03b 1059 13bc 13d7 f13c 3898 0fbe
000002e0: 68f6 babd a24a 9fbd 9e74 87bc 4068 09bd
000002f0: 5935 d2bd d892 d5bc 22a1 653d 8015 973c
00000300: dab5 2d3d 8027 683a a8fc 9abc 60c3 a53b
00000310: 2ab7 673d 6c5b f2bd 7668 7f3d 571c 7fbc
00000320: f612 a6bd de4c 603c 7efa 72bd e0c8 f0bb
00000330: c851 c5bd 78cc f0bb f4c1 9cbd 2954 a1bd
00000340: 889b 8ebc 0cba 93bd f1a9 d3bd f9df 18be
00000350: f4c0 abbc 2e4a 44bd ac3b abbd 048d 663b
00000360: 209a 64bb ab1c a8bd 77b8 9a3d d0a7 c0bc
00000370: 3bf9 9a3d 5cec 65bd f8c3 8e3c 1fb6 073c
00000380: 091d 99bd 9e9f efbd 7d46 f1bd 1011 ebbb
00000390: f8c8 d0bd 20e0 55bb b0a3 f93c d430 e1bd
000003a0: 9046 563c c655 8b3a 068d b03c 93af 59bd
000003b0: 34fe 8fbd bce4 fa3c 90ef a7bd a89b 9dbd
000003c0: 7ec8 4bbd 6aed 45bd 8a9d 93bd 2cd7 d4bb
000003d0: 27c8 383b ec94 963c 1f01 8f3d b0e7 653c
000003e0: 1e8f d2bd 1330 803b a8e1 b0bc d8a0 b9bc
000003f0: 8363 70bd f242 6cbd 2ff9 7e3c 7fc1 9ebd
0.13362214 0.14672449 0.038982842 -0.47958142 -0.32362056 -0.48253205 -0.054200254 -0.059891768
0.044591207 -0.91487014 -0.061580587 -0.6023265 -0.105815634 -0.8473226 -0.18309344 0.41882923
-0.036659487 0.88673186 0.81641006 -0.65441626 0.53391516 -0.10594833 -1.1949925 -0.17299028
0.49893352 -0.118089765 -1.068683 -0.3239985 -0.177285 0.7373246 -0.04914089 -0.19191894
-0.534922 0.033043575 -0.09541608 -0.008983024 -0.6874667 0.02846969 -0.3177073 0.11281029
-0.04425767 -0.6944863 0.14968483 -0.2244629 -0.051524274 0.058981705 0.2284632 0.06826061
-0.21278067 0.65067804 -0.09478988 -0.08576453 0.13482408 0.02096758 0.75584006 0.3574578
-1.2170961 -0.016780134 0.34333488 -0.27934203 -0.27241075 -0.027963512 -0.23634319 -0.094510764
-0.06746234 -0.09146984 -1.2721778 -0.2709563 0.022576699 0.7380448 -0.07160022 0.114038914
-0.33063772 -0.8788294 -0.5819406 -0.5541229 -1.3545887 -0.6655024 0.098106794 -0.4536513
0.044864472 -0.5775899 -0.13857828 -1.5922828 0.1043165 -0.14062938 -0.3132216 -0.8566156
0.05125133 0.92418194 0.13215122 0.25953892 0.24635433 -0.40154788 -0.010809273 0.040501643
0.05704511 -0.4639277 0.23146868 -0.039582554 -0.071317546 0.7808166 0.03543202 -0.17440394
0.08761407 0.13504653 0.11559378 -0.30170497 -0.3724647 0.26715636 0.052677028 -0.026604623
0.89096254 0.4388563 -0.17046139 -0.5132033 -0.31597558 0.29143676 -0.08274902 0.054537766
-1.6913646 -0.90982896 -0.6116482 0.08216362 -0.7922026 -0.46151686 0.022175398 -0.16412897
0.037758004 0.002138173 0.039924245 -0.039434783 -0.08197521 -0.100640655 0.034269795 0.012438782
0.03131385 -0.025869045 -0.089875415 -0.044440955 -0.0045560673 -0.006555699 0.020908164 -0.012081966
-0.06966671 -0.10171636 0.02537789 -0.062432516 -0.00816926 -0.1137847 0.004310365 -0.11173058
0.024172297 -0.0015222393 -0.05733927 -0.012399234 -0.069744155 -0.09881497 -0.104464136 -0.10789359
0.022610376 -0.06033627 0.048737586 0.044800717 -0.05057002 0.0733419 0.0019777748 -0.062986776
0.08081081 -0.05520641 0.054975893 -0.08904029 -0.031676184 -0.030705884 -0.03405059 0.032959312
-0.076160535 -0.0069075 -0.12938347 0.029585244 0.006354788 -0.008993402 0.0295215 -0.1402291
-0.091290295 -0.07777907 -0.0165351 -0.033546686 -0.102640815 -0.026070997 0.05606187 0.01844287
0.042409755 0.00088559836 -0.018919304 0.005058691 0.056571163 -0.118338436 0.06235548 -0.015570722
-0.08109085 0.013690202 -0.05932092 -0.007348165 -0.09634739 -0.0073485933 -0.07654181 -0.078773804
-0.017408147 -0.0721322 -0.10335148 -0.14929189 -0.02096603 -0.047922306 -0.08360991 0.0035179267
-0.0034881905 -0.08208593 0.07554715 -0.02351752 0.07567068 -0.056133613 0.01742743 0.008283167
-0.07476241 -0.117003664 -0.11781023 -0.007173665 -0.10194582 -0.003263481 0.03047356 -0.10995641
0.013078347 0.0010630421 0.02155162 -0.053145956 -0.07030907 0.030626647 -0.0819999 -0.07695705
-0.04975175 -0.04832212 -0.072077826 -0.006495377 0.0028195472 0.018381558 0.06982636 0.014032289
-0.10281204 0.003911981 -0.021591976 -0.022659704 -0.05868865 -0.05768103 0.01556234 -0.0775175

fc3.bias f4 [128]
00000000: b96c 44bf 36e9 18be 94cf 9fbd c260 a7bd
00000010: fc9d 3cbd 9d0f 80bd 1c38 953f a1ed a23e
00000020: 2c74 553f eba5 ccbd 3c8e 543e dee5 ad3f
00000030: c92b 553f 83a0 b7bc f7b9 13be 09ec 213f
00000040: 5fcf 6abf ccdf 913f 9618 01be e74a 34bf
00000050: fb1e bdbd b23e 0fbe 4b64 9dbd d2ca 42bc
00000060: 803c 5e3f 0922 06be 9fba 813f c5eb e2bb
00000070: eea0 b6be a06c acbd 1720 aabd a170 37be
00000080: d738 f1bd e1fd 23be 6be5 15be caf4 ad3f
00000090: bc88 05be e8fa 46bd 9ca9 dbbd b424 a5bd
000000a0: 224c e73e 3d90 00bf d9e7 05be 30c6 883e
000000b0: 60e2 5bbd 617c 023d afec 1abf 3731 0dbe
000000c0: 0280 893f 6115 9d3f 6b0d 6fbe 860a f5bd
000000d0: 5f67 a5be c174 d0bd 8344 9cbe 357a 14be
000000e0: 3c2a 14be db6f 61be f56f da3e f760 953e
000000f0: bbd9 903f 1289 c6bd 6736 563f 6821 97be
00000100: e192 93bd 1c70 07bf cc0a d1be 206a 123f
00000110: f3d1 a9bf 53a1 09be 4c5b 7e3e 9f68 24be
00000120: 8bbe ff3e ef3c aa3f 4f11 e5bc 6f78 d83e
00000130: 9d63 c5be 6434 81be 0bf7 2b3e 92c7 be3f
00000140: 1550 0c40 56ff af3f 1b8d a8be 163a 7cbd
00000150: efea ebbc a8cc 70be 3338 97bd c509 a63e
00000160: dcc7 5cbd b2dc 0a3f 7e02 c8bd 0c71 7a3e
00000170: 53f0 06be b542 c3be 6d45 af3d 5e05 bb3e
00000180: 781d d93f 3644 1d3f d0e8 1c3f f6b2 11be
00000190: 8e30 febd 569c 4b3c f970 e7bd 46a0 dd3f
000001a0: b52f ff3e 0a19 843f 83f1 3ebe ed38 04be
000001b0: db64 0cbf 7e7e f8be 7f70 9f3f 650e 263e
000001c0: 031e 1dbe 6e13 2c3f 6fb8 f2bd 53f7 e1be
000001d0: 7fad 84be 7d24 8c3f e0fa 17be a204 a43f
000001e0: 9466 873f 0b20 333f 4428 1dbd 37c7 83bd
000001f0: 93a1 87bd d0af 5e3f 838f 6c3f 231e be3f
-0.767284 -0.14932713 -0.07803264 -0.08172752 -0.046049103 -0.06252978 1.1657748 0.3182192
0.8338039 -0.09992584 0.20757383 1.3585775 0.83269936 -0.022415405 -0.14426409 0.63250786
-0.91722673 1.1396422 -0.12607035 -0.7042679 -0.09234425 -0.1398876 -0.07685145 -0.011889176
0.86811066 -0.13098921 1.0135077 -0.0069250786 -0.35669655 -0.08419156 -0.08306902 -0.17914058
-0.117784195 -0.16014816 -0.14638297 1.3590329 -0.13040441 -0.048579127 -0.1072571 -0.08063641
0.45175272 -0.5022009 -0.13076724 0.26713705 -0.053682685 0.0318569 -0.605174 -0.13788305
1.074219 1.2272149 -0.23344962 -0.11964898 -0.32305428 -0.10178519 -0.3052102 -0.14499743
-0.14469236 -0.22015326 0.4266354 0.2917554 1.1316446 -0.09694113 0.8367676 -0.29517674
-0.07205749 -0.5290544 -0.4082855 0.57193184 -1.3267196 -0.13440447 0.24839514 -0.16055535
0.4995006 1.3299845 -0.027962355 0.42279384 -0.3855256 -0.25235283 0.16793458 1.4904654
2.1923878 1.3749797 -0.32920155 -0.061578833 -0.028798549 -0.2351557 -0.07383766 0.3242933
-0.05390154 0.54243004 -0.097661 0.24457186 -0.13177614 -0.3813683 0.08558164 0.36527532
1.6962118 0.61432207 0.61292744 -0.14228424 -0.12411605 0.01242741 -0.11300845 1.7314537
0.49841085 1.0320141 -0.18646817 -0.1291234 -0.54841393 -0.48534006 1.2456206 0.16216429
-0.1534348 0.6721715 -0.11851584 -0.44134006 -0.25913617 1.0948635 -0.14841795 1.2813914
1.0578179 0.6997077 -0.03836848 -0.064344816 -0.06622615 0.8698702 0.9240648 1.4852947

fc4.weight f4 [32, 128]
00000000: e0ee 81bc d0fa 8abc eb47 3bbd 0051 3cbb
00000010: bc8e 92bd 1508 25bd 0027 9bbc d1c6 683d
00000020: c283 aabd eaaf 153d 323f 5bbd 3556 123c
00000030: ea46 b8bc 782d cc3c 7fc8 09bd b905 03be
00000040: 02e8 8cbd 376e 2abd 3662 783d 2c14 3bbd
00000050: e04c 2bbb 16bf 24bd 100e d0bc 40fd fd3c
00000060: f458 edbd 30fa 9fbb 718d 98bd c8cc d7bd
00000070: fc94 00bb bbc8 92bd d4e9 94bd 985f 743a
00000080: 7bd1 ac3d 8647 18bd 80d2 0dbc b054 78bd
00000090: 3a53 a2bd 48ad dc3c 5d94 8ebd 5839 11bd
000000a0: a7b8 82bc 36e2 063d 9e7e acbd d6f6 0f3d
000000b0: 28f6 83bc 0240 603d 72cf ed3c c88e 083d
000000c0: 4405 16bd fef8 94bd 09db 8cbd 3ad2 643d
000000d0: d986 4dbd 41cf f9bd 8385 c73c 2663 583d
000000e0: 0c33 893c 904f 693c 2283 8dbd a314 dbbd
000000f0: 0a37 1d3d 762e a8bd fec4 2dbe 3751 1bbc
00000100: 343e d13c 5d14 253d 1d78 39be 37da c9bd
00000110: bbb3 c0bd 6ef1 303d cdab 9cbd d63c 083d
00000120: 47bd 12be 35fe d3bd 5fb1 e439 1fa8 f4bd
00000130: 4f27 1d3d 21de 083d 3420 d4bc 1c48 05bd
00000140: 77fb f63b db2c 503b bbe8 a1bc d007 eebb
00000150: 82a3 94bd 604c a1bd 2a65 41bd 1aec 37bd
00000160: 8cd3 cb3c 67dc 163d c258 203d c773 75bd
00000170: b483 7abd cdbf 50bc 1039 0ebe 67a2 f0bc
00000180: 3d44 23be 9c8c dc3c 6960 51bd aee2 1d3d
00000190: 4e90 e6bc 0c09 91bc 1bb3 96bd 17cd 23bd
000001a0: 57c5 0fbe 8391 2bbc b672 a6bd 6a1a 7dbd
000001b0: 5b23 c4bd b492 c7bd 64d0 19be 4751 f1bc
000001c0: 7377 f8bd 11d1 dabb a309 933d fcc0 d13c
000001d0: aaba 88bd 6497 48bd faf3 563d 8ca4 1cbe
000001e0: 4e74 a1bd 85b9 80bd 34bc 003d 0004 86ba
000001f0: 72f0 29bd 6fbd 57bd 23c7 0dbe d009 c7bd
00000200: ed4c 163c 35ea 61bd eab2 fe3a 31d7 0bbd
00000210: 0d31 39be 01cd 56bd 1861 acbc f6fc 77bd
00000220: 0fb8 4dbd 101d cd3c 0d71 e73c 654e 7dbd
00000230: c409 4bbd 4d41 8ebd 0346 80bd 11c6 123b
00000240: 679c bcbd fe5c 8bbd a202 723d 3c34 afbc
00000250: 7060 f63b ba0f 223d 33e6 7f3c 5ae5 e63c
00000260: 1be3 c0bd f0c6 113d fdbd cebd 7871 80bd
00000270: 2d92 95bd ca1b 693d 00d0 d237 3da8 47bd
00000280: 1de3 8a3d 279a 49bd 80ca 9ebd 6854 803c
00000290: b044 3ebc e9c2 99bb 4953 553c 87b9 a2bb
000002a0: 9e00 d7bd df27 e33c 1b77 ae3d 87e6 39bd
000002b0: d5bd b23d a0d3 0a3d 7ec7 f13b f0f0 c23b
000002c0: a12d bfbd 957a 18bd b662 25bc c673 1b3d
000002d0: a28d 17bc 5494 debd 6eea 03bc a803 4e3c
000002e0: 8e8d 4a3d cc51 9ebd e2c2 65bd f2fc 2ebd
000002f0: 6d23 f6bc 86f7 7c3d ea22 44bd 82b8 4bbd
00000300: 4a67 aabd 66b3 f9bc 447e 1cbc 8a53 0a3c
00000310: a82c 743c e13c 97bd 2a2d 81bd 55a3 943d
00000320: cd27 bfbd 8c9e 89bd aca9 e5bd 966d 21bd
00000330: 9ff5 2ebd ec97 d5bd 51be d5bc 19fb a1bd
00000340: 05f5 adbd 02cc 4b3d c287 89bd 4440 2e3d
00000350: 8e00 803c eb3a 443d a1eb 5fbc 6563 87bd
00000360: 48fa b13c d03a b7bc 8ee5 233d 7c9d e93c
00000370: 8e60 513d cbbd 5cbd 03c1 2fbd 756e 6fbd
00000380: 07b8 b5bc 552f f7bd 5a31 4fbc f032 89bd
00000390: aab4 5dbd 6aef 463d 5b8b a73d b848 77bd
000003a0: 2f44 64bb a7d0 143d e8ab 153c e120 aebd
000003b0: 5d09 64bd 52f0 9f3c 9016 51bd 40df edbd
000003c0: ce1c 05be cb0b 02be 40ee 37bc cd4b a03d
000003d0: e4bd 8b3d 4c0f acbc 4a15 16bd 4b8d e83b
000003e0: 5e59 093d 5fed adbd ab4b bb3c acd8 b93c
000003f0: 40fb a33b 968f e33c c237 613c c0c2 bebd
-0.015860975 -0.0169653 -0.045722883 -0.0028734803 -0.07156131 -0.04029091 -0.018939495 0.05683023
-0.08325912 0.036544718 -0.053527065 0.008931686 -0.022494752 0.024924025 -0.033638474 -0.12795152
-0.068801895 -0.041609015 0.060640536 -0.045673534 -0.002613835 -0.040221296 -0.02539733 0.031004548
-0.11589232 -0.0048821196 -0.07448853 -0.10537106 -0.0019620052 -0.071671925 -0.07271162 0.0009322106
0.08438393 -0.037177585 -0.008656144 -0.06062764 -0.079260305 0.026938096 -0.06961892 -0.035455078
-0.01595719 0.032930575 -0.08422588 0.03514751 -0.016108587 0.054748543 0.029029582 0.03333929
-0.036626115 -0.07274054 -0.06877715 0.05586455 -0.05017743 -0.12197734 0.024355656 0.05282893
0.016747974 0.014240161 -0.06909777 -0.106972955 0.038382567 -0.08211987 -0.16969678 -0.009479812
0.025542356 0.040302623 -0.18112226 -0.09856074 -0.09409281 0.043198995 -0.07649956 0.033261143
-0.14330016 -0.103512205 0.000436197 -0.11946129 0.038367566 0.033414964 -0.025894262 -0.032539472
0.007537301 0.0031765017 -0.019764295 -0.007264115 -0.07257749 -0.078758955 -0.04721562 -0.0449029
0.024881147 0.036831286 0.039147146 -0.059924867 -0.06116076 -0.012741041 -0.13888955 -0.029374314
-0.15944 0.026922517 -0.051117335 0.038546257 -0.028144982 -0.01770451 -0.073583804 -0.03999051
-0.14040123 -0.010471704 -0.08127348 -0.06179277 -0.09577056 -0.09744778 -0.15020901 -0.029457701
-0.12132158 -0.0066777547 0.071795724 0.025604717 -0.06676228 -0.048972502 0.052478768 -0.15297145
-0.078835115 -0.06285385 0.031429484 -0.0010224581 -0.041489072 -0.052670892 -0.13845496 -0.097186685
0.009173614 -0.055154998 0.0019431983 -0.03414077 -0.18085118 -0.0524416 -0.021042392 -0.060543977
-0.05022436 0.025038272 0.028252149 -0.06184234 -0.04956986 -0.06946049 -0.06263354 0.0022395889
-0.09209519 -0.06804846 0.059084542 -0.021387212 0.0075188205 0.03956578 0.015618849 0.028185535
-0.09418317 0.035590112 -0.10094831 -0.062716424 -0.073032714 0.056911267 2.5130808e-05 -0.04874443
0.067816 -0.049219277 -0.077534676 0.015665248 -0.011613056 -0.0046924246 0.013020345 -0.0049659642
-0.104981646 0.027728973 0.08518811 -0.045385864 0.08727614 0.033893228 0.0073785177 0.005949132
-0.09334875 -0.03722628 -0.010094335 0.037952207 -0.0092500765 -0.10868135 -0.008051498 0.012574114
0.049451403 -0.07730445 -0.056094058 -0.042721696 -0.03004619 0.061759494 -0.04788486 -0.049736507
-0.08320482 -0.030481052 -0.009551588 0.008442769 0.014903225 -0.073846586 -0.063074425 0.072577156
-0.09333763 -0.067196935 -0.11214003 -0.03941115 -0.04271471 -0.104293674 -0.026091726 -0.07909221
-0.084939994 0.049755104 -0.06715347 0.042541757 0.015625264 0.04790775 -0.013667018 -0.06610755
0.021725789 -0.022366911 0.040013842 0.028517477 0.051117472 -0.05389194 -0.04290868 -0.05845495
-0.022182478 -0.12069575 -0.012646044 -0.06699169 -0.054127373 0.048568167 0.08180877 -0.060372084
-0.003483068 0.0363318 0.009135224 -0.08502365 -0.055672992 0.019523773 -0.051046908 -0.11614847
-0.1299927 -0.12699811 -0.011226237 0.07826958 0.06823328 -0.021003388 -0.036641397 0.0070969216
0.033532493 -0.084925406 0.02286323 0.022686325 0.0050043166 0.027778428 0.013746204 -0.09314489

fc4.bias f4 [32]
00000000: 8932 f7bd de52 82bd 4cc2 b63f e609 013f
00000010: 0e3d 8c3f 79a8 8d3f 134f 5d3f 4292 a43f
00000020: 8b84 bcbd 57ce 10be 3093 db3f c481 8b3d
00000030: 2c52 5f3f 8f7c e83f 1e0b 1ebe 7c13 583f
00000040: e1c6 ed3f 67e2 8b3f df37 953f ecd6 4abd
00000050: c75f 9dbd cea4 b4bc 56fb d83f cbc1 00bd
00000060: 434f 4a3f 066c 633f 650a 273e 843e b03f
00000070: 0516 90bd 4ab3 59bd 51f6 3c3f 9c5c cc3f
-0.12070186 -0.06363462 1.4278045 0.5040573 1.0956132 1.1067039 0.8644878 1.2857134
-0.09204968 -0.14141212 1.7154293 0.0681186 0.8723476 1.8163012 -0.15433928 0.8440473
1.8576318 1.0928468 1.1657676 -0.04952137 -0.07684284 -0.022051241 1.6951702 -0.031434815
0.79027194 0.88836706 0.16312559 1.3769078 -0.0703545 -0.0531495 0.7381335 1.5965762

fc5.weight f4 [4, 32]
00000000: b802 25be a100 293d 18b3 73be 73ce 2f3e
00000010: f6af 5d3d 8e97 a1bd 0a5b 603e 947c a33e
00000020: aac6 d2bd 0e84 c43d 8c5d 8ebd 5e9b df3e
00000030: 8c5c 49be d394 333f 6f32 0c3c 9a7e 1e3d
00000040: b412 09bf 2e46 0c3e 683d babe 447e e4bd
00000050: 11f7 28be a74f d03d 2da5 94be d142 29bd
00000060: 2836 39bc abed 463e fd54 803e 35cc b1be
00000070: 1b5b 663c aedc 4e3d f567 893c a2c6 cd3e
00000080: cc13 8a3c fd67 c5bd 454e 7dbe 3b18 6d3e
00000090: 994f 663d 4e77 02be f251 8b3e 44f5 a73e
000000a0: 153a a23d 0369 97bd 51ca d5be 67ba 35bf
000000b0: a516 ff3d 15f3 1c3f 78c5 86bc 0c0b c8bd
000000c0: 00cd dbbe e2b4 1e3e e090 af3e 353e 923d
000000d0: 7b91 a03b 0e25 c7bd c42e bebd e842 a23c
000000e0: 6a31 98be f598 fdbe 7f93 343e 8473 4d3e
000000f0: 34dc 923d 26b3 38bd 186d 8e3d a09e aabe
00000100: b27f 863d 05dd e4bc a53d db3d bbc1 23be
00000110: 5053 5fbe 5c89 47bd 0b33 60be 0f97 e23e
00000120: 5a3a 063d 8638 1b3d 1c48 fabe a976 773e
00000130: 3736 3a3c 23a0 e83e cd8f 3abc d3ed d23e
00000140: b4e9 54be 7fc3 be3e 608d 6a3e a0e7 953d
00000150: be0d ffbd ed4d 5fbf 4d14 b9be dd63 d33d
00000160: 2b89 c13e 09af 743e c38a b8bd 32e5 423b
00000170: d903 08bd e2fc 063e 27f2 b93e 4e2e a7bd
00000180: d7cc 46bd 0798 083e 9217 c7be e5ee b4bd
00000190: 14d9 b5be d686 123f 8819 c33e 5c67 b33e
000001a0: a1e5 953d ee6a 043e 2e44 07bf eeb7 973e
000001b0: 04be abbd 4c4f 8c3e 35d0 adbd 0469 b23d
000001c0: 38d0 35be 9a05 823e 0e7d 853e 4c02 583d
000001d0: d61f 363d fd4e 85bc db91 3b3e f373 4abd
000001e0: 3104 5dbe 6277 803e 914a 5abe 1aea 40bd
000001f0: 0f6e f3bc 555b 4abe 79b0 d5be 15c2 1ebc
-0.16114318 0.041260365 -0.23798788 0.17168598 0.054122888 -0.07890235 0.21909729 0.31930983
-0.102917984 0.095955 -0.069514364 0.43673223 -0.1966421 0.7014896 0.008556946 0.038694955
-0.53544164 0.13698646 -0.36374974 -0.11156896 -0.16500498 0.101714425 -0.2903227 -0.041323487
-0.011304416 0.194266 0.2506484 -0.3472611 0.014059807 0.050503425 0.016773203 0.40190607
0.016855143 -0.09638975 -0.24736889 0.23153774 0.056228254 -0.12740824 0.27210957 0.3280431
0.079212345 -0.07393076 -0.41755918 -0.7098755 0.12455491 0.61308414 -0.016451582 -0.09767732
-0.4292984 0.15498689 0.34290218 0.07140771 0.004900155 -0.097238645 -0.092862636 0.019807294
-0.297252 -0.4953076 0.1763439 0.20063597 0.07170907 -0.045092724 0.06954402 -0.33324146
0.06567325 -0.027937422 0.10705117 -0.15991871 -0.21809125 -0.04871498 -0.21894471 0.44255874
0.032770492 0.0378957 -0.4888314 0.24166359 0.011365465 0.45434675 -0.011386824 0.4119707
-0.20792276 0.37258527 0.22905493 0.073195696 -0.12453793 -0.8722828 -0.361483 0.10321782
0.37799963 0.23894896 -0.09010842 0.0029738662 -0.033206794 0.13182405 0.3631756 -0.08163129
-0.048535194 0.13339244 -0.3888517 -0.08834628 -0.3551718 0.57236993 0.38105416 0.35039794
0.07319189 0.12931415 -0.5283841 0.29632515 -0.08385852 0.2740425 -0.08486978 0.087114364
-0.1775521 0.253949 0.26071972 0.052736565 0.044463955 -0.016273016 0.18317358 -0.049426984
-0.2158363 0.25091082 -0.21317507 -0.047098257 -0.029715566 -0.19761403 -0.417362 -0.009689827

fc5.bias f4 [4]
00000000: 3a0b 90be d08f 993d 72d2 aebe f6f7 cbbd
-0.28133565 0.07498133 -0.34144932 -0.09959404
