DQN_models/model_updaterate500_gamma0.99_alpha0.0001_static.pt (torch, 416851 bytes, 10 tensors)

fc1.weight f4 [128, 514]
0	0x3ceef3a8	0.029168919
1	0xbd1737fd	-0.03691863
2	0xbd12406f	-0.03570598
3	0x3cbbd3fc	0.02292823
4	0x3c9c196c	0.01905509
5	0x3c6f5fec	0.014610272
6	0xbcfe1732	-0.03101692
7	0x3d0dc220	0.03460896
8	0xbb0529b0	-0.0020319037
9	0xbcfd2fc3	-0.030906564
10	0xbc9473ff	-0.018121717
11	0xbca88646	-0.020571839
12	0xbc90e20b	-0.01768591
13	0xbd0b6be6	-0.034038447
14	0xbd323486	-0.04350712
15	0x3d072a8e	0.032999568
16	0xbc68dbd8	-0.014212571
17	0x3d1b9c5a	0.037990905
18	0xbc90bc82	-0.017668013
19	0xbc131f14	-0.008979578
20	0x3ba90018	0.005157482
21	0x3cccda98	0.025006577
22	0xbbfc01f8	-0.0076906644
23	0xbc437b5c	-0.011931267
24	0x3da6f33c	0.08151862
25	0x3df3d7fe	0.119064316
26	0xbe06e318	-0.13172567
27	0x3ddb643e	0.10712479
28	0x3d2f09a6	0.04273381
29	0x3d7de318	0.06198415
30	0x3d7be529	0.06149784
31	0x3bf7ae67	0.007558632
32	0xbdab2e15	-0.08358399
33	0xbd9dc4cc	-0.07703552
34	0xbd9f8a1e	-0.07790016
35	0xbda4c659	-0.08045644
36	0xbe17b528	-0.148152
37	0x3db9be05	0.090694465
38	0x3d47e0fd	0.04879855
39	0x3b62be54	0.0034598308
40	0xbd0bfe1e	-0.034177892
41	0x3dc08924	0.094011575
42	0x3c3c264c	0.01148374
43	0x3c6f5fec	0.014610272
44	0x3cb509c0	0.022099376
45	0x3d1b9e12	0.037992544
46	0xbd9327f5	-0.071853556
47	0x3d5a444b	0.053287786
48	0x3db35344	0.08756116
49	0x3b8d9624	0.0043208767
50	0x3e0f4feb	0.1399533
51	0x3d512664	0.051062003
52	0x3ca443f3	0.020051932
53	0xbe24159d	-0.1602387
54	0xbd2b369c	-0.041800126
55	0xbc9dfc67	-0.019285394
56	0xbde4458e	-0.11146079
57	0xbd8b9f96	-0.06817548
58	0xbdb0cce7	-0.08632832
59	0xbdea0901	-0.114274986
60	0x3db1afb5	0.086760916
61	0xbdfc2e9b	-0.12313577
62	0xbd62e69d	-0.05539571
63	0x3d926f6c	0.07150158
64	0xbc7696c0	-0.01505059
65	0xbb38df20	-0.0028209165
66	0xbcba024f	-0.022706179
67	0xbd104074	-0.035217717
68	0xbd372c1f	-0.04471981
69	0x3d79d8b3	0.060997676
70	0x3dea9fad	0.11456237
71	0x3bb69228	0.0055716224
72	0xbcbf9e75	-0.023390988
73	0xbd1bb563	-0.03801478
74	0xbd2ec828	-0.042671353
75	0x3c14ff5d	0.0090940865
76	0xbc99e03f	-0.018783687
77	0x3cdb945c	0.026804142
78	0xbe8ac2c7	-0.27101728
79	0xbe3da41d	-0.18519635
80	0xbdcec7ac	-0.10096678
81	0xbcc9ea9c	-0.024648003
82	0x3bc78da8	0.006089885
83	0xbe15ce8d	-0.14629574
84	0x3c43c22c	0.01194815
85	0xbd1357c5	-0.035972375
86	0x3c11f540	0.00890857
87	0xbd08cbdc	-0.03339754
88	0x3c41718c	0.011806857
89	0xbb921b50	-0.0044588223
90	0xbd3bb968	-0.045831114
91	0x3d749b68	0.05971852
92	0x3cbc0eb2	0.022956226
93	0x3c41fb7c	0.011839744
94	0x3c3a2bb8	0.011362962
95	0xbe485250	-0.1956265
96	0xbab43d13	-0.0013751112
97	0xb963159c	-0.00021656457
98	0x3d264e2e	0.0406019
99	0x3d301634	0.042989925
100	0xbe811a81	-0.25215533
101	0xbe514da0	-0.20439768
102	0x3c130be0	0.008974999
103	0x3ca78130	0.020447344
104	0x3cbf4840	0.023349881
105	0xbdde0ef7	-0.10842698
106	0xbc9bdc12	-0.019025836
107	0x3d29e9ac	0.041482612
108	0x3d0ea628	0.034826428
109	0xbb841430	-0.004030727
110	0x3cba8edc	0.022773199
111	0x3ce13940	0.02749312
112	0xbdf4f183	-0.11960127
113	0x3d0c64e0	0.03427589
114	0x3d87f22e	0.06637989
115	0xbce45d2c	-0.027876459
116	0xbcdd0132	-0.026978109
117	0xbc1cad49	-0.009562799
118	0x3b20646f	0.0024473926
119	0xbc1bd5f6	-0.0095114615
120	0xbaaa2660	-0.0012981407
121	0xb9dbab80	-0.00041898713
122	0xbe99c5a4	-0.300336
123	0xbe02b036	-0.12762532
124	0x3d414ad7	0.047190513
125	0xbcf56a71	-0.029957982
126	0x3c5ca2f8	0.013466589
127	0xbe3102b3	-0.17286186
128	0xbdefdf05	-0.117124595
129	0xbd6b4da9	-0.05744711
130	0x3c996110	0.01872304
131	0xbbee6e90	-0.0072763637
132	0xbc7a467e	-0.015275596
133	0xbd0873ae	-0.033313446
134	0xbde70f96	-0.1128227
135	0x3dbd523e	0.09244202
136	0xbdba0e42	-0.09084751
137	0xbc493448	-0.012280531
138	0x3b849810	0.0040464476
139	0xbdaf0835	-0.08546487
140	0xbd144666	-0.03619995
141	0xbdac368e	-0.08408843
142	0x3b6a92d0	0.0035793073
143	0x3cf56588	0.02995564
144	0xbe2f899e	-0.1714234
145	0xbe15a68a	-0.14614311
146	0xbe0103c2	-0.1259909
147	0xbc65d576	-0.014027944
148	0xbd263a1c	-0.04058276
149	0xbe3d0772	-0.18459871
150	0xbe02922b	-0.12751071
151	0x3c5cc078	0.0134736225
152	0xbd23ce88	-0.039991885
153	0xbd060688	-0.032721072
154	0xbb957740	-0.004561335
155	0xbc19ee78	-0.009395234
156	0xbde86937	-0.11348193
157	0xbc3cddb2	-0.011527466
158	0x3dca2ee4	0.09872225
159	0x3c306968	0.010767318
160	0x3c6f1a3c	0.014593657
161	0x3b34fb31	0.0027615542
162	0xbc645e86	-0.013938552
163	0x3ad924b7	0.0016566728
164	0xbcc94e07	-0.02457334
165	0x3cac6220	0.021042883
166	0xbe5c413d	-0.21509261
167	0xbe462e9b	-0.19353716
168	0xbd2a3ee2	-0.041563876
169	0x3c03c114	0.008041639
170	0x3be89608	0.0070979632
171	0xbdae1689	-0.08500392
172	0xbd8077c0	-0.062728405
173	0x3d065534	0.0327961
174	0xbca67516	-0.020319503
175	0xbbf378c8	-0.0074301697
176	0xbcba6110	-0.022751361
177	0x3d18d2ba	0.03731034
178	0xbd8404be	-0.06446217
179	0x3cc1bb0b	0.02364876
180	0x3e044cfd	0.12919994
181	0x3c7c2ad8	0.015391074
182	0x3d0c5c6e	0.034267835
183	0xbda1549a	-0.078774646
184	0x39f6f1e3	0.00047100996
185	0x3dca0100	0.09863472
186	0x3d0f9d80	0.035062313
187	0x3cc2d9c8	0.023785487
188	0xbe80e49e	-0.2517442
189	0xbe6de7d1	-0.23232962
190	0xbda11fde	-0.07867406
191	0xbbada258	-0.005298894
192	0x3d17c5c4	0.03705384
193	0xbe394712	-0.18093517
194	0xbdb4d9f1	-0.088306315
195	0xbd50825a	-0.050905563
196	0x3d28875e	0.04114472
197	0xbc870740	-0.01648295
198	0xbca93616	-0.020655673
199	0x3d22463c	0.039617762
200	0xbdda6d65	-0.106653966
201	0x3d07cfd4	0.033157185
202	0x3da2c4d4	0.07947698
203	0xbcf33086	-0.029686224
204	0x3d0810ae	0.033219032
205	0xbd8dcabe	-0.06923436
206	0x3d8f003e	0.06982468
207	0x3da72c9c	0.081628054
208	0x3c515f68	0.012779094
209	0x3d273d50	0.040829957
210	0xbe221268	-0.15827334
211	0xbe2c3a13	-0.16819029
212	0x3bc272aa	0.005934079
213	0xbcaa031a	-0.020753432
214	0x3d24eece	0.040266804
215	0xbe123218	-0.14276922
216	0xbd86f93c	-0.065905064
217	0xb7d5d382	-2.549007e-05
218	0x3c7c53d8	0.015400849
219	0x3d0a1320	0.033709645
220	0x3bc716d8	0.0060757212
221	0xbc7b2286	-0.015328055
222	0xbdfaf251	-0.122532494
223	0xbe4feedf	-0.20305966
224	0xbd052e8a	-0.032515086
225	0x3b60f770	0.0034327172
226	0x3cce2bc8	0.02516736
227	0xbe0a1055	-0.13482793
228	0x3cf67613	0.030085599
229	0x3e271e12	0.16320065
230	0x3cd80900	0.026371479
231	0xbcf32f52	-0.02968565
232	0xbde4d061	-0.111725576
233	0x3b7b4093	0.003833805
234	0x3dae2443	0.0850301
235	0x3d08251c	0.033238515
236	0xbce575ef	-0.028010337
237	0xbd4a3e4a	-0.04937581
238	0x3ae0d87e	0.0017154363
239	0xbd4924bd	-0.049107302
240	0xbc540606	-0.012940889
241	0xbbe6d1b0	-0.0070440397
242	0xbba85068	-0.0051365383
243	0xbb5faed0	-0.0034131296
244	0xbe17b248	-0.14814103
245	0xbd7f3035	-0.062301833
246	0xbab2497a	-0.001360222
247	0xbce82e63	-0.028342431
248	0xbc82c38a	-0.01596238
249	0xbdbb0fe3	-0.091338895
250	0xbd26706b	-0.040634554
251	0x3e14dd08	0.14537442
252	0x3d268c70	0.040661275
253	0xbc7243d0	-0.014786676
254	0xbe45a267	-0.19300233
255	0xbd5f004c	-0.054443642

fc1.bias f4 [128]
0	0xbdf3a1b1	-0.118960746
1	0xbce142fa	-0.027497757
2	0x3d46c621	0.048528794
3	0xbd24f0df	-0.040268775
4	0x3d8002b5	0.06250516
5	0x3c98c8df	0.01865047
6	0xbce855db	-0.028361252
7	0xbd357618	-0.044302076
8	0x3cc185b2	0.023623321
9	0x3e77dafd	0.24204631
10	0x3cebacf4	0.028768994
11	0xbd2ab00f	-0.04167181
12	0xbd244529	-0.04010502
13	0xbc85cdab	-0.016333422
14	0x3d8c076b	0.06837352
15	0xbd38d0b1	-0.0451209
16	0x3df3a3d4	0.11896482
17	0x3d5277f2	0.05138392
18	0xbcccc148	-0.024994507
19	0xbadcd1f8	-0.0016847244
20	0x3e016ab0	0.12638354
21	0x3dc12278	0.094304025
22	0xbd337a1b	-0.04381762
23	0x3ddc6aa0	0.107625246
24	0xb9eabdf0	-0.00044773472
25	0xbd931ea7	-0.07183581
26	0xbd196f87	-0.037459876
27	0x3e3ec510	0.18629861
28	0xbb3c41e5	-0.00287258
29	0x3dc087d8	0.0940091
30	0xbdb1b0d1	-0.08676303
31	0xbd99ba06	-0.07506184
32	0x3d9d6264	0.07684782
33	0xbd64bc64	-0.055843726
34	0x3e54c6b5	0.20778926
35	0xbac8d6af	-0.001532277
36	0xbdb0112a	-0.08597024
37	0xbd223da3	-0.039609563
38	0x3c43b62b	0.011945288
39	0x3e2ff8b9	0.17184724
40	0xbca3a3f1	-0.019975634
41	0x3e8202ad	0.25392666
42	0x3de47861	0.11155773
43	0xbd7f6fb7	-0.0623624
44	0x3c9584aa	0.018251736
45	0x3de18d8c	0.11013326
46	0xbd4fbdd5	-0.050718147
47	0x3dc66abf	0.09688329
48	0xbd7fafa4	-0.062423363
49	0x3ce017b1	0.027355047
50	0x3b4583e6	0.0030138432
51	0x3c0a19c5	0.0084289955
52	0x3e474438	0.19459617
53	0xbdc4dfe3	-0.096130155
54	0x3c2c3c43	0.010512414
55	0x3dcb1dcc	0.09917793
56	0xbd16d892	-0.03682763
57	0x3d9633e8	0.07334119
58	0x3d4579e2	0.04821194
59	0x3e1408e4	0.14456517
60	0xbd7f4a4d	-0.062326718
61	0x3ba17387	0.004927102
62	0x3d48e0b1	0.049042407
63	0xbcc90b74	-0.024541594
64	0x3e7d5bc7	0.24742042
65	0xbd86df61	-0.06585575
66	0x3ddf2544	0.1089578
67	0x3dfbf1bb	0.12301966
68	0x3de41181	0.11136151
69	0x3bbda7b9	0.0057878164
70	0xbc845ace	-0.01615658
71	0xbd92e7d3	-0.07173123
72	0x3d52846a	0.05139581
73	0x3e335571	0.17513062
74	0x3d8e4299	0.06946296
75	0x3d94b260	0.07260585
76	0xbd9e1b8a	-0.077200964
77	0x3d443113	0.047898363
78	0xbb12c2aa	-0.002239386
79	0xbd7f5e8e	-0.062346034
80	0x3c863678	0.016383395
81	0xbda33ede	-0.07970975
82	0x3c1de39b	0.009636785
83	0x3db9a43a	0.09064527
84	0x3e2260f7	0.15857302
85	0x3e27f056	0.16400275
86	0x3dfaff14	0.122556835
87	0xbc2b95df	-0.010472744
88	0xbd3a3491	-0.045460287
89	0xbdc4df32	-0.096128836
90	0xbdad803d	-0.08471725
91	0x3e3db039	0.18524255
92	0x3e0ef10b	0.13959138
93	0xbcda8d03	-0.026678568
94	0xbd13994d	-0.03603487
95	0x3ce18f5f	0.027534185
96	0x3e58ad59	0.21159877
97	0xbd12b90e	-0.035821013
98	0x3e1a51f6	0.15070328
99	0xbd0f7f92	-0.03503377
100	0x3e151c98	0.14561689
101	0x3bf538e2	0.0074835876
102	0xbd36f0ca	-0.044663228
103	0x3e502ff0	0.20330787
104	0x3df5a6f1	0.11994732
105	0x3d884bb7	0.066550665
106	0x3de5054b	0.1118265
107	0x3dfdd083	0.12393286
108	0xbd1b6209	-0.03793529
109	0xbd00ca7d	-0.031443108
110	0x3d1c56a9	0.038168583
111	0x3e4a11a3	0.1973329
112	0x3da04ae5	0.07826785
113	0x3d275214	0.04084976
114	0x3e17f42d	0.1483924
115	0x3d840c59	0.06447668
116	0xbd5a06e7	-0.05322924
117	0xbd3ace0e	-0.045606665
118	0x3d96c8b0	0.07362497
119	0x3d87be97	0.06628149
120	0x3e40827f	0.1879978
121	0x3d252223	0.04031576
122	0x3d928413	0.071540974
123	0xbd173913	-0.036919665
124	0xbccb7ad9	-0.024838852
125	0x3c1f9711	0.009740607
126	0xbcffb7dd	-0.031215603
127	0x3d733824	0.05937971

fc2.weight f4 [128, 128]
0	0x3e1dea58	0.15421426
1	0x3de96a25	0.113971986
2	0x3c0c409e	0.008560328
3	0xbbc61de7	-0.006046045
4	0x3ed5af6b	0.41735396
5	0x3eb562dd	0.3542699
6	0xbc6f1a24	-0.014593635
7	0x3d866bd6	0.06563537
8	0x3e9bb25f	0.30409524
9	0x3d056d1a	0.03257475
10	0xbc724332	-0.014786528
11	0x3dfcb534	0.12339249
12	0x3b0b849e	0.0021288763
13	0x3e67d481	0.22639658
14	0xbdd03338	-0.10166019
15	0xbca7ffe8	-0.020507768
16	0x3e2eb613	0.17061643
17	0xbcc38e1e	-0.023871478
18	0x3e01f339	0.12690438
19	0x3e01aab0	0.12662768
20	0xbe92efae	-0.28698486
21	0x3c181de1	0.009284467
22	0x3ddb59a2	0.107104555
23	0x3e17824d	0.147958
24	0x3f087629	0.533053
25	0x3dc9828c	0.09839353
26	0xbb6c1172	-0.003602114
27	0x3ea2b703	0.31780252
28	0x3e8ed54e	0.27897114
29	0xbe298f8a	-0.16558662
30	0x3e0fed0d	0.14055271
31	0xbe9f198e	-0.31074184
32	0x3e067df8	0.13133991
33	0x3dc11298	0.094273746
34	0x3dbc5c44	0.09197286
35	0x3e36e3c1	0.17860319
36	0xbd4ee7d3	-0.050514054
37	0xbc8a6051	-0.01689163
38	0x3dc2b377	0.095068865
39	0x3e250e82	0.16118816
40	0xbbd35017	-0.0064487564
41	0xbe6bc422	-0.23024037
42	0xbe95a250	-0.29225397
43	0x3ddd3aa1	0.10802198
44	0x3e05da46	0.13071546
45	0x3e107c1c	0.14109844
46	0x3d4adcd6	0.04952701
47	0x3e327fea	0.17431608
48	0x3e54ef13	0.20794325
49	0xbee8e816	-0.45489568
50	0x3ce9a3ef	0.028520552
51	0xbd7e47da	-0.06208024
52	0x3d3ee6d7	0.046606865
53	0x3cf3e236	0.029770952
54	0x3c9f0710	0.019412547
55	0xbecf586c	-0.40497148
56	0x3e1054a2	0.14094785
57	0x3d32ed00	0.043683052
58	0x3d88fbb3	0.06688633
59	0xbeaa6c18	-0.33285594
60	0x3ea56b38	0.32308364
61	0xbd34d03a	-0.044143893
62	0xbd0b1240	-0.03395295
63	0xbe1f4ec2	-0.15557387
64	0x3d2f8ceb	0.042859
65	0x3ecb9356	0.39760846
66	0xbd4d94cd	-0.050190736
67	0x3e03e3a3	0.12879805
68	0xbe88e451	-0.26736692
69	0x3cd72863	0.026264375
70	0x3e3b7b94	0.1830886
71	0xbd68cc11	-0.056835238
72	0x3e96de55	0.294665
73	0xbe0d4158	-0.13794458
74	0x3dce0214	0.1005899
75	0xbd04cfcd	-0.032424737
76	0x3c89a5b7	0.016802652
77	0xbe284594	-0.16432792
78	0x3dbf3c99	0.0933773
79	0x3cca94c8	0.024729148
80	0xbd2ed76a	-0.042685904
81	0x3ea8b6a8	0.32951856
82	0xbc89a498	-0.016802117
83	0x3f0aadcc	0.54171443
84	0xbe84a713	-0.25908718
85	0xbdc710dc	-0.097200125
86	0xbe5ae7d4	-0.21377498
87	0x3cba7166	0.02275915
88	0xbcb48c19	-0.02203946
89	0x3d4a3c3e	0.049373858
90	0xbd94a130	-0.072573066
91	0xbe2facb6	-0.17155728
92	0x3d3ca6e5	0.0460576
93	0xbd299caa	-0.041409172
94	0x3d15e8aa	0.03659884
95	0xbe3b327c	-0.18280977
96	0xbeb2c212	-0.3491369
97	0x3efe8e10	0.4971776
98	0x3dd5b118	0.104341686
99	0x3bcd054f	0.0062567363
100	0x3e1d975b	0.15389769
101	0x3e05698e	0.13028547
102	0x3d5e5dac	0.05428855
103	0x3d82ae7a	0.06380935
104	0x3da61f4f	0.081114404
105	0xbe776c80	-0.24162483
106	0x3e8be5cd	0.27323762
107	0xbe09c310	-0.13453317
108	0x3d1e4d3c	0.038647875
109	0x3cffb1d0	0.031212717
110	0x3f04dc53	0.5189869
111	0x3e18d99f	0.14926766
112	0x3de61d39	0.112360425
113	0x3d51f1c7	0.051255967
114	0xbe01b799	-0.12667693
115	0xbe4cc4d6	-0.19996962
116	0xbd4839d7	-0.048883285
117	0xbbe006d5	-0.006836752
118	0xbe75fbc3	-0.2402182
119	0xbb9e0ae4	-0.0048230756
120	0x3e64412f	0.2229049
121	0x3e94364d	0.28947678
122	0x3deb8b2f	0.115011565
123	0x3e11cabe	0.14237496
124	0x3d5706bc	0.052496657
125	0x3e0158ff	0.12631606
126	0xbd5cb998	-0.053887933
127	0xbe275dce	-0.16344377
128	0xbd79635c	-0.060885772
129	0x3da010d4	0.0781571
130	0xbc6a7c0d	-0.014311803
131	0xb999847a	-0.00029281137
132	0xbcc2f174	-0.023796774
133	0x3d9a1cfd	0.0752506
134	0x3d0ba5a8	0.03409353
135	0xb9caeb00	-0.0003870353
136	0x3d7f132e	0.06227415
137	0xbd27d5fc	-0.040975556
138	0xbd945dde	-0.07244466
139	0x3d6abe80	0.05731058
140	0x3c7abd42	0.015303912
141	0xbc04e581	-0.008111359
142	0x3d4d4ad9	0.05012021
143	0xbdb4df9b	-0.08831712
144	0xbda4d857	-0.08049076
145	0x3d1c3518	0.03813657
146	0xbdbf07ff	-0.09327697
147	0x3d95d681	0.07316304
148	0xbca37952	-0.019955311
149	0x3cbfad42	0.023398045
150	0x3cbb957a	0.022898424
151	0xbd992407	-0.07477575
152	0x3d6a12b0	0.057146728
153	0xbc3ccf44	-0.011524025
154	0x3d6fcc5c	0.0585445
155	0x3bea1fde	0.007144912
156	0x3c5e06d2	0.013551431
157	0x3d222c6e	0.039593153
158	0xbc3424a8	-0.010995068
159	0xbc50d004	-0.012744907
160	0xbdac4141	-0.08410884
161	0x3d538344	0.051638857
162	0xbd967817	-0.07347124
163	0x3c18a540	0.009316742
164	0x3cf76d42	0.030203465
165	0xbcbbc450	-0.022920758
166	0x3d6ec693	0.058294844
167	0x3d471ed6	0.04861339
168	0xbd22b57e	-0.039723866
169	0xbd52ce24	-0.051466122
170	0xbcb7f936	-0.0224577
171	0xbc932925	-0.017963955
172	0x3c25aa06	0.0101113375
173	0xbd35b751	-0.044364277
174	0xbd72dafb	-0.059290867
175	0x3d0bb7e5	0.034110922
176	0xbcfc4afe	-0.030797478
177	0x3d9b741d	0.07590506
178	0xbd62fc1a	-0.055416204
179	0x3d9e87f3	0.07740774
180	0xbda5bb2d	-0.080923416
181	0xbd3f4f71	-0.04670662
182	0x3d3d89e2	0.046274073
183	0xbcaec919	-0.021336125
184	0xbd4025b2	-0.04691095
185	0xbc962937	-0.0183302
186	0x3cf90f98	0.030402943
187	0xbd53de10	-0.051725447
188	0xbd0ee046	-0.034881853
189	0xbda669bd	-0.08125637
190	0x3d53104c	0.051529214
191	0xbd9d80ea	-0.07690604
192	0xbcc171f2	-0.023613904
193	0xbca42804	-0.020038612
194	0x3a6e3221	0.0009086449
195	0x3d6c98a0	0.057762742
196	0xbc9d5060	-0.019203365
197	0x3d8f4101	0.069948204
198	0xbd9f41f1	-0.07776249
199	0xbd774d22	-0.060376294
200	0xbdacc6e8	-0.08436376
201	0xbc2d163e	-0.010564385
202	0x3b7d9fc2	0.003869996
203	0x3d859286	0.06522088
204	0x3bd4d015	0.006494532
205	0x3d8c576c	0.06852612
206	0x3ccab084	0.024742372
207	0xbda2093c	-0.079119176
208	0xbbfe1b63	-0.0077547296
209	0xbd82c445	-0.06385092
210	0xbc74713a	-0.014919573
211	0xbc62b58d	-0.01383723
212	0x3d42f89c	0.047600374
213	0xbd29648e	-0.041355662
214	0xbdbc4ec4	-0.09194711
215	0xbc9fb9ca	-0.01949777
216	0x3c80d1af	0.015724985
217	0x3c0a0cec	0.008425932
218	0x3d886b68	0.06661111
219	0x3b002aac	0.0019556684
220	0xbd38b601	-0.045095447
221	0x3d87f0cc	0.06637725
222	0xbdafa4ea	-0.08576377
223	0x3d7c32e5	0.061571974
224	0xbb7d441f	-0.003864534
225	0xbd0b51e8	-0.03401366
226	0xbcf34f1e	-0.029700812
227	0x3c9a9986	0.018872034
228	0x3d824e7f	0.06362628
229	0xbd7a21a8	-0.061067253
230	0x3da59ae3	0.08086183
231	0xbcc18e70	-0.02362749
232	0x3d8dfe73	0.06933298
233	0x3d5c7089	0.05381826
234	0xbbb7d66c	-0.005610278
235	0x3d9e0063	0.077149175
236	0xbd716ce0	-0.058941722
237	0xbda72396	-0.08161084
238	0xbd363687	-0.044485595
239	0x3ccf069a	0.025271703
240	0x3d2160b2	0.039398856
241	0x3d78029c	0.060549363
242	0x3d51592a	0.051110424
243	0xbd7a81fc	-0.06115912
244	0xbd9bd07a	-0.07608123
245	0xbd684619	-0.056707475
246	0xbd73e6cb	-0.059546273
247	0xbc33ff44	-0.010986153
248	0x3c2864ee	0.01027797
249	0xbbb4583d	-0.005503683
250	0xbda2bf20	-0.079466105
251	0xb87a0671	-5.9610644e-05
252	0xbd864035	-0.06555215
253	0xbc4952fb	-0.0122878505
254	0xbc6b28e0	-0.014353007
255	0xbcf3bdf5	-0.029753665

fc2.bias f4 [128]
0	0x3dbfe840	0.0937047
1	0xbd84600d	-0.06463633
2	0x3d97bc72	0.0740899
3	0x3e66bc47	0.2253276
4	0xbd9308ee	-0.071794376
5	0xbdcdc242	-0.10046817
6	0xbda5620c	-0.080753416
7	0xbddddba6	-0.1083291
8	0xbd463913	-0.048394274
9	0xbd253cba	-0.040341116
10	0xbb4d20ca	-0.0031300061
11	0x3cbfbddf	0.023405967
12	0xbda86654	-0.082226425
13	0xbd1bcece	-0.03803902
14	0xbc8284ec	-0.015932523
15	0x3d939a6d	0.07207189
16	0xbde71339	-0.11282963
17	0x3d9cb2b6	0.07651274
18	0x3df34d5a	0.11879988
19	0x3c12cfea	0.008960703
20	0xbdb9d049	-0.0907293
21	0xbc45470e	-0.012040867
22	0xbd30fa8f	-0.0432077
23	0xbc49267c	-0.012277242
24	0x3dd3ec22	0.10347773
25	0xbdba9b47	-0.09111648
26	0xbcebd612	-0.0287886
27	0xbd407b9c	-0.046992883
28	0xbd267e27	-0.040647652
29	0xbd39e05c	-0.04537998
30	0xbd643db9	-0.055722926
31	0xbd66d0ea	-0.05635158
32	0xbda51653	-0.08060899
33	0x3e6678a5	0.2250696
34	0xbd1e5c85	-0.038662452
35	0x3d76dfb8	0.06027195
36	0xbd88fad8	-0.0668847
37	0xbd7a445d	-0.061100353
38	0xbd9bf582	-0.07615186
39	0xbdebb1f4	-0.11508551
40	0xbdce2d37	-0.10067218
41	0x3e1520dd	0.14563318
42	0x3e0b04ff	0.13576125
43	0x3d34c58b	0.044133704
44	0x3e0d6e15	0.13811524
45	0xbbb45d1c	-0.0055042636
46	0xbc58b49e	-0.013226656
47	0x3dfae5e2	0.12250878
48	0xbd193770	-0.037406385
49	0x3c4022d2	0.011727052
50	0x3c5a8cf1	0.013339267
51	0xbe21add9	-0.15788974
52	0xbd62ed99	-0.055402372
53	0xbb872fee	-0.0041255867
54	0x3cf1d200	0.029519081
55	0xbccfb238	-0.025353536
56	0xbdb79549	-0.08964021
57	0xbd1c6a55	-0.038187344
58	0x3d6f2488	0.05838445
59	0xbdc992e1	-0.09842468
60	0xbdaf3816	-0.085556194
61	0x3c2cadee	0.010539515
62	0xbbdb7243	-0.0066969707
63	0x3e06242a	0.13099733
64	0xbc88f562	-0.01671857
65	0x3d2d132b	0.042254608
66	0x3d4d13c1	0.050067667
67	0xbd1a87e0	-0.037727237
68	0xbc40bd09	-0.0117638195
69	0xbdfbf80d	-0.12303171
70	0xbda57fcf	-0.08081018
71	0xbdad3cd2	-0.08458866
72	0x3e0878c3	0.13327317
73	0x3cd1ebad	0.025625074
74	0x3e2ef175	0.17084296
75	0x3cb6d161	0.022316637
76	0xbc426aa4	-0.011866245
77	0xbd852aef	-0.065023296
78	0xbcf8904c	-0.030342244
79	0xbd0d3441	-0.03447366
80	0x3e37b286	0.17939195
81	0x3e98b084	0.2982217
82	0xbda481aa	-0.08032544
83	0x3d4522d7	0.04812893
84	0x3e034f91	0.12823321
85	0x3df2063d	0.11817596
86	0x3c8b6448	0.017015591
87	0x3e711f11	0.23547007
88	0x3d409506	0.04701712
89	0x3b5fc276	0.0034143007
90	0x3bfaad20	0.0076500326
91	0x3c2780df	0.010223596
92	0xbd662270	-0.056185186
93	0xbdd69455	-0.10477511
94	0xbc7fcf34	-0.015613366
95	0xbd46aa77	-0.04850241
96	0xbc60b50d	-0.013715041
97	0x3c3d8dfb	0.011569495
98	0x3d755d3f	0.05990338
99	0xbd9b9bb6	-0.07598059
100	0x3e41b774	0.18917638
101	0xbe169380	-0.14704704
102	0xbd365f72	-0.044524617
103	0xbab56f50	-0.0013842378
104	0xbd28e5e0	-0.04123485
105	0xbdde7bcb	-0.108634554
106	0x3c9ecb93	0.019384181
107	0x3eb108d5	0.3457705
108	0x3cde9e0f	0.027174978
109	0x3d20a582	0.03922034
110	0x3df5063a	0.11964078
111	0x3ebab58a	0.36466628
112	0xbe2a37ac	-0.166228
113	0x3d62f490	0.055409014
114	0xbd8119b2	-0.06303729
115	0xbd965677	-0.073407106
116	0xbd2134fc	-0.03935717
117	0x3d39355d	0.045216907
118	0xbda2fbeb	-0.07958206
119	0xbdb9940d	-0.090614416
120	0x3d1315b8	0.035909384
121	0xbc80d0d8	-0.015724584
122	0xbd9c3bf8	-0.07628626
123	0x3e377969	0.17917408
124	0x3a0959e4	0.000523953
125	0xbc02076d	-0.007936341
126	0xbb9d0edf	-0.0047930325
127	0xbcef19ee	-0.029187169

fc3.weight f4 [128, 128]
0	0xbcb6fe05	-0.022337923
1	0xbbc3f5a0	-0.0059802085
2	0x3c980a77	0.018559678
3	0x3e9a7788	0.3016932
4	0xbd97a6e8	-0.07404882
5	0x3c0b70b9	0.008510762
6	0xbd85f393	-0.06540599
7	0xbcc39922	-0.02387673
8	0xbe274243	-0.1633387
9	0xbdd2d278	-0.1029405
10	0x3cab557a	0.020914782
11	0x3cd64d52	0.026159916
12	0x3d173356	0.036914192
13	0xbcfd37af	-0.030910341
14	0x3c930e3b	0.017951122
15	0xbd7dac6d	-0.061932016
16	0xbdcaacc5	-0.098962344
17	0x3d517b32	0.05114288
18	0xbd45f599	-0.048329923
19	0xbd5e59c9	-0.054284845
20	0xbca1eb28	-0.019765452
21	0x3c7dae45	0.015483444
22	0x3bc5a489	0.006031577
23	0xbcef68fb	-0.029224863
24	0x39bbc057	0.00035810724
25	0x3bdfebb9	0.0068335203
26	0xbdde2879	-0.10847563
27	0xbd6fa76d	-0.05850928
28	0xbc2c4735	-0.010515024
29	0xbdd9f55b	-0.10642501
30	0xbc7c6e3a	-0.015407139
31	0x3d1f24e1	0.03885353
32	0xbd74ca14	-0.05976303
33	0x3e0db031	0.13836743
34	0xbcbddbee	-0.02317616
35	0x3d879b1a	0.0662138
36	0xbd804cf6	-0.06264679
37	0xbd85d2dd	-0.065343596
38	0x3df9ef39	0.12203831
39	0xbd834441	-0.06409503
40	0xbe3ee5dd	-0.18642373
41	0x3e4f9c79	0.20274533
42	0x3e9b6936	0.30353707
43	0x3e48e5d2	0.1961892
44	0x3e8c12af	0.27358004
45	0xbdc5e2e0	-0.096624136
46	0xbd3ec7cd	-0.046577264
47	0x3d118ccd	0.03553467
48	0x3e85d776	0.26140946
49	0x3cc2bdf2	0.023772214
50	0x3c38a6ac	0.011270206
51	0xbcdd9299	-0.027047442
52	0xbc41d92c	-0.011831563
53	0xbdd64ae0	-0.104635
54	0xbdf047e0	-0.11732459
55	0xbdcfad1e	-0.10140441
56	0xbca06ded	-0.019583667
57	0xbd46e88d	-0.04856162
58	0x3da8214f	0.08209478
59	0xbba43bef	-0.0050120275
60	0xbe193547	-0.1496173
61	0xbd522829	-0.05130783
62	0xbc770b1b	-0.015078331
63	0xbbc96a55	-0.006146709
64	0xbbad6677	-0.005291756
65	0x3e18b3ae	0.14912292
66	0x3dc17bab	0.09447416
67	0xbec6b939	-0.3881319
68	0x3da8828b	0.08228024
69	0xbd42d9b7	-0.04757091
70	0x3cf222aa	0.029557545
71	0xbc51f1bd	-0.012813983
72	0x3f0cdd2f	0.55025
73	0xbd49212c	-0.0491039
74	0x3e424db4	0.18974954
75	0x3d3d1d2d	0.046170402
76	0xbdcae2f0	-0.09906566
77	0xbdbac9e8	-0.09120542
78	0x3cc33c34	0.023832418
79	0xbdf1a09f	-0.11798214
80	0x3e4b31e9	0.19843258
81	0x3d9de85b	0.07710334
82	0xbd1d2c6c	-0.038372442
83	0xbca91057	-0.020637674
84	0x3dbd7ed2	0.09252705
85	0x3bbe37bd	0.0058049844
86	0x3d88d6e6	0.066816136
87	0x3e5e5932	0.21713713
88	0x3c7349f2	0.014849173
89	0xbdb83714	-0.0899488
90	0xba9d94e3	-0.0012022521
91	0x3b93ba56	0.004508297
92	0x3c6a1d83	0.014289263
93	0xbd9df2b6	-0.07712309
94	0xbdb47f59	-0.08813352
95	0xbe8eb5e2	-0.2787314
96	0xbd7aa91a	-0.061196424
97	0x3d2df4ca	0.042469777
98	0xbbbe2751	-0.0058030267
99	0xbd772d1f	-0.060345765
100	0x3e14646c	0.14491433
101	0xbd373fb1	-0.044738475
102	0x3e538c6a	0.20659032
103	0xbdbb17c6	-0.09135394
104	0x3df92422	0.12165095
105	0x3984dfd0	0.00025343755
106	0x3d96f698	0.07371253
107	0x3e8e8349	0.27834538
108	0x3cfce968	0.030873016
109	0xbcd2b771	-0.025722237
110	0xbadc314a	-0.0016799357
111	0x3d498bfc	0.049205765
112	0x3bff6a83	0.0077946796
113	0x3eab5fcb	0.33471522
114	0x3e08dfab	0.13366573
115	0xbd04ee74	-0.03245397
116	0xbbbcb887	-0.005759302
117	0x3d7aa3ea	0.061191477
118	0xbd343170	-0.04399246
119	0xbcb86cb4	-0.022512771
120	0xbcfa29ab	-0.030537447
121	0xbdc133e8	-0.094337285
122	0x3d36f0a6	0.044663094
123	0x3ea1256e	0.3147387
124	0xbd57ad44	-0.052655473
125	0x3a5e4b8d	0.0008479886
126	0xbd140f3f	-0.036147352
127	0xbdd1ba63	-0.102406286
128	0x3dd44b50	0.10365927
129	0xbd0d4502	-0.03448964
130	0x3deeefa9	0.11666805
131	0xbe05d018	-0.13067663
132	0x3dc4289d	0.09578059
133	0xbd518d85	-0.051160354
134	0xbd4f1889	-0.050560508
135	0xbd397def	-0.045286115
136	0xbea74c12	-0.32675225
137	0x3dc7a577	0.09748357
138	0x3cda5955	0.026653925
139	0x3de183e0	0.11011481
140	0xbfb192d7	-1.3872937
141	0x3d1cddbc	0.0382974
142	0x3d8716f6	0.06596176
143	0x3e538283	0.20655255
144	0x3e35215a	0.17688504
145	0x3df41a44	0.11919072
146	0x3d5e171e	0.054221265
147	0xbc834d6c	-0.016028129
148	0x3d3d2df1	0.04618639
149	0x3e0df04b	0.13861196
150	0x3c2c2fed	0.010509473
151	0x3c70625b	0.014671887
152	0x3dbde376	0.092719
153	0x3c98af3f	0.018638251
154	0xbeea79e3	-0.45796117
155	0x3cfbd543	0.03074134
156	0x3db84232	0.08997001
157	0xbdda2045	-0.10650686
158	0x3d46a69f	0.048498746
159	0xbd2e7992	-0.042596407
160	0x3d89f47a	0.06736083
161	0x3ecd7eb2	0.40135723
162	0xbe027537	-0.12740026
163	0xbfadb1a4	-1.3569837
164	0xbd9fe557	-0.07807415
165	0x3d5ff0ba	0.054672934
166	0xbd32d500	-0.043660164
167	0x3e62c81f	0.22146653
168	0x3e45c558	0.19313562
169	0xbc816bb4	-0.015798427
170	0x3e8e31d5	0.27772394
171	0xbe96f326	-0.29482383
172	0x3e721e28	0.23644316
173	0x3e171969	0.14755787
174	0x3df17ff6	0.11791985
175	0x3dad60e4	0.08465746
176	0xbf884463	-1.064587
177	0x3d866307	0.06561857
178	0x3d8d84f4	0.069101244
179	0x3dcee1c9	0.10101659
180	0x3e348b19	0.17631187
181	0xbd2a984c	-0.041649148
182	0x3e091135	0.1338547
183	0xbcba6648	-0.02275385
184	0xbc95368e	-0.01821449
185	0xbd7374d9	-0.059437606
186	0x3ea31782	0.31853873
187	0x3cb3c407	0.021944059
188	0xbe3a5311	-0.1819575
189	0xbd9bba91	-0.07603944
190	0xbf2c10be	-0.67213047
191	0x3dd3e88a	0.10347088
192	0x3d91d64d	0.07120953
193	0x3cb5090a	0.022099037
194	0xbf2c7452	-0.6736499
195	0xbd98b6d9	-0.074567504
196	0xbfae17c4	-1.3601003
197	0xbe3a6804	-0.18203741
198	0x3e6e59e4	0.23276478
199	0xbbe51144	-0.0069905836
200	0x3ed31026	0.41223258
201	0x3e0498dd	0.12948938
202	0xbd52f526	-0.051503323
203	0x3e504995	0.2034057
204	0x3dea3b5e	0.11437105
205	0x3cbf01ed	0.023316348
206	0xbe16b40a	-0.14717117
207	0xbe34fd8f	-0.1767485
208	0x3efe7ea7	0.49706003
209	0x3ee335e3	0.4437705
210	0x3cda7988	0.026669279
211	0x3d90397c	0.07042214
212	0x3f3b6d4b	0.7321364
213	0x3de4aa63	0.11165311
214	0xbfa0a818	-1.2551298
215	0x3f0fdf9f	0.56200594
216	0x3d82b61f	0.06382393
217	0x3de322c2	0.11090614
218	0x3e0c3c4f	0.13694881
219	0xbd29ade9	-0.04142562
220	0x3d9e50eb	0.07730278
221	0xbd17753d	-0.03697704
222	0x3cb2580f	0.021770505
223	0xbd663a01	-0.05620766
224	0x3cf2264c	0.029559277
225	0x3dc94c4b	0.09829005
226	0x3d4cbc1f	0.049984094
227	0xbd9b5811	-0.07585157
228	0xbd1dbce0	-0.038510203
229	0x3e2f21f2	0.17102793
230	0xbf4fde80	-0.81198883
231	0x3dcf6e3c	0.101284474
232	0xbf96f06c	-1.1792121
233	0xbdddf959	-0.10838575
234	0x3d74c647	0.059759405
235	0x3eec27aa	0.4612401
236	0x3d27a5bf	0.040929552
237	0xbb1976e2	-0.0023416807
238	0x3edad78f	0.42742583
239	0x3eb38cff	0.3506851
240	0x3e313632	0.1730583
241	0x3eeb60ec	0.45972383
242	0x3c4af469	0.0123873735
243	0xbd94ada1	-0.072596796
244	0xbeaa56ca	-0.3326934
245	0x3ef2b3fa	0.47402936
246	0x3b25c2c0	0.0025293082
247	0xbd9508d8	-0.072770774
248	0x3d11e3f7	0.035617795
249	0x3d151971	0.036401216
250	0x3bc468c0	0.0059939325
251	0x3e31af12	0.1735194
252	0x3df9253d	0.12165306
253	0xbcf91f9f	-0.030410586
254	0x3d6c3b43	0.057673704
255	0x3d243fec	0.040100023

fc3.bias f4 [128]
0	0x3dfe184d	0.12406979
1	0x3d210e2c	0.039320156
2	0x3cc071fa	0.023491848
3	0x3c4e7567	0.012601233
4	0xbd5ab96a	-0.05339948
5	0x3eb3b8c9	0.35101917
6	0xbcff2893	-0.031147277
7	0x3cac3fa0	0.021026433
8	0x3d44acda	0.048016407
9	0x3c98363b	0.018580547
10	0x3e866e6f	0.2625613
11	0x3dd7306c	0.105072826
12	0xbd383678	-0.04497382
13	0xbd861f09	-0.06548888
14	0x3d32834e	0.043582253
15	0xbc9ed00e	-0.019386318
16	0x3e17be4c	0.14818686
17	0x3e42d3a9	0.19026054
18	0x3e6615fa	0.22469321
19	0x3e843ab7	0.25826046
20	0xbe04978c	-0.12948436
21	0xbd2855f9	-0.041097615
22	0x3caf7b1d	0.02142101
23	0xbdbbc91b	-0.09169217
24	0x3d877301	0.06613732
25	0xbd393e50	-0.04522544
26	0xbd7af6e4	-0.06127061
27	0x3e819789	0.25310925
28	0xbd48c3c8	-0.049014837
29	0xbdb07353	-0.08615746
30	0xbdcf3c51	-0.10118926
31	0x3ea12f63	0.31481466
32	0xbdb15b7c	-0.086600274
33	0x3e71bbb7	0.23606764
34	0x3e323919	0.17404594
35	0xbd19634e	-0.03744822
36	0x3b37cfd4	0.002804746
37	0xbdb39e30	-0.08770406
38	0x3ec9e11a	0.3942955
39	0xbcd3cb82	-0.025853876
40	0xbb9f66a4	-0.0048645306
41	0xbdabbd02	-0.0838566
42	0x3e106b29	0.14103378
43	0xbc0bcaaa	-0.008532206
44	0x3e3566f9	0.17715062
45	0xbe22930a	-0.15876403
46	0xbde8827e	-0.113530144
47	0x3e9182c7	0.28420088
48	0xbd9eb19a	-0.077487186
49	0xbd0add2f	-0.033902343
50	0xbd819c2b	-0.06328615
51	0xbdfcc99a	-0.1234314
52	0xbdad9cd9	-0.08477182
53	0xbe2d7efd	-0.16942973
54	0xbd624a9d	-0.055246938
55	0xbe636307	-0.22205745
56	0x3df87f8a	0.12133701
57	0x3ca25117	0.019814057
58	0x3d5d4cfb	0.054028492
59	0x3e811a13	0.25215206
60	0xbc7ba49a	-0.015359068
61	0x3d8f3e72	0.069943324
62	0x3ea05488	0.31314492
63	0x3e46831b	0.1938595
64	0x3b9e55bf	0.004831999
65	0x3c5f519f	0.0136303
66	0x3d81da31	0.06340445
67	0x3e8721d8	0.26393008
68	0x3e149315	0.14509232
69	0x3e557607	0.20845805
70	0xbd60b09c	-0.054855928
71	0x3e21f5ec	0.15816468
72	0x3c1b25ae	0.009469433
73	0x3d269e85	0.04067852
74	0xbde37714	-0.11106697
75	0xbcdfd5db	-0.027323654
76	0xbd4c3d44	-0.049863115
77	0xbd534782	-0.051581867
78	0x3cc061bf	0.023484109
79	0xbd4037fd	-0.046928395
80	0xbd7d2af5	-0.061808545
81	0x3e88506b	0.26623854
82	0xbc53b566	-0.012921667
83	0xbd748003	-0.059692394
84	0x3dd3c2c4	0.10339883
85	0x3e72be27	0.2370535
86	0x3e0c03a8	0.1367327
87	0x3d11945f	0.03554189
88	0xbe9519bb	-0.29121193
89	0xbd9924fc	-0.07477757
90	0xbbb44ad0	-0.0055020824
91	0xbe366939	-0.17813577
92	0x3dbe69e5	0.092975415
93	0x3ea94406	0.3305971
94	0x3c45c8c3	0.012071791
95	0xbe1b5ce2	-0.1517215
96	0xbd5f5ec9	-0.054533754
97	0x3e2b0fe4	0.1670528
98	0xbe958013	-0.29199275
99	0x3e8f3664	0.27971184
100	0xbdb7d59b	-0.08976289
101	0xbd7538f3	-0.059868764
102	0xbd93a452	-0.07209076
103	0x3dacb719	0.084333606
104	0xbd8a2bbe	-0.067466244
105	0x3ea7810c	0.32715642
106	0x3d187a56	0.037226044
107	0xbb781a38	-0.0037857424
108	0x3e273768	0.1632973
109	0x3e966b35	0.29378667
110	0xbdd02bee	-0.10164629
111	0x3ce00d89	0.027350204
112	0xbd5516e6	-0.05202379
113	0xbc13dc2b	-0.00902466
114	0x3e93aea0	0.28844166
115	0xbd926e70	-0.071499705
116	0x3dfdd660	0.123944044
117	0xbe0a0da8	-0.13481772
118	0xbdf83499	-0.12119407
119	0xbc8510bc	-0.016243331
120	0xbddb0476	-0.1069421
121	0xbdae7afc	-0.08519551
122	0xbd434e23	-0.04768194
123	0xbe0ea63b	-0.139306
124	0xbe2203b6	-0.15821728
125	0xbd5049c0	-0.050851583
126	0xbd8572fb	-0.065160714
127	0xbc869ad7	-0.016431255

fc4.weight f4 [32, 128]
0	0xbd64e566	-0.055882834
1	0x3d06737b	0.032824975
2	0x3d84c55a	0.06482954
3	0x3d91fad9	0.071279235
4	0x3cdbd98c	0.026837133
5	0x383b721d	4.469055e-05
6	0xbbe46c20	-0.0069708973
7	0x3db057df	0.0861051
8	0xbd947730	-0.07249296
9	0x3d0dcc96	0.034618936
10	0xbbee7332	-0.007276916
11	0x3c15b203	0.00913668
12	0x3cf88db2	0.030341003
13	0x3d038ad8	0.032114834
14	0xbd94fd53	-0.0727488
15	0x3daafa1f	0.08348488
16	0xbc187d60	-0.0093072355
17	0xbce01ec6	-0.027358424
18	0xbda2b8ee	-0.07945429
19	0xbd898cb8	-0.06716293
20	0xbd12ea9c	-0.035868272
21	0xbd69ea2a	-0.057108082
22	0xbd7f1148	-0.06227234
23	0xbcec25e0	-0.028826654
24	0x3d5b620a	0.053560294
25	0xbd0fedee	-0.035139017
26	0x3c6f61d9	0.014610731
27	0xbd850e72	-0.06496896
28	0x3d5b91a6	0.053605698
29	0x3d62c78e	0.05536609
30	0xbdb4b3fe	-0.08823393
31	0x3d0dab14	0.03458698
32	0xbd8dfded	-0.06933198
33	0xbd02de18	-0.031950086
34	0xbcebc1cc	-0.028778933
35	0xbd134dac	-0.035962746
36	0x3d6b86a2	0.057501443
37	0xbd3b3547	-0.045705106
38	0xbd923ba2	-0.0714028
39	0x3a819ff9	0.0009889595
40	0xbdb143fb	-0.08655544
41	0xbdb3774a	-0.08762987
42	0xbcc04cf4	-0.023474194
43	0x3d945bfb	0.072441064
44	0x3d1e8e5a	0.038709976
45	0x3c8151ee	0.015786137
46	0xbd81d20d	-0.06338892
47	0xbd665b10	-0.056239188
48	0xbda51f5d	-0.08062623
49	0xbdb475bc	-0.088115185
50	0xbd38b8a9	-0.04509798
51	0xbd88ee53	-0.06686082
52	0x3cd002d7	0.02539198
53	0x3c5d5ba9	0.013510623
54	0x3d9b0411	0.07569135
55	0x3d9aa302	0.075506225
56	0xbd1aa379	-0.037753556
57	0xbd93a304	-0.07208827
58	0x3cbbbecd	0.02291813
59	0x3cc5271d	0.024066502
60	0x3d8e262d	0.06940875
61	0x3c0f0b35	0.008730699
62	0x3ac381ad	0.0014915966
63	0x3d17ce26	0.037061833
64	0xbc591f61	-0.01325211
65	0xbd81964c	-0.06327495
66	0xbcb43f6c	-0.022002898
67	0xbdaa22a9	-0.08307392
68	0x3bc25fb7	0.0059318203
69	0x3d2599b2	0.04042978
70	0xbdafb3ef	-0.085792415
71	0x3dacdb43	0.08440258
72	0x3cb8e5f2	0.022570584
73	0x3d6fb66e	0.058523588
74	0xbcc01378	-0.023446783
75	0xbd1aae1e	-0.037763707
76	0x3cae3969	0.02126761
77	0xbd67a4e9	-0.056553755
78	0x3d765644	0.060140863
79	0xbd116af3	-0.035502385
80	0xbcdc33a8	-0.0268801
81	0xbd4643d0	-0.048404515
82	0x3d5d2adf	0.053995963
83	0x3c66cde0	0.01408717
84	0x3cbeee08	0.023306862
85	0x3d0ad8b6	0.033898078
86	0x3d4cfed6	0.050047718
87	0x3d52fc16	0.05150994
88	0xbcbf161c	-0.023325972
89	0xbdb22c42	-0.08699848
90	0x3da16f7d	0.07882593
91	0xbd91a481	-0.07111455
92	0xbd417489	-0.047230277
93	0xbb8cadbc	-0.0042931717
94	0xbd5a9671	-0.05336613
95	0xbd4c6103	-0.049897205
96	0xbdafbfa4	-0.085814744
97	0xbd34b0f0	-0.044114053
98	0xbdb1080b	-0.08644112
99	0x3ccd3424	0.025049277
100	0xbcb18fec	-0.021675073
101	0xbd8e764d	-0.06956158
102	0xbd582e57	-0.052778568
103	0x3cd1e85c	0.025623493
104	0x3db2320b	0.08700951
105	0x3d89ade4	0.0672262
106	0x3d90c8b1	0.07069529
107	0xbd9133c8	-0.070899546
108	0xbd194aeb	-0.037424963
109	0x3ce95c52	0.028486405
110	0x3d0a0f60	0.03370607
111	0x3da8c465	0.08240584
112	0x3dafe6ef	0.08588969
113	0x3c0d27c0	0.008615434
114	0xbd4eb4fa	-0.05046556
115	0xbd95852e	-0.07300793
116	0x3bfee9d0	0.0077793375
117	0xbd9294b0	-0.07157266
118	0x3d4246d6	0.047430836
119	0xbd18323c	-0.037157282
120	0xbca18714	-0.01971773
121	0x3cc99128	0.024605349
122	0x3c0333c8	0.008007951
123	0xbd87fb0f	-0.066396825
124	0x3d90b197	0.070651226
125	0xbda5bec1	-0.08093024
126	0xbc8d0b58	-0.017217323
127	0xbd8c90cd	-0.06863556
128	0x3ddb1ca9	0.10698826
129	0x3d42ec97	0.04758891
130	0x3b83b719	0.0040196297
131	0xbd6f07f7	-0.058357205
132	0x3db1a5d7	0.086742096
133	0x3deac145	0.114626445
134	0xbdb05404	-0.08609775
135	0x3c9471e8	0.018120721
136	0xbd5f3430	-0.05449313
137	0xbd7dad57	-0.061932888
138	0xbda03bcd	-0.07823906
139	0xbd056e18	-0.032575697
140	0xbdc56022	-0.096374765
141	0xbe0267b9	-0.1273488
142	0x3d48874b	0.04895715
143	0x3d8e9353	0.069616936
144	0xbcd5981b	-0.026073506
145	0x3e602210	0.21887994
146	0x3df452a6	0.119298264
147	0x3e8292ee	0.25502723
148	0xbdc60fc1	-0.096709736
149	0xbc0d1e57	-0.008613191
150	0xbe111ace	-0.14170381
151	0xbd0044a3	-0.031315457
152	0x3e0f42f4	0.13990384
153	0xbd0b68b8	-0.034035414
154	0xbd7c6fa7	-0.061629917
155	0x3e3bb992	0.18332508
156	0xbd097501	-0.03355885
157	0xbd6c7fec	-0.057739183
158	0xbb231972	-0.0024886993
159	0x3ea9a1ee	0.33131355
160	0xbb87d6ea	-0.004145493
161	0x3dfa4400	0.12220001
162	0x3e08bea1	0.13353969
163	0x3dc06698	0.09394568
164	0x3d2d59df	0.042322036
165	0xbd68fa89	-0.056879554
166	0x3dd13119	0.10214443
167	0x3cdced5b	0.026968649
168	0x3d50a52c	0.05093877
169	0x3bb2fb90	0.0054621175
170	0x3cc833c7	0.024438752
171	0x3e3793ef	0.17927526
172	0x3dfb3bfd	0.12267301
173	0xbcf81102	-0.030281547
174	0xbd171c6b	-0.036892336
175	0x3e0bd093	0.13653784
176	0xbd8a8418	-0.06763476
177	0xbdbb2c74	-0.09139338
178	0xbc4a5bff	-0.012351035
179	0xbd5753e2	-0.05257023
180	0xbd8970c5	-0.06710962
181	0x3d614193	0.054994177
182	0x3ac8ab4f	0.0015309843
183	0xbe5c293c	-0.21500105
184	0x3dc13caa	0.09435399
185	0xbd0f778f	-0.03502613
186	0x3d3820ae	0.04495304
187	0x3e387325	0.18012674
188	0xbe2f005a	-0.17089978
189	0x3dc35fe5	0.09539775
190	0x3e5a2324	0.21302468
191	0x3e4303be	0.19044396
192	0xbdd27beb	-0.10277542
193	0xbd8b3ed2	-0.067990914
194	0x3cfb0601	0.030642511
195	0x3e9d7bb8	0.30758452
196	0x3e2fcac1	0.17167188
197	0x3de9381f	0.113876574
198	0xbd3d6185	-0.04623558
199	0xbdb873a4	-0.09006432
200	0xbe1e95c5	-0.1548682
201	0xbe2efbea	-0.17088285
202	0xbd9891c4	-0.074496776
203	0x3d5bf791	0.053702895
204	0xbd4008c8	-0.046883374
205	0xbe0554bb	-0.13020603
206	0x3b5e4ba4	0.0033919597
207	0xbd65a786	-0.056067966
208	0xbc9c1635	-0.019053558
209	0x3e2bc500	0.16774368
210	0xbdc12cfd	-0.09432409
211	0xbd83e9a9	-0.064410515
212	0x3dbf3534	0.093363196
213	0xbde9fe1c	-0.11425421
214	0x3e6a46e1	0.228786
215	0x3c8abcf1	0.016935797
216	0xbc3e9f47	-0.011634654
217	0x3cebd83e	0.028789636
218	0xbda26974	-0.0793027
219	0xbe09c8d1	-0.13455512
220	0x3b2272e0	0.002478771
221	0x3beca93c	0.0072223227
222	0x3e905523	0.28189954
223	0xbd452b05	-0.04813673
224	0x3ca635bd	0.020289296
225	0xbd2870b7	-0.04112312
226	0xbda20cb9	-0.07912583
227	0x3d200f8f	0.039077338
228	0x3c971018	0.018440291
229	0xbd06c897	-0.03290614
230	0x3d37294e	0.044717126
231	0x3bc16406	0.0059018163
232	0xbe2b447e	-0.16725346
233	0x3e3b9712	0.18319348
234	0x3d8e55f0	0.06949985
235	0x3d4b7841	0.04967523
236	0xbd655f5f	-0.055999156
237	0x3e789273	0.24274616
238	0xbb981bc1	-0.0046419804
239	0x3b76eb62	0.003767692
240	0x3e360696	0.1777595
241	0xbc12f8a1	-0.008970411
242	0x3e28b625	0.16475733
243	0x3db0171f	0.0859816
244	0x3eaf40c0	0.34229088
245	0x3c0fa0f7	0.008766404
246	0x3cadfea0	0.021239579
247	0xbd860532	-0.0654396
248	0xbdd792f5	-0.10526077
249	0x3d35b682	0.044363506
250	0xbd556602	-0.052099235
251	0x3e02fd3b	0.12791912
252	0xbd16f366	-0.036853217
253	0xbcf6ad90	-0.030112058
254	0xbdd5df81	-0.104430206
255	0x3d5dd61a	0.05415926

fc4.bias f4 [32]
0	0x3cf80fda	0.030280996
1	0x3e49b717	0.1969875
2	0x3d7e03e8	0.062015444
3	0x3b98a577	0.004658397
4	0xbd37939c	-0.044818506
5	0xbd24b431	-0.040210906
6	0xbca9e638	-0.02073966
7	0x3e716c82	0.23576549
8	0x3db76ce9	0.0895632
9	0x3e8981f7	0.26856968
10	0x3dd0bd52	0.1019236
11	0x3cc22d68	0.023703292
12	0x3e4077a3	0.18795638
13	0xbe3fb939	-0.18723
14	0x3e871c23	0.26388654
15	0x3d8f3fc8	0.06994587
16	0xbdae2ab6	-0.0850424
17	0x3d95ad19	0.073084064
18	0xbbb96100	-0.0056573153
19	0x3df2b3bf	0.1185069
20	0xbe391167	-0.18073045
21	0xbbcabe30	-0.006187223
22	0x3d2c7dbc	0.042112097
23	0xbe29e753	-0.1659215
24	0xbe8bce99	-0.2730606
25	0x3ecc0613	0.39848384
26	0x3d569aad	0.052393604
27	0xbcf18b4e	-0.029485371
28	0xbd4db39c	-0.050220117
29	0xbd6049f3	-0.054758023
30	0x3e524448	0.2053386
31	0x3dfa029a	0.122075275

fc5.weight f4 [4, 32]
0	0xbdd62248	-0.104557574
1	0x3e9b5a39	0.30342272
2	0xbe802662	-0.25029284
3	0x3df634e4	0.12021807
4	0xbe7cbeb9	-0.2468213
5	0x3dc0a896	0.09407155
6	0xbd14da50	-0.03634101
7	0x3dab9b41	0.08379222
8	0x3d79deb8	0.061003417
9	0x3ec0df9c	0.376706
10	0x3ca18b78	0.019719824
11	0xbe1ec8d5	-0.15506299
12	0x3ee2c1bf	0.44288442
13	0xbe85c471	-0.26126435
14	0x3ee03aa4	0.4379474
15	0xbbe6c6b4	-0.00704273
16	0x3e0f7377	0.1400889
17	0x3dae7785	0.0851889
18	0xbe2edb8c	-0.17075938
19	0x3d9bf69a	0.07615395
20	0xbe73f072	-0.23822191
21	0x3c2e8bb0	0.010653421
22	0x3f03db2d	0.5150631
23	0xbe90bd71	-0.28269532
24	0xbe3ee13d	-0.18640609
25	0x3eabf9f7	0.33589146
26	0xbe1bdcb0	-0.15220904
27	0xbdfe9f3d	-0.12432716
28	0xbdb957f5	-0.090499796
29	0xbd991ca5	-0.07476167
30	0x3eeb6c9a	0.45981294
31	0xbe05641a	-0.13026467
32	0x3e2a6b5e	0.1664252
33	0x3e512cef	0.20427297
34	0xbe551bac	-0.20811337
35	0xbe9ece3c	-0.3101672
36	0xbe943f8c	-0.28954732
37	0x3ae0b541	0.0017143862
38	0x3df1ec16	0.11812608
39	0xbeb18500	-0.34671783
40	0xbedd497f	-0.43220136
41	0x3c6fb566	0.014630651
42	0x3e81e48c	0.2536968
43	0xbe0b4b14	-0.13602859
44	0x3ecde55b	0.40214047
45	0xbe33bde3	-0.17552905
46	0x3edb6f5c	0.42858398
47	0x3ec5ae40	0.38609505
48	0xbdf2ff14	-0.118650585
49	0x3ded78c8	0.11595303
50	0xbc6ff680	-0.0146461725
51	0x3f08ff68	0.5351472
52	0x3ea163be	0.3152141
53	0x3d56ac14	0.0524102
54	0xbdab5f40	-0.08367777
55	0xbd0d5e55	-0.03451379
56	0x3d821778	0.063521326
57	0x3ed8a179	0.42310694
58	0xbe3dc8ce	-0.18533632
59	0xbe0db2db	-0.13837759
60	0xbdf1fbfa	-0.11815639
61	0xbd1c58e7	-0.03817072
62	0x3e64afb7	0.22332655
63	0x3cd339e1	0.025784435
64	0xb8aa8356	-8.130695e-05
65	0x3e857d6e	0.26072258
66	0xbdaa1519	-0.08304805
67	0x3ea19157	0.31556198
68	0xbe6710f9	-0.22565068
69	0xbe307d75	-0.17235358
70	0xbded0da9	-0.11574871
71	0xbe883719	-0.26604536
72	0xbe234cb9	-0.15947236
73	0x3ea6433e	0.32473177
74	0xbe957299	-0.29188994
75	0xbb01e140	-0.0019818097
76	0x3f0658a2	0.5247899
77	0x3d2bae6e	0.041914396
78	0x3e72920a	0.23688522
79	0xbe1c43c0	-0.1526022
80	0xbe2d1f31	-0.1690643
81	0xbe2d5f24	-0.16930825
82	0x3e25105f	0.16119526
83	0x3ec27b95	0.3798491
84	0x3e78ef3f	0.24310015
85	0xbe1a1ade	-0.15049312
86	0x3dc03ad5	0.09386221
87	0xbd8d2a0b	-0.06892785
88	0x3e182986	0.1485959
89	0x3ef999ff	0.48750302
90	0xbe91e148	-0.28492188
91	0x3d2fb8ee	0.042900972
92	0xbde58452	-0.11206879
93	0x3da32fdc	0.07968113
94	0x3ecc9098	0.39954066
95	0xbeb84580	-0.35990524
96	0x3d91822c	0.071049064
97	0x3e946a9a	0.2898758
98	0x3dc81c1a	0.09770985
99	0xba5c8d63	-0.0008413402
100	0xbe19dd92	-0.15025929
101	0x3e0f8ea5	0.14019258
102	0xbdb1b699	-0.08677406
103	0xbe3ba79d	-0.18325658
104	0xbeb46f03	-0.35240945
105	0x3eb1a6e6	0.34697646
106	0xbeac518c	-0.33655965
107	0xbddbf122	-0.10739352
108	0x3d232a64	0.03983535
109	0xbe76e837	-0.2411202
110	0x3f133edd	0.57517797
111	0x3f11d28e	0.56961906
112	0xbd1cd8e8	-0.038292795
113	0x3e97668e	0.2957043
114	0xbbb4f6a0	-0.005522564
115	0x3ea43179	0.32068995
116	0xbe576644	-0.21035105
117	0x3d815980	0.06315899
118	0x3cd66932	0.026173208
119	0x3e618098	0.22021711
120	0xbe809446	-0.25113124
121	0x3ed825a0	0.42216206
122	0xbdf18276	-0.117924616
123	0xbdfc9f5e	-0.123350844
124	0xbb701300	-0.0036632419
125	0xbd28884c	-0.041145608
126	0x3e28c78c	0.16482371
127	0xbe4cc68f	-0.19997619

fc5.bias f4 [4]
0	0x3ea90d26	0.33017844
1	0xbe2743fc	-0.16334528
2	0xbe43bdbb	-0.19115345
3	0x3eb42fc4	0.35192692
