DQN_models/model_updaterate1000_gamma0.7_alpha0.0001_static.pt (torch, 416851 bytes, 10 tensors)

fc1.weight f4 [128, 514]
000000 ac c8 f2 3c 3a a4 63 bc 60 96 ed 3c 80 40 15 bd
       0.029636703 -0.013894135 0.029002368 -0.036438465
000010 fc 11 34 3d cc de 91 bc 08 42 cc bc 89 60 ea bc
       0.043962464 -0.017806433 -0.02493383 -0.028610485
000020 42 b0 8a 3c f8 97 0e 3d 49 1a 25 bd 34 43 b0 3c
       0.01692975 0.034812897 -0.04030827 0.02151642
000030 1b ba 84 bc 10 7c 69 bc 00 60 a6 b8 58 ed e6 3c
       -0.016202023 -0.01425077 -7.933378e-05 0.028189346
000040 aa 54 20 3d 6c 88 0d bd 48 10 2a 3d 64 04 ba 3c
       0.039143242 -0.03455393 0.041519433 0.022707172
000050 ec fc 99 3c 20 f0 9c bc 78 d3 a9 3b 44 31 19 bc
       0.01879736 -0.01915747 0.0051826797 -0.009350125
000060 16 21 3a 3d 46 19 05 3d 6d cd e3 bd f3 63 56 3d
       0.04544171 0.032494806 -0.11123166 0.052341413
000070 23 30 e4 bd d4 08 e4 bd d8 df 9a 3b 21 18 d0 bd
       -0.11141994 -0.11134496 0.0047263913 -0.10160852
000080 85 05 e3 bd 68 d0 e2 bd 32 5d bb bc d9 2f 00 bc
       -0.11085037 -0.110749066 -0.022871587 -0.007823908
000090 c9 00 29 bd 17 3d 94 bd 66 c5 9d bd 5c cf 90 bd
       -0.041260514 -0.072382145 -0.077036664 -0.07070801
0000a0 e8 07 f7 bc a9 9e 87 bc ac 1c 14 3d 72 66 74 bc
       -0.030155137 -0.016555147 0.036160156 -0.014917003
0000b0 70 b7 96 3c 24 2c cd 3c 34 85 87 3c 06 6a f8 bb
       0.018398017 0.025045462 0.016543008 -0.0075809984
0000c0 54 15 a1 bd d9 b6 ff 3c 52 11 16 bd 33 ea bd bd
       -0.07865396 0.031215118 -0.03663761 -0.092731856
0000d0 01 10 34 bb ff 8f ec bd 46 30 83 bc b3 78 e1 bd
       -0.002747536 -0.115509026 -0.01601423 -0.1100935
0000e0 24 8e 14 bc 66 9e 10 bd 50 d6 ba bd 2e e1 54 3c
       -0.009067092 -0.03530731 -0.09122908 0.01299314
0000f0 ac 80 12 bc d9 c3 9f bd 09 03 94 bd a5 d9 bc bd
       -0.008941811 -0.07801027 -0.072271414 -0.092212
000100 5e 23 07 bd b8 ca c6 3c fc 79 08 3c 02 da e3 bc
       -0.032992713 0.024266586 0.008329865 -0.027813915
000110 dd 31 ff 3c 4e 9d 32 bc a1 7f 2e 3d b1 cc b8 bc
       0.031151706 -0.010901762 0.042602185 -0.022558542
000120 88 9e 41 bc 71 ca 02 3d 4f 8d b9 3c 8b 53 39 3d
       -0.011817582 0.031931344 0.022650389 0.04524569
000130 20 83 f3 3c 10 98 28 bb 9f 41 c2 bd 59 b7 b3 bb
       0.029725611 -0.0025725402 -0.094851725 -0.005484503
000140 1d f1 82 bd a4 d2 23 bd b0 31 32 bc f4 11 97 bc
       -0.06393645 -0.039995804 -0.010876104 -0.018441178
000150 b8 c3 64 bc c4 e0 51 3c 50 79 df 3c 7a 0a 07 3d
       -0.013962679 0.012809936 0.027279526 0.032968976
000160 f2 28 04 bd 1c c4 07 3d f4 c5 98 3c eb 68 df 3c
       -0.03226561 0.03314601 0.018649079 0.027271708
000170 c4 d0 3b 3d 60 c6 2f 3d 00 41 be b9 62 0f be bc
       0.04585339 0.042913795 -0.00036288053 -0.023200694
000180 f4 ee f1 bc 22 b7 26 3d 32 78 83 3c f8 d1 9e bb
       -0.029532887 0.040701993 0.016048525 -0.0048468076
000190 09 3b 4d 3c 6e 23 9f bd d7 58 25 3d 4a 2b 1e 3d
       0.012526282 -0.077704296 0.040367927 0.038615502
0001a0 a3 fc 1a bd 98 41 56 3a a6 87 95 bd c4 26 1c bc
       -0.03783859 0.00081732264 -0.073012635 -0.009530727
0001b0 d3 40 8f bc 32 fd 17 bd e8 8d 41 bc f2 81 27 3d
       -0.017486965 -0.0371067 -0.011813618 0.04089541
0001c0 6d db 50 3c de 87 ba 3c ae ac 5e 3b 00 3a 23 bb
       0.012747628 0.022769865 0.0033977437 -0.0024906397
0001d0 e4 f8 0f bd a1 39 49 3d a6 45 98 bd ed 74 5b 3d
       -0.03514947 0.049127225 -0.074351594 0.053578306
0001e0 80 72 34 bd ba ee 2b 3d 72 61 99 bd a6 e2 47 3b
       -0.04405451 0.041975714 -0.07489289 0.0030500083
0001f0 48 fc c4 3c 04 5c f0 3c f8 02 e2 3c c7 14 88 3b
       0.024046078 0.029340751 0.027589306 0.0041528675
000200 04 a8 ff 3c 9e 0e c3 3c 00 e3 b5 3a 44 37 25 3c
       0.031208046 0.023810681 0.0013876855 0.010083977
000210 80 e9 2a 3d 65 cc 04 bd 5f 23 21 3d 31 3d 41 3c
       0.04172659 -0.03242149 0.039340373 0.011794374
000220 4c b5 8f 3c 24 32 58 3c 25 19 d7 bc 70 85 33 3d
       0.017542504 0.013195548 -0.026257107 0.043828428
000230 b2 de 8c bd 25 12 83 3d 43 3d 03 bd f4 c6 f0 bc
       -0.06878413 0.06399945 -0.032040846 -0.029391743
000240 1b a0 8b bd c9 a5 9a bc 81 a8 8b bd ac 65 ae 3c
       -0.06817647 -0.01887788 -0.06819249 0.021288715
000250 48 2f 00 3d d5 86 85 3d 2e 31 23 3c bf 8d 8c 3d
       0.03129509 0.06519858 0.009960456 0.068629734
000260 84 fa 4f bc 20 54 95 3a 44 e8 76 bc 10 e3 ba bc
       -0.012694005 0.0011392869 -0.015070025 -0.02281335
000270 c3 d8 73 3c 39 b8 fb bb bc b6 55 3d 8c 4a 33 3c
       0.014883223 -0.007681873 0.052176222 0.010943066
000280 e0 48 02 3b 36 ba 73 3b 6c e0 95 bd 53 13 4d 3d
       0.0019879863 0.0037189848 -0.07318196 0.050067257
000290 9c 3d 08 3c b7 84 dd bc d3 a2 8b 3d 6a 0f 2f bd
       0.00831547 -0.027040822 0.06818166 -0.04273931
0002a0 f7 48 83 3d 84 f3 c5 3c 7e 78 95 3c 6f 90 d3 3c
       0.06410401 0.024163969 0.018245932 0.025825707
0002b0 68 cb ab bc 81 8d 9c 3d 64 22 f5 bc 3a 4f 56 bc
       -0.020971015 0.07644177 -0.029923625 -0.0130804125
0002c0 c7 70 02 bd de 24 91 bc 4e 8e 87 bb f5 8b a5 3b
       -0.031845834 -0.017717775 -0.004136837 0.0050520846
0002d0 58 07 02 3c 36 7c 2b 3d 85 e5 b4 bc 9c 65 37 3d
       0.007936321 0.041866504 -0.0220821 0.044774637
0002e0 29 b4 8f bd 90 55 bd 3d 00 84 6b 39 0f e6 13 bd
       -0.07016785 0.092448354 0.0002246052 -0.036108073
0002f0 5b c8 8f bd 72 70 5f 3c 8a fd 8e bd 1c 5f e7 3c
       -0.07020637 0.013637649 -0.069819525 0.028243594
000300 3b a1 24 bd 90 5e 8e bd 66 c6 e6 3c 09 be 15 bd
       -0.040192824 -0.0695163 0.028170776 -0.036558185
000310 1c bf 70 bc c2 6c 8f 3c b8 3b fe 3c c0 41 0d 3b
       -0.0146940015 0.017507914 0.031034335 0.0021554083
000320 10 50 27 bd 21 5b 98 bc 07 4e 1a 3d a1 e8 24 bd
       -0.040847838 -0.018598141 0.03767207 -0.040260915
000330 47 f0 b2 bc b7 64 1f 3d 2f 90 a6 bd e5 69 92 3d
       -0.021843089 0.03891441 -0.081329696 0.07149104
000340 56 a2 0d 3d ae bd 2d bd 90 87 8e bd a2 f5 7f 3c
       0.034578644 -0.04241722 -0.0695945 0.015622528
000350 07 79 5a 3d 8e 12 17 3d e4 82 b0 3c 6f 13 1c 3d
       0.053338077 0.03688293 0.021546789 0.03810447
000360 06 48 5b 3c 22 26 c4 3d e5 e7 25 bd 14 06 1c 3c
       0.013383871 0.09577586 -0.040504355 0.0095229335
000370 e0 cf dc ba 6c aa bd 3c f2 fa 0f bd df da 54 bd
       -0.001684662 0.023152553 -0.03515143 -0.051966544
000380 24 94 12 3c 06 7c 69 bc 2a 9c 26 bd 94 03 e2 3c
       0.008946452 -0.014250761 -0.040676273 0.027589597
000390 18 9b e5 3a 22 91 b6 3d 90 a7 12 bc 08 6a 4a bc
       0.0017517535 0.08914401 -0.008951083 -0.012354381
0003a0 64 a5 91 bd af 28 03 bd 56 5e 3b 3d 90 7c 97 bb
       -0.07111624 -0.03202122 0.045744263 -0.0046230033
0003b0 b9 ca b9 bc 14 08 9f bd 32 9c 51 3a ec 6b 92 3d
       -0.022679674 -0.07765213 0.0007995992 0.07149491
0003c0 5d 43 b6 bc 70 2c 97 3c b0 e1 b9 bb 04 6d 5f bc
       -0.022248918 0.018453807 -0.005672656 -0.013636831
0003d0 f4 a6 8f bd d9 94 5f bc 57 da 17 3d bb a4 0a bd
       -0.07014266 -0.013646328 0.03707346 -0.033848505
0003e0 a4 c4 13 3c dd c9 a5 bd 3f aa 9f bd 9d c2 23 3d
       0.009019051 -0.08095143 -0.07796144 0.03998052
0003f0 c4 07 a0 bc e8 41 be 3c a2 6d dd 3c e0 7d c5 3c
       -0.019534953 0.023224786 0.027029816 0.024107873

fc1.bias f4 [128]
000000 dd 9a fd 3b bc 2c 72 3c 79 43 34 bd 3b e8 1c bd
       0.0077394084 0.014781173 -0.04400966 -0.03830741
000010 e7 31 bd 3d ba 41 1a bd a5 1a 98 3c 5f c9 e1 3d
       0.09238034 -0.037660338 0.018567393 0.110247366
000020 5b fa b2 3d 64 09 91 bc ac d6 04 3c 56 2d cf bc
       0.08739158 -0.017704673 0.008107822 -0.025290173
000030 6c 41 ad 3d 19 1d 8f bc 9b 86 98 3c 46 b2 70 bd
       0.08459744 -0.01746993 0.018618872 -0.058763765
000040 b1 35 4c 3d d5 a7 cf 3d c6 c7 6e 3d 36 c3 cf 3c
       0.04985589 0.10139433 0.058295988 0.025361639
000050 ee 9d 1e 3e 9f 3e 66 3d cd 9e 1b 3e 80 20 b3 3c
       0.15489933 0.056212064 0.15197296 0.021866083
000060 93 bf d0 3d 24 39 8e 3d 3f c5 80 3d 9d d2 32 bc
       0.1019279 0.069444925 0.06287622 -0.010914472
000070 0d 40 03 bb ba 33 0f bd ee 81 41 3d 8e d6 a7 bc
       -0.002002719 -0.03496144 0.04724305 -0.02048805
000080 ec e0 52 3d 4c 45 1c 3d ae 5d d6 3d 7e 57 96 3d
       0.051484033 0.038152024 0.10467087 0.073409066
000090 b2 d4 c6 3c 02 9d 05 3e 70 79 31 3d 67 5b b5 3d
       0.024271343 0.13048175 0.043328702 0.08855324
0000a0 ba 56 14 3e 94 2f 43 3d a3 fd 2b 3e de 64 87 3d
       0.14486209 0.047652796 0.16795973 0.06611036
0000b0 ce 32 65 bc 2c a2 04 3d 98 0e a8 3d b2 48 da 3d
       -0.013989164 0.03238122 0.082059085 0.10658397
0000c0 9a ae a2 3d 61 c4 10 3e 49 f3 ba 3d 30 f1 54 3d
       0.07943459 0.14137413 0.09128434 0.051987827
0000d0 a2 34 f7 3c b5 9c 1a 3d 91 60 a0 3d 3e c4 86 3d
       0.030176464 0.037747104 0.078309186 0.06580399
0000e0 14 8f a1 3d f5 d4 32 bd d2 49 de 3d 17 cc 02 3e
       0.07888618 -0.043660123 0.10853924 0.12773167
0000f0 5d b6 8a bd c1 e8 32 3b 0b 86 92 bd 55 49 95 3d
       -0.06773064 0.0027299377 -0.07154473 0.072893776
000100 ef 9b 6b bc 1d e4 68 3d b1 64 d1 3d e5 fa 95 3d
       -0.014380439 0.05685817 0.102242835 0.07323245
000110 39 f0 12 bd 6b e7 80 3d 87 a9 5e 3d 47 83 f8 3d
       -0.035873625 0.062941395 0.054360893 0.12134414
000120 77 7b e7 3d 64 42 1f 3d 0c 54 ce 3d d9 d5 d5 3d
       0.11302846 0.038881674 0.100746244 0.10441179
000130 f3 60 47 3d 54 9b 5c 3d fb 44 3e bd 5f 58 9e 3d
       0.048676442 0.05385907 -0.046452504 0.07731699
000140 cf f7 3d 3d f4 bf e7 39 42 69 d4 3b 6a 4f 8a bc
       0.046378907 0.0004420277 0.0064822743 -0.01688357
000150 7a 96 00 3d aa 10 fb 3d 7a 9b b6 3c 04 48 0f 3d
       0.031393506 0.12259038 0.022290934 0.03498079
000160 36 4b bc 3d 9e 64 d3 3d ee b5 9e bc 63 11 df 3d
       0.09194033 0.103219256 -0.01937386 0.10891988
000170 6e 88 22 3d 5f 3a cb 3d 9a 7c 11 3e 12 4b 19 3e
       0.03968089 0.09923243 0.14207688 0.14970043
000180 0f 74 8c 3d 76 be a6 3d ff 3e fc 3d 7c 3b 0b 3e
       0.06858074 0.08141796 0.12316703 0.1359691
000190 57 f9 b3 bd d2 b0 1a 3d 02 a7 1c 3e b2 de a3 3b
       -0.08787792 0.037766285 0.15298083 0.0050009126
0001a0 20 92 00 3e c9 c3 6b 3d 2c 0b 7a 3d 1d 8d 03 3d
       0.12555742 0.057559762 0.06104581 0.032116998
0001b0 f0 83 69 3d 6d 40 00 3e f9 67 3b bd 22 63 0b 3c
       0.05701059 0.12524576 -0.045753453 0.008507522
0001c0 4b c0 46 3d 5a f3 59 3c 2d 08 25 3d bf d5 70 3d
       0.04852323 0.013302648 0.040291 0.058797594
0001d0 eb a7 97 bd 04 0a c6 3d d9 6a ea 3b fb 35 1a 3e
       -0.07405075 0.09669879 0.0071538505 0.15059654
0001e0 9a 8b aa 3d 01 52 b8 3d b4 41 77 3d 37 93 55 bc
       0.08327408 0.09000016 0.060365394 -0.013035587
0001f0 7e 59 95 3d 80 d0 e1 3c 04 9d 7f 3d 36 8b 87 3c
       0.0729246 0.02756524 0.0624056 0.016545873

fc2.weight f4 [128, 128]
000000 eb 90 0a 3e 65 fe d2 bb b7 48 18 3e 6f f1 8a 3d
       0.13531844 -0.0064390176 0.14871489 0.06784331
000010 5a 9b 22 be fd 78 1b 3e d1 93 88 3d b9 60 4c 3d
       -0.15879574 0.15182872 0.06668819 0.04989693
000020 5e 35 35 3e b3 c5 8d 3e e0 55 9b 3c 6e aa c7 bd
       0.17696139 0.27689895 0.018961847 -0.09749304
000030 95 71 e8 3d 7f 83 07 bd 33 c0 bc bc 7b cb 27 bc
       0.11349789 -0.03308439 -0.023040866 -0.010241385
000040 8d 99 f0 3d 46 73 aa 3c cd a1 4a 3c 96 f5 ca bd
       0.117480375 0.02080692 0.012367678 -0.09910123
000050 88 41 87 be 81 57 15 3e a7 5c 11 3e a9 c3 94 bc
       -0.26417184 0.14584161 0.141955 -0.018159704
000060 8d bc a0 bd 38 dc b6 3d e0 ed 31 3e 2b 47 9a 3e
       -0.07848463 0.08928722 0.17375898 0.30132422
000070 d8 da 89 be 50 72 61 3d 29 74 80 3d e3 10 42 bc
       -0.26924777 0.055040658 0.06272156 -0.011844846
000080 73 0a 3e bb 1a b2 47 3e a0 83 92 3d 28 1e bd 3d
       -0.0028997927 0.19501534 0.07154012 0.092342675
000090 0b 7c e3 3d 3f 6a 51 be 3d 82 3f 3d 53 9f a3 3e
       0.11107644 -0.20450686 0.046755064 0.31957492
0000a0 f6 87 76 3e 54 e9 13 bd 22 b8 67 be 70 2d 1b bd
       0.24075302 -0.03611119 -0.22628835 -0.03788513
0000b0 46 80 2d 3e 9c 34 2a 3e 2f 4d 55 bd 23 6c c5 3e
       0.16943464 0.16621631 -0.05207556 0.38559064
0000c0 04 69 3a bd fd c6 c1 bb c3 a2 46 be 57 c3 73 3d
       -0.045510307 -0.005913614 -0.19398026 0.059512462
0000d0 82 2e b2 bd bb a9 cc bd d8 ca 97 3e 10 54 52 be
       -0.08700277 -0.09993311 0.29646945 -0.2053988
0000e0 68 d0 e1 3d 2d d5 01 3e e5 21 a8 be ca a1 2b 3e
       0.110260785 0.12678976 -0.3283836 0.16760936
0000f0 35 44 4c 3e 90 f1 af 3d 87 f2 87 3e 4b f6 35 be
       0.19947894 0.08590996 0.2655222 -0.17769735
000100 a2 f2 ea 3d 5c e1 c0 bd d0 e1 b9 bb 14 7a 31 3e
       0.1147206 -0.09417984 -0.005672671 0.17331725
000110 a5 2c 89 3c f9 f6 11 3e 66 75 cd bd 6f c8 b0 bd
       0.016744921 0.14254369 -0.100321576 -0.0863198
000120 59 0b 7e be fd 33 3e 3d 03 11 ac 3d a1 2e 2c bc
       -0.24809016 0.0464363 0.08401682 -0.010509164
000130 e1 4e 94 bd cd 2b 78 3b bc 9c 3a 3e ed 09 a9 bd
       -0.072416075 0.0037867904 0.18223852 -0.08253846
000140 65 de 48 be aa ae 84 bc 1a 9b d9 bc 72 3d a2 3c
       -0.19616087 -0.016196568 -0.026563216 0.01980469
000150 39 50 10 3e 7d 5d e7 3d 39 b5 a5 3d e6 30 c6 3a
       0.14093103 0.11297128 0.08091206 0.0015120774
000160 51 2a 30 3e 19 77 98 3e 58 54 30 3c 02 02 1e 3e
       0.17203642 0.29778364 0.010762297 0.15430453
000170 cc 1e 86 3d 12 0a 6c be ea 41 1f be 59 bf 32 be
       0.06548843 -0.23050717 -0.15552488 -0.17455806
000180 e2 fb 08 3d 95 0b 4f bd 4b 76 7e be 37 67 0e 3c
       0.03344334 -0.050548155 -0.24849813 0.0086916005
000190 58 16 c1 3d e8 9f 65 3d 6e 71 98 3e f1 20 17 bd
       0.0942809 0.0560607 0.2977404 -0.03689665
0001a0 d4 ac 15 be 1d 02 6b 3e 7c 5c 0b 3d 5f 13 dd b8
       -0.1461671 0.22950025 0.034023747 -0.00010541709
0001b0 8a ce 91 3d 69 b8 b7 3e 45 18 22 3e 69 fe ed 3d
       0.07119472 0.3588288 0.1582957 0.116207905
0001c0 63 13 05 3d b4 54 6f 3e c6 20 85 bd 4f bd 08 be
       0.03248919 0.23372155 -0.06500392 -0.13353465
0001d0 9e 79 0a 3e 91 2a 27 3e b3 e9 0b 3e c1 a9 c3 bd
       0.13522956 0.16324832 0.13663368 -0.09553862
0001e0 e5 ce 60 bc 6e aa bc bc 6a bd a1 3e 6f 5e 8c 3d
       -0.0137212025 -0.023030486 0.31589824 0.06853949
0001f0 0f df de bd aa 25 31 3d c2 37 34 3e 60 3d 57 3e
       -0.10882389 0.04324881 0.17599395 0.21019506
000200 ee be 19 be 3e 50 cf 3d 1e 48 12 3d de 9a 45 bd
       -0.1501424 0.10122727 0.035713308 -0.048243396
000210 28 23 40 3e 76 b3 92 be c1 87 b1 3d d8 d7 79 bd
       0.18763411 -0.28652543 0.08668471 -0.06099686
000220 96 51 36 3d 11 5e 3d 3d 84 58 a7 bd 4f 02 c0 3d
       0.0445114 0.046232287 -0.0817118 0.0937544
000230 bd d9 42 3e e5 80 53 3e 27 69 a1 bd 3a c0 f7 3d
       0.19028373 0.20654638 -0.07881384 0.12097211
000240 e8 78 8f bd c4 69 71 3e d8 67 51 bd 32 23 ed 3b
       -0.07005483 0.23575503 -0.051124424 0.0072368616
000250 b2 f1 0e 3e 9d b7 4b bd 21 f3 d9 3d a5 e4 a3 bd
       0.13959387 -0.049735654 0.10642076 -0.08002595
000260 ec 75 4f be 4f 71 ad 3d fd db 8e 3e 64 9b b6 bc
       -0.20259827 0.084688775 0.27902213 -0.022290893
000270 c7 96 3e 3e c8 19 c6 3d e0 8b ad 3d c5 fd 54 3d
       0.18612204 0.09672886 0.08473945 0.051999826
000280 68 36 4f 3d 25 56 0c 3d a7 df 9e 3c 8b 8b 59 bd
       0.050588995 0.03426184 0.019393755 -0.053111594
000290 79 8b 2a 3e 41 ac 4a 3e 44 a7 30 3d 34 68 a1 3d
       0.16654767 0.19792272 0.043128267 0.07881203
0002a0 d7 b6 18 3e 59 03 b3 3d 6b fc 65 3e e4 a4 16 3e
       0.14913498 0.08740873 0.22459571 0.14711338
0002b0 c1 61 de bd 53 b1 c5 3d 2b 0b 64 bd c7 9b 06 3e
       -0.10858489 0.096529625 -0.055674713 0.13145362
0002c0 3b 2f 6e 3e 6e 65 47 be 46 8e 48 bd 5c 70 cc 3d
       0.23260204 -0.19472286 -0.048963808 0.09982368
0002d0 b4 85 3f be ce cb 08 3e 84 62 0c 3e ad a5 0b 3d
       -0.18703347 0.13358995 0.13709456 0.034093548
0002e0 b5 57 98 3d 6e 12 2d 3d 93 b7 ba bc 0b 0f 86 be
       0.07438604 0.042253904 -0.022792613 -0.26183352
0002f0 37 f8 eb bd 9d a8 8c bc fd a5 62 be 86 14 a2 3e
       -0.115219526 -0.017170245 -0.22133632 0.31656283
000300 64 06 6d be 7c b2 1c bb 43 83 5e bd b2 b6 05 3e
       -0.23146969 -0.0023910096 -0.0543244 0.13057974
000310 1b f1 7f 3c 5c 5c 4a 3b 4f b4 11 3e 00 60 33 3b
       0.015621449 0.0030877804 0.14228939 0.0027370453
000320 da dc 98 bd e3 a2 f0 3e ff f3 4d bd 80 52 eb 3b
       -0.07463999 0.46999273 -0.05028152 0.0071814656
000330 5b b9 6a 3e f9 c8 67 bd ec 80 94 3c 8f aa cf 3b
       0.2292227 -0.056588147 0.018127881 0.006337471
000340 dc 34 36 be 26 5d a6 bc 68 da 6d 3d fb 92 7e 3e
       -0.17793602 -0.020308089 0.058069617 0.24860756
000350 d6 06 b5 bd de 64 7b 3d 68 e7 ec 3d b9 21 9a 3e
       -0.088391945 0.06137549 0.11567575 0.30103853
000360 4d 0c b6 3c 3b 81 fd 3b 74 f6 f1 3a e4 3b 84 3d
       0.022222662 0.0077363527 0.001846029 0.06456736
000370 44 28 34 3e 1c dd d0 3c 29 0b 81 3d 61 0e 8e 3d
       0.17593485 0.025496058 0.06300957 0.06936336
000380 01 0e fe bd 82 df ad b9 06 21 5e be d7 bb f7 3d
       -0.12405015 -0.00033163658 -0.21692285 0.120963745
000390 b2 1b cf be c1 9f 95 be dd 6e c5 3d a9 35 91 3d
       -0.40450817 -0.29223445 0.09640286 0.07090313
0003a0 0f 61 06 be 37 e9 cd 3d e8 5b 75 3e 2b 91 7e 3d
       -0.13122962 0.10054248 0.2396084 0.06215016
0003b0 b0 66 ed 3d 82 78 a5 3c 92 b5 3f be 3d 70 ce 3d
       0.11591852 0.020199064 -0.18721607 0.100800015
0003c0 6f a3 fe bd 22 c4 b2 3c fa 4f 64 3e e3 c2 53 be
       -0.12433516 0.021822039 0.22296134 -0.20679812
0003d0 ea 3d 59 3e 56 f8 0a 3e 59 40 89 3c f9 18 5a 3e
       0.21215025 0.13571295 0.016754316 0.21298589
0003e0 cc 31 64 be 58 47 e9 3d 29 64 14 3e 03 ba de 3c
       -0.22284621 0.11390561 0.14491333 0.027188307
0003f0 1a ff 67 3e 27 75 35 3e ab b1 f4 3d 30 f1 9d 3d
       0.22655907 0.17720471 0.1194795 0.077120185

fc2.bias f4 [128]
000000 cf 79 8b bd 24 b9 e5 3d 27 01 9f bd b8 f9 b1 bd
       -0.068103425 0.112169534 -0.07763892 -0.08690208
000010 8a 90 7b bc 00 bb c1 bd 50 0b 21 3c 15 22 00 3d
       -0.015354285 -0.094594955 0.009829357 0.031282503
000020 86 05 08 bd 3c 0e 30 bd be bf 0a 3c fa ef 10 bc
       -0.033208393 -0.042982325 0.008468566 -0.008846277
000030 f3 c8 88 bd 15 d4 8c bd 2a 5d b4 bc b5 52 2c bb
       -0.06678953 -0.06876389 -0.02201708 -0.0026294414
000040 78 4f 9b bd 1b d7 ac 3d 73 ac 02 be 8f 75 cf 3c
       -0.07583517 0.084394656 -0.12761097 0.025324611
000050 6e 66 1d 3d ad 5d 22 bd 6b 73 a1 3d e4 5d e7 3b
       0.038427763 -0.039640117 0.07883342 0.007060753
000060 d6 77 f0 bc b8 74 bb bd e3 f4 ac 3d 3d 6b 9b bd
       -0.029354017 -0.09153122 0.08445146 -0.075888135
000070 55 91 c5 bc 2d 5a 84 bd 6f a0 3d 3e 32 bf 8f bd
       -0.024117151 -0.06462512 0.18518232 -0.070188895
000080 51 59 85 bd 1d 48 67 bd 54 d3 01 3e 17 d5 3c 3c
       -0.065111764 -0.056465257 0.12678272 0.011525414
000090 c0 7a cb bd 05 3b ec bd d0 33 33 3d c8 ab 3a bd
       -0.09935522 -0.115346946 0.043750584 -0.04557398
0000a0 6d 67 10 3b 67 eb 50 3e 12 5c 1a 3e 06 9b 54 bd
       0.0022034303 0.20402299 0.15074185 -0.051905654
0000b0 50 82 63 bd e9 4c 8b bc c3 31 04 be f9 45 cc bd
       -0.055544198 -0.017004447 -0.12909608 -0.09974284
0000c0 60 ae 44 3e 1e b5 11 3c e3 42 b7 3d 35 dc 50 3c
       0.19207144 0.008893279 0.089483045 0.012747814
0000d0 64 67 83 bd 5d 79 84 bc 17 f7 43 3d 73 57 b7 bc
       -0.064162046 -0.016171152 0.047843065 -0.022380566
0000e0 f9 fa 33 bd 0d 6e e1 3d ca b4 c1 bc 27 f8 5f bd
       -0.043940518 0.11007319 -0.023645777 -0.054680016
0000f0 3f d7 0c bb f4 18 a9 bd 5f 0a 59 bd 0d 1c 97 bd
       -0.0021490601 -0.082567126 -0.052988406 -0.07378397
000100 7e 3e fc bc 5f f0 23 be f9 f2 55 3e 0d e1 90 bd
       -0.030791517 -0.16009663 0.20893468 -0.07074175
000110 86 51 ac bb d5 1c 12 3e 6d 61 d5 bc f4 0f 0d 3d
       -0.005258742 0.14268811 -0.026047433 0.034439042
000120 65 5a d7 bd b0 1a ce 3d 3a ad 92 3d 59 6f db bc
       -0.10515288 0.10063684 0.071619466 -0.026786493
000130 06 c3 9f bc 34 43 90 bd d4 c3 cb 3c 07 7d 46 3e
       -0.019502174 -0.07044068 0.024873652 0.19383632
000140 87 0a cc bd 43 19 71 bd 08 ea be bd 4a 3f dc bc
       -0.099629454 -0.058861982 -0.09321982 -0.026885647
000150 1b 43 8d 3d 38 c6 b5 3d 80 9f 9d bd 06 5a e7 bb
       0.06897565 0.08875698 -0.07696438 -0.007060292
000160 90 b4 96 bd 46 02 f6 3c d6 c3 53 3d 87 c4 be 3d
       -0.07358658 0.030030381 0.051700436 0.09314828
000170 b9 62 46 3d ff 89 b7 3d 25 72 a1 bd 95 f5 a1 bd
       0.048433993 0.089618675 -0.078830995 -0.07908169
000180 be 7c bc bd 94 cc ae bd 0a 72 a2 3d 07 cf 0e bd
       -0.0920348 -0.08535114 0.079319075 -0.034865405
000190 f4 1a 21 be 27 c1 67 bd 9b 37 a9 bd bd 3f 3e bd
       -0.15732938 -0.05658069 -0.08262559 -0.046447504
0001a0 b5 d1 0d be 89 58 c1 3c e7 12 61 bd f6 26 89 3c
       -0.13849528 0.023601787 -0.054949667 0.01674221
0001b0 fd 00 a6 bd 80 d0 c4 bd ed b0 a5 3d 07 e4 67 bd
       -0.08105657 -0.09610081 0.080903865 -0.05661395
0001c0 ac 35 7b 3d eb 52 91 bd 83 9d d1 bd c0 a4 01 3e
       0.061330482 -0.070958935 -0.10235121 0.12660503
0001d0 ea e3 4b 3d 23 19 0d bd c8 15 d7 3c 51 2f db bd
       0.049777903 -0.0344478 0.026255503 -0.10702384
0001e0 0e 54 67 bc c1 cf c3 bc d0 5d c0 3d fb 42 4f bd
       -0.014119161 -0.023902776 0.09392893 -0.050600987
0001f0 72 1c 8c bd af ce fa bd 6c 51 42 bd ac 08 75 3d
       -0.06841363 -0.12246453 -0.04744093 0.059822723

fc3.weight f4 [128, 128]
000000 d1 c9 be 3c 06 84 1d bd 04 26 2e bb b4 53 59 bd
       0.023289593 -0.038455985 -0.0026572952 -0.05305834
000010 71 e6 80 3d 7a 19 67 3d 6c 30 7e bd f3 0b 9c 3d
       0.06293953 0.05642078 -0.062057897 0.07619467
000020 00 71 e1 3b a4 9a 60 bd 14 bb 6b 3c 38 61 6f bd
       0.0068799257 -0.054834977 0.014387865 -0.058442324
000030 f6 e4 3e 3d dd 32 97 bd c4 30 8e 3d 61 3d 2d 3d
       0.046605073 -0.07382748 0.06942895 0.042294864
000040 c4 0b ef 3c e5 89 e7 3c 73 6f b0 3d 9f 8a 8e bd
       0.029180415 0.028263995 0.08615007 -0.069600336
000050 6f 6d da bc cb 1a ca 39 ed 0a be bd 1a dd 67 3d
       -0.02666351 0.00038548405 -0.09279428 0.056607343
000060 b3 ce 06 bd d3 ab 2d 3d ee 3e 72 3d 8a 24 96 bd
       -0.032911967 0.042400192 0.059142046 -0.07331188
000070 b1 89 4b bd c5 46 99 3d 7d e7 16 3c c2 50 3e bd
       -0.04969186 0.07484201 0.009210465 -0.046463735
000080 8e c7 ee 3c 76 98 06 bd 8c 1d be 3c 52 f1 38 bd
       0.02914789 -0.03286024 0.023207448 -0.045152016
000090 1f 1e 90 3d c0 b5 68 3d cf 3b 56 bd a7 70 14 3c
       0.07036995 0.056813955 -0.05230313 0.009060062
0000a0 c3 1b 0a 3d a3 ee 29 bd 89 3f 80 bd 4b 0a 49 bd
       0.033717882 -0.041487347 -0.06262118 -0.04908208
0000b0 71 b9 a3 3d d0 0f 8f 3c 4d 66 26 bd 3a a7 8c 3d
       0.079943545 0.017463595 -0.040624905 0.068678334
0000c0 fe 3e 10 3d be e3 50 bd 59 7c a7 bc 66 b3 1c 3d
       0.035216324 -0.050998442 -0.020445036 0.038257025
0000d0 1d 7f 2d 3d d2 b8 52 bd 2b 96 68 3d fa 1f 1a 3d
       0.042357553 -0.05144579 0.056783836 0.03762815
0000e0 78 32 b3 bd a4 ce 41 bd c8 c3 ff 3c d0 11 08 3d
       -0.087498605 -0.04731621 0.031221285 0.033220112
0000f0 de 42 72 bc 55 b8 8c 3d 5c 57 85 3d 70 f2 d9 bc
       -0.01478645 0.06871096 0.06510803 -0.026604861
000100 80 d4 e8 3c 36 ff 78 3d e6 b5 06 bd bb 27 b9 bd
       0.02842164 0.060790263 -0.032888316 -0.09040781
000110 19 dc 83 3d 11 19 9e bd f3 86 ed b9 8f de eb bb
       0.06438465 -0.07719625 -0.00045304708 -0.007198162
000120 6f ea 12 bc af 52 a7 bc 1b de 86 3d 05 68 a1 3d
       -0.008967026 -0.020425169 0.06585332 0.07881168
000130 1d 49 fb 3a 39 44 2b bd 2f b9 37 bd 84 38 b0 bd
       0.001917157 -0.04181311 -0.04485434 -0.086045295
000140 c0 2f a1 bd dc 50 92 bc 74 92 99 bd 4a d5 54 bd
       -0.07870436 -0.017860822 -0.07498637 -0.05196122
000150 45 4a 9f bd 67 fc 66 bc ef a5 2e 3d 5e aa 0f 3d
       -0.07777838 -0.014098263 0.042638715 0.035074584
000160 c0 9a 5a bd 72 42 83 3d bf 95 d6 bc 68 62 99 3c
       -0.053370237 0.06409158 -0.026194451 0.018723682
000170 c8 ed 31 3c b8 27 7b bd b0 fa 9a bb 77 f2 a5 3d
       0.010859914 -0.061317176 -0.0047295913 0.08102887
000180 37 65 7d bd 65 b3 3a bd c5 c5 5a 3d 78 21 9f bc
       -0.061864104 -0.04558124 0.053411264 -0.019425139
000190 95 60 53 bd 3f b5 3d bd 47 81 aa bd 97 bd 0a 3d
       -0.05160578 -0.046315428 -0.08325439 0.033872213
0001a0 3a fa 4e 3d e2 1a ab bc e2 b6 5f 3d b5 1c 46 3d
       0.050531603 -0.020886842 0.05461777 0.04836722
0001b0 dd 39 e4 3c d7 11 ec bc 61 2c 24 3d 02 f1 8b bd
       0.027859623 -0.0288171 0.040081386 -0.06833078
0001c0 67 70 c4 3c 8a c4 87 3d ef 64 9e 3d f7 a6 5c bb
       0.023979379 0.06629284 0.07734095 -0.0033668855
0001d0 d9 40 74 bc 26 e3 3d 3d 06 84 f4 3c 12 7a 25 3d
       -0.014908039 0.046359204 0.02984811 0.04039962
0001e0 9b b7 8a 3d a6 8a 8a bd 1f e0 8e bc da bd 17 bd
       0.06773301 -0.06764726 -0.017440854 -0.03704629
0001f0 37 92 83 bd 8f 92 5b bc 30 f5 9b 3b f7 be c5 bd
       -0.06424373 -0.0134016415 0.0047594532 -0.09655564
000200 98 75 88 bc 19 00 8d 3d 40 9b 2d bd 60 6d f9 bc
       -0.016657636 0.06884784 -0.042384386 -0.030447662
000210 80 cb 9c ba 74 97 b9 bc 84 33 2b bd 78 0a 1b 3c
       -0.0011962503 -0.022655226 -0.041797176 0.009462945
000220 c4 f2 a7 3c 3a 04 30 3d a0 3f b3 3b f3 fc 41 bd
       0.020501502 0.04297278 0.005470231 -0.04736037
000230 a2 81 94 bd e0 ef 7c 3b a0 9b 45 3c 36 b0 20 bd
       -0.07251288 0.0038595125 0.01206103 -0.039230548
000240 fc c3 e6 3c e2 c3 06 3d 76 2c 96 bd 00 5a 9f bd
       0.028169625 0.032901652 -0.07332699 -0.07780838
000250 96 33 11 3d b0 53 08 bc e2 ae 63 3d e8 45 e5 3c
       0.035449587 -0.008320734 0.055586703 0.027987435
000260 f2 5d 8a bd ee b7 21 bd 92 a0 6a 3d 30 f6 dd 3b
       -0.067562 -0.03948205 0.057282038 0.0067737326
000270 48 29 50 3c c8 cb 65 bd a8 9d 7f 3c f0 a1 b7 bb
       0.012705155 -0.056102544 0.015601553 -0.0056040213
000280 a2 9e 82 bd 40 d6 b8 ba ac f9 ce 3c 09 0d 1a bd
       -0.06377913 -0.0014101937 0.025265537 -0.037610088
000290 7f 14 52 bd e4 8a dd 3c 1b 16 81 3d 38 73 db 3c
       -0.051289078 0.027043767 0.063030444 0.026788339
0002a0 de 80 78 3d f9 18 97 bd 7a c8 61 bd 0e 3e 33 3d
       0.060669772 -0.0737781 -0.05512283 0.04376035
0002b0 2c aa ae bd 30 28 f2 3c 0a 47 16 bd 60 6c 56 3c
       -0.085285515 0.029560179 -0.036688842 0.013087362
0002c0 dc 53 48 bd 11 41 4a bd 6c 2d aa bc fd 06 b4 bd
       -0.0489081 -0.04937846 -0.020773612 -0.087903954
0002d0 81 6e 86 bd 70 14 1a bd 1e 16 16 bd 11 81 88 3d
       -0.06564046 -0.037617147 -0.036642186 0.066652425
0002e0 6c 57 a3 bd c0 d7 37 3c 3f 8f 99 3d 54 9d f5 bc
       -0.07975659 0.011220872 0.07498025 -0.029982246
0002f0 49 86 a8 bd c0 8c 0d bc 75 67 8d 3d 9f 6e 96 bd
       -0.08228738 -0.008639514 0.069044985 -0.07345318
000300 20 70 14 3c ae 71 d4 bc 81 72 27 bd 4e f8 7f bd
       0.009059936 -0.025933113 -0.040880684 -0.06249266
000310 88 e0 08 bd 6c 6c dd bc a1 bc 9c bd 90 33 ab 3b
       -0.033417255 -0.027029239 -0.076531656 0.0052246526
000320 c0 bd 5e 3b cd 25 af 3d 64 6d 35 bd 68 2d 0a 3c
       0.0033987612 0.08552132 -0.044293776 0.008433677
000330 6f 6d b4 3d 84 7b bb 3c 84 dd c8 bc 79 3d aa 3d
       0.08809935 0.022886045 -0.02451969 0.08312506
000340 f0 75 a7 bd 9a 07 58 3d 8a e4 1d 3d 02 6b 0d 3d
       -0.08176792 0.052741624 0.03854803 0.03452588
000350 18 ba 9d 3c a8 1b 62 bc 7b 76 12 bd 00 e7 5f ba
       0.019253775 -0.013800539 -0.035757523 -0.00085411966
000360 18 8f 5c 3c ef 01 af 3d d0 28 a5 3c 8b 0b 66 bd
       0.013461851 0.08545291 0.020161062 -0.056163352
000370 db 88 a1 3d 5c 3c cd 3c b3 57 83 3d 2e 1c 10 bd
       0.07887431 0.025053196 0.06413212 -0.035183124
000380 45 cb b0 bd c5 46 0e bd 7e 16 72 3d 0e 7d 48 3d
       -0.086325206 -0.03473546 0.05910348 0.048947386
000390 93 30 a5 bd 80 df 02 3a 2e 82 70 3d d1 ff aa 3d
       -0.080659054 0.00049924105 0.0587179 0.08349574
0003a0 b3 65 3e bd a0 8a 8c bd 0d 52 5e bd 8c 15 9a bc
       -0.046483707 -0.06862378 -0.05427747 -0.018809102
0003b0 00 22 60 3a df d7 ab 3d 19 92 b3 3d ea 9f 47 3d
       0.0008549988 0.083907835 0.087681 0.04873649
0003c0 5d 97 9c bd 81 d0 79 bd 24 96 89 3c d6 e0 47 3d
       -0.07646058 -0.06098986 0.016795225 0.048798405
0003d0 fe 80 8a bd 9c c3 bc bc 5e 5a 74 bd 6d 4c 97 bd
       -0.067628846 -0.023042493 -0.059656493 -0.07387624
0003e0 28 d3 e4 bc b1 b9 96 3d da fb 15 bd 34 9c 1c bd
       -0.027932718 0.073596366 -0.036617137 -0.038234904
0003f0 c8 02 50 bc 13 3b 8d 3d 93 77 12 bd a9 b5 b4 bd
       -0.012695976 0.06896033 -0.035758566 -0.088237114

fc3.bias f4 [128]
000000 3a 10 f6 3c a9 61 2e bd 10 da bf 3c b0 c2 76 bd
       0.030037034 -0.042573605 0.02341941 -0.060244262
000010 c6 fe 89 3e 7b c3 f6 bd 7f 58 c9 bc 1c 59 7a bd
       0.2695219 -0.12049004 -0.024578331 -0.061120138
000020 6b 81 d4 3e b7 e9 c4 3d 8e 9f 12 3c 87 86 64 bd
       0.41504988 0.0961489 0.008949174 -0.055792358
000030 ac 1c d8 3c be 69 41 3d 73 0e f8 bd be 74 37 bc
       0.02638086 0.047219984 -0.12112131 -0.011197267
000040 9d b7 b4 3e 70 13 f8 bb b9 7c 91 bd b8 40 43 3d
       0.35296336 -0.0075706765 -0.07103867 0.047669142
000050 42 bc 55 bd 7d d9 f4 bd 8b 26 d1 3d f4 8d 99 bd
       -0.05218149 -0.11955545 0.102124296 -0.074977785
000060 5c 9b ca 3d 6f ad a9 bd 21 ba 23 bd 16 f6 f3 ba
       0.09892914 -0.08285033 -0.03997243 -0.0018612768
000070 94 43 51 bd 59 47 ca 3a 27 d4 89 3e 14 05 6e bd
       -0.05108984 0.001543264 0.26919672 -0.05811031
000080 21 1b 35 be 49 63 36 bd c7 bb b0 bd ab ae 3e bd
       -0.1768613 -0.04452828 -0.08629566 -0.046553295
000090 60 d6 b8 bd d5 df bd bc 51 0f 0b bd 05 52 82 3d
       -0.09025264 -0.02317802 -0.033950154 0.063633
0000a0 71 7e 67 bc 3d ea b6 bc 96 33 29 be 81 e4 56 3e
       -0.014129267 -0.02232849 -0.16523585 0.20985605
0000b0 3e b1 fb 3c 31 aa 8e 3d 3a 6a 8b bd 7e 2a 09 bd
       0.030724164 0.06966055 -0.068073705 -0.03348779
0000c0 d4 73 13 be e6 05 fe bd eb db e9 bd 2b 24 0e 3e
       -0.14399654 -0.12403469 -0.11418899 0.13880984
0000d0 e7 5f f1 bd 33 a8 82 3d a8 e6 10 3e 4c d9 09 be
       -0.1178587 0.06379738 0.14150488 -0.13461798
0000e0 0b 7d b2 3e b1 6b 3c 3d 2a 0a 98 bc f3 20 c1 3b
       0.34861025 0.04600114 -0.018559534 0.0058938204
0000f0 bd 3b 65 ba c0 22 33 3c 49 d2 22 3c 7b 49 26 bd
       -0.00087445584 0.010933578 0.009937831 -0.04059742
000100 d8 07 8b bd 9b 5d a0 3e dc 64 e1 3a 82 df 9a 3d
       -0.067886055 0.31321415 0.0017196196 0.07562162
000110 31 b3 38 bd b3 29 05 bb 3c 75 19 be 5d 50 07 be
       -0.045092765 -0.0020319044 -0.14986128 -0.1321425
000120 c0 8f 9f bd a0 44 8a bd e8 28 9e bd 8c ad 32 3b
       -0.0779109 -0.067513704 -0.07722646 0.0027264087
000130 cd 06 0e bd d4 35 17 b9 ba 99 8b 3c 2e 37 9b bc
       -0.034674454 -0.00014420535 0.017041076 -0.01894721
000140 73 9f 85 b9 ec 1c 82 bb f6 b2 98 bd 85 24 07 bd
       -0.00025486536 -0.003970733 -0.07456009 -0.032993812
000150 57 5e 2d be cd 71 60 3e df 8e c2 bc 9a a1 a0 bd
       -0.16930519 0.21918412 -0.023749767 -0.07843323
000160 0d 62 af 3a 6e 36 65 bd f9 63 ee bb 96 56 93 3d
       0.0013380662 -0.05596011 -0.0072751013 0.07194249
000170 e2 a5 0f be 08 f3 90 3d 10 fc ac 3b 1b bc 51 bd
       -0.14028123 0.070776045 0.0052790716 -0.051204782
000180 59 05 f8 ba a1 46 20 be ab 96 b1 bd 46 a5 12 be
       -0.0018922492 -0.15651943 -0.08671316 -0.1432086
000190 bc 20 97 3d 4f cb 9a 3e b9 47 b1 3d 7a 55 5c 3d
       0.073792905 0.30233237 0.08656258 0.053792454
0001a0 08 9d 6b 3d 68 3c 81 3e db 63 6f bd c2 d2 90 3d
       0.057522804 0.252414 -0.05844484 0.07071449
0001b0 7a fe 98 bd 21 cc 09 3e 45 21 28 be 54 af 23 3e
       -0.074704126 0.13456775 -0.16418941 0.15984851
0001c0 4f b9 3c 3c 68 db c5 3c ca 16 4d 3d ce e8 7d bd
       0.01151879 0.024152473 0.05007056 -0.061989598
0001d0 6d e2 1f be c1 03 7c bd b5 89 df 3d f1 ee 6e 3d
       -0.15613718 -0.061527018 0.109149374 0.05833334
0001e0 cf de 9d bd a8 77 4d 3d b0 17 a6 3e f9 4f c5 3c
       -0.07708513 0.05016294 0.32439947 0.024085985
0001f0 2d 64 0c 3e cc cb 14 be 44 1b cd 3d 03 27 4b 3c
       0.13710089 -0.14530867 0.10014966 0.012399438

fc4.weight f4 [32, 128]
000000 de 67 47 3d 0e 79 3c bd 81 d5 93 bc 2a 82 9f bd
       0.04868304 -0.046013884 -0.018046143 -0.07788499
000010 56 8a ed 3c dd 98 ab 3b d3 1b 72 bd 76 ed 1e bd
       0.028996628 0.0052367286 -0.059108566 -0.03880068
000020 71 c2 37 3d ef c1 99 bc 73 ec ef bc 19 80 e4 3d
       0.04486317 -0.018769233 -0.029287552 0.11157245
000030 04 fc 2c bd 1b 70 10 bc b4 5a b9 3d 04 75 02 3d
       -0.04223253 -0.0088157905 0.090505034 0.031849876
000040 69 9c 71 be a2 3a 68 bd a2 80 2c 3e 37 67 17 3e
       -0.23594822 -0.05669654 0.16845945 0.14785467
000050 39 06 a5 3e 6f dc 99 3d 15 4a fb 3d df eb 95 3d
       0.3223131 0.075127475 0.122699894 0.073203795
000060 4c 53 ea bd 60 90 84 3e 3f 8d a9 bd 60 2f 37 bd
       -0.11441669 0.258914 -0.08278894 -0.044722915
000070 d0 28 05 3c 34 82 c7 3d aa 6a 5d 3e 64 c1 c1 bc
       0.008127406 0.09741631 0.2162272 -0.023651786
000080 c0 0b 1c 3e 9b e7 8b 3d 80 34 84 bd ed f6 e9 3b
       0.15238857 0.068312846 -0.06455326 0.0071400316
000090 0d df 31 3c 16 2e a7 bd 71 2d d7 3b 9f 93 0a bd
       0.010856402 -0.08163087 0.0065666963 -0.03383219
0000a0 63 ea a2 3d 28 3d 63 bc 0d b7 56 3d e2 ed 83 3f
       0.07954862 -0.013869561 0.052420665 1.0306971
0000b0 73 af 26 3e 91 a4 75 3d c0 c1 52 3c e5 3d 0a 3d
       0.16277866 0.059971396 0.012863576 0.033750433
0000c0 ba 3e df 3c 54 79 15 3e 04 0d 82 3d e4 44 09 be
       0.02725159 0.14597064 0.06350139 -0.13405186
0000d0 ae 43 75 3c 02 83 20 3d 0b 93 9d 3b e8 38 b2 3c
       0.014969749 0.03918744 0.0048087887 0.02175565
0000e0 af 45 55 3e a4 59 92 3c ad 56 b0 3d b4 f2 1b bc
       0.20827363 0.01786501 0.08610282 -0.009518314
0000f0 31 2b 01 3d 46 6d 77 3d b5 a1 af 3c c8 16 75 bc
       0.03153533 0.060406946 0.021439413 -0.014959045
000100 4b 3f a9 bd 3e 9b b9 3d 17 09 d9 3d 16 bc 99 be
       -0.08264025 0.09062813 0.10597437 -0.3002631
000110 b1 e3 83 3d 0a d6 92 3d c6 7c d0 3d 11 a5 45 3d
       0.06439913 0.07169731 0.10180049 0.048253123
000120 48 48 15 bd a3 ab 5f 3d ec 5a a6 bc a6 50 97 3d
       -0.036445886 0.054607045 -0.020307027 0.07388429
000130 f6 b7 64 3d be 6d 52 3d d3 cc 86 bd 2b 9a de 3d
       0.0558395 0.05137419 -0.06582036 0.10869249
000140 ac 1b 7d bd 1a 11 a7 bd 34 31 9e 3e 9d 4b 6a 3d
       -0.061793968 -0.08157559 0.30896914 0.057201017
000150 87 47 81 3d a0 2d 00 3e 73 e5 95 bd 95 82 fd 3c
       0.06312471 0.12517405 -0.073191546 0.030946055
000160 6c 27 a8 3d c5 2c 40 3e 84 7f ff be ae 34 2d bd
       0.08210644 0.18767078 -0.49901974 -0.042286567
000170 b6 5f 96 3d 52 60 31 3e 48 89 5d 3c 31 df cc 3d
       0.07342474 0.173219 0.0135215 0.10003508
000180 3b b6 28 39 6c 26 fc 3d 24 d0 91 3d f6 2c fa 3a
       0.00016089615 0.12312016 0.07119778 0.0019086886
000190 b8 19 18 bc b9 32 2b 3e 5e 9b b0 3d 2c 86 bd 3d
       -0.009283476 0.16718568 0.08623384 0.09254107
0001a0 eb 72 2b be fe 59 f7 be 63 52 7a 3b 74 92 2b 3e
       -0.16743056 -0.48310846 0.003819608 0.16755086
0001b0 07 d8 5a 3d 59 45 7a 3d 79 c6 07 3e 5a 91 12 3e
       0.053428676 0.06110129 0.13259305 0.1431326
0001c0 9e f4 24 be 50 b1 ef 3c 0d e1 64 3c 65 43 6c bd
       -0.16108939 0.029259354 0.013969672 -0.05768146
0001d0 a7 c0 d8 3c 42 17 e8 3d c3 61 42 bd fa 36 0f 3e
       0.026459051 0.11332561 -0.047456514 0.13985816
0001e0 9a 5f 2c 3d 1b 88 0b bd 85 90 26 3e 53 ad 8d bd
       0.04208336 -0.034065347 0.16266067 -0.069178246
0001f0 1c 15 5a be 0e 36 43 3e bd d7 2a 3d 6d 53 b7 3e
       -0.21297115 0.19063589 0.04170965 0.35805836
000200 5e 26 8f bd b2 14 70 bd 40 c0 33 bc 1c 90 9e bd
       -0.0698974 -0.058613487 -0.010971129 -0.077423304
000210 06 86 73 bd 2e 30 30 3d a2 6b 6c 3d 28 a0 85 bd
       -0.059453987 0.043014698 0.057719834 -0.06524688
000220 e0 23 0b bd 7a 76 22 3d 8e f6 79 3d e6 f0 24 3d
       -0.03396976 0.03966377 0.06102615 0.0402688
000230 e4 ff ea 3c 28 88 25 3c a4 e5 d0 3c 59 dd 78 bd
       0.028686471 0.010103263 0.025500126 -0.06075797
000240 d0 dc 4d bd 10 af c4 bc b0 52 3c bc 8e d1 86 bd
       -0.05025941 -0.024009258 -0.011494324 -0.06582938
000250 9d 7d 30 bd f3 dc 54 bd 46 bd 37 bd c9 8d 9b bd
       -0.043088544 -0.051968526 -0.04485824 -0.07595403
000260 00 b9 11 ba 23 b8 65 bd 2b a1 26 bd 12 ae 0f bd
       -0.0005558878 -0.05608381 -0.040681046 -0.035078116
000270 83 5e a9 bd c6 a1 26 3d 24 95 fe 3c 2f 9b 8c 3d
       -0.0826998 0.040681623 0.031076975 0.068655364
000280 3f b6 ab 3d a0 5a b3 3c ca ce 9f bd 09 55 4d bd
       0.0838437 0.0218938 -0.07803114 -0.050129924
000290 52 01 7f 3d 62 a7 29 3d b8 ae 80 bd 7c 92 e2 3c
       0.06225712 0.041419394 -0.06283325 0.02765774
0002a0 50 8c 7b 3c 08 ce 2b bd d3 c3 8a bd ba f5 78 3d
       0.015353277 -0.041944534 -0.06775632 0.060781218
0002b0 e8 01 a0 3c b8 30 e0 3c 5d fd 9f 3d ca 14 3e bd
       0.019532159 0.02736698 0.07811997 -0.046406545
0002c0 74 53 8c 3c 35 6f ad 3d cc d6 87 bc 55 ea a9 3d
       0.017129637 0.08468477 -0.016581915 0.082966484
0002d0 e8 d6 4e bd 80 64 af 3c 64 90 82 3c 6e d4 4c bd
       -0.05049792 0.021410227 0.015937991 -0.050007276
0002e0 93 97 b1 3d e2 83 47 3d 2c b1 90 bc 6a d7 26 bd
       0.086714886 0.048709758 -0.017662607 -0.04073278
0002f0 18 db 3b bc e2 0b 27 bd a4 6d d2 bc ba 82 66 3d
       -0.01146581 -0.040782817 -0.025687046 0.056277014
000300 40 76 88 3b 40 bb d8 3c 53 a2 24 bd 72 6c a1 bd
       0.004164487 0.026456475 -0.040193867 -0.078820124
000310 44 f7 eb 3c 00 1e 4f b9 70 0d 96 3c 80 15 4b 3a
       0.028804429 -0.00019752234 0.018316954 0.0007747039
000320 d2 7f 5f bd 2c 60 b3 bc 55 ac b0 3d d1 29 80 3d
       -0.05456526 -0.021896444 0.0862662 0.06257976
000330 e0 16 ca bb 80 8d f9 3c 86 88 ef bc 14 1a c0 3c
       -0.0061672777 0.03046298 -0.029239904 0.023449935
000340 00 ce 85 3a b8 0c b2 bc f0 49 9d 3c c4 03 0d 3d
       0.0010208488 -0.02173458 0.019200295 0.03442742
000350 da 19 66 bd db e5 a6 bd bc 7a 4d bd 0c 36 c6 bc
       -0.056176998 -0.0814931 -0.050165877 -0.024195693
000360 8c 0e 62 bd 34 ed a1 bc 4d 4b 84 3d 4e 00 76 3d
       -0.055189654 -0.019766428 0.06459675 0.060058884
000370 8c 49 b2 bd 80 90 e2 bb 33 78 90 3d d7 e2 98 3d
       -0.08705434 -0.0069141984 0.07054176 0.07465141
000380 28 f2 75 3c 45 a4 8b bd 68 26 c9 3c 24 9d 51 bd
       0.015011348 -0.06818441 0.024554446 -0.05117525
000390 92 1f 65 3d e0 32 b0 3b 1e 7a 5d 3d 83 d3 4c bd
       0.05593831 0.0053771585 0.05407154 -0.0500064
0003a0 a8 b1 8d bd 53 78 93 3d fa 3d 2e 3d 16 53 24 3d
       -0.06918651 0.072006844 0.042539574 0.0401183
0003b0 17 e1 53 bd 90 1c 94 3b 08 45 93 bc 2e ec 2a 3d
       -0.051728334 0.0045200065 -0.017977253 0.041729145
0003c0 f0 3a 81 3c 63 bf 9c bd f0 88 d7 3b fe 46 6d bd
       0.015775174 -0.076536916 0.0065776035 -0.05792903
0003d0 74 ca 04 3d 92 12 7f 3d 60 9d 5f bc 64 37 12 3d
       0.032419637 0.06227357 -0.013648361 0.035697356
0003e0 ec 9b 4b bd 90 cf 79 3c 70 98 13 bc 39 fa b3 3d
       -0.049709246 0.015247241 -0.009008512 0.087879606
0003f0 67 77 81 3d 14 16 86 bd 60 a7 76 bb f9 4a 3c bd
       0.06321602 -0.0654718 -0.0037636384 -0.045969937

fc4.bias f4 [32]
000000 f3 4f dc bc 44 f2 9f bd f1 a4 ad bd 17 e9 11 3e
       -0.026893592 -0.078098804 -0.08478726 0.14249073
000010 69 73 6e 3d f7 87 9e bd a5 0a 37 3d b9 7f 21 be
       0.058215532 -0.07740777 0.044687886 -0.15771379
000020 2a b7 9a bd 90 42 4d bd 4a 3d 00 bd b0 bf 3f 3d
       -0.07554467 -0.050112307 -0.03130845 0.046813667
000030 c5 d6 a1 3d 2a 63 40 3e 8e 93 0d 3d b3 4c 26 bd
       0.07902292 0.18787828 0.034564547 -0.04060049
000040 7d 77 83 bd 7f d9 a8 bc 76 58 0b be 61 fd a0 3e
       -0.06419275 -0.020611523 -0.13607964 0.31443313
000050 ad a4 10 be 55 3b 97 3d a3 b8 0e 3e 34 c6 b9 bd
       -0.14125319 0.073843636 0.13937621 -0.09071007
000060 f4 bf 95 3e ff ae 9f 3c 67 81 14 be 88 e1 2d be
       0.2924801 0.019492624 -0.14502488 -0.16980565
000070 69 8f 09 bd 83 aa be 3d 0c 66 10 3b d8 56 8a bd
       -0.033584032 0.09309866 0.002203348 -0.067548454

fc5.weight f4 [4, 32]
000000 2b 1c b9 3e 1a 2e d4 3d 6e 07 0b 3d 5c 63 a8 3d
       0.36154303 0.10360356 0.033942632 0.08222076
000010 e3 5e 42 3e 41 fd 5c be 71 16 71 be fb 28 0b 3f
       0.18981509 -0.21580984 -0.23543717 0.54359406
000020 5f a5 ba bd 00 35 f3 ba 0f ef 0e 3e 55 6a fc 3e
       -0.09113573 -0.0018555224 0.13958381 0.49299875
000030 86 6c fa bd b5 0a 70 3e 4e 0c 60 be 29 8d ab 3e
       -0.122277305 0.23441584 -0.21879694 0.33506134
000040 9f 8f f8 3c f9 95 d9 3d 59 ec 4c be 60 4a 03 3f
       0.030341921 0.10624308 -0.20012034 0.5128536
000050 a1 6b 0c be 04 80 57 3e 61 36 4f 3e 0c ed 15 be
       -0.13712932 0.21044928 0.20235588 -0.14641207
000060 1b 99 22 3d fd eb a6 3d db 69 80 be 71 c9 71 bd
       0.039696794 0.0815048 -0.2508076 -0.05903
000070 9a 00 0b 3e fe fd 5c bc 2f a8 43 be d6 4c 3d be
       0.13574448 -0.013488291 -0.19107126 -0.18486342
000080 63 ed b9 bd 20 1e 20 3c 2e 01 81 bd f6 d2 a7 3e
       -0.09078481 0.009772807 -0.06299053 0.32778138
000090 b3 79 f1 3d 12 1a c9 bd a3 f8 36 3e be c0 1f 3f
       0.117907904 -0.09819426 0.17868285 0.62403476
0000a0 74 89 60 3d 64 26 94 3d 32 72 00 3e 4e 8f ad 3d
       0.054818586 0.07233885 0.12543562 0.08474599
0000b0 67 7f f5 bd ac 53 6b 3f f3 84 08 3e bd 8f cd be
       -0.11987191 0.9192455 0.13331966 -0.40148726
0000c0 ec 4b ee bd 3c 2b 94 be dc 8b c5 bd 7d a8 03 3f
       -0.11635575 -0.28939235 -0.09645817 0.5142897
0000d0 4e d4 8a be 5a 31 9b be 03 41 38 bc be 3e 61 3d
       -0.271151 -0.3031109 -0.011245969 0.054991476
0000e0 58 78 f2 3e d8 6e 10 3e 5c af 8a be dd 00 0b be
       0.4735744 0.14104784 -0.27086914 -0.13574548
0000f0 81 57 fe 3d d7 ed c3 bd 98 ac 0c 3e ff 1f 83 bd
       0.12419034 -0.09566849 0.13737714 -0.06402587
000100 59 2e 5d 3e d2 fc ae 3d 72 4b 23 be c5 b0 90 be
       0.21599711 0.085443154 -0.15946749 -0.28259864
000110 fe ab 4c be 98 26 2e 3e ab 6c 47 be 47 b7 31 3f
       -0.19987485 0.1700691 -0.19475047 0.69420284
000120 91 ab 61 3d 72 1b e3 bd bc 69 b3 3a 95 5a 95 be
       0.05509526 -0.11089219 0.0013688128 -0.2917067
000130 f1 ca ec bd 43 5e 21 3f c8 59 c7 3e 23 5c 30 be
       -0.115621455 0.63034457 0.38935685 -0.17222647
000140 3c 9d 06 be f9 e4 f0 3d ec 6c 41 bd aa e8 14 be
       -0.13145918 0.11762423 -0.047223017 -0.1454188
000150 41 4a 0d 3e 3a 23 43 3e 81 2e bb 3e 9c a8 0b bd
       0.13797857 0.19056407 0.36558917 -0.034096345
000160 b8 b8 33 bc 6d c4 cc bd 76 58 1c bd 64 00 73 be
       -0.010969333 -0.09998403 -0.0381703 -0.23730618
000170 25 2a b3 bd ef 0a 9a 3e 34 d4 de 3c f6 65 88 be
       -0.08748273 0.30086467 0.027200796 -0.2664029
000180 6c db 1e be ad 35 fe bd e0 54 05 3e 3e 8b 38 be
       -0.1551339 -0.124125816 0.13020658 -0.18021867
000190 70 6e b1 3d ae d3 a9 3b 53 23 13 be 16 6c c3 3c
       0.086636424 0.005182705 -0.14368944 0.02385525
0001a0 01 8a 20 be 04 36 87 bd f5 ff 84 bd fd 25 8c bd
       -0.15677644 -0.066020995 -0.064941324 -0.06843183
0001b0 a1 08 3f 3f 10 2a 52 3f 2f 45 06 3e 11 fe 39 bd
       0.7462254 0.8209543 0.13112329 -0.045408312
0001c0 f6 af 3c 3d fb 6e 02 3e 48 58 87 be 3d cb 19 3f
       0.046066247 0.12737648 -0.2643454 0.6007574
0001d0 3f 81 1c bd 24 82 eb 3e 08 8a 64 bd 00 ba f0 bd
       -0.038209196 0.45997727 -0.0557957 -0.11754227
0001e0 fc cb b2 be 04 6f d6 bb cc 8d 92 bc ac 26 f4 bd
       -0.34921253 -0.006543996 -0.01788988 -0.119214386
0001f0 da 7c 0a 3e 2e b9 3a be 90 9d 9f 3e 03 10 66 be
       0.1352419 -0.18234703 0.31174898 -0.22467045

fc5.bias f4 [4]
000000 9d 1f 9e 3e 30 6f 03 3f af 72 f8 bc ef b5 bb 3e
       0.30883494 0.51341534 -0.030328123 0.36662242
