DQN_models/model_updaterate500_gamma0.99_alpha0.001_dynamic.pt (torch, 416691 bytes, 10 tensors)

fc1.weight f4 [128, 514]
000000 0e 53 79 bc d2 1f 0f 3d 62 50 1d 3d 38 6a e6 bb
       -0.015217556 0.034942456 0.038406737 -0.007031705
000010 cb b3 1f bd 33 32 2d bd 74 e9 be 3c 6c a3 98 3c
       -0.038989823 -0.0422842 0.023304678 0.018632613
000020 70 80 d9 3c 72 6e 33 3d c0 18 8b 3b fc e1 21 3d
       0.026550502 0.0438065 0.004244894 0.039522156
000030 ea be e3 bc c8 27 a5 bb 1f e8 8a bc e4 a3 bb 3c
       -0.027800996 -0.0050401427 -0.016956387 0.022905298
000040 0a bd dd bc 29 73 e7 bc 54 32 a5 3c 84 a9 bb bc
       -0.02706768 -0.028253155 0.0201656 -0.02290798
000050 eb f6 13 bd ae 57 24 bd 80 6f e7 3b 88 9b 4e 3c
       -0.03612415 -0.04012268 0.0070628524 0.012610324
000060 c4 e3 de be 45 90 2e bd f4 90 41 3e 02 06 7a be
       -0.43533146 -0.042618055 0.18902951 -0.24416354
000070 d0 a7 91 3c ac 68 77 3c a3 72 f5 3d d6 1f a2 3b
       0.017780215 0.015100639 0.11984756 0.004947643
000080 45 ea a0 bf 40 29 4e bf 74 d3 7c be d9 18 10 bf
       -1.2571493 -0.8053169 -0.24690038 -0.56287915
000090 3d 21 af be 6f fd 20 bf da f8 7f bf d9 60 5e bf
       -0.34205046 -0.6288671 -0.9998909 -0.8686653
0000a0 98 f6 0f bf b9 b4 68 bf 80 d9 fd 39 78 e0 2c 3d
       -0.5623565 -0.9090076 0.0004841797 0.042206258
0000b0 28 4b 0d 3c 07 7e 86 bc 4d ee aa bf 49 b0 ab 3e
       0.008623876 -0.016417516 -1.3353974 0.33532932
0000c0 c3 a2 4e 3f ae 79 31 bd 91 00 2f 3e 71 38 30 3e
       0.80717105 -0.043328933 0.1709006 0.1720903
0000d0 6c 39 97 3e bd 73 04 3f 69 21 0f 3d 35 23 c0 bd
       0.29535997 0.517391 0.03494397 -0.09381715
0000e0 25 13 17 bf 4b 63 c7 be ff 76 98 bf 66 34 74 bf
       -0.5901359 -0.38942942 -1.1911315 -0.95392454
0000f0 e7 ba 3d bf 91 cd 81 bf 6c 2d 81 bf 16 ed 5f bf
       -0.74113315 -1.0140859 -1.0091987 -0.8747114
000100 a8 1e e8 3c 12 f7 65 bc 50 d0 e3 3c 16 a2 16 3d
       0.02833493 -0.014035957 0.027809292 0.03677567
000110 06 c7 6c 3d 8a ad ad be 30 82 43 3f 33 3c b3 bc
       0.05780699 -0.33921462 0.76370525 -0.021879291
000120 80 12 62 3a f0 99 94 bf 8a 4f f5 3d 35 00 e0 3b
       0.00086239725 -1.1609478 0.119780615 0.006835962
000130 6e 46 55 bc 0b 68 b0 bc 67 01 9c bf 79 99 5f bf
       -0.01301728 -0.021533987 -1.2187928 -0.87343556
000140 84 4c e3 be 54 96 0e bc ea 3b 18 3d 5e f7 16 bf
       -0.44394314 -0.008702833 0.037166514 -0.589712
000150 a1 74 c5 be ea 6a 57 bf 50 88 0b bb f0 2e 4a bb
       -0.38565543 -0.8414751 -0.0021290965 -0.003085073
000160 9f a9 b4 bc d8 16 e0 bb 16 8b e8 be 2d 2d 6a 3e
       -0.022053538 -0.0068386607 -0.45418614 0.22868796
000170 48 74 89 be f8 37 c9 bb 34 8c 5a 3c 35 25 99 bf
       -0.26846528 -0.006140705 0.013339091 -1.196448
000180 02 72 ed 3d ed cf 6f 3e 58 d9 9c 3b c0 c5 8e ba
       0.11594011 0.23419161 0.0047866516 -0.0010892674
000190 87 b2 67 bf 87 dd 7c bf 6e 39 de be bc be 5b 3c
       -0.90506786 -0.98775524 -0.4340319 0.013412174
0001a0 56 8a c9 bc d8 96 be be 59 7f ec be a6 3e 61 bf
       -0.024602097 -0.3722446 -0.4619091 -0.8798622
0001b0 b0 af f0 3b 70 d4 80 3b b0 9a ce 3c b0 8f b7 bb
       0.0073451623 0.0039315745 0.025220245 -0.0056018457
0001c0 c4 af 84 3e 0b ff 56 be 8e 64 ce bd 30 e4 43 3b
       0.2591535 -0.20995729 -0.10077773 0.002989065
0001d0 52 62 33 3d 9e 02 1b bf ce b7 6c be 11 94 bb 3e
       0.043794937 -0.6055087 -0.23116991 0.36636403
0001e0 4c 74 9f 3c c7 16 9e bc cd a6 a2 bf f4 43 c7 be
       0.019464634 -0.01929797 -1.2707154 -0.38919032
0001f0 ba 47 5b bf 00 95 d6 bb 3e b9 28 3d 80 34 21 bf
       -0.8565632 -0.006548524 0.041192286 -0.62970734
000200 a8 21 51 bf 9f 0d 66 bf 1c b7 da 3c c0 7c 71 3b
       -0.8169198 -0.89864534 0.026698641 0.0036848038
000210 24 c8 2b bc 50 06 e9 3b bd 31 d5 be ee 6f e5 3e
       -0.010484729 0.007111348 -0.4163951 0.44811958
000220 9e f0 e9 3e 8c cd 0e 3d 10 a1 a0 bc a8 3c 15 bf
       0.4569139 0.034863994 -0.01960805 -0.5829568
000230 0d 5b 08 bd 8c 90 77 bf b0 53 d9 3c db 7f b5 bc
       -0.033289958 -0.96704936 0.026529163 -0.022155693
000240 27 99 47 bf ab a3 21 bf 63 73 f8 be b8 5c 25 bc
       -0.77968067 -0.6314036 -0.48525533 -0.010092907
000250 c4 29 08 3d cb 8a 80 bf a2 37 81 bf 34 85 30 bf
       0.033242956 -1.0042356 -1.0095103 -0.6895325
000260 ec 73 1c bd 1e f0 0f 3d 4f c5 12 bd 70 3f 8f bb
       -0.03819649 0.035141103 -0.0358327 -0.004371576
000270 38 62 97 be 7e ec 72 bf bc 72 a1 be 08 4a ea 3c
       -0.29567122 -0.9489211 -0.31532848 0.028599754
000280 86 48 13 bd 95 e0 90 3d 1a c6 8b bf 70 39 e2 be
       -0.035957836 0.070740856 -1.0919831 -0.44184446
000290 5c 54 d2 3c 24 8b 3b bc 69 3d d1 be a6 0d 06 bf
       0.025674991 -0.011446748 -0.40867165 -0.52364576
0002a0 ac f8 49 bf b0 94 28 3d 5b 0f c8 bc 28 92 e0 be
       -0.7889507 0.041157424 -0.024421385 -0.43861508
0002b0 f0 e8 09 bf 93 c8 81 bf f0 4e 1d bd ec 48 f6 bc
       -0.5387106 -1.0139335 -0.03840536 -0.030064069
0002c0 c5 32 20 bd 54 f8 05 3d e2 8f 7b bf a0 6e 18 be
       -0.039110918 0.032707527 -0.9826642 -0.1488595
0002d0 26 1e 7d 3e 50 b1 fc 3b 78 65 1e 3c a3 47 97 bf
       0.24718532 0.007711567 0.009667747 -1.1818737
0002e0 a6 02 8f bf ae 1a d3 be ca 46 1d bd 22 b2 8d bc
       -1.1172683 -0.41231292 -0.038397588 -0.017296854
0002f0 cd 50 9f be 85 97 96 3d e3 c4 2f bf f0 18 b6 3b
       -0.31116334 0.07353119 -0.686598 0.005557172
000300 07 7c d1 bc 91 4e a1 3d 8f 44 8e be b2 0b 65 bf
       -0.025571836 0.078763135 -0.2778668 -0.8947097
000310 f8 16 89 3b 94 ea 30 bd 3c f2 9c 3c dc b8 f0 3c
       0.0041836463 -0.04319246 0.019158475 0.029385023
000320 d1 ec 3a be fd f9 04 bd ae b3 de bc 40 cc 1f 3d
       -0.18254401 -0.03246497 -0.027185287 0.039013147
000330 c8 3e a1 bc b7 22 0f bf 25 40 b5 bc 96 2e 46 be
       -0.019683257 -0.55912346 -0.022125313 -0.19353709
000340 30 2d 44 3c ac 91 6c 3c dc 07 55 be 06 33 b1 be
       0.011973664 0.014439028 -0.2080378 -0.3460924
000350 5e 5d 08 bf 5c bf f8 bc 1f b3 12 bd 67 da 44 3e
       -0.5326747 -0.030364685 -0.035815354 0.19223939
000360 2c bb e2 be c0 e3 8d be d8 67 04 3d 08 ec e9 3b
       -0.44283426 -0.27712822 0.032325596 0.007138733
000370 3c 93 54 bc 67 6b 11 bd 4c 99 59 be d5 ab 52 3d
       -0.012974557 -0.035502817 -0.21249884 0.051433403
000380 a1 77 0b 3e 52 23 2b 3d 42 f7 9c bc f6 cc 16 3d
       0.13619854 0.04178173 -0.01916087 0.03681656
000390 6b 85 94 be 1e b7 5e bf ce 6b 05 3d b2 64 2c 3d
       -0.2900804 -0.86998165 0.032573514 0.042088218
0003a0 ca 25 9e bf 3c 7b 4b 3e 64 ac 90 bf 2e 0f 24 bd
       -1.2355282 0.19871229 -1.130261 -0.04005354
0003b0 40 4e fa 3c 48 93 e5 3d e7 f3 0b 3f b9 4b 86 3e
       0.03055489 0.11209732 0.5466904 0.26229647
0003c0 77 0a dc bc 3b b0 32 bd 30 ca 7f bc 3c 7b ec 3c
       -0.026860459 -0.043625098 -0.01561217 0.028867356
0003d0 cd 3f a3 be 32 b9 a9 3e 55 a4 0f be 70 ec 95 3b
       -0.31884614 0.33149105 -0.14027531 0.0045753047
0003e0 48 5d b4 bb 0f 50 d7 3c f3 a8 a6 3e a8 d2 55 be
       -0.005504284 0.026283292 0.32550773 -0.2088114
0003f0 e0 3c 55 bc 34 84 6a bc 25 4a 4e bf c9 2b 9a bd
       -0.013015002 -0.014313746 -0.80581886 -0.075278826

fc1.bias f4 [128]
000000 d8 31 7b 3f fb e0 89 3e 38 06 9f be f4 ad 5d be
       0.9812293 0.2692946 -0.31059432 -0.21648389
000010 2c 65 2a be 3c e5 8d bf a9 8d 8b bf f0 1e 03 bf
       -0.16640157 -1.1085582 -1.0902606 -0.5121908
000020 87 19 69 bf d7 18 23 bf 0f 86 9a 3d 69 46 2e bf
       -0.91054577 -0.6370978 0.07545101 -0.6807619
000030 b1 a6 a6 be 78 41 3f bf ea ab cd 3e 57 95 e8 be
       -0.3254905 -0.7470927 0.40170223 -0.45426437
000040 2d cc 42 bd c1 25 da bd ea 98 d7 be 02 3e 2d bf
       -0.047558 -0.10651732 -0.42108852 -0.6767274
000050 fc 78 cd be e8 2a eb be 87 e4 39 bf f7 6d 0f bf
       -0.40131366 -0.45931172 -0.7261433 -0.5602717
000060 8a e3 fb be f3 bc 1e be 1b c8 a8 be 73 34 85 3d
       -0.49197036 -0.15501766 -0.32965168 0.065041445
000070 e4 dc 0d bf 03 01 7a 3e 9f 2e 87 be da c0 3f bf
       -0.5541518 0.24414448 -0.26402757 -0.74903643
000080 82 87 08 bf 61 39 32 be 07 a3 3c be b7 2b 12 bf
       -0.5333177 -0.17404701 -0.18421565 -0.57097954
000090 73 78 1e bf 36 48 e5 be 1b d8 20 bf 5a 75 01 bf
       -0.6190254 -0.44781655 -0.6282975 -0.5056969
0000a0 7c 13 d9 3f a3 1c de be ef 81 a3 3c 10 6d 59 bf
       1.6959071 -0.43381223 0.019959418 -0.8493204
0000b0 7c 9d 9f 3f 54 64 a9 3e fd d2 0c bf ad 5d 60 3f
       1.2469935 0.33084357 -0.5500944 0.8764294
0000c0 9a f5 36 3f 29 bc 24 be 02 c6 58 3e 80 40 37 bf
       0.7146851 -0.16087402 0.21169284 -0.71582794
0000d0 37 a3 4b be 26 1f 58 bf d3 9f 71 be 86 f8 32 3d
       -0.1988648 -0.8442253 -0.23596124 0.04369404
0000e0 21 19 ce 3f a6 0e 24 bf 2c 9e 0e be 49 b0 40 bf
       1.6101419 -0.6408485 -0.13927525 -0.7526899
0000f0 4c 6b 2c bf 72 f4 4c bd 61 38 c9 3f 33 ba ec 3e
       -0.6735122 -0.05003781 1.572033 0.4623581
000100 3f 08 63 bf f0 bf 08 be 21 65 67 bf 3e 4e 96 3e
       -0.8868446 -0.13354468 -0.90388685 0.2935657
000110 84 aa 14 be 14 d6 14 bf c9 6f 64 bf 6b e7 f1 3e
       -0.14518172 -0.5813916 -0.8923307 0.4724687
000120 6f 46 6a bf 08 ef 98 be 1e 16 47 bf 36 7c 05 3f
       -0.91513723 -0.29869866 -0.77768123 0.52142656
000130 31 3d a7 be f9 9a 68 bc 0b c6 a8 be 5e e0 21 be
       -0.32663873 -0.014197105 -0.32963595 -0.15808246
000140 54 f0 ba be be 0d 1f 3f f2 d0 19 be f9 48 90 bd
       -0.3651148 0.62130344 -0.15021113 -0.070451684
000150 17 dd 9f be 62 3d 43 bf 3c cc 2f 3f 50 e9 e1 3e
       -0.31223366 -0.7626554 0.6867101 0.44123316
000160 97 ad 4e bf 55 64 0f 3d e0 db a5 be ef 4a fb be
       -0.8073363 0.035007793 -0.32394314 -0.49080607
000170 8d fd 0f be ab 37 cd be 11 a8 07 bf 94 71 ed be
       -0.14061566 -0.40081534 -0.52990824 -0.46375716
000180 51 e1 2d bf 2b 91 5c 3e 10 ed a8 be ae 1d 04 bf
       -0.6792193 0.21539752 -0.32993364 -0.5160779
000190 b5 cf 38 bf 85 ae da bd ca 38 cb 3e a3 16 ef be
       -0.72191936 -0.10677818 0.39691764 -0.46696958
0001a0 dd c2 2a be 72 7f 25 bf c7 bb 23 be 92 d1 f9 be
       -0.16675897 -0.6464759 -0.159896 -0.48792702
0001b0 77 8c 29 3e 6c 93 8f bf ac 33 ba 3f 1f 58 88 be
       0.1655749 -1.1216865 1.4547019 -0.2662973
0001c0 62 e7 37 be 0e 7e 6e 3e cb 5b 54 be 50 59 20 bf
       -0.1795936 0.23290274 -0.20738141 -0.6263628
0001d0 10 0e 2e bf c0 29 60 bd 56 ce 81 3e 7d 07 4b be
       -0.6799021 -0.054727316 0.25352734 -0.19827075
0001e0 43 81 de 3e 04 ce 17 be 1f 30 0f 3f 61 22 6b bf
       0.43457994 -0.14824682 0.559328 -0.91849333
0001f0 a2 c5 4a 3f 75 16 b3 be 52 ce 14 3f a2 b6 3e bf
       0.79207814 -0.3497807 0.5812732 -0.74497426

fc2.weight f4 [128, 128]
000000 c0 db 85 be 43 cb 6c 3f 90 56 57 3f 9f d9 9d bd
       -0.26144218 0.9249765 0.8411646 -0.077075236
000010 f9 8b 89 3d be 6e 2a 3e d4 9e 2b 3f cb 22 ca 3f
       0.06716151 0.16643807 0.6703923 1.5791868
000020 04 85 23 3f 80 82 91 bf 95 f9 e7 3d 23 57 05 3f
       0.6387484 -1.136795 0.11326901 0.52086085
000030 e4 9f 0d 3c 74 94 a5 bf 2c a4 66 3f 34 54 32 bf
       0.008644078 -1.2935929 0.90094256 -0.69659734
000040 9d 2d 83 3d a5 7f c8 be 6b 22 2b bd 9f 0c 15 bf
       0.064051844 -0.39159885 -0.04178087 -0.58222383
000050 c6 2e c3 bf 3b 26 f5 3c 74 de 43 bf 53 92 be 3e
       -1.5248649 0.029925456 -0.7651131 0.37221012
000060 9e 66 1b bf da 8a ef be 39 fb 08 3f 91 ca e3 3e
       -0.60703456 -0.46785623 0.53508335 0.44490483
000070 a6 03 79 bf c5 8d 02 bf da e2 af 3e 48 75 56 bf
       -0.9727119 -0.50997573 0.34352762 -0.83772707
000080 b7 1b ad 3d a9 3b 8f be 38 af a3 bf dd aa f9 be
       0.08452552 -0.27975205 -1.2787848 -0.4876317
000090 18 8b 66 3e 68 b3 99 be d0 eb 8d bd 6c 5f 4a 3e
       0.22513998 -0.3001969 -0.06929743 0.19762963
0000a0 52 45 80 3e b4 c4 02 bf c4 2e ac be 02 6a 08 3f
       0.25052887 -0.51081395 -0.3362943 0.53286755
0000b0 f8 af 85 3e 4c 87 38 3e cb 94 71 3c d0 5d 91 be
       0.26110816 0.18020362 0.014744948 -0.28391886
0000c0 a0 21 f0 bf b0 c2 5f 3e ae 3b 80 bf f6 3f 0a be
       -1.8760262 0.21851611 -1.0018213 -0.13500962
0000d0 44 85 86 bc 83 69 4e 3f 15 2e 99 bf d5 31 7e 3d
       -0.016420968 0.8062975 -1.1967188 0.062059242
0000e0 c2 08 56 be 07 78 9d bf 98 67 6a bd e3 b6 68 bd
       -0.20901778 -1.2302254 -0.0572277 -0.05681504
0000f0 60 89 5f bf 4b 32 ea 3e 99 a5 10 be b1 eb e5 be
       -0.8731899 0.45741495 -0.1412567 -0.4490638
000100 d8 63 08 bf d5 b3 9f bd ae c8 ae bf 5c ba 21 3e
       -0.5327735 -0.07797972 -1.3654993 0.15793747
000110 1c 76 b2 bf 3a e2 85 bf b3 2d 5d 3f 30 18 63 3e
       -1.3942294 -1.0459664 0.86397856 0.22177196
000120 42 20 b9 be 9e d2 86 3e b6 c6 99 bf be e9 83 3c
       -0.36157423 0.26332563 -1.2013767 0.016102668
000130 4a 58 85 bf 47 9e 97 3d e2 5e 48 3f 8d 3e ee bd
       -1.0417569 0.07403236 0.7826978 -0.11633024
000140 b4 1b 53 bf 9c 47 88 be b4 79 27 3c bb 99 6e 3f
       -0.82464147 -0.26617134 0.010221887 0.93203324
000150 9d 28 96 3f 4a 74 b2 be ac 8a d8 3e 08 40 5b 3e
       1.1731144 -0.34854347 0.42293298 0.21411145
000160 7c 6a 2f bf 62 2f c5 3d b3 56 44 bf 46 5a a5 be
       -0.6852186 0.09628178 -0.7669479 -0.32295436
000170 e6 b8 72 be 00 21 91 be 67 b6 72 3e ea 3a 9a 3e
       -0.23703346 -0.2834549 0.23702393 0.30123073
000180 b9 a1 3c bf fe c9 c6 3d f1 f5 2c 3f 42 7e 28 bf
       -0.7368427 0.09706496 0.67562777 -0.65817654
000190 f0 48 d8 be 40 53 08 be a4 8e 06 3f 1e 26 ac 3e
       -0.42243147 -0.13313007 0.525614 0.3362283
0001a0 c7 d0 89 bd 32 1e 82 3d 8f dc 4d bf be a1 66 bf
       -0.06729274 0.063534155 -0.8041467 -0.9009055
0001b0 e7 4f 2e b9 25 b7 2a be f6 be a4 3e 06 79 24 bf
       -0.00016623699 -0.16671427 0.32176942 -0.6424717
0001c0 83 a0 bd bc 6f a9 f1 bf 43 7e 18 bf 88 e6 da 3e
       -0.023147827 -1.8879832 -0.5956766 0.42754006
0001d0 71 84 cf bd 55 c1 17 bc 08 c6 dd bf c3 56 32 3e
       -0.10132683 -0.009262403 -1.7326059 0.1741591
0001e0 66 73 01 3f 12 3a 69 3c 15 5c 09 bf 0f f1 04 3f
       0.5056671 0.014235036 -0.5365613 0.51930326
0001f0 0d 75 fb be 36 3a b5 bf 5b ab 17 bf 0a 10 cd bd
       -0.4911274 -1.415839 -0.5924584 -0.10012825
000200 3c 27 cf 3d 62 ac 6c be 64 d9 b3 be a8 0a 7b bc
       0.10114905 -0.23112634 -0.35126793 -0.015322365
000210 0a eb d3 3d 94 70 f5 be 70 c1 bc bd c1 f7 fd be
       0.103475645 -0.47937453 -0.09216583 -0.49603084
000220 83 09 9c 3e dd 38 13 bf fe 02 f2 bd 50 4b 16 3f
       0.30476007 -0.5750864 -0.11816977 0.5870867
000230 ef ae 2b bf 51 1c c4 3e fc 81 e0 be de 88 a5 bd
       -0.670638 0.38302854 -0.4384917 -0.08082746
000240 08 cb 9d bd dd 82 b6 3d c0 cb c2 bf 92 e4 9a be
       -0.07704741 0.08911679 -1.521843 -0.3025251
000250 37 1c 3e 3f 18 d4 8d bf f6 21 b3 be 30 71 f8 be
       0.742618 -1.1080351 -0.34986848 -0.48523855
000260 e7 4c f5 3e b6 04 c0 bf 50 35 87 3f 84 92 c8 bd
       0.47910234 -1.5001438 1.0563145 -0.09793571
000270 67 34 06 bf 28 1b 2f 3f e9 ec 6b 3f 49 6b 02 bf
       -0.5242371 0.6840081 0.9215837 -0.50944954
000280 b0 e2 52 bf 7d 37 c8 be 43 a0 2e 3f db 32 5a bf
       -0.8237715 -0.39104834 0.6821329 -0.8523385
000290 52 ad a7 bd 03 66 f7 be 0f 62 33 3e 5b c7 af bf
       -0.08187355 -0.48320016 0.17517875 -1.3732713
0002a0 5c 77 b5 3e 06 33 92 be 83 f7 b7 be 83 bf 99 bf
       0.35442626 -0.28554553 -0.35931024 -1.201157
0002b0 ab db f2 3e 27 49 09 3f 2c be e0 be df c6 b0 be
       0.47433218 0.53627247 -0.4389509 -0.34526727
0002c0 06 ff 15 be 19 d0 1c 3e b1 93 0f bf fc 57 ba 3e
       -0.14648065 0.15313758 -0.56084734 0.36395252
0002d0 db 6c ef bc 2a 6d d5 3e a2 76 6c be 5e 6a fd bd
       -0.029226711 0.41684848 -0.2309213 -0.123738036
0002e0 b4 d9 f6 3d ea 55 10 bc e4 a5 97 bc 51 3f 37 3d
       0.12053242 -0.008809546 -0.01851172 0.044738118
0002f0 eb d4 41 3e 8e e8 5a 3f 22 0f 82 3e a8 22 02 3f
       0.18928878 0.855111 0.2540217 0.5083413
000300 0c 7c b3 bd 4a 1b 28 3d b0 cf 0d bf 45 e1 3c bf
       -0.087638944 0.04104165 -0.5539503 -0.73781234
000310 6d 76 3e be a8 70 51 bd ef 34 06 3f 53 97 da be
       -0.18599863 -0.051132828 0.5242452 -0.42693576
000320 3c 29 3e be ee 9c aa bf d6 8b 83 be 2a c7 fe 3e
       -0.18570417 -1.3329141 -0.25692624 0.49761325
000330 19 a4 05 bf 6e ed fd 3e 54 2d 65 bf a4 c9 95 bd
       -0.5220352 0.49595207 -0.8952229 -0.073138505
000340 1d 33 e7 3e 8c d4 25 be aa ff e3 3d 60 70 96 be
       0.45156184 -0.16194361 0.111327484 -0.2938261
000350 d8 bb 7f be 2a cf 44 3f 66 42 92 bd fc 2f 81 3e
       -0.24974 0.7687861 -0.07141571 0.25231922
000360 53 97 2a bf e3 e3 12 bf 99 6b 49 bf e4 18 a0 3e
       -0.6663715 -0.5737898 -0.78679806 0.3126899
000370 9a b3 2f bf 6d 4e b3 be 49 e1 ec 3e d2 20 d4 be
       -0.68633425 -0.35020772 0.4626563 -0.4143129
000380 e2 a8 ec be 65 b5 79 bd 98 9e c9 be 24 5d b3 be
       -0.46222597 -0.060964007 -0.3937881 -0.35031998
000390 05 b0 e5 3e 2d f6 84 3a ff c6 88 3e 25 29 06 3f
       0.44860855 0.0010144167 0.26714322 0.5240653
0003a0 ba a8 10 bf bf b7 3a 3e 40 5a f6 bf 78 e2 11 bf
       -0.56507456 0.18234156 -1.9246292 -0.5698619
0003b0 d2 a9 5d be 58 68 9d 3e cd 6b da 3e f8 af df be
       -0.21646813 0.3074367 0.4266037 -0.4368894
0003c0 d5 55 57 bd 10 39 94 3e 51 de 60 bf b8 81 0c 3f
       -0.05257209 0.28949785 -0.8783923 0.54885435
0003d0 d5 04 13 bf 8f f8 91 bc d0 ad 7b bd 7f 00 05 bf
       -0.5742925 -0.017818717 -0.061445057 -0.5195388
0003e0 87 06 c1 be 41 94 1e 3e 56 22 e4 be 40 07 61 3e
       -0.37700292 0.15486242 -0.44557446 0.21975422
0003f0 9b a6 c3 bd f8 f2 10 bf 8c 99 e9 3e 1d 18 fe 3d
       -0.09553262 -0.5662074 0.4562496 0.12406943

fc2.bias f4 [128]
000000 9e 1d bd 3d f4 e3 bf 3f 0e a8 4d 3f 72 84 b4 3e
       0.09234165 1.4991441 0.80334556 0.35257298
000010 a2 4d 88 3e 96 00 08 be 31 e5 33 be a6 69 15 be
       0.2662173 -0.13281474 -0.17567898 -0.14591083
000020 b8 fd 30 be 75 73 67 3f 1e 00 1a be 5b 18 f3 3e
       -0.17284286 0.9041055 -0.15039107 0.4747952
000030 c6 9b 0d be f0 bd 80 bd 17 e5 ce be fc 29 de be
       -0.13828954 -0.06286228 -0.40409157 -0.43391407
000040 af 54 df 3e ac 6a 44 3e 59 28 a3 bd e6 7d 05 3f
       0.43619296 0.19181317 -0.0796668 0.5214523
000050 79 b5 c6 bd 64 04 d3 bd 24 81 f7 bd 9b 80 2f be
       -0.09702582 -0.10303572 -0.120851785 -0.17138903
000060 e1 6b 3f 3c 5b 1b 65 3f cc be b7 3d ca 74 ea 3e
       0.011683435 0.89494866 0.089719385 0.45792228
000070 e8 ce c3 3d 2a 07 89 3f a8 41 16 be 87 81 98 be
       0.095609486 1.0705311 -0.14673483 -0.29786322
000080 34 21 8c bd d4 18 81 3f 4f 3a 72 3f ae c8 34 3f
       -0.068422705 1.0085702 0.9462022 0.7061871
000090 cd 29 d6 be 7f c4 6b bf 50 4c 44 3f 4b a7 7e 3e
       -0.41828766 -0.92096704 0.76678944 0.24868505
0000a0 f1 be 42 be 87 74 83 3f 63 22 c9 3f d5 32 6a 3e
       -0.19018151 1.0269936 1.5713619 0.22870953
0000b0 df 01 95 3e 2f 24 b0 be 0c 84 58 bd e3 68 2a 3e
       0.2910299 -0.34402606 -0.052860305 0.16641574
0000c0 23 77 e5 bd 63 7c 00 3f 4a f6 b9 bd 02 86 f5 be
       -0.11204364 0.501898 -0.09080179 -0.47953802
0000d0 54 8a cb be 09 7d b6 3e e5 4e 2a bd 74 9b 8d 3f
       -0.39753973 0.3564227 -0.041579146 1.1063066
0000e0 6a ba d3 3e a3 f4 21 be e3 50 2f be d2 ab 0f 3f
       0.4135316 -0.15815978 -0.171207 0.5612155
0000f0 18 87 07 be 33 cf 3c be 89 6b 56 bf 51 8a 02 3d
       -0.13235128 -0.18438415 -0.83757836 0.03187019
000100 2a 48 2e 3e ad 7b b3 3b 6a f2 1b bf d5 4c 18 3f
       0.17019716 0.00547739 -0.6091677 0.59492236
000110 d4 2c 2f 3f 2a 9c e4 3e 8d 09 2c bd 61 40 a6 3e
       0.6842778 0.44650394 -0.042001296 0.32470992
000120 76 b0 fb bd fe a4 b4 bd a5 b9 37 be 06 27 03 be
       -0.12289517 -0.08820532 -0.17941912 -0.12807855
000130 ee 09 31 be 1e 0d a7 3f 8c 79 40 be b7 cc 06 be
       -0.17288944 1.3050878 -0.18796366 -0.1316403
000140 88 7f bf 3e 99 d9 2c 3f 95 b0 07 3f a2 12 da 3e
       0.37401986 0.6751953 0.5300382 0.4259234
000150 93 0b e7 3f 68 b2 b6 be ef 8b fb 3e 93 5a 6c 3e
       1.8050407 -0.35682988 0.49130198 0.23081426
000160 91 7b 7e 3e b0 60 2c 3f e0 25 a5 3f 4e 6f 43 3f
       0.24851824 0.67335033 1.2902184 0.7634171
000170 67 8c 3d be d5 35 6b 3e e5 f5 c6 bd 62 b5 08 be
       -0.1851059 0.22969754 -0.097148694 -0.13350442
000180 ea 9b 27 bf 61 51 d9 3f 73 35 b9 3d 17 f8 09 3f
       -0.6547228 1.697796 0.09043398 0.5389418
000190 6a 9b 5f 3f 27 0c 51 3e 21 dd 9d 3e 04 cb 08 3f
       0.8734652 0.20414792 0.3083277 0.5343478
0001a0 32 72 61 be cc ad 91 bf ae af 43 3f 7e 60 15 3f
       -0.22016218 -1.1381164 0.7643994 0.5835036
0001b0 a0 c3 92 3e c1 82 0d be af 43 b9 3e 2c 0f 03 bd
       0.28664875 -0.1381941 0.3618445 -0.03199689
0001c0 35 4b 80 bf 83 11 cd bd ed 9b 20 3f 9c 66 5d 3f
       -1.0022951 -0.10013106 0.62737924 0.86484694
0001d0 a5 4c 74 be 3c 93 71 3f 4b b8 0d be bf cf bc 3e
       -0.23857363 0.94365287 -0.13839833 0.36877248
0001e0 6e 87 5f 3f 7e 6f 38 3f d2 03 b8 be 5e ff 1a bf
       0.87316024 0.72045124 -0.35940415 -0.6054591
0001f0 65 62 79 3f cf fc 4e 3f d8 1d 97 3f 99 b9 29 be
       0.97415763 0.80854505 1.1805983 -0.16574706

fc3.weight f4 [128, 128]
000000 06 3d 6a bf e4 88 65 3f 96 ed f5 3d 3c d1 5f bf
       -0.91499364 0.89662004 0.120082065 -0.8742864
000010 b7 68 78 bf 56 dc 1c bd 15 36 c0 bb 65 ce 14 bd
       -0.9703478 -0.038296066 -0.005865822 -0.036329646
000020 43 45 d0 3c 7e ab 2c bf 0f 4d 6c bd 61 ee 23 bf
       0.025423652 -0.67449176 -0.057690676 -0.6403561
000030 48 19 fb 3b f2 62 bb bd 5c 47 ef bd be 09 a8 be
       0.007662926 -0.09149732 -0.116835326 -0.32819933
000040 4b 55 61 3e a4 cc 1c 3f da 87 64 bf 5d 66 c1 3d
       0.22005193 0.61249757 -0.89269793 0.09443352
000050 f7 c9 12 3d be 14 df 3d 62 e5 64 bc 4c 2f 62 bc
       0.03583714 0.10892628 -0.013970705 -0.013805222
000060 78 c1 d9 bf 5f 5e 77 3f 0d 92 28 bd 5a f1 ce 3d
       -1.7012167 0.96628374 -0.04115491 0.10104628
000070 ca 8e fe 3c c9 81 08 3f c1 fb 37 3f ad 8e 77 3e
       0.031073947 0.53323036 0.7186852 0.2417552
000080 d7 a9 af 3f 56 03 0b bf 39 41 ce 3f 62 57 b9 be
       1.3723706 -0.54301965 1.6113654 -0.3619948
000090 1b aa 70 bf 3b 6a d0 bf 7e 33 cd bf 35 69 b3 3f
       -0.9400956 -1.6282419 -1.6031339 1.4016482
0000a0 41 aa e6 be 93 f3 c3 3f b6 ea df bf 7a 48 38 bf
       -0.45051768 1.5308708 -1.7493503 -0.7198559
0000b0 a3 d2 bb 3f 6d 78 49 bf bc ee 02 c0 4e 12 95 3d
       1.4673656 -0.7869938 -2.0458212 0.07278882
0000c0 9d ef 1c bd 1a cc 51 bf be 04 8d 3c af df e4 bf
       -0.03831445 -0.8195206 0.017214175 -1.7880763
0000d0 fd 96 cd bf 47 23 84 bf 74 22 84 bf e4 25 28 bf
       -1.6061703 -1.0323266 -1.0323014 -0.65682817
0000e0 5e e5 a1 3d 5f e8 75 3d ea a2 4c 3f 16 3a 99 bd
       0.079050764 0.06003606 0.7993609 -0.07481782
0000f0 d5 17 3b bd d2 aa 77 bd ef cb 82 c0 eb d1 e0 be
       -0.045677025 -0.06046564 -4.087394 -0.43910155
000100 0a 3c bb bf 53 68 b1 3f f1 f5 8a bf d7 a2 a1 3f
       -1.4627697 1.3859962 -1.0856305 1.262782
000110 e8 89 43 be 60 8d 07 bd 67 b7 63 3e 62 bd 70 bf
       -0.19095576 -0.03309381 0.22237931 -0.94038975
000120 f9 e8 c3 bd 7a f6 2e be b8 db 1f bd ee a7 dc 3d
       -0.095659204 -0.17086211 -0.0390279 0.107742175
000130 64 12 23 bc 0f 57 61 bf d2 e7 38 3e 89 40 5b bf
       -0.009953115 -0.88023466 0.18057182 -0.8564535
000140 3d 23 19 bf de 19 62 be 3f fb 1c bf e8 f9 85 be
       -0.59819394 -0.2208018 -0.6132087 -0.26167226
000150 d8 f9 0a be 4d 31 8e bf 29 24 6b 3f 8d ac 31 bf
       -0.1357187 -1.1108795 0.9185205 -0.69403917
000160 a9 93 46 3f 35 02 aa 3e 65 83 f9 bf 5f 6f 90 3f
       0.7756906 0.3320481 -1.9493223 1.1283988
000170 f8 05 92 be 41 74 9f be 49 62 4e bd 41 62 93 3e
       -0.2852018 -0.31143382 -0.0503867 0.287859
000180 8d 1a f9 bf 71 53 47 3e 5a 54 0b be b9 b7 1c bf
       -1.9461228 0.19465424 -0.13606396 -0.6121784
000190 8a e4 d7 bf 21 b2 44 3f a6 97 9e 3d e3 7d 03 3f
       -1.686662 0.76834303 0.077437684 0.5136396
0001a0 b6 e2 86 be c4 5a bb bf 7d 9d 80 3e a8 79 c7 3f
       -0.26344842 -1.4637074 0.25120154 1.5584002
0001b0 53 5c 8f 3f 04 33 86 bc df 96 22 c0 57 ca 05 c0
       1.120005 -0.016381748 -2.5404584 -2.0904748
0001c0 d8 c4 ca bd b1 10 0d 3c f8 a3 c5 be 55 2e b5 bc
       -0.09900826 0.008609937 -0.3860166 -0.02211682
0001d0 22 44 92 3e d4 25 22 3f 4d 2e ad bf ab 24 9e 3e
       0.28567606 0.6333897 -1.3529755 0.3088735
0001e0 18 c6 8d 3e c6 ad 06 bf 5d 85 fa bf a9 16 5a 3e
       0.27690196 -0.5260891 -1.9571949 0.21297707
0001f0 00 1b 8a 3d 84 f8 8c be e5 29 8c bf f6 36 58 3e
       0.06743431 -0.27533352 -1.0950285 0.21114716
000200 1a ca 74 bf a3 3f 5c be 5b ab ec 3c 3c dd 29 bf
       -0.9562088 -0.2150865 0.028890302 -0.663532
000210 93 b8 1e bf 7f 14 2b be fe de f0 3c 7c 1a cb 3d
       -0.6200039 -0.16707037 0.029403206 0.09917161
000220 77 27 bd bd 35 fe e7 be 94 45 e4 3c 3e a8 ed 3d
       -0.09236043 -0.45311132 0.027865209 0.11604355
000230 cc fe a1 bd d2 98 8c 3d f4 fe 7e be 1e 70 bb bf
       -0.07909927 0.06865086 -0.24901944 -1.464359
000240 2d 72 80 3f 7b f2 c9 3d 6d 9e 82 3e 73 c1 84 bf
       1.0034844 0.098607026 0.25511494 -1.0371536
000250 6a e4 76 3c 75 b2 97 3d cb 28 40 bd d0 d5 04 3c
       0.015069107 0.07407085 -0.046913903 0.0081076175
000260 1e 84 9d bf 58 45 45 bf e6 7d 42 bf 53 a3 0f bd
       -1.2305944 -0.77058935 -0.75973356 -0.035067867
000270 59 6f 70 3f ea 13 ab bf 82 98 b2 be 33 dd 20 c0
       0.93919903 -1.3365452 -0.3488198 -2.513501
000280 ab 60 01 3f 42 fc 61 bf 3c 7b c3 3e e0 31 ba bf
       0.5053813 -0.8827554 0.38179958 -1.4546471
000290 7a 31 c2 be ee e3 80 3f c1 54 88 bf 19 98 94 be
       -0.37928373 1.0069559 -1.0650865 -0.2902229
0002a0 f6 6f 47 bf 9f 76 b7 bf 23 4d ac 3e 55 a4 41 3f
       -0.77905214 -1.4333075 0.336526 0.75641376
0002b0 e5 1c 62 bf c1 e1 40 bf e5 6f f3 bd df c6 2f 3f
       -0.8832534 -0.75344473 -0.118865766 0.6866283
0002c0 4a 60 10 bd 68 0d 17 3f fa 44 22 3d 2d 12 b4 bf
       -0.03524808 0.5900483 0.039616562 -1.4068047
0002d0 89 11 1d 3f 99 50 bb 3e 9a e9 63 3f ed c2 01 3f
       0.6135488 0.3658493 0.8902832 0.5068806
0002e0 2a 51 9e be 65 ac 8c 3b f2 c7 0d bd 0b 25 fa be
       -0.30921298 0.004293012 -0.03461451 -0.48856387
0002f0 b9 4e c1 bc 31 31 0f bd db 08 17 3f 2c ac 01 bf
       -0.023597108 -0.034959022 0.5899789 -0.5065334
000300 37 43 00 3f 90 f1 55 bf e5 bb 01 bf 16 88 14 be
       0.5010256 -0.8357172 -0.5067733 -0.14505038
000310 d1 18 87 be e3 d1 78 bf ed 11 09 be 52 78 d9 3e
       -0.2638612 -0.9719526 -0.13385744 0.4247461
000320 ad 08 34 bc 0e 6f 25 3f 9f 30 14 3e 66 a1 03 bd
       -0.010988397 0.6462258 0.14471672 -0.032136343
000330 47 ff c0 3d 07 e1 71 bf e6 41 e8 bc 61 42 30 b9
       0.0942369 -0.9448399 -0.028351735 -0.00016809396
000340 bc 56 55 bf cb 02 24 bf b3 ca 43 3f ec 17 c1 3d
       -0.8333547 -0.6406676 0.7648117 0.09428391
000350 4b f9 30 3e 2d 7f fb 3e e6 53 aa 3d b9 86 04 bf
       0.17282598 0.49120465 0.083167836 -0.5176807
000360 d9 7a d3 3f 27 d2 68 bf 8c 2e ae 3e 6c 94 0f 3f
       1.6521865 -0.9094567 0.34019887 0.5608585
000370 23 27 03 3f 8a ca 67 bf b0 3c 6b bd 84 2e 07 3f
       0.5123159 -0.90543425 -0.057430923 0.5280535
000380 d6 85 92 bf 4c ac 96 3e 9f e9 f4 be 2c f7 51 3f
       -1.1447093 0.29428327 -0.4783449 0.8201778
000390 45 21 3b 3e 93 55 5c 3d 4b 63 49 bd 2e 5a b3 3e
       0.1827441 0.053792547 -0.04916696 0.3502974
0003a0 b6 4c 27 40 57 23 a7 bd 90 ba 71 3f ae 7f db 3f
       2.614057 -0.081610374 0.94425297 1.714834
0003b0 16 64 8f be af 8a 9d bd ff 16 f7 bf 04 09 e9 be
       -0.28006047 -0.076924674 -1.9303893 -0.4551469
0003c0 04 9d de bd fb cc 63 3d 5f 82 02 40 37 da ba 3e
       -0.10869792 0.055615406 2.0392072 0.3649461
0003d0 da aa 4d bc 0a a4 76 bf 2d 8a 16 c0 f9 f7 5a 3f
       -0.012552941 -0.96344054 -2.3521836 0.85534626
0003e0 f9 0b 5f bf c8 06 ce 3f 7a a1 c5 3e 0a 5c b3 bd
       -0.87127644 1.609582 0.3859976 -0.087577894
0003f0 43 17 e8 3e e7 26 42 3e ea 29 75 be af 23 c9 3c
       0.45330247 0.18960153 -0.2394177 0.024553148

fc3.bias f4 [128]
000000 77 04 94 3d 14 bf e7 3f 88 6a 3b 3f 39 a1 14 be
       0.07227414 1.8105187 0.7320943 -0.14514627
000010 10 52 b1 bd df c4 ab 3f 94 f1 b8 3e 9e b8 63 bd
       -0.0865823 1.3419455 0.3612181 -0.055595987
000020 46 f5 19 3f 58 f3 68 3f 88 f9 be 3f 32 64 2c 3f
       0.6013988 0.90996313 1.4919901 0.67340386
000030 78 50 01 40 13 be 0e 3c a8 33 d2 3f 13 64 92 bc
       2.0205364 0.008712309 1.6422014 -0.017869985
000040 c0 13 4f bd 36 f3 b0 3f c0 4b df bd 10 2c fa 3f
       -0.050555944 1.3824222 -0.1090312 1.9544697
000050 b8 a5 83 bd e2 ff 81 bd 15 df 0f 3f ef b4 0a 40
       -0.06428093 -0.06347634 0.5619977 2.1672933
000060 e0 73 bc 3f e9 0d 0d be c6 d2 77 bd f7 74 75 3f
       1.4722862 -0.13774838 -0.060503744 0.958816
000070 95 3b b9 bd 92 78 db bd d1 70 77 3f 0d 0c e4 bc
       -0.090445675 -0.10716356 0.9665652 -0.027837778
000080 f5 10 11 40 9e 52 b2 bd 09 95 e6 3f 45 5d 0c 40
       2.26666 -0.08707164 1.8014232 2.1931927
000090 07 0d 37 be ec d4 ce 3f 47 bf 0a be 3c 6a 02 40
       -0.17876063 1.6158729 -0.13549529 2.037734
0000a0 86 6c ec bd a5 06 11 40 39 9f 8f bd a2 2e b4 be
       -0.11544137 2.2660306 -0.07012791 -0.35191828
0000b0 1c ec 32 bd 71 5a be bd 39 5f a1 bd 87 93 fd bd
       -0.043682203 -0.09294594 -0.078794904 -0.12381654
0000c0 a5 1a c0 3f 7d a4 16 be ac 13 dc 3f 54 da 88 bf
       1.5008131 -0.14711185 1.7193503 -1.0691628
0000d0 cc e4 cc bd 06 0b d0 bc 04 c1 97 3f c8 19 23 3f
       -0.10004577 -0.025395881 1.1855779 0.63711214
0000e0 1f c8 1c 40 8b 72 90 3f db cd b3 bb 37 e8 9d be
       2.4497144 1.1284956 -0.0054871864 -0.30841228
0000f0 8b 1f 17 40 5e 50 b4 bd d1 e2 8a 3f e6 46 06 bf
       2.3613002 -0.08804391 1.0850469 -0.5245193
000100 44 67 49 3f 1b 29 81 3f 50 9c fc 3f c2 2f 13 3f
       0.78673196 1.0090669 1.9735203 0.5749475
000110 79 1d ba bd 58 ce 81 3f 70 7b 6e 3e 9b bf e0 bd
       -0.09087653 1.0141096 0.23289275 -0.10974046
000120 37 0f b1 bd 10 b4 b6 3e 2e 2b 0d 40 b2 16 ec 3f
       -0.0864548 0.35684252 2.2057605 1.8444426
000130 01 18 15 be 32 a8 e6 3e 04 31 a3 3e 7a 59 1f be
       -0.14559938 0.45050198 0.31873333 -0.15561476
000140 fa e5 8a bd 5c 02 aa 3e da 98 a2 bd 61 cf 64 be
       -0.06782146 0.33204925 -0.0793931 -0.22344734
000150 a7 6d f9 3c c7 b3 30 3f 1c 44 2d 3f 4e 7a 48 bd
       0.030447794 0.6902432 0.6768205 -0.048944764
000160 63 ee 11 bd 80 f3 0d 40 18 12 26 bf 49 00 e4 3f
       -0.035627734 2.217987 -0.6487136 1.7812587
000170 23 d4 74 3f ca 76 0f be 9a 39 72 bd ae 8b 03 3f
       0.95636195 -0.14010158 -0.059136964 0.5138501
000180 5d cd fc bd 86 75 1a be f7 7a d8 bd 13 9f c3 bd
       -0.123438574 -0.15083894 -0.10570329 -0.095518254
000190 c6 2e a8 bc ad ab 5e bc cd c1 48 3d 77 1f 17 40
       -0.020530116 -0.013590735 0.049012948 2.3612955
0001a0 bf 21 07 40 e4 ca 03 be 09 ab 12 be 79 fc a5 be
       2.1114347 -0.12870365 -0.14323057 -0.32419184
0001b0 12 eb 75 3f 2a c8 00 be 6e 1b 31 3c ab 28 02 40
       0.96061814 -0.12576357 0.010809762 2.0337322
0001c0 5b fa 9f bd 4a 84 d0 bd e0 c3 f9 3f 50 7a b6 3f
       -0.078114234 -0.10181482 1.9512901 1.4256077
0001d0 ca 20 9f bd 9d 21 7a 3f 24 6b 18 3c 66 64 c0 3f
       -0.07769926 0.9770754 0.009302888 1.5030639
0001e0 4c 3a 55 bd 18 8a b7 3e 08 ad fa 3e 4b 7b cb 3f
       -0.05205755 0.35847545 0.48960137 1.5897001
0001f0 94 bc f6 bd 4a 90 29 be fe 25 93 3f 07 c3 82 bd
       -0.12047687 -0.16558948 1.1495969 -0.06384855

fc4.weight f4 [32, 128]
000000 cd e0 65 3e 98 51 19 bf 1d 3e 9e bf 79 a0 02 bd
       0.22449036 -0.5989013 -1.2362705 -0.03189132
000010 83 5a 9c 3d 95 42 86 bf f0 26 b4 3f 5c a4 37 3d
       0.07634451 -1.0489069 1.4074383 0.04483448
000020 ba c5 9f bd ad 8f ae bf 1e e1 8a be 9f bf 0f bf
       -0.07801385 -1.3637596 -0.27124876 -0.56151766
000030 37 00 a6 be 77 7c 67 bb 49 1d 7b 3e f7 1a 9e 3d
       -0.3242204 -0.003532199 0.2452289 0.07719987
000040 27 9e 2b bd 43 2c ef be ce 13 32 3d 81 f9 da 3b
       -0.041898873 -0.46713457 0.04347592 0.006682575
000050 d3 dc 9f bc f4 e9 d2 bb 5d e5 2c 3c 08 da 5d 3f
       -0.019514477 -0.006436581 0.010552731 0.86660814
000060 b4 4a a2 bc ea a8 b1 3d a8 ae 0b 3c de 01 2c bf
       -0.019811012 0.08674796 0.008525528 -0.6719035
000070 28 ef a6 bd d8 c6 95 3d 89 28 a2 bf 99 92 13 3e
       -0.08151084 0.07313317 -1.266862 0.14411391
000080 a1 57 2f bf a8 ba 29 3d a1 90 1f c0 af 7d c5 be
       -0.68493086 0.041437775 -2.4932024 -0.3857245
000090 e5 13 1c 3d bc e0 99 3e 24 1b b5 3b 51 52 89 bf
       0.03810491 0.3005427 0.005526917 -1.0728246
0000a0 b7 3b 6d 3d 60 e6 9a be 66 b1 9e bd ba 09 5a be
       0.057918277 -0.30253887 -0.0774868 -0.21292773
0000b0 c1 38 06 bd 72 f6 87 bd 7d 37 b3 3d 23 a7 85 bd
       -0.03276897 -0.066388026 0.08750818 -0.065260194
0000c0 63 f3 19 3d 74 3d d4 3d 21 eb 16 c0 c5 f0 e0 bf
       0.037585627 0.10363284 -2.3581011 -1.7573477
0000d0 18 85 d0 bd f5 30 90 3d 31 96 da bf 39 b0 b4 3f
       -0.101816356 0.07040588 -1.7077085 1.4116279
0000e0 5c cb b1 3d 41 73 98 bf 9e a7 62 bd d9 75 01 3f
       0.08681366 -1.1910173 -0.055335633 0.50570446
0000f0 f9 ab 76 3f b6 98 5f bd 3c f3 72 bf 5d b6 89 bf
       0.9635616 -0.054588996 -0.94902396 -1.0758778
000100 45 10 6c bf 87 25 a4 bf c4 5a 42 bf 42 5a ea bf
       -0.92212325 -1.2823952 -0.7591975 -1.8308794
000110 e8 7a 33 bd 8a c6 99 bf 28 4b e8 be bf b2 20 bd
       -0.043818384 -1.2013714 -0.4536984 -0.039232966
000120 a0 47 38 bb 19 23 99 3e 81 88 71 be 02 d0 82 be
       -0.0028118864 0.2990959 -0.23587228 -0.25549322
000130 38 ea 5b bd 8d fd cf 3e bb 35 1f bf 5e 8e b3 bd
       -0.053690165 0.4062313 -0.6219136 -0.08767389
000140 67 c5 88 3c 42 c0 83 be e5 23 e0 bd 6a 9f 05 bf
       0.016695691 -0.2573262 -0.10944346 -0.5219637
000150 ea 5c 46 3b cd 41 66 bf b5 85 0a bf 09 90 89 3d
       0.0030267783 -0.89944154 -0.5411027 0.06716926
000160 1c a0 68 bd 76 65 35 bc 27 69 bf be 80 1e ce be
       -0.056793317 -0.011071553 -0.37384912 -0.40257645
000170 8e 2c d2 be 7f 26 f4 3a 0f 04 94 3b a1 56 c7 bf
       -0.41049618 0.0018627195 0.0045170854 -1.5573312
000180 0d c2 62 3d cc 9d 33 bd 45 d3 8b 3d f5 07 06 bc
       0.055360842 -0.04385166 0.06827406 -0.008180608
000190 14 a2 b5 bc 4c fc 44 3d dd 71 b9 3e fe e7 04 3e
       -0.022172011 0.04809217 0.36219683 0.12979123
0001a0 ab 55 2d 3d 53 8f d9 3d e3 8b d7 bc 23 f1 cd 3e
       0.042318027 0.1062304 -0.02631182 0.40223035
0001b0 64 2b 2d bd 30 ee 7f 3d 1d 23 c8 bf 37 54 a5 3f
       -0.04227771 0.062483013 -1.5635716 1.2916325
0001c0 af e4 32 bd f5 83 91 3c fe c1 19 3e 87 5e 00 bf
       -0.04367512 0.017763117 0.15015408 -0.5014424
0001d0 72 ea 77 3d 08 3b 4c bf 6c 95 01 be b0 e3 a3 be
       0.06052632 -0.79777575 -0.12654656 -0.3200965
0001e0 12 e3 b4 bd 2a d6 58 bf e3 24 56 bc b1 fa 10 bf
       -0.08832373 -0.8470179 -0.013070318 -0.56632525
0001f0 31 48 14 be e3 e5 38 b9 de 1f 80 be 3b dd bb 3c
       -0.14480664 -0.00017633247 -0.25024313 0.02293264
000200 94 e2 5d bf 6f fc 91 bf bd cb ab bd cf 66 33 bd
       -0.86673856 -1.1405162 -0.08388469 -0.043799218
000210 c7 fd db bd 5b 3c bd 3e 33 15 05 3d 45 5c 41 3d
       -0.107417636 0.3696011 0.03249092 0.047207136
000220 2c 3c 35 3f 67 83 83 3e 0d b5 3d be 17 f9 c2 3b
       0.7079494 0.2568619 -0.18526097 0.005950104
000230 01 7e 0e be 1e 17 78 3d ac 4f 24 3e d2 0f 21 bc
       -0.13915254 0.06056892 0.16046017 -0.009830432
000240 5c 77 ca bc b5 92 5f 3e 24 98 6b bd 64 5f 05 3f
       -0.024715118 0.21833308 -0.05751814 0.5209868
000250 4e 4f 53 bd e5 f4 38 3d c8 b4 dc bd 8e 70 0a 3f
       -0.051589303 0.045155425 -0.10776669 0.54077995
000260 2f 04 ca be 0f a1 b2 bd d7 fc f4 bc c2 32 72 bf
       -0.39456317 -0.08722126 -0.02990572 -0.946087
000270 d9 15 32 3d cd 6c ff 3c 78 3c ab 3e f5 86 0a be
       0.043477867 0.03117981 0.33444571 -0.13528045
000280 a9 9f 04 3c 43 40 7a 3b 07 a1 af 3d 5a 92 c6 3d
       0.008094707 0.0038185276 0.085756354 0.09695883
000290 3b 7b 2b bd 00 10 cb 3d 0a ae 8f bd ab 87 66 bd
       -0.04186557 0.09915161 -0.07015617 -0.056281727
0002a0 b1 2f 99 3d 76 03 44 3e 3b 7b 86 bd ef 5f 6b bf
       0.074797995 0.19141945 -0.06566473 -0.9194326
0002b0 d5 d4 16 3d 99 88 9d bc a3 d4 da bc a0 1f ff 3b
       0.036824066 -0.019230174 -0.026712721 0.0077857524
0002c0 ec 3f 99 3f 60 f8 35 bd ea 45 93 3e 45 37 7a be
       1.1972632 -0.044426322 0.28764278 -0.24435146
0002d0 4c ae d3 be 0d 1a 96 3d b4 ab 61 3f db 11 c2 ba
       -0.41343915 0.073291875 0.88152623 -0.0014806347
0002e0 36 7e f3 3e 5f bf 9c 3e 58 9a 17 bd 32 3c 1e 3f
       0.4755723 0.30614755 -0.037012428 0.618106
0002f0 32 17 27 bd 51 bc cd 3b 28 51 ed bd 2e 63 fd bd
       -0.040793605 0.0062785526 -0.11587745 -0.12372433
000300 3e dd 54 be 5a 1c 44 3f dc f9 1b bd d4 2e 22 3e
       -0.20787522 0.7660576 -0.03808008 0.15838176
000310 ac 34 a5 3d b9 ad 27 3f bc 45 16 bc d8 08 16 bd
       0.08066687 0.65499455 -0.009171899 -0.036629528
000320 f7 4e 25 3c a7 87 69 3f c8 d1 d7 3e 87 62 9f bd
       0.0100896275 0.91222614 0.42152238 -0.077824645
000330 ce 3a 66 bd 79 4a 43 3e 0b 8d 0c 3f a4 93 ee bb
       -0.056208424 0.19071378 0.54902714 -0.0072807837
000340 7d 17 4c 3c 96 ae 05 be b4 0d 86 3c 75 2e 53 3e
       0.012456772 -0.1305488 0.016363956 0.2062319
000350 f0 2e c0 3c 26 1a 40 bf 28 7b 62 be 83 af 8d 3c
       0.023459882 -0.750399 -0.22117293 0.017295605
000360 a1 75 77 be 5c 6d 81 bd 8a f8 f9 3d f1 e1 70 3d
       -0.24165966 -0.06319687 0.12205608 0.058809225
000370 87 f3 1f 3f 09 8a f1 ba 35 c0 5e bd 9f f5 5e 3f
       0.6248097 -0.0018427979 -0.05438252 0.8709354
000380 91 ad 8e 3c 2f f7 b7 3b 57 94 0c 3d ec 75 9c 3a
       0.017416747 0.0056141834 0.034321155 0.0011936999
000390 f4 e3 9e bd 67 5d 58 3c fa 1f b6 be d7 ca 0d 3d
       -0.07758322 0.013205863 -0.3557127 0.03461727
0003a0 9d 78 27 be d2 6d 95 3c 15 da 93 bd 5f ac ad 3e
       -0.16354604 0.018240843 -0.0721933 0.3392057
0003b0 83 63 2d 3f 15 4d 39 3b e7 b5 8a 3e ad c7 15 3c
       0.6772997 0.0028274704 0.27091905 0.009141845
0003c0 ca 9a d6 bc 3a f2 fa 3b e5 ed 48 be fc af 23 3f
       -0.026196856 0.00765827 -0.19622 0.63940406
0003d0 53 10 93 bd e7 4e 91 3f 08 46 7f bf 9b 37 17 bf
       -0.07180848 1.1352204 -0.99716234 -0.5906922
0003e0 28 15 a2 3d 36 a3 47 3e 43 ac 1f bf 0f 60 95 3f
       0.079141915 0.19495854 -0.62372226 1.166994
0003f0 8f 41 83 3b ac 68 b8 bb 61 17 9e 3f 2b 23 ae 3b
       0.004005618 -0.0056277122 1.2350885 0.005314251

fc4.bias f4 [32]
000000 fb 02 01 3f e2 60 14 40 96 ef 1d 3c db ec 34 be
       0.5039517 2.3184133 0.009639641 -0.17668478
000010 cc 07 1b 40 2b 68 a5 3c 88 92 75 3e 16 27 eb 3f
       2.422351 0.020191273 0.23981678 1.8371303
000020 10 7e a7 3f 8b 31 4c 3f 43 0b 14 3f 79 35 8e be
       1.3085346 0.79763097 0.57829684 -0.2777517
000030 70 db 99 3e 58 cb 2e 3f 97 ac 2c 3f cd ff de bd
       0.3005023 0.6827903 0.6745085 -0.10888634
000040 ec 04 3b 3e 8d 41 85 3f 7b c2 02 bf 2a 65 89 3d
       0.18263596 1.041063 -0.51078004 0.06708749
000050 80 85 1f bf 8d db 94 3f 00 3c 2b 40 75 5b 01 be
       -0.6231308 1.1629502 2.675537 -0.12632544
000060 43 90 0b 40 39 c0 e4 3e 3d b8 4e be ee b0 f4 3f
       2.18068 0.44677904 -0.20187469 1.9116495
000070 16 24 81 3e 9a 4b d9 3f 44 b9 74 3e bd 70 83 3f
       0.25222844 1.6976197 0.23898798 1.026878

fc5.weight f4 [4, 32]
000000 a4 7d 1b 3f 0d bd a4 3e 74 f2 9e 3e 5a 8a 6a be
       0.6073859 0.32175484 0.31044352 -0.2290434
000010 83 4c 41 3f 83 32 9f 3e da c0 75 bd 7a 6a fe 3c
       0.7550737 0.31093225 -0.05999837 0.031056631
000020 54 68 0d be 7e e5 f4 bd db f7 5e 3e 88 fb 04 bf
       -0.1380933 -0.11957835 0.21774237 -0.51946306
000030 a7 d7 e8 3d 11 c7 06 be 4d 16 b4 3e 38 2e ba 3d
       0.113692574 -0.13161875 0.35173264 0.09090847
000040 df d9 a7 be bc 4d ad 3e 9c d5 27 3e ea 7f 17 3f
       -0.3278341 0.3384837 0.1639008 0.59179556
000050 e8 40 f0 3d bd 16 c3 3e ab 1d 07 3f da bb ce bc
       0.1173113 0.38103285 0.52779645 -0.025236059
000060 c5 cc 00 3f 3e e1 16 3f 73 7b 1d 3e be e1 f7 3d
       0.50312454 0.5893744 0.15379123 0.12103604
000070 0c c5 14 be 34 6c 03 3f 83 28 42 3e 5b 85 15 be
       -0.14528292 0.5133698 0.18960766 -0.14601652
000080 5e 00 e7 3e c3 dd b6 3d 12 a7 d9 be a9 33 db bd
       0.45117468 0.089290164 -0.42510277 -0.10703213
000090 4a c0 03 3f 5d 27 22 be 94 96 02 3e 50 ed 0d bc
       0.51465285 -0.15835328 0.12752753 -0.008662537
0000a0 a1 2d c2 3e f1 67 29 3d c7 a1 84 3e f4 77 e4 be
       0.37925437 0.041358892 0.25904676 -0.44622767
0000b0 f9 d7 3e bf 3a 96 1e 3e f3 3f f9 3d 09 02 f6 bd
       -0.745483 0.15486994 0.121704005 -0.12012107
0000c0 19 8e e3 3c f5 1a 42 bf 2b d7 21 3f b4 71 a7 3e
       0.027777718 -0.75822383 0.63218945 0.32703936
0000d0 f9 dd 9f bb ba fc 29 3e 6c 08 07 3f 17 f6 7d 3d
       -0.004878756 0.16600314 0.52747226 0.062002268
0000e0 df dd 9b 3e d7 e3 59 3e 0f 69 d2 3d 54 f4 26 3f
       0.30442712 0.2127832 0.102739446 0.65216565
0000f0 bd af 2b be 0a ea 7f 3e 2f d2 1f 3f 11 db 11 3f
       -0.16766258 0.24991623 0.6243009 0.56974894
000100 4d 0e b4 be 45 43 19 3e 33 df ab be 8e c2 21 bd
       -0.3516716 0.14967068 -0.33568725 -0.039492182
000110 48 0b 4e 3f 80 6a 6d 3f 38 e7 f1 bc 22 88 2a be
       0.80485964 0.9274063 -0.029529199 -0.16653493
000120 88 71 c5 3e ba d3 e9 3e 9f e7 48 be 6f a0 15 bd
       0.3856318 0.45669347 -0.19619606 -0.036529955
000130 cb 12 94 be c9 3c 90 3e ea ed 19 3e 41 0c ab 3c
       -0.28920588 0.28171375 0.15032163 0.020879867
000140 d3 10 8c be 1a 80 97 3e ec fa aa bf 16 c2 47 3f
       -0.27356586 0.2958992 -1.3357825 0.78030527
000150 d5 e8 a6 3e c4 67 0d 3f 13 95 e0 3e ec 90 48 3c
       0.32599512 0.5523646 0.43863735 0.012241583
000160 5c e2 ac 3e eb c0 c8 3e 68 e6 89 3d a8 d4 ab 3e
       0.33766448 0.39209685 0.067334 0.3356068
000170 63 72 01 3f cb e7 21 3e be 1e a6 3e 60 44 44 3f
       0.50565165 0.15811078 0.3244533 0.7666683
000180 da de 26 3f 7b 90 e2 3e 74 55 a7 be ee a2 02 3f
       0.65183794 0.44250855 -0.32682383 0.5102986
000190 da e9 e3 3e 9e 88 f6 3b 51 26 a3 be 8f 92 94 3e
       0.44514352 0.0075236103 -0.3186517 0.29018065
0001a0 a5 8d 11 be ec af 5d 3f b5 66 97 3e 45 07 56 be
       -0.1421419 0.8659656 0.29570547 -0.2090121
0001b0 e6 99 a8 be df af 33 be 00 cf ad 3e fc 85 20 3e
       -0.32929915 -0.17547558 0.3394699 0.15676111
0001c0 64 6c 36 3f 8e c1 dd 3e 7e e7 16 3f ed 65 0e 3f
       0.7125914 0.43311733 0.5894698 0.55624276
0001d0 c4 b0 99 be 3e 85 6c 3e 23 f2 32 3f d0 6f ab 3d
       -0.30017674 0.23097703 0.6990072 0.08370936
0001e0 81 bd 1a bf ff db 81 3e a6 df d4 bc 10 96 a2 3e
       -0.6044541 0.25363156 -0.02598555 0.31755114
0001f0 3e 4e 10 3f 19 61 39 3e 4d 19 75 3e 09 dd 32 3f
       0.5636939 0.18103446 0.23935433 0.6986852

fc5.bias f4 [4]
000000 ef 71 14 3f d1 0c 85 3f f2 9d df 3f f8 76 9e 3f
       0.5798635 1.0394536 1.7470076 1.2380056
