DQN_models/model_updaterate500_gamma0.7_alpha0.0001_dynamic.pt (torch, 416691 bytes, 10 tensors)

fc1.weight f4 [128, 514]
00000000: 2a9c 303d ee18 6fbc 88a9 de3c a857 db3c
00000010: 304a 283d aecf 12bd bb24 acbc de1c 12bd
00000020: 04fb 6d3c 40d4 fd3a 5ceb d33c 0233 0ebd
00000030: 46b5 09bd 30d9 05bb d8ad 703c 6985 c4bc
00000040: 5e11 013d 5484 053c fca4 a43c 0066 0f3d
00000050: f63e 943c 00f3 7eba 746f c7bc 2538 9ebc
00000060: 8368 b23c 0922 19bc 3e54 473c a698 d33b
00000070: b0ad f03c 5a38 d5bc d265 1ebd 0817 2dbd
00000080: 5fa6 02bd e34e 3cbd 1087 2ebc 4ef9 49bd
00000090: e0fb 1abe 5b9f 96bd ca21 02be 0c75 65bc
000000a0: 9c90 663d 82b0 ad3b 52de 1d3d 5c58 14bc
000000b0: 1a80 263d 24cc da3c cdc7 30bd 0a18 03bc
000000c0: 8d32 853d 062e ba3c 2076 543d ff0d abbc
000000d0: 1bb6 253d d01d 35bd 93b1 1d3d bbf3 f53c
000000e0: 0d88 0cbd 1738 1dbe 0f57 1abe 2a96 c93b
000000f0: 829c eebd 148d 8dbd f270 cd3a c0e3 823c
00000100: 70cd b03c 789a 2e3d c002 8fbb 448f fcbc
00000110: 54cc 973d 769e c3bd 17b9 a23d a87a c23c
00000120: 96d7 82bc f197 49bd d470 31bd ae60 de3c
00000130: 906d d4bb 2ca9 ff3c 3ba5 faba 2f83 e7ba
00000140: e91f babc 9077 d23c 48c8 003c ef80 7cbd
00000150: fdef c6bb 0cdb 613d c823 1d3d 9869 f03c
00000160: e0c7 4dbc 3087 e8bb e7ce 4f3d e376 6b3d
00000170: 1edf 5f3e 5cbe c9bc 684b e03c 13e7 aebc
00000180: 0766 0abd 6552 f43c 6096 1b3c 4c94 0cbd
00000190: 2b5a 0dbc 3153 5c3c a5d0 073d 62ed 0ebd
000001a0: b180 cebc c9e0 78bd 9a78 02bd 9da6 a1bd
000001b0: 7d83 f0bc 0008 623b 7886 393c 653d 1dbd
000001c0: c753 043b 4430 8a3c eccc 183e f86d b63c
000001d0: 34d8 d13c 31ce 52bd fbb7 21bb dde7 2fbd
000001e0: da92 043d dc1a bc3c 0285 a4bb a575 9abc
000001f0: 44f7 09be 743f 8a3c 608d cc3b 4af4 26bc
00000200: 018a 6fbb 3603 503d da52 b7bc 4905 d4bc
00000210: 78ee 7ebc 1875 9fbc b3e0 0d3d 9b7c 3d3d
00000220: 4241 193e c05f b63a eb18 08bd d371 243d
00000230: 18dd a5bc 53b9 d1bd 9c38 e03c 76cf 323d
00000240: cec8 73bd 08f6 87ba 6790 843c 90e5 c73b
00000250: 98a4 a53c 0607 fbbc 124e a3bc c6f1 f6bc
00000260: ccd6 1bbd 78dd 083c 5801 0ebc f8dd e1bc
00000270: 7b9b 443d e688 38bc 3bae bcbd 1539 18bd
00000280: a8ef 17bc 10d0 91bd 9ff2 bebd fe61 ea3b
00000290: 5fc4 1ebd d067 34bd 2512 323c b054 6cbd
000002a0: 60fe 593d bcb3 f43c 5267 c2bc a4e0 55bc
000002b0: 586b debd 2e20 06bd a487 033c 96b0 0b3d
000002c0: 3883 863c 7073 fd3b 84ad c4bd 8d4f 08bd
000002d0: 6722 f6bc d61a 2bbd d5ee 04bd 7a3a 2cbd
000002e0: ea07 e8bd 026e 24bc ecf1 2d3d 904c 4b3b
000002f0: 6532 b0bd d68f 73bd c355 e23c 1483 14bd
00000300: bc00 563c 6c29 4ebc 8dd1 e2bd a333 683d
00000310: 645b 043c 8cf7 2abc 1ae7 71bc ee77 d2bc
00000320: c70d c1bd 82c7 3d3d d888 3a3d f486 303d
00000330: b825 10bd 7b3e c2bd dee1 b7bd d152 05bd
00000340: 786a 0a3d 7c15 9d3c 1672 68bd ed2d f8bd
00000350: 762d ad3d b2bb d7bc c62c 0cbd f4c2 c3bd
00000360: 457b c5bc 8787 f6bc 186e f13c 3c65 c33c
00000370: e8f0 ebbc 951c e9bc d778 bebd 6a34 67bd
00000380: c7ba 403d 4daa 9cbc 80ce 85ba 814d df3b
00000390: 9040 3e3c 15f7 333d 20d3 143c 4874 9b3b
000003a0: eb06 01bd 49df e9bd ab3d 013d a8d0 aebb
000003b0: e67f 55bc 5a9b 553c d9bc 63bd 4315 94bc
000003c0: 24d8 073d d9c1 29bd bba8 8ebc 4445 fabc
000003d0: 25fc c4bd 6424 c5bd 5611 45bd 804f e13a
000003e0: 245e cc3c 1cf9 8cbc 282c c1bd 02a6 e53d
000003f0: 10fe 44bc f816 873b 5899 69bd 2b56 dcbc
0.04311768 -0.014593346 0.027180448 0.026775196 0.041086376 -0.03584259 -0.021013608 -0.03567206
0.014525179 0.0019365624 0.025869064 -0.034716614 -0.03362014 -0.0020423643 0.014689885 -0.023989396
0.031510703 0.008149225 0.020098202 0.035009384 0.018096428 -0.0009725541 -0.024345137 -0.019313881
0.02177835 -0.0093464935 0.012166081 0.006457406 0.029379696 -0.026027847 -0.038671322 -0.042258292
-0.031896945 -0.04597367 -0.010652319 -0.04931002 -0.15135145 -0.073546134 -0.12708202 -0.014004957
0.056290254 0.0053005824 0.0385421 -0.00905427 0.04064951 0.02670867 -0.043159295 -0.008001337
0.065037824 0.022727024 0.051870465 -0.020880697 0.040456872 -0.044217885 0.038499426 0.030023446
-0.034309436 -0.15353428 -0.15072273 0.006151934 -0.11650945 -0.06911674 0.0015673919 0.01597774
0.021582335 0.04262778 -0.0043643415 -0.030830033 0.07412019 -0.095517084 0.07945459 0.023740128
-0.01597194 -0.04921717 -0.043320492 0.02714571 -0.0064827874 0.031208597 -0.0019122729 -0.0017662997
-0.022720294 0.025691777 0.007860251 -0.0616464 -0.0060710893 0.05514054 0.0383642 0.029347226
-0.012559861 -0.0070961937 0.050734427 0.057486426 0.21862456 -0.024626903 0.027379707 -0.02135042
-0.033788707 0.029824445 0.009496301 -0.034321114 -0.008627455 0.013447569 0.033157963 -0.034894355
-0.02520785 -0.060761247 -0.031853296 -0.07893107 -0.029359573 0.0034489632 0.011323564 -0.03838863
0.0020191537 0.016868718 0.14921921 0.022269234 0.025615789 -0.05146617 -0.0024676311 -0.04294573
0.03236661 0.022962026 -0.0050207386 -0.018854925 -0.1347323 0.01687596 0.006242439 -0.010190079
-0.0036550763 0.050784312 -0.022378374 -0.025881426 -0.015559785 -0.019465014 0.034638118 0.04626141
0.149663 0.0013914034 -0.03322689 0.040147614 -0.020247027 -0.10240426 0.027370743 0.04365488
-0.059517674 -0.0010373006 0.016182138 0.006100364 0.020220086 -0.030642997 -0.019934688 -0.030144583
-0.038046643 0.0083535835 -0.008667313 -0.027571663 0.04799984 -0.011263108 -0.09212919 -0.037163813
-0.009273447 -0.07119763 -0.0932362 0.007152795 -0.038761493 -0.044044316 0.010868584 -0.05769795
0.053221107 0.02987086 -0.023730908 -0.013054047 -0.10860318 -0.032745533 0.008027945 0.034103952
0.016419992 0.0077347085 -0.09603408 -0.03327899 -0.030045701 -0.04177364 -0.03245433 -0.042047955
-0.113296345 -0.0100359935 0.042467043 0.0031020977 -0.08603362 -0.059463345 0.027628785 -0.03625782
0.0130616985 -0.012583118 -0.11075125 0.05668987 0.00807843 -0.010434996 -0.014764572 -0.025691953
-0.09426456 0.046332844 0.04554066 0.04309745 -0.03519222 -0.094845735 -0.089786276 -0.032549683
0.033792943 0.019175284 -0.056749426 -0.12118135 0.084559366 -0.026334617 -0.034222387 -0.09558669
-0.024106631 -0.030093921 0.029471442 0.023851983 -0.028801396 -0.028456012 -0.09300392 -0.05644647
0.047053125 -0.019124174 -0.0010208637 0.006814659 0.011612073 0.043936808 0.009083539 0.0047440864
-0.031500738 -0.114195414 0.03155295 -0.0053349324 -0.013030982 0.013037527 -0.05560002 -0.018076545
0.033165112 -0.041444633 -0.017414441 -0.030550607 -0.09618405 -0.096260816 -0.048112236 0.001718983
0.024947233 -0.017208628 -0.0943225 0.11213304 -0.012023464 0.004122611 -0.057031006 -0.026896557

fc1.bias f4 [128]
00000000: fe0a bd3d b0b4 8c3d d9af 593d c9a7 d43d
00000010: 91a9 803d 6e27 b43d b25f c63c 1289 f73d
00000020: 5123 ee3c 7325 85bd 9444 af3d 8138 783d
00000030: 46c2 8dbd 6e48 4ebd 835b 843d 5b37 5bbc
00000040: c0a7 3d3c 0865 683d 3342 c5bd ab7d 213d
00000050: 7a5a 53bd 7a4b b43c 156b 553d a672 b83d
00000060: e77e c9ba 5a98 4abd 0db3 223c 344c 8f3c
00000070: e3c7 123e 533e 9b3c 5bab 7fbc 9520 9a3c
00000080: 4993 2a3d 2d16 933d 924e 873c d676 abbc
00000090: 7b2e 063e c966 24bd 273c c63d e8f7 c43a
000000a0: 5423 033d eb17 37bd 7efd b23b 0546 a23d
000000b0: 4d16 ee3d 3ca0 ee3c ecda 5e3d 76ef fb3c
000000c0: 6372 81bc 5890 953d 0ae0 e0bc 58f1 653d
000000d0: bb1f a23d 2d87 68bd ef67 e83d af3a 903d
000000e0: c337 c6bc 9a1d e43d 56c7 853a d6ce 9a3d
000000f0: af7e 833c 114b 913d f1c7 a13d 55c5 153d
00000100: 2213 323d 1554 bb3d 7464 c93d d4d1 833d
00000110: 9632 17bd c00f 2abd c28c 573c 2a02 2c3b
00000120: fe8d c13b 6997 2c3b 55a9 093e 0981 11bd
00000130: d821 163d 41ac f03d a01a 87bc dc56 253d
00000140: 0c76 043d 5923 ab3d 4d61 10be 4198 a93c
00000150: 13a1 7cbd 16ce 483d fd0e 5a3d 4073 073e
00000160: 8ead 90bd 2887 f53d 8165 d0ba 9e24 0d3c
00000170: 4707 00be c9f5 d03d 12ca e73b 4524 b63d
00000180: 5885 b5bd b9b9 c23d ae91 4fbb c3f4 ae3b
00000190: 4c7f f6bb d6c2 8a3d da7e dd3d c1d3 b8bc
000001a0: 6a43 bc3d acf8 433d 6b80 e43c 47a8 85bc
000001b0: d359 383d 2e28 c0bc a80f fb3c 3cf3 00be
000001c0: bea1 313d 417d 343d dd74 f33c 5b89 2c3d
000001d0: 2f6c 033d f721 d33d 8af6 abbd 2c16 dd3d
000001e0: b3f7 a63c 5b16 953d 1bad 773d d729 973d
000001f0: 6a55 313d 9902 473b f920 0a3e a17f d0bb
0.09230612 0.06870401 0.053146217 0.10383565 0.06282342 0.08796583 0.024215553 0.12086691
0.029069575 -0.065012835 0.08558002 0.06060076 -0.0692182 -0.050362043 0.06462767 -0.013379897
0.011575639 0.056736976 -0.09631767 0.039426487 -0.051599957 0.022008646 0.052104075 0.090062425
-0.0015372903 -0.0494617 0.009930384 0.017492391 0.14334063 0.018950617 -0.015604819 0.018814364
0.04164437 0.07181964 0.016516957 -0.020930689 0.13103668 -0.040137086 0.09679442 0.0015027495
0.032016113 -0.044700544 0.0054623475 0.079235114 0.11625347 0.02912914 0.054408 0.030753832
-0.015801614 0.07302922 -0.02745058 0.056138366 0.07916208 -0.05676954 0.11347949 0.07042443
-0.024196511 0.111384585 0.0010206501 0.07558982 0.016051618 0.07094396 0.07899464 0.036565144
0.043475278 0.09146897 0.09833613 0.06436506 -0.036913477 -0.041518927 0.013156118 0.0026246407
0.0059068194 0.0026335365 0.13443501 -0.03552345 0.03665337 0.11751605 -0.016492188 0.04036604
0.03233914 0.083563514 -0.14099617 0.020702483 -0.06167705 0.049024664 0.05323695 0.13227558
-0.07064353 0.1198867 -0.0015899391 0.008614687 -0.12502776 0.1020313 0.007073649 0.088936366
-0.08863324 0.0950808 -0.0031672525 0.0053392365 -0.007522499 0.06775443 0.10815211 -0.02256191
0.09192546 0.047844574 0.027893266 -0.016315592 0.045007538 -0.02345666 0.030647114 -0.12592787
0.04336714 0.044064764 0.02971881 0.04212318 0.032085594 0.10309213 -0.08396633 0.107952446
0.020381784 0.072796546 0.06046782 0.07381027 0.043294348 0.0030366539 0.1348914 -0.006362871

fc2.weight f4 [128, 128]
00000000: c965 8dbe e987 4d3d 70ba ec3d ab43 823e
00000010: 8db7 9ebd e252 3c3e 3ce8 ea3b db79 843e
00000020: 51e4 853e a03a 293e 22e0 8dbe acd2 533d
00000030: cca7 b6bd 8102 003c 0c08 88bc 61c7 febc
00000040: 06ca 933e d8ac 603d da8c 833e 23f3 eebe
00000050: 0fce 10be b993 00be 7e26 e3bd a4f7 51be
00000060: fc37 c43d b51f ae3e 1835 4c3e ea80 cf3c
00000070: 3f0b 723d 7461 65bc db33 093e 2f15 26be
00000080: f920 033b d3d0 3f3c ae6c 15be 2c36 cabb
00000090: e405 753d a5e0 f13d 89da 81bd 32f2 973d
000000a0: b24e 643e c435 4d3d 8414 b5bd 4d7f a63d
000000b0: 99cc 923e 58b9 5f3e 2004 743e b419 bc3c
000000c0: e186 053e a70a ddbd 18b7 2ebe 0e23 5b3e
000000d0: b3af d93d 6054 5b3d 2030 9b3e 1b6c fd3d
000000e0: 8d83 9b3d 92bb 47bc 23ea bcbc 2ea3 37bd
000000f0: a198 c63d b1da 4b3d b81b d33d 3baa 273d
00000100: 2e20 49be 0d8f 4bbd ffec 7c3e 7d5b 8fbd
00000110: 5bc7 63bd 81b3 923d 6fba d0bd 08ec 07be
00000120: dc97 09bd dfb9 ee3b 25c1 333d d7ef 943d
00000130: 2c37 83be 7db7 ac3e 27af 733d 01cd bd3d
00000140: 2e19 133e 8510 483e ee20 323e cae5 8d3d
00000150: 6208 1cbc 177b f13c 96db 793e 4ae4 863e
00000160: f0d2 ebbc c64f 123e 2f4e 72be aa6f 85bc
00000170: 0a64 883e 1fdc 9f3b e85b 493e 7084 0c3d
00000180: 5027 833d a42c 0a3e ad6e 523e d77d 003e
00000190: 96a9 0ebe 3a90 d03c bc9d c43e 9a56 adbd
000001a0: 7df4 50bd ca6b c53d b865 903d 7d2b af3d
000001b0: cb76 cbbc 0e3d be3d 3841 4a3d 38db 38bd
000001c0: 3e3b bc3d 090e 5dbd 7743 49be baa8 35bd
000001d0: 0676 68bc 675f 5abd e00e c73c 3b7b 02bc
000001e0: 1eaf 273e f91d 7e3d 5024 a93d 1b3b 4bbd
000001f0: 605e dabe c8b6 083e 4c83 d9bd ba52 323e
00000200: 8f10 50be 9ed3 d13a 0923 823d 8bf7 f73d
00000210: 80c7 5fbc afa7 973e 4255 9a3d f5bd 073e
00000220: 5717 4f3e 6b15 453e 84eb 06be d71f 4dbd
00000230: b762 bd3d e9d8 383e 2562 83bd eed3 65bd
00000240: bc7c 143e 073d 1bbe f94d 2d3e 1d97 adbe
00000250: dfd1 0d3e 97e5 55bd 0d12 c33b 8f27 29be
00000260: a117 cd3c 76c7 893e 0ea2 cf3d 91a8 c8bd
00000270: e886 d53c a791 363e 4364 863c 9dd3 dbbd
00000280: 5fb4 81bd 1722 7d3d 95b1 32be 3877 273e
00000290: 002a 1a3e 3769 c93d 0bef c03c 13f9 82bd
000002a0: e952 183c dfe4 54bd 30c1 0e3e 6e13 043d
000002b0: 2a2d 963d 2f68 973d 6bbb 393e 5d9d 853d
000002c0: bbb5 1d3e 6e06 ad3d cddc aebd 6fe3 923d
000002d0: a387 293e c251 423e 24cc 023e 4dab cf3c
000002e0: 06ae 073d 507a 14be 74ab ae3d ff35 8cbd
000002f0: da38 853e 3978 a5bc 0e29 4a3d 5cfa f83d
00000300: 9230 113d fe90 13bd 598a 633e 44df d63c
00000310: 8e37 353d 5a87 303e bb68 d0bd ff54 03be
00000320: d267 80bd 7980 b6bd 7848 0cbe 2d6e 5a3d
00000330: f1a3 acbe 8654 ab3e bb24 d7bc 984c d53d
00000340: 3b84 46bd 485f fb3d 6983 803e e535 cd3c
00000350: ae44 9e3d de73 473d 9a6b 883e 3c58 8a3e
00000360: 46f4 b5bd f8f1 923d 3320 2bbe ddcf dcbd
00000370: 3f21 2f3e 8c33 963c c20b be3d c1c6 b53d
00000380: d63c ad3c c57e f93d dc93 af3c ce67 213e
00000390: 2802 e6bd 89a9 af3c f72b 803e 1279 5abc
000003a0: 4b18 57be e586 1e3e fca5 d1bb a7be 663d
000003b0: d6e7 9cbd 6140 cf3d 3fe2 213e 39ea 943a
000003c0: 4b06 1a3d 07e2 083d c68e d5bd 973c a13d
000003d0: f21f 91bc 49cd c53d be2c 3a3d e30c efbc
000003e0: bb7f 253e 13f9 143c 6ea5 45bd 9729 b9bd
000003f0: 665f e7be 7a12 a93c 5e38 8abb 62bf 823e
-0.27616718 0.050178442 0.11558998 0.25442252 -0.07749853 0.18390992 0.007168798 0.25874218
0.26150754 0.1652627 -0.27710062 0.051714584 -0.089187235 0.007813097 -0.0166054 -0.03110093
0.2886507 0.054852337 0.256934 -0.46669874 -0.14141105 -0.12556352 -0.11091326 -0.20504624
0.09580991 0.34008566 0.19942129 0.025330026 0.059092756 -0.014000285 0.13398688 -0.16219018
0.0020008667 0.011707502 -0.1459224 -0.0061710086 0.05982007 0.11810426 -0.063405104 0.07419242
0.22295645 0.050100103 -0.08841804 0.081297494 0.2867172 0.21848047 0.23829699 0.022961475
0.13039733 -0.107930474 -0.17062032 0.21400091 0.10629215 0.053547263 0.30310154 0.12374135
0.07593451 -0.012190716 -0.023060864 -0.044833355 0.096970804 0.049769107 0.10308021 0.04093383
-0.19641182 -0.04969697 0.24699782 -0.06999872 -0.055610042 0.07163144 -0.101918094 -0.13273633
-0.03359209 0.007285341 0.04388537 0.07272308 -0.2562803 0.3373374 0.05949321 0.09267617
0.14365074 0.19537552 0.17395374 0.069285944 -0.009523483 0.02947764 0.24400172 0.26346046
-0.028787106 0.14288244 -0.23662637 -0.016288597 0.26638824 0.0048785354 0.19663966 0.03430599
0.06403983 0.13493592 0.20550032 0.12548004 -0.1393188 0.025459398 0.38401592 -0.084637836
-0.051014412 0.096397 0.07050651 0.085532166 -0.024836918 0.09288989 0.049378604 -0.04513094
0.09190987 -0.053968463 -0.19654642 -0.044350363 -0.014188295 -0.05331364 0.024299085 -0.007963951
0.16375396 0.062040303 0.08258879 -0.049616914 -0.42650127 0.13350976 -0.10620746 0.1741437
-0.20318817 0.0016008501 0.06354339 0.12107762 -0.013658404 0.2962012 0.07535793 0.13256057
0.20223747 0.19246452 -0.1317578 -0.050079193 0.09247344 0.18051495 -0.06415204 -0.056110315
0.14500707 -0.15159999 0.16924275 -0.33904353 0.1384959 -0.052220907 0.0059530796 -0.16518997
0.025035681 0.2690999 0.10138331 -0.097977765 0.026065305 0.17829 0.01640523 -0.107337214
-0.06333231 0.06180009 -0.17450555 0.16354072 0.15055084 0.09834521 0.023551485 -0.063951634
0.009297111 -0.05197608 0.13940883 0.032245092 0.07332833 0.07392918 0.181379 0.06524155
0.15401356 0.08448492 -0.08538208 0.07172286 0.16555648 0.189765 0.12773186 0.025350237
0.033124946 -0.14499784 0.08528796 -0.068462364 0.26019937 -0.020198928 0.04935556 0.12157127
0.03544671 -0.036026947 0.22220744 0.026229508 0.044242434 0.17239133 -0.10176226 -0.12825392
-0.06269802 -0.08911223 -0.1369952 0.053327728 -0.33718827 0.33462924 -0.026262632 0.10415
-0.04846595 0.12274033 0.25100258 0.025050113 0.07727943 0.048694484 0.26644593 0.27020442
-0.08884482 0.07175058 -0.16711502 -0.10781834 0.17102526 0.018335126 0.092795864 0.088758
0.021147173 0.121823825 0.02143281 0.15762255 -0.1123088 0.021443145 0.25033543 -0.0133345295
-0.21005361 0.15481146 -0.0063979607 0.056334164 -0.07661407 0.10119701 0.15808962 0.0011361308
0.037603658 0.03341868 -0.104276225 0.07872885 -0.017715428 0.09658296 0.045452826 -0.02918095
0.16162007 0.009092587 -0.04825347 -0.09041136 -0.4518997 0.020638693 -0.0042181453 0.25536638

fc2.bias f4 [128]
00000000: c0e8 c63b d42b 703c 0f99 d83c 13d2 b2bd
00000010: 54ae 5c3d 9b25 053e 79e6 7c3c 84a8 21be
00000020: 21ec b5bd ca54 ddbd c0b5 eb3c 75e9 3fbc
00000030: 7d77 96bd be38 04bc 83b9 8a3c 6e4f 033e
00000040: 6cef 26bd f964 a7bd b0c5 0dbd beb6 143e
00000050: 5a11 8cbd aee6 36bd 52c3 4e3e 0ad4 7fbd
00000060: 807e 10be aaf0 62bd df71 aebc 3613 e8bd
00000070: dd87 e23d a09c b3bd bbf3 b43c a0bf babc
00000080: 610c ff3d 06c0 03bd 6fc4 363e 4aab 77bb
00000090: 49c0 af3c a67d 293e 5238 b03d af40 b8bd
000000a0: bd55 19bd 5816 71bd 13d8 60bd 73bf abbd
000000b0: 9318 1abe 5374 9c3d d35e a6bc ad0c 443e
000000c0: 00ef 243e 17bd 8b3d 8fa4 eb3d 2a28 213d
000000d0: b43c 193e baea 87bd 7b4f c33d 62ac 9abd
000000e0: 2b22 b1bd 8312 8cbd 8d49 363d 4aaf b93c
000000f0: 634a 5ebc 7563 1abd c545 50bd 0619 7dbd
00000100: 4b1c 44bd 719f a13d 7096 04bd e249 87bd
00000110: e97b f5b9 666d 513e fef1 f7bd 5d26 0fbe
00000120: d55d f3bc 50ea fcbc 8075 4cbd 70e5 af3d
00000130: 474a 503d a52a 7b3d af9f d0bd a2f1 5bbd
00000140: 14e3 4e3e 077d b4bd d9c1 31bd 6474 98bd
00000150: d297 4e3e 1b8d 4e3d 9cab 4fbe 8f5c 833d
00000160: 96c4 f63d 765a 41bd ccfd 81be 2af9 edbd
00000170: 1537 41bd 1df2 91bd 625d b9bd f27c 01bc
00000180: 5fad 25bd 1b11 69bd deda 863d 255a b03d
00000190: 90b9 c3bd b1b3 293e 524d c8bd 9aed 53bd
000001a0: 4d3a 8f3c 9222 86bd 5c0f 92bc 076a c1bc
000001b0: e3e9 e8bd e77b 7dbd cad0 19be f17d 653d
000001c0: 743f bd3d a97f c3bd 0ca5 1bbe b9f8 163c
000001d0: 5045 a3bd d80a 64bd 342a ccbd aab9 103e
000001e0: 6841 213e 697a 09be 6c85 433c 6f9b 60bd
000001f0: 7ba9 a03d bb01 19bd f835 06be cd3c 5dbd
0.0060702264 0.014658887 0.026440172 -0.08731475 0.05387719 0.13002627 0.015435808 -0.1578694
-0.08882929 -0.10807188 0.028773189 -0.011713375 -0.07347009 -0.008070169 0.016934162 0.12823269
-0.040755674 -0.08173556 -0.034612358 0.14522836 -0.06839247 -0.044653587 0.20191696 -0.062458076
-0.14110756 -0.055405296 -0.021294532 -0.11331789 0.1106107 -0.08770108 0.022088876 -0.022796452
0.12453533 -0.03216555 0.17848371 -0.0037791305 0.021453993 0.16551837 0.08604492 -0.089967124
-0.037435282 -0.0588592 -0.054893564 -0.083861254 -0.15048437 0.076393746 -0.020308888 0.1914546
0.16106796 0.068231754 0.115059964 0.039344944 0.14964563 -0.066365674 0.09536644 -0.07552411
-0.08649095 -0.06839468 0.044503737 0.022666592 -0.01356754 -0.037692506 -0.050847787 -0.061791442
-0.047878545 0.07891739 -0.03237003 -0.06605889 -0.00046822362 0.20451888 -0.12106703 -0.13979478
-0.029707829 -0.030873448 -0.049916744 0.085886836 0.050852086 0.061319966 -0.10186707 -0.053697236
0.20203811 -0.088129096 -0.04339776 -0.07444075 0.20175102 0.050427537 -0.20280308 0.064141385
0.120492145 -0.04720541 -0.25388944 -0.1161979 -0.04717167 -0.071262576 -0.090510145 -0.007903324
-0.040448543 -0.05690108 0.06584714 0.08610944 -0.095568776 0.16572453 -0.09780373 -0.051740266
0.017483855 -0.065495625 -0.01782959 -0.023610128 -0.11372735 -0.06188574 -0.15021053 0.05602831
0.09240618 -0.095458336 -0.15199679 0.009214574 -0.07972205 -0.055674404 -0.09968987 0.14133325
0.15747607 -0.13425602 0.011933666 -0.054835733 0.07844826 -0.037355166 -0.13106525 -0.054013062

fc3.weight f4 [128, 128]
00000000: 0ad4 0a3d b7ea a23d ba9b 2b3e a42f 233e
00000010: 78ec 8d3c 2e34 8abd 03e2 e73c e175 c13d
00000020: 878b d13d 901c 6a3e 1010 223e 30af a3bc
00000030: 8eeb 873d e292 59bd bd47 aabd fbbe 18be
00000040: cb97 fabc ca41 cdbc fbd2 563d 227c 483e
00000050: 7aa7 04bd 35d0 c5bb deb5 87bd eb2e a7bd
00000060: e410 783c 3c0c 083e b57e a73c 4f2e 033d
00000070: 00b1 8ebd 0a96 953d b2a3 f9bd 7c39 883e
00000080: 8eda bcbe ad80 b73c 7497 033d 7a39 253e
00000090: 8b25 513d 1624 97be ec34 6c3d 7e75 a2bd
000000a0: 755a 063d 6970 483e 363a 5fbd 3d6a fe3c
000000b0: 4ae9 b83d da7a c53c 3766 703d 0126 5abd
000000c0: 1b8c 743e 43bd 393e 3e55 473d 6343 893d
000000d0: 10a2 9ebd 4e94 4d3e e2af 2a3e a458 7dbe
000000e0: 719f 973d 5509 873d a433 5e3e b3fd 663d
000000f0: cd00 573e 8b9e 4a3e b738 663e 7db9 1ebe
00000100: 1a96 80bd 639d c53e d420 3dbd f376 35bd
00000110: 7f1f 123e 2f10 bcbe 0d1c ed3d df37 503e
00000120: b1ce a93c b381 ba3e ee1e 723d 6bc6 3fbe
00000130: 43ca de3e 7501 333e 48d8 673d 7406 0cbd
00000140: cfff f4bd 8fc9 1e3e 4011 0c3e 04e4 633e
00000150: f2e0 28bd e499 003d b5a6 473d f98d 59be
00000160: 3895 5a3d 72e9 67bd 7baa da3d e008 ea3d
00000170: b1e9 953d a96f a8bd 9c75 2cbc 2b9c 4fbb
00000180: 12b0 f93c f7b8 26be 6d33 763e 998f a93e
00000190: 1ad9 2c3e 9c66 e63e 7175 00be d04b 0bbd
000001a0: 037b 81bc aedd 283e 05e2 2fbd 750c 443d
000001b0: 9bdd 073e 3bd4 b6be afd5 2d3e e7fb 8a3e
000001c0: 582c 0cbe c6eb 573e f837 6c3e d644 9fbc
000001d0: 9ea1 2dbd 7b2a c3bd baa2 12c0 b679 ef3d
000001e0: 333f d13d 1c4b ebbd fdc2 ecbc 1c0c 233e
000001f0: 2f99 413d b164 74bd 40dd 93bd 6730 4a3e
00000200: 4c8d abbc 65be 013e 8c9c b03e d7fb 14bd
00000210: 00be 54bd 2f04 2abe 2cc0 483c d872 c23e
00000220: ad24 2b3e 6341 40be ff9c b3ba 1223 b63d
00000230: c69b 143d bd4d e7bc a351 22be 673e a3be
00000240: a2b3 083e 158d 053e 370a dfbb 68cf 96be
00000250: d09f 6b3d ec20 9ebd ee12 5abe 9763 d3bc
00000260: 4858 a93d 0b73 9a3d b008 303e 0630 633d
00000270: 3d8f 8cbe dea7 b4bc 1a7f 60be f5d2 ba3d
00000280: 0fab b5bd 6ccf 90bc 5a7e eebd 104b cebe
00000290: eec8 493d a20f 573e a7b3 c8be d77a b23c
000002a0: 028f 863d a475 223e 9c10 1a3e 32bf 123e
000002b0: 5154 543e 12ee 3e3c 743f ee3c fc22 8ebe
000002c0: 805c 35bd e593 133f 9062 28bd 420a 053e
000002d0: 896a 9cbe 20f6 e13d c46f c73d 6ddc 8cbe
000002e0: 007e 97bc f890 8e3e 574d 93bc 465c 473e
000002f0: c51c 0d3e 2312 883d 1230 783e 5dd8 a9be
00000300: 0160 013e 24ab 5bbd 736a c63e 1ee4 57bd
00000310: 5779 3f3e f10e 273e 2498 adbc dfc1 033e
00000320: 1877 1c3e 3644 953d c117 a73d f632 6b3d
00000330: eb71 eb3c 4912 df3d 2b6d 08bc 5087 15bd
00000340: add0 8dbe 1ba8 e53d 5504 343d b8ae df3d
00000350: 6ace 54be c482 85bc e4c7 69bd 4da3 65be
00000360: f113 373e 5ca5 b93d 8c9b f53c 1353 693d
00000370: 11ae 8e3d bf85 8a3d 1560 5abb 5168 bebc
00000380: ce16 103e f37b 9abe cf3f d1bd 289c 5b3f
00000390: 9abb bb3d ac26 d73d 0460 0d3e 0da6 74bb
000003a0: 861f 2b3d 1e7d 8f3e 43ab 013e 7d53 a13d
000003b0: 6823 643e 70da e4be 83ac 243e de83 22be
000003c0: 5087 663e 7486 713e c4fa 1a3e 4c1a 3fbd
000003d0: d389 72bc 4f4e 28bd 1731 cfbe fa7f 2bbe
000003e0: 7db1 95be d3df 3c3e f843 033e f7c6 1e3d
000003f0: f348 753d 8817 83bb 1d52 79b9 8034 d53e
0.033893622 0.079549246 0.16758624 0.15936142 0.017324671 -0.06748234 0.028306013 0.09446312
0.10231691 0.22862458 0.1582644 -0.019980997 0.06636725 -0.053118594 -0.08314464 -0.14916603
-0.030589959 -0.025055785 0.0524473 0.19578603 -0.03238628 -0.006036783 -0.06626485 -0.08163246
0.015140746 0.13285917 0.02044616 0.032026585 -0.06967354 0.07304008 -0.121894255 0.26606357
-0.36885494 0.022400225 0.03212686 0.16135207 0.051061194 -0.2951972 0.057667658 -0.07932566
0.03280111 0.19574131 -0.054498874 0.031056518 0.09028871 0.024106432 0.05869123 -0.0532589
0.23881571 0.18138604 0.048665278 0.06702306 -0.07745755 0.20076105 0.16668656 -0.24740845
0.07403458 0.06593577 0.21699387 0.05639429 0.20996399 0.19787042 0.22482572 -0.15500446
-0.062786296 0.3859664 -0.046173885 -0.044302892 0.14269827 -0.36731097 0.11577616 0.20333813
0.020728441 0.36427078 0.059111528 -0.18728034 0.43513688 0.17481025 0.056602746 -0.03418584
-0.11962854 0.15506576 0.13678455 0.2225495 -0.04123015 0.03139676 0.04874297 -0.21245565
0.053364962 -0.056619115 0.10677048 0.11427474 0.07319964 -0.082244225 -0.010526087 -0.0031678777
0.030479465 -0.16281496 0.24043055 0.3311737 0.16879693 0.4500016 -0.125448 -0.034007847
-0.015805727 0.16490814 -0.04294016 0.047863442 0.1326813 -0.35708794 0.16976045 0.2714531
-0.13688791 0.21086034 0.23068225 -0.019442003 -0.04239046 -0.09529587 -2.291182 0.116931364
0.102171324 -0.11488935 -0.028901571 0.15922588 0.047265228 -0.05966634 -0.072199345 0.19745027
-0.020941399 0.12670286 0.34494436 -0.036372986 -0.05193901 -0.16603158 0.012252849 0.37978244
0.1671321 -0.18774943 -0.0013703405 0.08893408 0.03628137 -0.02823531 -0.15851454 -0.31883547
0.13349774 0.130421 -0.0068066376 -0.29455113 0.057525456 -0.07721123 -0.21296284 -0.025804324
0.082687914 0.07541474 0.17190814 0.05546572 -0.27453032 -0.022052702 -0.21923485 0.09122268
-0.088705175 -0.017677031 -0.116451934 -0.40291643 0.049263887 0.21002057 -0.39199564 0.02178709
0.06570245 0.15865189 0.15045398 0.14330748 0.20735289 0.01165344 0.029082991 -0.27761066
-0.044277668 0.57647544 -0.04110962 0.12992194 -0.3055003 0.11033273 0.097381145 -0.27511922
-0.018492699 0.27844977 -0.017981214 0.19468793 0.13780506 0.06644084 0.24237087 -0.33172885
0.12634279 -0.05363001 0.3875309 -0.052707784 0.18698631 0.16314293 -0.02119071 0.12866925
0.15279806 0.07288401 0.081588276 0.057421647 0.028740844 0.108921595 -0.008326809 -0.036505997
-0.2769827 0.11213704 0.043949444 0.10921997 -0.20781866 -0.016297705 -0.057075396 -0.22425576
0.17878701 0.09064743 0.029981397 0.05696399 0.06966794 0.06763791 -0.003332143 -0.023243101
0.140712 -0.3017269 -0.10217249 0.8578515 0.091666415 0.10505423 0.13806158 -0.003733042
0.04177811 0.28025144 0.12662987 0.07877252 0.22279131 -0.44697905 0.16081433 -0.15870616
0.22512555 0.23586446 0.15134722 -0.046655938 -0.014803368 -0.041090306 -0.4046714 -0.16748038
-0.29236975 0.18444757 0.12818897 0.038763966 0.059884023 -0.004000608 -0.0002377708 0.41641617

fc3.bias f4 [128]
00000000: 0add 203e e768 14bd 2979 ca3d 6e5b 82bd
00000010: d987 983d c1ad 9bbd 40e7 973a d08e f43c
00000020: f5ea 123c 4a50 d1bc 1c47 593d 0eb1 b03d
00000030: ac6c bbbd e1a5 99bd 72ef 34bd 2728 78bd
00000040: 43bd 413e 071c 31be 784e 3d3e 26d8 843d
00000050: b894 0c3e 2358 4dbe 5896 b1bc 4b70 bebd
00000060: 7aaa 423e 4a3f 933d a560 98bd 6beb 633e
00000070: ceba 15be 5eef c93c 27e1 6e3e 5a9a c6bb
00000080: 513b 0b3e 4ff8 9bbd 87f9 1f3e 2639 bc3d
00000090: 97a0 603d 3bb8 92bc f869 203d 4f62 21bd
000000a0: 7f2a 5d3e 884e b5bc 0994 88be 011f 9dbd
000000b0: 34c2 8cbc f835 64bd 9e42 6bbd a9d2 babd
000000c0: 6c3b ecbd 2e14 bcbd f6a0 0bbe 97d0 133d
000000d0: eef7 46bd 2e0d abbd e2cf 33be b9a2 01be
000000e0: c8ba da3d 6935 7fbd 2b93 18bf a1db d93d
000000f0: 784f 47bc 2bdb 6fbd fc6b a6bd 1088 52bc
00000100: 4509 15bd a1b3 4c3e c64c 91bd e500 c4bd
00000110: 71d4 36be 6bc6 d1bd 83df 7e3d f48e 103d
00000120: dc1f c63d c94b 8ebe 36cd 38bd 39ff aabd
00000130: 00a0 163d 2150 e6bb e81e a0bd 84b4 6ebd
00000140: aa5b da3d 8534 e4bc 6d6a 573e 98ed 5abd
00000150: 048d 1f3e a16b a33b b417 1fbe 9176 4339
00000160: b137 22be 8e2a a9bd 8314 81be 4f6c e33d
00000170: 1cdd 383d 872b 7d3e 8bfa bebd 9520 363e
00000180: 8ba4 ecbd b2a0 d3bd 7beb 983e 14d6 79bd
00000190: 3e33 a23d e28a 8c3d f089 3bbd 757b a0bd
000001a0: b4f4 96bc d804 d63d 6ff9 823b 76c0 46bd
000001b0: 5df9 893e 1a80 46bd 85a8 3cbd bd91 96bd
000001c0: 0c23 51be 3ea4 a8bd dcb5 72bd 3629 89bd
000001d0: 1043 b2bd a16f 47bd b86c 283c c4f0 d3bd
000001e0: ea84 c33d 4878 65bc fa9a 05bd a3cd 25be
000001f0: ebd7 f5be 99a9 79bc 34b0 a63c 46ab abbd
0.1570932 -0.036232855 0.09886391 -0.06365095 0.07447786 -0.076015 0.0011589304 0.029853255
0.008967151 -0.02555098 0.05304633 0.086275205 -0.09151587 -0.07502342 -0.044173665 -0.060585167
0.18919854 -0.17295848 0.18486965 0.064865395 0.13728607 -0.20053153 -0.021678135 -0.09298762
0.19010344 0.07189806 -0.074403085 0.22257774 -0.14622042 0.024650272 0.23328076 -0.0060608806
0.13596846 -0.076157205 0.15622531 0.09190588 0.05484065 -0.017910114 0.03916356 -0.039400395
0.21598242 -0.022132173 -0.26675442 -0.07671929 -0.017182447 -0.05571553 -0.057436578 -0.091222115
-0.11534771 -0.091835365 -0.1363562 0.0360876 -0.048576288 -0.08352123 -0.1755977 -0.1265973
0.10680157 -0.062306795 -0.5959956 0.10637594 -0.012164943 -0.058558624 -0.08126065 -0.012849823
-0.036385793 0.19990398 -0.070947215 -0.09570483 -0.17854477 -0.10242923 0.062224876 0.03529258
0.096740454 -0.27792194 -0.04511758 -0.08349461 0.03677368 -0.007028595 -0.07818395 -0.058277622
0.10662015 -0.027857075 0.21036692 -0.053449243 0.15581137 0.0049871956 -0.15536386 0.00018640819
-0.15841557 -0.0826007 -0.25210962 0.111046426 0.04513274 0.24723636 -0.09325131 0.17785867
-0.115548216 -0.103333846 0.29867157 -0.060995176 0.0791993 0.06862427 -0.045785844 -0.078360476
-0.01842723 0.104501426 0.00399702 -0.04852339 0.26948062 -0.04846201 -0.04605915 -0.07352016
-0.20423526 -0.08234452 -0.059255466 -0.066973135 -0.087041974 -0.048690442 0.010279827 -0.10348657
0.09546836 -0.014005728 -0.0326185 -0.16191725 -0.48016295 -0.015238189 0.020347692 -0.08382277

fc4.weight f4 [32, 128]
00000000: edde 6b3e c267 913a 89ca 8e3e f785 b23d
00000010: a55b 9abd f0d6 f4bb ecd1 5dbd 26a5 8cbd
00000020: 942a ecbd c8f0 193e e6e4 b9bc 1676 d0bd
00000030: 536e 373c 3fa5 04bf 1f79 a53d 6711 3bbd
00000040: c7a0 3d3d f8c1 193b d42f c2bd 4ac5 1fbe
00000050: 07a6 a43e f160 8b3e a91a a7bd a809 d33d
00000060: 24d8 22be 0e71 98bd d3de 52bd f52f 05be
00000070: b79e 033e 65cc 06be 5a6a 0abd 0c77 dcbc
00000080: 869e 89bd bf48 afbc f6c4 053d 7d6d 503d
00000090: bb5d 1cbd 06d7 5a3d 61de 483e 580e e9bc
000000a0: 2d19 d7bd fec5 88be ac9d 1b3e 84e8 88bd
000000b0: 4922 ca3d fc36 c33d a1aa 3ebd b9dd a73d
000000c0: 284d 303e aa19 233c 8fad ae3e 6076 d4bd
000000d0: bbe9 0fbe d499 9cbd d872 543e 0faf e63d
000000e0: 423e fcbd 2d8d 1bbe 02ff 9f3d 92b9 7e3e
000000f0: 4e61 d9bc 2e8c 833d 6df8 473e e1ef bfbd
00000100: 14e7 ceba 617f 89be 67df 663d d69d 0a3e
00000110: ca2e 7ebc a4a9 0bbd b0aa 9b3d 9d98 993e
00000120: 2e92 e8bb 3522 4f3e 94d9 a73d cea3 97bd
00000130: 90e4 fc3b f663 f4bd b048 e2bb baa8 133e
00000140: cf80 413e 1c84 53bf a436 133e 68c7 db3c
00000150: 4e1c 1fbd ae5b 0f3d 9869 773d ecb8 b53d
00000160: 7e30 343e a56a 983c 90f8 9f3e 1b43 483e
00000170: de9f d9bd 68e6 d43d 7e16 a23d 2f1d 3abf
00000180: 9f90 673d 6ed0 9b3c 8785 6ebe 8f91 433d
00000190: 0dbd 28be 4996 603e 4a27 1ebd 3c7a 9d3c
000001a0: 4ab7 1d3d 4cf5 3ebe f4f6 0e3e 70f3 b6bb
000001b0: b070 3bbd 7010 bc3d 491f 3c3d 31f5 d33c
000001c0: e8c0 e33d 723a 81bd 4c86 7a3d 86c6 08bd
000001d0: c69c 613c de86 703d 39d7 743d ca40 8e3d
000001e0: 31fc 67be f16d 943e e55b 18bc 9ecc 8d3e
000001f0: 8764 7a3e 88fd 8a3b 2d83 9f3e 750e 4a3e
00000200: 6ecb bf3d 12d1 1f3e 0607 3d3e 28ac e0bc
00000210: 31c5 293e 4872 15bc 8242 77bd cd73 f6bc
00000220: b9c4 07bc d380 24be 22a5 6fbd 6ca6 ab3d
00000230: 8292 a3bd 67da f5bd 5cdb 28bd 3158 a5bd
00000240: 8e59 ac3e baa4 9ebd 04b1 fd3d 192b a5bb
00000250: c5bb 173e db1b d9be 458a 12bd ad04 1dbe
00000260: 467e 923e 4e50 6f3e 5ca4 3fbd 9e4d d83c
00000270: 1a50 79be 6b5e dc3d a414 923e 8118 203d
00000280: 6ece 0b3e 3556 9e3d be86 8f3e f277 fd3d
00000290: ea0f 313c 668b 02bd 780d 3bbe 3ed9 65bd
000002a0: 650d e63d 58f4 e33e a2db 43be afca 92bd
000002b0: 4490 5cbe b48a 09bd ca41 d9bc 06a3 6b3d
000002c0: df7d 5ebe 7123 b3bb db12 01bf e2c2 673e
000002d0: ca64 473e 9449 81bd 2b07 b4be 205d e83c
000002e0: 21ea 5b3e 0564 423c d4a4 94bd d448 05be
000002f0: 2008 b1bc ed90 b6bd ca13 6abe a724 473e
00000300: 5155 823e 6f8e 113f d969 963d cd6f c2bd
00000310: cb6b 5cbe 354e 02be 3a71 a3bd e913 d9bd
00000320: 979e 553e addd 06be 00a8 e8ba 8997 c33d
00000330: d0c3 9dbc 3bd1 983e d884 e13c daf9 aabd
00000340: 55c1 dabd 4e03 663f 3c87 fb3d 0066 bc3c
00000350: a1c4 003e 8b1f 2b3c 62bc 59be f02f abbb
00000360: 1a1a 4dbe 7810 72bd 9ef1 2dbf 403e 083d
00000370: 574d c9bc cc23 7d3e 3ad1 1d3d 5503 8d3f
00000380: 6e13 6fbe 3557 67be ec83 a73e 3e5b 853d
00000390: e367 2d3e c6cb 143e f472 fabc ef89 45be
000003a0: e847 a4bc 4d11 103e cfcb 89bd 9484 333d
000003b0: 3c7f 073e 07d3 b1bd 1d5e 203d f59b 27be
000003c0: 28c5 a6be 5c58 edbc 25de 13be dc81 d8bc
000003d0: 3ff7 13bd 4431 2fbd 5032 2fbc 0bf9 583d
000003e0: d384 d73d 2110 a73c 4699 e3bc 7cb0 5cbe
000003f0: b767 95be 8336 8e3c f53f a23e 23e1 213c
0.23034258 0.0011093544 0.27888897 0.08716958 -0.07537011 -0.0074719116 -0.054155275 -0.06867437
-0.11531559 0.15033257 -0.022692155 -0.10178773 0.011195737 -0.51814646 0.08079743 -0.045670893
0.046295907 0.0023461562 -0.09481779 -0.15602604 0.3215792 0.27222398 -0.08159382 0.10304576
-0.15902764 -0.074434385 -0.051482033 -0.13006575 0.12853514 -0.13163908 -0.03379283 -0.026912235
-0.06719689 -0.021396993 0.03265854 0.050885666 -0.038175326 0.05342772 0.19616081 -0.028449222
-0.10502849 -0.26713556 0.15196866 -0.06684974 0.098698206 0.09531972 -0.046549443 0.08196587
0.17216933 0.009954849 0.3411679 -0.10374141 -0.14054005 -0.07646528 0.20746934 0.112638585
-0.12316562 -0.15190573 0.07812311 0.24875477 -0.026535656 0.064232215 0.1952836 -0.09371925
-0.0015785419 -0.26854995 0.056365397 0.13536772 -0.015514085 -0.03409733 0.076009154 0.29999247
-0.007097504 0.20227893 0.081957966 -0.0740429 0.0077176765 -0.119331285 -0.0069056377 0.14419833
0.18896793 -0.8262346 0.14376312 0.026828483 -0.038845353 0.034999542 0.060403436 0.08873162
0.17596623 0.01860554 0.31244326 0.19556849 -0.10626195 0.10395509 0.07914446 -0.7270078
0.056534406 0.019020285 -0.23293124 0.047746237 -0.16478367 0.21932329 -0.038611688 0.019223325
0.038504876 -0.18648261 0.13961393 -0.005583219 -0.045761764 0.09182823 0.045928273 0.025873752
0.11120778 -0.06309976 0.06116323 -0.03339245 0.013770288 0.05872237 0.059775565 0.06945951
-0.22654797 0.2899013 -0.009299253 0.27695173 0.2445241 0.004241649 0.31154767 0.19732077
0.09364973 0.15607098 0.1845971 -0.02742584 0.16579129 -0.009121485 -0.06036616 -0.030084515
-0.008286648 -0.16064768 -0.058507092 0.08381352 -0.079869285 -0.120045476 -0.041224822 -0.08073462
0.33662075 -0.07746263 0.12387279 -0.005040538 0.14817722 -0.42404065 -0.035776395 -0.15333815
0.28611964 0.23370478 -0.046787605 0.026404198 -0.24346963 0.10760196 0.28531373 0.03908587
0.13652965 0.077312864 0.28032488 0.123763934 0.010807017 -0.031871222 -0.18266857 -0.05611538
0.112330236 0.44522357 -0.19126752 -0.07167565 -0.21539408 -0.033579543 -0.026520628 0.05752852
-0.21727704 -0.0054668714 -0.50419396 0.22632936 0.19472042 -0.06312862 -0.3516172 0.028364718
0.21476032 0.011864667 -0.07258001 -0.13016063 -0.02161032 -0.08914361 -0.22859111 0.19447576
0.25455716 0.5685796 0.073444076 -0.094939806 -0.21525495 -0.12725146 -0.07980581 -0.10599501
0.20861278 -0.131705 -0.0017750263 0.095503874 -0.01925841 0.2984713 0.027529165 -0.08348437
-0.106814064 0.8984879 0.12281653 0.022997856 0.12575008 0.010444532 -0.21263269 -0.0052242205
-0.20029488 -0.059097737 -0.67946804 0.03326249 -0.024573011 0.24720687 0.038529612 1.1016642
-0.23347256 -0.2259186 0.32717836 0.06511544 0.16934161 0.14530858 -0.030572392 -0.19290899
-0.020053819 0.140691 -0.067283265 0.04382761 0.1323213 -0.086828284 0.039152253 -0.16368087
-0.32572293 -0.028972797 -0.1444021 -0.02642911 -0.036124464 -0.042771593 -0.010693148 0.05297188
0.10523381 0.020393433 -0.027783047 -0.21551698 -0.2918069 0.017359978 0.3168942 0.009880337

fc4.bias f4 [32]
00000000: 785f ebbd 5271 943e aa9e 913e 8260 98bd
00000010: eaa8 5b3e 4614 883e 0648 81bd ba92 033e
00000020: 502c 0dbe 29e7 9e3e e09a 0ebd 9454 783a
00000030: eaf5 94be cf4d 883e f107 da3d 4fb1 3dbe
00000040: fa52 b23c 74fe 9e3e 73eb 3d3e 6617 cb3d
00000050: 311a 2a3d c4f0 a43d 5bf5 63be 7bde 333e
00000060: 490c 82be c117 a83e 88c1 84be 00e6 8c3d
00000070: 849c 08bd 509c 28bd fa17 c23d ecf2 8fbd
-0.114928186 0.28992707 0.28441364 -0.074402824 0.21451154 0.26577967 -0.063125655 0.1284894
-0.13786435 0.31035736 -0.03481567 0.00094730523 -0.29093868 0.26621863 0.10646046 -0.18524669
0.021768082 0.31053507 0.18546848 0.09916572 0.041528884 0.08053735 -0.22261564 0.17565338
-0.25399998 0.32830623 -0.25928903 0.068798065 -0.03335239 -0.041164696 0.094772294 -0.070287555

fc5.weight f4 [4, 32]
00000000: 7d43 fbbd 14c9 9c3e 4615 43bd 2365 afbe
00000010: c921 873f 90cc 853e 8975 103e 1145 bf3e
00000020: cd7f aabe 9a31 f73e 5954 0c3d a4c3 d5bd
00000030: 2d7a 1c3d 9158 2bbe 7000 0a3d 3ad6 d53c
00000040: dc2e 4fbe 91e9 bd3e e1b3 f63e fc2c 15be
00000050: c4cc d93d 7ca5 d43d a178 efbd 0436 41be
00000060: cf0c f3be fae0 40be 48b1 103d 1e85 713d
00000070: 9052 043e ee1e f83d 29be 9dbd 5897 15be
00000080: fddd 48be d81c 363f 4303 703e bd85 51ba
00000090: 13ca f0bd 44b0 81bd b551 2a3e 21bb 0abf
000000a0: 0870 2ebe a6ca 273f d000 a8bd 538a 54be
000000b0: 2728 95be a94e 383e c76b ffbd 7d8b 5f3d
000000c0: 87f3 703d 84dd cc3e 6705 6a3f ce61 1ebe
000000d0: 4b9b fd3d f159 093e 29b1 1fbe f977 43be
000000e0: 1869 6fbe a88f b6bc 13be 50be f77c f03c
000000f0: 79cd ba3e c79f 1bbe 4ac0 853e b378 d23c
00000100: ba34 b03e d955 74be c491 efbd 29a0 b33d
00000110: 68c7 583d 87e8 713f 90c0 2cbe 3930 133e
00000120: f9fa 773d a1bf 1a3f cf01 8ebe 40b6 193d
00000130: c6b0 6ebe 0329 32be 8abd dc3e ff8b 90bd
00000140: 952a 50be d5b8 acbc 665e 193f aeb6 e23b
00000150: 8fd1 073e 0dac be3b e8c7 50be b9c6 ffbd
00000160: bc7d 98bd 501c 623e 3e41 e6bd c93c 98be
00000170: 096e 8e3e 3c89 323d 267c ee3a 04a8 49bd
00000180: 6406 08be 2913 843f 0c4d 0a3e e764 db3e
00000190: da81 7f3e 5a4f 4b3f 88fb b3bd 06a6 113d
000001a0: 9b41 ad3e 7261 133f 27a5 c1bc 3c5d e8ba
000001b0: 246a 00be b41d 163e bcb9 d23d 23b7 8cbe
000001c0: 601d 30be 1e4b 903e 1366 ad3e 3ca1 653f
000001d0: 9ca0 d7bc d85d d73d 8810 78be ee8d 173d
000001e0: 416d 743e 6134 343f 6e5f 27be af8c 853d
000001f0: d5dc f8bd 925f e43d 4a71 73be 121b 6d3d
-0.12268732 0.3062216 -0.04762771 -0.3425685 1.0557185 0.2613263 0.14107336 0.3735738
-0.3330063 0.4828003 0.034260128 -0.10437706 0.038202453 -0.16733004 0.033691823 0.026103128
-0.20232719 0.3709226 0.48184112 -0.14567941 0.10634759 0.10383126 -0.1169293 -0.18868262
-0.4747071 -0.18835822 0.03532532 0.05896484 0.1292212 0.12115274 -0.07702286 -0.14608514
-0.19615932 0.7113776 0.23438744 -0.0007992646 -0.117572926 -0.06332448 0.16632731 -0.54191786
-0.17034924 0.6554359 -0.0820328 -0.20755892 -0.29132196 0.17998756 -0.12471729 0.054576386
0.058825996 0.40012753 0.91414493 -0.15466997 0.123831354 0.13413216 -0.15594925 -0.19088735
-0.23379934 -0.022285298 -0.20385008 0.029356463 0.36484888 -0.15197669 0.26123267 0.02569232
0.34415227 -0.23860873 -0.116977245 0.087707825 0.052924544 0.94495434 -0.16870332 0.14373864
0.06054208 0.6044865 -0.27735755 0.037527323 -0.23309621 -0.17398457 0.43113357 -0.07057952
-0.20328744 -0.021084229 0.59909666 0.00691875 0.13263534 0.00581885 -0.20388758 -0.12489075
-0.07445857 0.22081113 -0.11242913 -0.29733875 0.27818325 0.04358791 0.0018194958 -0.049232498
-0.13283688 1.0318347 0.13505954 0.4285042 0.24951878 0.79417956 -0.0878821 0.035558723
0.33839116 0.57570565 -0.023638321 -0.0017727981 -0.1254049 0.14659768 0.10289332 -0.27483472
-0.17198706 0.2818231 0.3386694 0.8969915 -0.026321702 0.10515946 -0.24225056 0.03700059
0.23869802 0.70392424 -0.16344997 0.06520974 -0.12151495 0.11151041 -0.23773685 0.057887144

fc5.bias f4 [4]
00000000: 6e2b 39be 9542 6a3d 0797 bcbd 240f 7f3e
-0.18082973 0.057192404 -0.09208494 0.2490812
