DQN_models/model_updaterate1000_gamma0.99_alpha0.001_dynamic.pt (torch, 416703 bytes, 10 tensors)

fc1.weight f4 [128, 514]
0	0xbce6caab	-0.028172811
1	0xbcffd3d4	-0.031228937
2	0xbbba59c0	-0.0056869686
3	0xbcc4cb90	-0.024022847
4	0x3d05f3ac	0.032703087
5	0xbcc2de50	-0.023787647
6	0x3d33195e	0.043725364
7	0x398f7600	0.00027363002
8	0x3ca20328	0.019776896
9	0x3cbaebf4	0.02281759
10	0xbce6b0d2	-0.028160486
11	0x3c754e3c	0.014972266
12	0x3c7fb828	0.015607871
13	0x3a23f280	0.0006254092
14	0xbb299810	-0.002587799
15	0xbca778dc	-0.020443372
16	0xbc905e13	-0.017622983
17	0x3ce70d58	0.028204605
18	0x3c89f6f6	0.016841393
19	0x3d1a9a04	0.037744537
20	0x3cd4d68c	0.02598121
21	0xbc937786	-0.01800133
22	0x3cb9f764	0.022700973
23	0xbc9436f9	-0.01809262
24	0xbe9d83df	-0.30764672
25	0x3e1b663c	0.15175718
26	0x3d1e1abe	0.038599722
27	0x3db9d369	0.090735264
28	0xbeec5f41	-0.46166423
29	0xbee9c27c	-0.45656192
30	0xbe055f91	-0.13024737
31	0xbebb4a95	-0.3658034
32	0xbd00b546	-0.031422876
33	0x3ec137db	0.37737927
34	0x3ec472f9	0.38368967
35	0xbe204706	-0.15652093
36	0x3f9b9b83	1.2156833
37	0xbe093a5d	-0.1340117
38	0x3ddef9c2	0.10887481
39	0xbe07b5f0	-0.13252997
40	0xbf06fabc	-0.5272634
41	0xbe537fec	-0.20654267
42	0x3cc3b2e8	0.02388902
43	0xbcd769f9	-0.026295649
44	0x3cea5c34	0.028608419
45	0x3cad02c4	0.021119483
46	0xbf1a8224	-0.6035483
47	0xbed31d4f	-0.41233298
48	0xbf2898a2	-0.658579
49	0xbe88b7a5	-0.2670261
50	0xbf0379da	-0.51357806
51	0xbef84dad	-0.48496762
52	0x3cd93950	0.026516587
53	0x3f44fdd1	0.76949793
54	0x3f5d3981	0.8641587
55	0x3e371364	0.1787849
56	0xbd080dc5	-0.033216257
57	0xbd26fc89	-0.04076818
58	0x3f735536	0.95051897
59	0x3f3ee152	0.7456256
60	0x3f1c18b3	0.6097519
61	0xbf231b3a	-0.6371342
62	0xbf1949b8	-0.5987811
63	0xbe778d3d	-0.24174972
64	0xbb78f0e0	-0.003798537
65	0x3bc16ac0	0.005902618
66	0xbc7801b2	-0.015137123
67	0x3a655000	0.00087475777
68	0xbeb63cdf	-0.35593316
69	0xbe8977f9	-0.26849344
70	0xbf078b68	-0.5294709
71	0x3cbbc3cc	0.022920512
72	0x3c83acc6	0.016073596
73	0xbf1339ef	-0.57510275
74	0xbf14ebfa	-0.5817257
75	0xbef06611	-0.4695287
76	0x3b1804f0	0.0023196302
77	0x3c3df988	0.011595137
78	0xbf0e148e	-0.55500114
79	0xbd063244	-0.03276278
80	0x3f7ab1ad	0.9792736
81	0x3d1f9262	0.03895796
82	0xbc6f9ec2	-0.014625253
83	0xbf28825d	-0.6582392
84	0xbe0819c3	-0.13291077
85	0xbf242361	-0.64116484
86	0x3cc0322c	0.023461424
87	0xbcfc75f5	-0.030817965
88	0x3c99e2d4	0.018784918
89	0xbc9fed5b	-0.01952236
90	0xbf07bd32	-0.53023064
91	0xbf1cbd90	-0.6122675
92	0xbd4e4026	-0.050354145
93	0xbae878c0	-0.0017736182
94	0x3d3188dc	0.04334341
95	0xbf09fe31	-0.5390349
96	0xbe82b376	-0.25527543
97	0xbe89d3e0	-0.2691946
98	0x3d2c501a	0.04206858
99	0xbd029575	-0.031880815
100	0xbf093f46	-0.5361217
101	0x3e1b9163	0.1519218
102	0x3fa06521	1.2530862
103	0x3cc52fa4	0.024070568
104	0xbcba7cb2	-0.022764537
105	0xbf252a59	-0.6451774
106	0xbf2661ad	-0.6499279
107	0x3e59b18f	0.2125914
108	0x3c776c38	0.015101485
109	0x3d27017c	0.0407729
110	0xbd2d0a73	-0.042246293
111	0x3c0ce7c8	0.008600183
112	0xbe6c16bc	-0.23055547
113	0xbeae82d8	-0.340842
114	0xbe1b195e	-0.15146396
115	0xbc00c114	-0.007858533
116	0x3bc40048	0.005981479
117	0xbe010bd2	-0.12602165
118	0xbdfeef1e	-0.12447952
119	0xbe49e612	-0.19716671
120	0x3d28ac68	0.041180044
121	0xbc5497a6	-0.012975609
122	0xbf044587	-0.5166859
123	0x3e549d7f	0.20763205
124	0x3f900503	1.125153
125	0x3cccb9c4	0.024990924
126	0x3cc660b0	0.024216026
127	0xbef9ab48	-0.4876349
128	0xbeddc8d0	-0.4331727
129	0x3d879c79	0.06621642
130	0x3c61eefc	0.0137898885
131	0xbbd05008	-0.0063571967
132	0xbc85f0ac	-0.016350113
133	0x3aaa8760	0.0013010316
134	0xbd2997ec	-0.04140465
135	0xbf269e4c	-0.6508529
136	0x3f17e513	0.59333915
137	0x3c872454	0.016496815
138	0x3cb31394	0.021859922
139	0xbe3a197d	-0.18173786
140	0x3f93dc6e	1.1551645
141	0xbee63e34	-0.44969332
142	0x3c982df4	0.0185766
143	0xbd2509f2	-0.040292688
144	0xbf05c2cc	-0.5225036
145	0x3ea2720c	0.31727636
146	0x3e4311fc	0.19049829
147	0x3c7c7948	0.015409775
148	0xbd10fd8d	-0.035398055
149	0xbf04c98b	-0.5187003
150	0xbe5f2e65	-0.21795042
151	0xbf15cab8	-0.5851245
152	0x3c2cff5c	0.010558929
153	0x3ce0f4e0	0.027460515
154	0xbcb0e443	-0.021593219
155	0x3bce6920	0.006299153
156	0x3f80e480	1.0069733
157	0x3ea70aa9	0.3262532
158	0x3f8a9c35	1.0828921
159	0x3abe56a0	0.0014521666
160	0x3cd1c484	0.025606401
161	0x3f52a70e	0.82286155
162	0x3f7ea33d	0.9946783
163	0x3f520c7e	0.8205031
164	0x3d2f3aca	0.042780675
165	0xbd1bdd94	-0.03805311
166	0xbe113b82	-0.14182857
167	0xbeb1d44e	-0.34732288
168	0xbef24fc6	-0.47326487
169	0x3d3175f6	0.043325387
170	0x3b83bf30	0.004020594
171	0xbeac4cf3	-0.33652458
172	0xbe55d497	-0.20881878
173	0xbeb937f1	-0.36175492
174	0x3d21ff02	0.039549835
175	0x3c624d44	0.013812367
176	0x3d187032	0.037216373
177	0x3d2359be	0.039880507
178	0x3f0e064d	0.55478364
179	0x3f28bb38	0.65910673
180	0x3f9614f7	1.1725148
181	0xb8b10800	-8.441508e-05
182	0x3c038400	0.008027077
183	0xbf061beb	-0.5238635
184	0x3f9fe27b	1.2490991
185	0x3ebc4473	0.36770973
186	0x3d2b778c	0.041862056
187	0x3c9df01c	0.019279532
188	0xbead405b	-0.33838162
189	0xbf06a985	-0.52602416
190	0xbf05d427	-0.52276844
191	0xbbde24e8	-0.006779302
192	0x3b8d57d0	0.0043134466
193	0xbebf7a5d	-0.37398043
194	0xbe6fcd48	-0.23418152
195	0xbe676597	-0.22597347
196	0x3cefccfc	0.029272549
197	0x3cf86c0c	0.030324958
198	0x3c5a30b4	0.013317276
199	0x3cf0a8f4	0.029377438
200	0x3f6f3ba7	0.934504
201	0x3f195c00	0.59906006
202	0x3f6c0738	0.92198515
203	0xbd177b72	-0.03698296
204	0xbc7916b8	-0.0152031705
205	0x3e7d3144	0.24725825
206	0xbd5bfaa4	-0.053705826
207	0x3f7f809e	0.9980563
208	0xbbcf8c10	-0.0063338354
209	0xbb6e5280	-0.0036365092
210	0xbd120306	-0.035647415
211	0xbea36acc	-0.31917417
212	0xbb4fb2aa	-0.0031692185
213	0xbb03f020	-0.002013214
214	0xbc4e6914	-0.012598295
215	0xbf0425a8	-0.5161996
216	0xbe82a48d	-0.25516167
217	0x3ebdcda5	0.37070957
218	0x3ca226d4	0.019793905
219	0x3d1bf3cc	0.0380743
220	0x3c953fbc	0.018218867
221	0xbbea0638	-0.0071418546
222	0x3f6ced68	0.92549753
223	0x3f2fe732	0.6871215
224	0x3f26a481	0.65094763
225	0x3d16858a	0.036748447
226	0xbc994507	-0.018709673
227	0xbf11e907	-0.56996197
228	0x3d2ef3d2	0.042712994
229	0x3ecd822e	0.40138382
230	0x3cb61540	0.02222693
231	0xbd1439f1	-0.03618807
232	0xbe372cb9	-0.17888154
233	0xbcdbfcad	-0.026853884
234	0xbc80d2ae	-0.01572546
235	0xbb481d00	-0.0030534863
236	0x3cec5fe0	0.02885431
237	0xbea18a81	-0.31550983
238	0xbded7466	-0.11594467
239	0xbe0a9be5	-0.13536032
240	0xbccf6dfb	-0.025320997
241	0x3d2133d0	0.039356053
242	0xbced4854	-0.028965153
243	0xbc3ed6c0	-0.01164788
244	0x3f40be43	0.75290316
245	0xbe8363da	-0.25662118
246	0x3f3f6ebf	0.7477836
247	0xbcb0d675	-0.021586636
248	0xbd274cb2	-0.040844627
249	0xbdee65e9	-0.116405316
250	0x3f45ada4	0.7721808
251	0x3f39fdc2	0.7265283
252	0xbd281b58	-0.041041702
253	0x3cc08f9c	0.023505978
254	0x3e1dadfd	0.15398403
255	0xbaf26aaf	-0.0018494929

fc1.bias f4 [128]
0	0xbec85ea4	-0.39134705
1	0xbe4f98a9	-0.20273079
2	0xbf144d9b	-0.57930917
3	0xbf4d2083	-0.80127734
4	0xbda25904	-0.07927135
5	0xbdc0800b	-0.09399422
6	0xbeb0829a	-0.3447464
7	0xbda0ec05	-0.07857517
8	0xbeca23ea	-0.39480525
9	0x3cd6c27b	0.026215782
10	0xbf08d865	-0.5345519
11	0xbf38c5dd	-0.72176915
12	0xbf96dbc7	-1.1785821
13	0xbd467081	-0.048447136
14	0xbaf61af2	-0.0018776341
15	0xbf064d5e	-0.524618
16	0xbe1fddee	-0.15612003
17	0xbf11ca13	-0.56948966
18	0x3fe6d336	1.8033206
19	0xbeaa4ac3	-0.33260164
20	0xbf0bef0b	-0.54661626
21	0x3e3e30f9	0.18573369
22	0xbdc6595e	-0.09685014
23	0xbf834b11	-1.0257283
24	0xbef22c0f	-0.4729924
25	0xbef1f24f	-0.4725518
26	0xbe30f90b	-0.17282502
27	0x3f218355	0.6309102
28	0xbf809fd7	-1.0048779
29	0xbe90aecb	-0.28258356
30	0x3e275b65	0.16343458
31	0xbdcbbd03	-0.099481605
32	0xbed0a88f	-0.407536
33	0xbd8b3b82	-0.067984596
34	0x3fa634b2	1.2984831
35	0xbf07fe85	-0.5312274
36	0x3db41f13	0.087949894
37	0x3f06c6fc	0.52647376
38	0xbf637add	-0.8885935
39	0xbfa73d94	-1.3065667
40	0x3f93e1da	1.15533
41	0x3f08d5d4	0.53451276
42	0xbee1b841	-0.44085887
43	0x3efb2923	0.49054822
44	0xbf098282	-0.53714764
45	0xbf5a02ac	-0.85160327
46	0x3e83e98e	0.25764126
47	0xbe9b7f94	-0.30370772
48	0xbedf89a9	-0.43659714
49	0x3e6b4ac8	0.22977746
50	0xbdf3ba8d	-0.11900816
51	0xbe1c78f6	-0.15280518
52	0xbef757d0	-0.48309183
53	0xbd9f5014	-0.077789456
54	0x3dd54006	0.10412602
55	0x3e97a226	0.29615897
56	0xbf1060bc	-0.56397605
57	0xbf856f1c	-1.0424533
58	0xbccb00b8	-0.024780616
59	0xbf33b729	-0.70201355
60	0xbdfa8ba9	-0.12233669
61	0xbda11560	-0.07865405
62	0xbf284ee3	-0.6574537
63	0x3e7e194d	0.24814339
64	0xbf54605d	-0.8295954
65	0x3f8fe224	1.1240888
66	0xbe3a9774	-0.18221837
67	0xbd907735	-0.07053987
68	0xbece0bd0	-0.40243387
69	0x3edac017	0.42724678
70	0xbddf480e	-0.10902415
71	0xbeef3dec	-0.4672693
72	0x3e65635f	0.22401188
73	0x3f8d0e7c	1.1020045
74	0x3d2ff979	0.042962525
75	0x3dadf380	0.084937096
76	0x3e78b360	0.24287176
77	0xbf71220b	-0.9419257
78	0xbd001211	-0.03126723
79	0xbf3f8da2	-0.7482549
80	0x3f80ef92	1.0073111
81	0x3f588503	0.8457796
82	0x3f1910da	0.5979134
83	0x3d77aee8	0.060469538
84	0xbdd0beee	-0.10192667
85	0x3c7fc823	0.015611681
86	0xbdd16ccf	-0.10225832
87	0xbf609d17	-0.877397
88	0xbf11cc3c	-0.5695226
89	0xbed2e827	-0.41192743
90	0xbf3206c7	-0.6954159
91	0xbcab4dfc	-0.02091121
92	0x3f23465a	0.6377922
93	0xbea39338	-0.31948256
94	0xbdfb0b24	-0.12257984
95	0xbefc11b8	-0.49232268
96	0x3f4c8011	0.79882914
97	0x3ef40a8a	0.4766429
98	0xbea8fce4	-0.3300544
99	0x3e02efb2	0.12786749
100	0x3fa7c003	1.3105472
101	0xbf10abb6	-0.5651201
102	0xbf04998a	-0.5179678
103	0x3f0ebee2	0.55760014
104	0xbd92c28c	-0.07166013
105	0x3deb722b	0.11496385
106	0xbe388eea	-0.18023267
107	0xbe88e556	-0.2673747
108	0xbd97847a	-0.07398315
109	0xbeec09ee	-0.46101326
110	0xbf4d90a3	-0.80298823
111	0xbd994a83	-0.07484915
112	0xbf2e5265	-0.68094474
113	0x3f9e5cdc	1.2372088
114	0x3ddec702	0.108778015
115	0xbec3b023	-0.3822032
116	0xbe5e134e	-0.21687052
117	0x3ed3c894	0.41363966
118	0xbd892e91	-0.06698335
119	0xbec87f87	-0.39159796
120	0xbda76f63	-0.08175542
121	0x3f43ca0a	0.7648016
122	0xbee8f0cc	-0.45496213
123	0xbedcba1d	-0.43110743
124	0xbefd78d2	-0.4950624
125	0xbf00e6b2	-0.50352013
126	0xbed77ee8	-0.4208901
127	0xbe8249e9	-0.25447014

fc2.weight f4 [128, 128]
0	0xbd805797	-0.062667064
1	0x3d6a24ad	0.057163883
2	0x3be0412a	0.0068437057
3	0x3d03a8c4	0.03214337
4	0x3d312082	0.043243892
5	0xbd9145c2	-0.07093383
6	0xbd533310	-0.05156237
7	0xbd99bb18	-0.075063884
8	0x3c161cf8	0.00916218
9	0x3c8b7871	0.017025204
10	0xbd35be74	-0.044371083
11	0x3ac954f3	0.00153604
12	0xbd095601	-0.033529285
13	0x3d4469fe	0.047952645
14	0xbde9b600	-0.11411667
15	0xba4fe800	-0.0007930994
16	0xbc843620	-0.01613909
17	0x3c8f1a76	0.017468672
18	0xbc877014	-0.016532935
19	0x3d111e8a	0.035429515
20	0x3ca959f0	0.020672768
21	0x3d12f732	0.035880275
22	0x3b86af80	0.0041102767
23	0xbd7b4a78	-0.061350316
24	0x3d244f4a	0.04011468
25	0xbcf32591	-0.029680999
26	0x3c5af5b8	0.013364248
27	0xbd69f23f	-0.05711579
28	0xbd80f5c0	-0.06296873
29	0x3c8099ba	0.015698303
30	0xbd2baa7a	-0.041910626
31	0xbd6ad2b7	-0.05732986
32	0xbd5e76c4	-0.054312482
33	0xbd29b0aa	-0.041428246
34	0xbd8cbbce	-0.068717584
35	0x3c379c76	0.011206737
36	0x3d0f2860	0.034950614
37	0xbd2162e9	-0.03940097
38	0xbbfaafb3	-0.0076503395
39	0x3d1b6c1e	0.037944905
40	0x3d106672	0.03525395
41	0xbda62172	-0.08111848
42	0xbc48a6c6	-0.012246793
43	0x3ac7ad03	0.0015234057
44	0xbd6f3b5e	-0.058406226
45	0xbc11fc18	-0.0089102015
46	0xbd05a2a2	-0.0326258
47	0x3d2d8976	0.04236742
48	0x3d0cda8b	0.034388106
49	0x3db33ea9	0.08752186
50	0x3cbf97b4	0.023387767
51	0xbd6ad5f4	-0.057332948
52	0xbc9e1254	-0.019295849
53	0xbd47ebf5	-0.04880901
54	0x3c63a910	0.013895288
55	0xbda4aea1	-0.0804112
56	0xbd7d2a42	-0.06180788
57	0xbda8dc0e	-0.08245097
58	0x3cf33985	0.029690513
59	0xbdcd95a2	-0.10038306
60	0x3b389d60	0.0028169975
61	0x3c5a7cdf	0.013335436
62	0x3cf1c847	0.029514445
63	0xbc69394b	-0.014234851
64	0xbd32e24a	-0.043672837
65	0xbdd0a021	-0.10186792
66	0x3c8ce628	0.01719959
67	0xbdd76073	-0.10516443
68	0x3b175560	0.002309166
69	0x3d6dbd56	0.058041893
70	0xbc70f180	-0.014706016
71	0xbd94abe4	-0.07259348
72	0x3d4dcfe2	0.05024708
73	0xbd9c3119	-0.07626552
74	0x3d461a2d	0.048364807
75	0xbc8f8550	-0.017519623
76	0x3d045d2a	0.03231541
77	0xbc6f2440	-0.014596045
78	0xbdd2e808	-0.10298163
79	0xbdf25179	-0.11831946
80	0xbda36a2c	-0.07979235
81	0x3d33950a	0.043843307
82	0xbc22ce5c	-0.009936895
83	0xbde90450	-0.11377776
84	0xbd8a9d82	-0.067683235
85	0x3c43bcd6	0.011946877
86	0xbdb2412f	-0.08703839
87	0xbd184981	-0.037179474
88	0x3bbce703	0.0057648434
89	0xbd82dbc2	-0.06389572
90	0xbd9ce083	-0.0766001
91	0xbb49d600	-0.003079772
92	0xbc8b9c37	-0.017042262
93	0xbd99006e	-0.07470785
94	0xbc847498	-0.016168877
95	0xbda98222	-0.08276774
96	0xbd527b64	-0.051387206
97	0x3db00371	0.085944064
98	0x3d719456	0.058979355
99	0x3c5033ea	0.01270769
100	0xbd93643a	-0.07196851
101	0xbdef801f	-0.11694359
102	0xbc8a731c	-0.016900592
103	0xbdcd6275	-0.10028545
104	0x3db38305	0.08765224
105	0x3d08c2c8	0.033388883
106	0x3d224f31	0.039626304
107	0xbd469a05	-0.04848673
108	0x3d4c7ffe	0.04992675
109	0xbd7e22cf	-0.062044915
110	0x3c5eefc8	0.013606973
111	0x3d128972	0.03577561
112	0x3bffd9d5	0.00780795
113	0xbd6ae02c	-0.057342693
114	0xbc4a0183	-0.012329462
115	0xbda6e8c7	-0.081498675
116	0xbdb21e12	-0.08697142
117	0xbdcf0a9b	-0.10109445
118	0xbd1fdafd	-0.039027203
119	0x3c8fd914	0.017559566
120	0xbd0b70c8	-0.034043103
121	0x3d9e4cc7	0.07729488
122	0xbd546516	-0.051854216
123	0xbd79948b	-0.060932677
124	0x3ca1dba8	0.01975806
125	0xbd9cb297	-0.07651251
126	0xbd4da1aa	-0.050203003
127	0xbca5d6f0	-0.020244092
128	0xbf8f6b31	-1.1204587
129	0xbfa47a7a	-1.2849877
130	0xbe3af1a8	-0.18256247
131	0x3dd54929	0.10414345
132	0xbda90546	-0.08252959
133	0x3f05bb19	0.52238613
134	0x3eb19103	0.34680948
135	0xbc6fcd71	-0.014636383
136	0x3ab1ee11	0.0013574978
137	0xbe6c1719	-0.23055686
138	0xbe8c7a5f	-0.27437112
139	0xbfb3be9f	-1.4042548
140	0x3f0f016a	0.5586153
141	0xbfba5693	-1.455767
142	0x3e68c4ca	0.22731319
143	0xbd0e1a93	-0.034693312
144	0xbf20dbb1	-0.6283522
145	0xbfa7bb0f	-1.3103961
146	0xbf4fa7b7	-0.8111529
147	0x3e8c6cde	0.2742681
148	0xbf5c9b13	-0.86174124
149	0xbef72459	-0.4826992
150	0x3de3465c	0.11097404
151	0x3e8df40c	0.27725255
152	0x3e9c80c2	0.30566984
153	0xbb7af841	-0.0038294944
154	0xbbd38e22	-0.0064561525
155	0xbfaa0c14	-1.3284936
156	0x3f4e5f77	0.8061442
157	0x3fa03127	1.2515
158	0xbeefa46d	-0.46805134
159	0xbf5ab185	-0.85427123
160	0xbe7c57ff	-0.24642943
161	0xbd561f6f	-0.05227607
162	0xbfc3d26c	-1.5298591
163	0x3eba9570	0.36442137
164	0xbf6be02b	-0.9213893
165	0x3f1ae241	0.60501486
166	0xbf5a4fa1	-0.85277754
167	0x3debacc0	0.11507559
168	0x3eda1d83	0.4260064
169	0xc02cdb19	-2.7008727
170	0x3f19e170	0.60109615
171	0xbf695e94	-0.9115994
172	0xbf918aaf	-1.1370448
173	0x3e955236	0.29164284
174	0x3fb4d047	1.4126061
175	0x3fad6b0d	1.3548294
176	0xbf545023	-0.8293478
177	0x3f3c8f44	0.73656106
178	0xba72f1bc	-0.00092675886
179	0xbef8e6d4	-0.48613608
180	0x3e7ba282	0.2457371
181	0x3d9dd7df	0.0770719
182	0xbd94dff0	-0.07269275
183	0xc00fc53d	-2.2464135
184	0xbf9572e0	-1.1675682
185	0x3eaea5c9	0.3411086
186	0xbf52aa12	-0.82290757
187	0xbeefe3ac	-0.46853387
188	0xbdd04093	-0.101685666
189	0xbec02045	-0.3752462
190	0xbfbf7bae	-1.4959619
191	0xbcf1f0e3	-0.029533809
192	0xbf4bb3fe	-0.7957152
193	0x3f5dcf56	0.86644495
194	0x3f508980	0.8145981
195	0xbe519901	-0.20468523
196	0x3ea04c98	0.31308436
197	0xbee0f039	-0.43933275
198	0x3f3a1755	0.7269185
199	0xbb35599a	-0.0027671815
200	0xbe9123c9	-0.28347614
201	0xbeb554e9	-0.35416344
202	0xbf9dc94a	-1.2327054
203	0xbda1aecd	-0.07894669
204	0xc0024afa	-2.0358262
205	0xbed8728f	-0.422749
206	0x3d501dae	0.050809555
207	0x3d236728	0.0398933
208	0x3efb28ba	0.4905451
209	0x3fc212a3	1.5161937
210	0xbf84afa9	-1.0366107
211	0xbe0d68d4	-0.1380952
212	0xbd0201f4	-0.031740144
213	0xbf39777c	-0.72447944
214	0x3c03a20d	0.008034241
215	0x3e80e10e	0.25171703
216	0xbea49381	-0.32143787
217	0x3de64457	0.112435035
218	0x3e99e288	0.30055642
219	0x3e06fa32	0.1318138
220	0x3e0db65c	0.13839096
221	0xbedeccb9	-0.43515566
222	0xbcb36bf9	-0.021902071
223	0xbf578493	-0.8418667
224	0x3ee11dde	0.439681
225	0xbd74d216	-0.059770666
226	0x3ea0c2b4	0.31398547
227	0xbfa4d064	-1.2876096
228	0xbf825714	-1.0182824
229	0x3ed49916	0.41523045
230	0x3f0b9f36	0.5453981
231	0xbf68d329	-0.90947205
232	0x3dbe3b8b	0.09288701
233	0xbf7664b6	-0.9624742
234	0xbf88555f	-1.0651053
235	0xbe88dc66	-0.2673065
236	0x3d87ecf1	0.0663699
237	0xbe67e34f	-0.22645305
238	0xbe6b5fca	-0.2298576
239	0xbe9958d0	-0.2995057
240	0xbee0a043	-0.4387227
241	0x3ce85e8b	0.028365394
242	0xbfd992d8	-1.6997938
243	0xbd9b6fb4	-0.07589665
244	0xbf149bc7	-0.580502
245	0xbe83d994	-0.25751936
246	0xbd481433	-0.04884739
247	0xbf610355	-0.8789571
248	0xbba341a9	-0.0049821925
249	0xbf32b317	-0.6980452
250	0xbf526c30	-0.8219633
251	0xbf320f7f	-0.69554895
252	0xbf64579a	-0.8919617
253	0xbe82388f	-0.25433776
254	0xbe00b112	-0.12567547
255	0x3f167b20	0.58781624

fc2.bias f4 [128]
0	0xbdd70543	-0.104990505
1	0x3ec98b3d	0.39364043
2	0x3fb67492	1.4254324
3	0x3d44be42	0.048033006
4	0x3ef4df37	0.4782655
5	0xbef7c57f	-0.48392865
6	0x3e3bded4	0.18346721
7	0xbe0b3e36	-0.1359795
8	0x3e8162a4	0.2527057
9	0xbe146eb4	-0.14495355
10	0xbe1b6b96	-0.1517776
11	0xbef75c34	-0.48312533
12	0x3eba627e	0.3640327
13	0x3f0a788c	0.5409019
14	0xbec4261f	-0.38310334
15	0x3f290eb3	0.66038054
16	0x3eb4d628	0.35319638
17	0xbd7cca03	-0.06171609
18	0xbf262b0b	-0.6490943
19	0x3eb584bb	0.35452828
20	0xbe98d7a7	-0.2985203
21	0x3fa4ce51	1.2875463
22	0x3f23b421	0.6394673
23	0xbdf2c5b4	-0.11854115
24	0xbdb49c25	-0.08818845
25	0x3f8d9533	1.1061157
26	0xbc26a914	-0.010172147
27	0xbf406359	-0.7515159
28	0x3ef26c44	0.47348225
29	0x3ed9b7e0	0.42523098
30	0xbd56770a	-0.05235962
31	0xbdf21cee	-0.11821924
32	0x3e839246	0.25697535
33	0xbe2db870	-0.16964889
34	0xbdc2276f	-0.094801776
35	0x3dab6a58	0.08369893
36	0xbd5ac01b	-0.053405862
37	0xbe80be7a	-0.25145322
38	0xbe11f91d	-0.14255185
39	0xbe493293	-0.19648199
40	0xbd2c00a7	-0.04199281
41	0xbe182d88	-0.14861119
42	0x3e461a99	0.19346084
43	0x3eae0aff	0.33992764
44	0x3f647032	0.89233696
45	0xbb741c17	-0.0037248188
46	0x3e516d4b	0.20451848
47	0xbe0d6353	-0.1380742
48	0xbcbae802	-0.022815708
49	0xbf433712	-0.76255906
50	0x3f452740	0.77013016
51	0xbdcd1df8	-0.10015482
52	0xbdc71dbb	-0.097224675
53	0x3ecdbe83	0.4018441
54	0xbdcd69bb	-0.10029932
55	0x3dab07b8	0.083510816
56	0xbe830765	-0.2559158
57	0xbe0ee5a6	-0.13954791
58	0xbd9b1172	-0.07571687
59	0x3f9cdd24	1.2254987
60	0x3eea75de	0.4579305
61	0xbdf4c01b	-0.11950704
62	0xbe677d75	-0.22606452
63	0x3ee1915e	0.4405622
64	0xbe04ef48	-0.12981904
65	0xbdb44533	-0.08802261
66	0x3fb1bc02	1.38855
67	0x3ef79670	0.48356962
68	0x3fb284ea	1.3946812
69	0x3f7fc7e7	0.999144
70	0x3d231b88	0.039821178
71	0xbe34d4cb	-0.17659299
72	0x3e4fabab	0.2028033
73	0x3e92581e	0.28582853
74	0xbe1018c1	-0.14071943
75	0xbd8860ff	-0.066591255
76	0x3ecfdfe3	0.406005
77	0xbdee5d6b	-0.11638912
78	0x3f51e06f	0.81983083
79	0xbe30a71e	-0.1725125
80	0x3f22f158	0.6364951
81	0x3d80efdb	0.06295749
82	0x3e62ed90	0.22160935
83	0x3f21cf74	0.63207173
84	0x3e8e3d2c	0.27781045
85	0x3f5031b8	0.81325865
86	0x3e180797	0.14846645
87	0xbe164497	-0.14674602
88	0x3f513035	0.81714183
89	0x3fa6d366	1.3033264
90	0x3fa3f617	1.2809476
91	0xbe05974f	-0.13046001
92	0x3e19ae41	0.15007879
93	0x3f8623f9	1.0479728
94	0x3f48b07c	0.78394294
95	0xbeb5f935	-0.35541692
96	0x3ea92d08	0.3304217
97	0xbdb20d7d	-0.08693979
98	0xbd12bfb2	-0.035827346
99	0xbde6dca5	-0.11272553
100	0x3ca5cfc4	0.020240672
101	0x3f2b8255	0.66995746
102	0xbc57a001	-0.0131607065
103	0xbe9fdf70	-0.31225157
104	0x3e8dd89c	0.27704322
105	0x3dbeff63	0.09326055
106	0x3ec6cadb	0.3882664
107	0x3dd15670	0.10221565
108	0x3fa88944	1.316689
109	0x3df1e681	0.11811543
110	0xbdda80ce	-0.10669099
111	0xbe42f229	-0.1903769
112	0x3ecee4a9	0.4040883
113	0xbe003b42	-0.12522605
114	0x3de09450	0.10965788
115	0xbdc89552	-0.097941056
116	0xbe956ba9	-0.291837
117	0x3e989839	0.29803637
118	0x3fb2b0c9	1.39602
119	0x3deb2555	0.1148173
120	0x3f38396c	0.7196262
121	0x3f85e198	1.0459471
122	0xbd06ff5b	-0.03295837
123	0x3f485681	0.78256994
124	0xbe00a30d	-0.12562199
125	0x3cf2b58c	0.029627584
126	0xbdb75cda	-0.08953257
127	0xbc07e3a3	-0.008294019

fc3.weight f4 [128, 128]
0	0xbd222e8a	-0.039595164
1	0x3f45606e	0.77100265
2	0x3e69e474	0.22841054
3	0x3f9f3d13	1.2440513
4	0xbf805b9e	-1.0027959
5	0xbe822aba	-0.25423223
6	0xbf9bbe24	-1.2167401
7	0x3c851a7b	0.016247978
8	0xbf0d2506	-0.5513462
9	0x3fa7d036	1.3110416
10	0x3f20aa9c	0.6276033
11	0xbe0f86f2	-0.14016321
12	0x3f675ad0	0.90372944
13	0xbfa0311b	-1.2514986
14	0x3e908176	0.2822377
15	0x3f224a73	0.6339485
16	0xbf3846c5	-0.71982986
17	0x3f856e17	1.0424222
18	0x3ec58cd2	0.38584
19	0xbecbe5fa	-0.39823896
20	0xbfa21537	-1.2662724
21	0x3d740653	0.059576344
22	0x3eda40bb	0.4262751
23	0x3bffa5c6	0.007801744
24	0xbba7f07b	-0.005125103
25	0x3dc9d477	0.098549776
26	0xbfa52ea3	-1.2904857
27	0x3f26d010	0.6516123
28	0xbe74982c	-0.23886174
29	0x3f3cd081	0.7375565
30	0xbd5881ef	-0.05285829
31	0xbde95ff6	-0.11395256
32	0xbce59420	-0.028024733
33	0x3f13e7a0	0.57775307
34	0x3c876505	0.016527662
35	0x3fa1d073	1.2641739
36	0x3d8d8f26	0.06912069
37	0xbe37b5d6	-0.17940459
38	0x3dadc5c5	0.08484987
39	0x3ed93b47	0.42428038
40	0xbfc5028d	-1.5391403
41	0xbd4527b6	-0.048133574
42	0x3e2e62af	0.17029832
43	0xc00191b5	-2.0245183
44	0x3d1e3ff1	0.038635198
45	0xbf37e153	-0.7182819
46	0x3f2a14f4	0.6643822
47	0x3ce6f502	0.028193
48	0x3f0744b6	0.5283922
49	0xbf9cf261	-1.2261468
50	0x3f892f58	1.0717573
51	0x3ea8e23e	0.3298511
52	0x3dcec7c8	0.10096699
53	0x3e6c651c	0.23085445
54	0x3d3ce130	0.046113193
55	0xbf7b3fad	-0.98144037
56	0xbf07a5ee	-0.52987564
57	0xbc026ae7	-0.007960058
58	0xbc8f6eea	-0.017508943
59	0x3dfd85de	0.12379049
60	0xbfdda656	-1.7316387
61	0x3dc741ef	0.09729373
62	0x3f5a895e	0.85365856
63	0x3e4836b4	0.19552118
64	0x4003f45c	2.0617895
65	0x3d942085	0.07232765
66	0xbd9c764c	-0.07639751
67	0xbe7f8322	-0.24952367
68	0xbecb3bb5	-0.3969399
69	0x3d915d87	0.07097917
70	0x3da02e00	0.07821274
71	0x3c1c2337	0.00952988
72	0xbed291eb	-0.41126952
73	0xbe7fcd9c	-0.24980778
74	0xbd47336d	-0.048633028
75	0x3dbd968f	0.092572324
76	0x3eaedd4e	0.34153217
77	0xbda861bf	-0.082217686
78	0xbec90fed	-0.39269963
79	0xbd3170ca	-0.043320455
80	0x3ea214e7	0.31656572
81	0x3f107766	0.5643219
82	0x3f5f622a	0.8725916
83	0x3ee80ca4	0.45322144
84	0x3f2af5a4	0.6678107
85	0x3e0c2d14	0.13689071
86	0xbdd591bf	-0.104281895
87	0xbf58549e	-0.84504116
88	0xc03c8898	-2.945837
89	0xbcac38aa	-0.021023113
90	0xbe10c1f1	-0.14136483
91	0x3db45a6c	0.08806309
92	0xbfa00b98	-1.2503538
93	0xbf1c5255	-0.6106313
94	0x3e9b01f0	0.30274916
95	0x3f145d33	0.5795471
96	0xbd1a8ad9	-0.03773007
97	0xbd3d67a4	-0.046241418
98	0xbc90ae9a	-0.017661382
99	0x3ba98cb2	0.005174243
100	0x3ea19af4	0.31563532
101	0x3ed92ca2	0.42416865
102	0x3ec55c7f	0.3854713
103	0xbf6c6f0b	-0.9235694
104	0xc01166ae	-2.271892
105	0xbe9435d6	-0.28947324
106	0x3f2a3850	0.66492176
107	0xbf5ade3e	-0.85495365
108	0x3f2bfb4f	0.6718034
109	0xbe97a30b	-0.2961658
110	0xbd5f784d	-0.054558087
111	0xbeb50388	-0.35354257
112	0x3ea5ee02	0.32408148
113	0xbd45d95b	-0.04830299
114	0x3e45ee2a	0.19329134
115	0xbce92e5a	-0.028464485
116	0x3e95ea7a	0.29280454
117	0xbf01baec	-0.50675845
118	0x3dc06295	0.09393803
119	0x3ec8204f	0.3908715
120	0xbd405060	-0.04695165
121	0x3ec0f69f	0.37688157
122	0x3cf8bc38	0.030363187
123	0xbee18ee0	-0.44054317
124	0xbd4e4bc3	-0.05036522
125	0x3f96c932	1.178015
126	0x3c841129	0.016121464
127	0x3eef0138	0.46680617
128	0x3c4f6668	0.012658693
129	0x3e859146	0.26087397
130	0xba6451cb	-0.0008709698
131	0xbf893aeb	-1.0721105
132	0xbec7e435	-0.39041296
133	0x3f214f80	0.6301193
134	0xbfd022eb	-1.6260656
135	0x3e051a75	0.12998374
136	0x3f59a8b0	0.8502302
137	0xbf312b9c	-0.6920717
138	0xbec9300e	-0.39294475
139	0x3d662f33	0.056197356
140	0x3e4a47ed	0.19754
141	0x3e51b249	0.20478167
142	0x3f34142b	0.70343274
143	0xbf7acd39	-0.97969395
144	0x3e94c692	0.29057747
145	0x3eb5b219	0.3548744
146	0x3ec1e08d	0.3786663
147	0xbfbedf88	-1.4911966
148	0xbf8ff043	-1.1245197
149	0x3e18d709	0.1492578
150	0x3f314403	0.692444
151	0xbcd42d0f	-0.025900392
152	0xbd6f4fbb	-0.058425646
153	0x3f4f2da9	0.80929047
154	0xbf8eaa49	-1.1145717
155	0xbe82949d	-0.25504008
156	0x3f9b1a6d	1.211744
157	0xbfabb116	-1.3413417
158	0xbd2259d6	-0.039636455
159	0x3d16d935	0.03682824
160	0xbdfe0ebc	-0.12405154
161	0x3eae10f8	0.3399732
162	0xbcf02b3c	-0.02931749
163	0x3f1f6b27	0.62272877
164	0x3c8cafcf	0.017173676
165	0xbb6fbd69	-0.0036581403
166	0xbb369906	-0.0027862205
167	0xbb89a8ed	-0.0042010457
168	0xbf3cb7ee	-0.73718154
169	0xbcb37a84	-0.021909006
170	0xbf59b107	-0.8503575
171	0x3e7096de	0.23495051
172	0xbfb899e6	-1.4421966
173	0xbebe4421	-0.37161353
174	0xbfe7736d	-1.80821
175	0xbcaf10af	-0.02137026
176	0xbf4b2fcc	-0.7936981
177	0x3f4aa737	0.791614
178	0xbe613ca6	-0.21995792
179	0x3e71682d	0.23574896
180	0x3c93867e	0.018008467
181	0x3f0145b6	0.50496995
182	0x3ce9da24	0.0285464
183	0xbd96c71b	-0.07362195
184	0xbe8e984f	-0.27850577
185	0xbc544bca	-0.012957523
186	0x3ba1cfcd	0.004938102
187	0xbe7e57d0	-0.24838185
188	0x3ebb698d	0.36603966
189	0xbd921884	-0.07133582
190	0xbf32d8dc	-0.6986215
191	0xbf01d64f	-0.50717634
192	0xbed88f4a	-0.4229682
193	0xbd7b0fb9	-0.06129429
194	0x3e49b5b6	0.19698223
195	0x3f99ffaa	1.2031147
196	0x3d30b7d5	0.043144066
197	0xbed811d6	-0.42201108
198	0xbf494b1c	-0.7863023
199	0x3d4a7b3e	0.04943394
200	0x3eadd1b9	0.33949068
201	0x3db8073b	0.08985754
202	0x3d15f12a	0.036606945
203	0xbc66911d	-0.014072684
204	0x3ece605e	0.40307897
205	0xbd921a47	-0.07133918
206	0x3f15f5d9	0.5857826
207	0x3d341f7d	0.043975342
208	0xbf1bb818	-0.6082778
209	0xbf131ab0	-0.57462597
210	0xbef5db3c	-0.48018825
211	0xbf843207	-1.0327767
212	0xbe925c2f	-0.28585956
213	0xbf125fba	-0.5717732
214	0x3f9e38d8	1.2361097
215	0x3ec50bc9	0.38485554
216	0x3e425085	0.18976028
217	0x3e00f0cf	0.12591861
218	0x3dc0f69d	0.09422038
219	0xbd651ad5	-0.055933792
220	0xbe734c99	-0.23759688
221	0x3e17aa6b	0.14811103
222	0xbf71f452	-0.9451343
223	0x3d74b161	0.059739474
224	0xbfe1445b	-1.7598985
225	0x3ce9dcd3	0.02854768
226	0xbd81608c	-0.06317243
227	0xbd00eeb4	-0.031477645
228	0xbfbf5101	-1.4946595
229	0xbf213a87	-0.6297993
230	0x3dc8f8b0	0.098130584
231	0xbfd7967b	-1.6842798
232	0x3e8acc5c	0.2710904
233	0xbe9d3f2e	-0.30712265
234	0x3f0897b1	0.5335646
235	0x3e224add	0.1584887
236	0xbf03af1b	-0.51439065
237	0xbf1f592d	-0.62245446
238	0xbd6cc89a	-0.057808496
239	0xbf210794	-0.6290219
240	0xbfa9b60b	-1.325868
241	0x3dafe218	0.08588046
242	0xbf1f9eeb	-0.62351865
243	0x3d595096	0.05305537
244	0x3f12766a	0.57211936
245	0x3ef07824	0.4696666
246	0xbd47300c	-0.048629805
247	0xbed08f4d	-0.4073433
248	0x3ea5690a	0.323067
249	0x3f03fc1b	0.5155656
250	0x3db9511a	0.09048672
251	0xbf058224	-0.52151704
252	0x3d838dfa	0.06423564
253	0xbf597633	-0.8494598
254	0x3d252277	0.04031607
255	0xbe9b2eaf	-0.30309054

fc3.bias f4 [128]
0	0x3ebe13f3	0.37124595
1	0x3f589ff6	0.8461908
2	0x40083244	2.128068
3	0x3eb5c3df	0.35501
4	0x3e89e250	0.26930475
5	0xbe1b54ee	-0.15169117
6	0xbe2f9575	-0.17146857
7	0xbdf5bd74	-0.11999026
8	0x3ff250a8	1.8930864
9	0x3f9627d5	1.1730906
10	0xbdbd1235	-0.09231988
11	0x3e0649dc	0.13114113
12	0xbd171f8f	-0.03689533
13	0x3e8f86d7	0.28032562
14	0x3e0e8140	0.13916492
15	0xbde2b8f5	-0.11070434
16	0xbdf01f31	-0.11724699
17	0x3dc6164a	0.0967222
18	0x3f517561	0.8181973
19	0xbdb4ae2a	-0.08822282
20	0xbd03ff02	-0.032225616
21	0xbdc6cddd	-0.09707234
22	0xbe0cee73	-0.13762836
23	0xbe29247a	-0.16517821
24	0xbe16bea9	-0.14721169
25	0x3f4db92f	0.8036069
26	0x3f796b5c	0.9742944
27	0xbdac4b7b	-0.08412834
28	0xbde14c74	-0.110009104
29	0x3ff4ea42	1.913399
30	0xbf154f77	-0.5832438
31	0x3f9b3f01	1.2128602
32	0x3f1546b8	0.58311033
33	0x3f1bcf7b	0.60863465
34	0xbe25086a	-0.16116491
35	0xbe0e7b10	-0.13914132
36	0x3f5e5b9b	0.8685853
37	0xbe1ba8d1	-0.15201117
38	0xbe1d7796	-0.1537765
39	0x3f8b39da	1.087703
40	0xbdcd5966	-0.10026817
41	0x3eed4e56	0.46348828
42	0xbe6aa598	-0.22914732
43	0x3ea41072	0.32043797
44	0xbe1a20dd	-0.15051599
45	0x3f20918d	0.6272209
46	0x3f70f809	0.9412847
47	0xbe239365	-0.15974195
48	0x3f18ff2e	0.59764373
49	0x3fc2d979	1.5222617
50	0xbe9fb98b	-0.31196246
51	0x40061e65	2.0956051
52	0x3edb59f8	0.42842078
53	0x3f8edd0c	1.1161208
54	0xbed689b3	-0.4190193
55	0xbdb88782	-0.09010221
56	0x3f4fc941	0.81166464
57	0xbe07cae8	-0.13260996
58	0x3f4f295d	0.8092249
59	0x3f37eb45	0.7184337
60	0x3fe1dd25	1.7645613
61	0xbe19459a	-0.14967957
62	0xbe0706e8	-0.13186228
63	0x3fe14f46	1.7602317
64	0x4014298b	2.3150356
65	0x4008e7a5	2.1391385
66	0x3fe506fa	1.7892754
67	0x3fb47f4e	1.410135
68	0x3fc4eb3a	1.5384285
69	0x3fba7fd8	1.4570265
70	0x4001389b	2.01908
71	0x3f1a7ea7	0.60349506
72	0x3f025e08	0.5092473
73	0x3f68119c	0.9065187
74	0x3f709c9a	0.93988955
75	0xbe13a142	-0.14416984
76	0x3fba5087	1.4555825
77	0xbe12d674	-0.1433962
78	0xbd471d73	-0.04861207
79	0xbe1a3c66	-0.15062103
80	0xbe063ac8	-0.13108361
81	0x3f649b01	0.8929902
82	0x3fccd8bf	1.6003646
83	0x3f81491c	1.0100436
84	0x3fb79abd	1.4344097
85	0x400166e6	2.0219054
86	0xbf33a32b	-0.7017085
87	0x3fd5c099	1.6699401
88	0x3f49cc8e	0.7882775
89	0xbcb63fb6	-0.022247177
90	0x3f0d8dab	0.55294293
91	0xbe20a9e7	-0.15689813
92	0xbe0383bd	-0.12843223
93	0x3f8aaf4d	1.0834748
94	0x3f291576	0.6604837
95	0x3f8adee6	1.0849273
96	0x3f9c2d7d	1.2201382
97	0xbe17745b	-0.1479048
98	0x3f98c4a9	1.1935016
99	0xbe0176c7	-0.12642966
100	0x3fd6858f	1.6759509
101	0x3e42ed0b	0.19035737
102	0x3fce266a	1.6105473
103	0x3fe3fb49	1.7811061
104	0x3ff5e117	1.9209317
105	0x3f5998d7	0.8499884
106	0xbe1624f2	-0.14662531
107	0x3f444c02	0.7667848
108	0x3fc37cc7	1.5272454
109	0xbdc4a422	-0.09601618
110	0x3fd6d978	1.6785116
111	0x3f90dcbf	1.1317366
112	0x3fe5ee26	1.7963302
113	0xbe30920d	-0.17243214
114	0x3eb2972e	0.34880966
115	0x3ff34c2f	1.9007624
116	0xbda25c97	-0.07927816
117	0xbdbbb102	-0.09164621
118	0x3e0a4e3c	0.13506407
119	0x3f4da1f2	0.80325234
120	0xbe112600	-0.14174652
121	0x3f1688cb	0.5880248
122	0xbc7913a7	-0.015202439
123	0xbd90789c	-0.070542544
124	0x40115307	2.2706926
125	0xbec03fa4	-0.37548554
126	0x3fd0406b	1.6269659
127	0x3f92d9d2	1.1472723

fc4.weight f4 [32, 128]
0	0x3c1b6d1c	0.009486463
1	0xbe3c1643	-0.18367867
2	0x3d7f699b	0.062356573
3	0x3cdedff7	0.027206404
4	0x3cb53de7	0.022124244
5	0xbc6fe518	-0.014642023
6	0xbd38bf28	-0.045104176
7	0xbd35f27e	-0.04442071
8	0x3d5b45b3	0.053533267
9	0xbd2eeab1	-0.042704288
10	0x3d9a35e1	0.07529808
11	0xbcbcca64	-0.023045726
12	0x3d090f9c	0.033462152
13	0xbd90b2ba	-0.070653394
14	0x3d908f1c	0.07058546
15	0xbc431afd	-0.01190829
16	0xbda665a0	-0.08124852
17	0xbd5c30fd	-0.053757656
18	0xbd76e849	-0.06028012
19	0xbd7cfa3e	-0.061762087
20	0xbd2ca596	-0.042150103
21	0x3c92c020	0.017913878
22	0xbd9a495c	-0.075335234
23	0xbd6deb2f	-0.058085617
24	0xbd96b8c9	-0.07359464
25	0xbd1d763d	-0.03844284
26	0xbcfcf808	-0.03087999
27	0xbc645803	-0.013936999
28	0xbd94ae1c	-0.07259771
29	0xbd70cdbb	-0.05878995
30	0xbcca2cf9	-0.024679648
31	0xbd0fe2a7	-0.035128262
32	0xbe1f05b5	-0.15529521
33	0xbe1fcc78	-0.15605342
34	0x3db4d2d3	0.08829274
35	0x3d8976fb	0.06712147
36	0xbd1dbd9c	-0.038510904
37	0xbd06e269	-0.032930765
38	0x3c8bef28	0.017081812
39	0x3c67643b	0.014123018
40	0x3d344de6	0.044019602
41	0x3c1ed8f7	0.009695283
42	0xbbbbd150	-0.005731739
43	0xbe0c1ee3	-0.13683657
44	0xbd87d248	-0.06631905
45	0xbb293b63	-0.002582275
46	0xbdd9afbe	-0.10629223
47	0x3b67fae0	0.0035397336
48	0xbd375188	-0.04475549
49	0xbdbf6ef5	-0.09347335
50	0xbd968d3b	-0.07351156
51	0xbd240156	-0.040040337
52	0x3caf931d	0.021432454
53	0xbddec1ec	-0.108768314
54	0x3d9a8ac7	0.07546001
55	0x3be19850	0.006884612
56	0xbdcdd9c7	-0.10051303
57	0x3d9cb275	0.076512255
58	0x3ce12e1b	0.027487805
59	0x3c0ff8a2	0.008787306
60	0xbd4d6bf1	-0.05015177
61	0x3d03c002	0.032165535
62	0xbda6330a	-0.08115204
63	0xbdc82ae2	-0.09773804
64	0xbdcb8908	-0.09938246
65	0xbe92e6f9	-0.28691843
66	0xbc287008	-0.010280617
67	0x3ca82c7f	0.02052903
68	0xbe02413f	-0.12720202
69	0xbe08cf45	-0.13360317
70	0xbdabc983	-0.08388045
71	0xbc96a841	-0.018390777
72	0xbd01139e	-0.03151285
73	0xbd7adc88	-0.06124547
74	0xbdfc0a43	-0.12306645
75	0x3d18b702	0.037283905
76	0x3d1a5232	0.037676044
77	0x3d951fa3	0.07281425
78	0xbdbe5dde	-0.092952475
79	0xbc9968b0	-0.018726677
80	0x3d17acda	0.03703008
81	0x3c12a2b7	0.008949927
82	0x3daaa8c7	0.08332973
83	0xbd9e49a3	-0.07728889
84	0xbdc43ea5	-0.09582261
85	0xbb4f1d14	-0.0031603025
86	0xbd2f7c7d	-0.04284333
87	0xbe2e657a	-0.17030898
88	0xbd61e36f	-0.05514854
89	0xbbf196d0	-0.0073727146
90	0xbd8c35f9	-0.06846232
91	0x3d030848	0.03199032
92	0xbd18c9d2	-0.037301846
93	0xbe13a390	-0.14417863
94	0xbe2e458e	-0.1701872
95	0x3e664c37	0.22490011
96	0xbe13b960	-0.14426184
97	0x3ddc0ba8	0.10744411
98	0x3d8b5231	0.06802786
99	0xbd9fd793	-0.078047894
100	0xbe2aa2d2	-0.16663674
101	0xbe037fdb	-0.12841742
102	0xbaadd3d8	-0.0013261987
103	0xbe0c7d34	-0.13719636
104	0xbe149701	-0.14510728
105	0xbe48695e	-0.19571444
106	0xbdb36b54	-0.087607056
107	0xbd4cf0b2	-0.050034232
108	0xbd9c752d	-0.07639537
109	0x3d814343	0.06311657
110	0xbd8d2140	-0.068911076
111	0xbdafd539	-0.08585591
112	0x3da30432	0.079597846
113	0x3db07397	0.08615797
114	0x3cc27d45	0.023741374
115	0xbcfa4d18	-0.03055434
116	0x3d0b3e92	0.03399522
117	0x3d0fdd89	0.03512338
118	0xbd7a5846	-0.06111934
119	0x3a6adaa7	0.00089589733
120	0xbda0fd0e	-0.07860766
121	0xbd91aaf4	-0.07112685
122	0x3d23aa0c	0.03995709
123	0xbd75ad86	-0.059979938
124	0xbe1ef701	-0.15523912
125	0xbd84440c	-0.064582914
126	0xbd23e2ea	-0.040011324
127	0xbe158992	-0.1460326
128	0xbcc75e79	-0.02433704
129	0xbdd439d4	-0.10362592
130	0xbc3fe79b	-0.011712934
131	0xbe02fcf8	-0.12791812
132	0xbdd490ca	-0.10379179
133	0x3d526e02	0.051374443
134	0xbcc069a8	-0.02348788
135	0x3d884b61	0.066550024
136	0xbe1fe92b	-0.1561629
137	0xbdea5145	-0.11441282
138	0x3c1ed3f2	0.009694086
139	0x3cbda91c	0.023151927
140	0x3d4530d8	0.048142284
141	0x3d65a4cf	0.056065377
142	0x3d84a395	0.06476513
143	0xbd16c816	-0.03681191
144	0x3d911b09	0.07085235
145	0xbde16dc7	-0.110072665
146	0xbdbfe03a	-0.0936894
147	0xbdc135da	-0.094340995
148	0x3cd960f0	0.026535481
149	0x3d9f8ca3	0.07790496
150	0xbda5cdf1	-0.08095921
151	0x3da3f849	0.08006341
152	0x3da3a03f	0.07989549
153	0x3d140f3d	0.036147345
154	0x3cc6f22a	0.024285395
155	0x3d1b3ff1	0.037902776
156	0xbd0d1107	-0.034440067
157	0xbd494fc7	-0.049148347
158	0xbcad62fc	-0.021165363
159	0xbe1f4fb4	-0.15557748
160	0xbd5e9f0e	-0.054350905
161	0x3c6f80c8	0.014618106
162	0x3b9e4620	0.004830137
163	0xbce795b0	-0.028269619
164	0xbd1d6340	-0.03842473
165	0x3d980a99	0.07423896
166	0xbd770f36	-0.06031724
167	0xbd7693f9	-0.06019971
168	0x3d751e6d	0.05984347
169	0xbc34a528	-0.011025704
170	0xbcdc01da	-0.026856352
171	0xbdbe2bb4	-0.092856795
172	0x3d2c957e	0.042134754
173	0xbc13e881	-0.009027601
174	0xbb763772	-0.003756967
175	0x3c6ffff0	0.014648423
176	0xbd1ec2d3	-0.038760018
177	0xbd980656	-0.074230835
178	0xbd1e174b	-0.038596433
179	0x3d3ad82b	0.04561631
180	0xbd7a3a10	-0.06109053
181	0xbc00d1bc	-0.007862505
182	0x3d283f65	0.041076083
183	0x3c83449c	0.016023926
184	0x3be73320	0.007055655
185	0x3d79ce22	0.0609876
186	0xbda0b7c4	-0.078475505
187	0x3af80dd4	0.001892502
188	0xbbf74166	-0.007545638
189	0xbd1c349f	-0.03813612
190	0x3bc73d00	0.00608027
191	0xbdb84125	-0.089968
192	0xbd8ed715	-0.069746174
193	0xbd814db1	-0.063136466
194	0xbd42ca50	-0.04755622
195	0x3d2c17fc	0.04201506
196	0xbd204fd3	-0.039138626
197	0x3b516403	0.003195048
198	0xbe0847fa	-0.13308707
199	0xbd18f420	-0.03734219
200	0x3d56fd6d	0.05248778
201	0xbdb138a3	-0.08653381
202	0x3d11dc81	0.03561068
203	0x3d97271b	0.07380506
204	0x3d17def3	0.037077855
205	0xbc9ac890	-0.018894464
206	0x3bcc59ca	0.0062362896
207	0x3b4142e0	0.0029489323
208	0x3ca5ec64	0.020254321
209	0xbd84f802	-0.06492616
210	0x3d11d6a3	0.035605084
211	0xbd252f95	-0.04032858
212	0x3bc9ac29	0.0061545563
213	0xbc75218d	-0.014961612
214	0xbd3f3f32	-0.046691127
215	0xbd4630fb	-0.048386555
216	0xbd9806cf	-0.07423174
217	0xbd8c4373	-0.068488024
218	0xbdcf4e77	-0.10122388
219	0x3d414452	0.047184296
220	0x3d6bf402	0.05760575
221	0xbdac91c3	-0.08426239
222	0xbbaad454	-0.0052132998
223	0xbdb019a6	-0.08598642
224	0x3c83544e	0.01603141
225	0x3c54c540	0.012986481
226	0xbd2c21e1	-0.042024497
227	0x3d067d46	0.032834314
228	0x3d76a1c4	0.060212865
229	0xbbd9ee7c	-0.006650744
230	0xbd2a77e1	-0.04161823
231	0xbc7b9da2	-0.015357407
232	0xbbeff6f7	-0.0073231417
233	0xbdb1827e	-0.086674675
234	0x3c2ce818	0.010553382
235	0xbde9bc2a	-0.114128426
236	0xbda09e40	-0.07842684
237	0x3d45b2ce	0.048266225
238	0x3c52d7e5	0.012868856
239	0xbdc65c6d	-0.096855976
240	0xbda27915	-0.07933251
241	0x3c960850	0.01831451
242	0x3d69d543	0.057088148
243	0xbd9cc7cc	-0.07655296
244	0x3a6dde80	0.00090739876
245	0xbdc0db64	-0.094168454
246	0xbdd53d17	-0.104120426
247	0xbda0f9a6	-0.07860117
248	0xbdb327e4	-0.08747843
249	0xbd60cec5	-0.05488469
250	0x3d9b1802	0.075729385
251	0xbdaf7f9b	-0.08569261
252	0xbd2a7af3	-0.04162116
253	0xbd66aa6f	-0.056314882
254	0x3be8b0a9	0.0071011377
255	0xbdb86c15	-0.0900499

fc4.bias f4 [32]
0	0xbd4d8921	-0.050179604
1	0xbc51865d	-0.012788382
2	0xbc270c8e	-0.010195864
3	0x3f9c965b	1.2233385
4	0x3f3ec59d	0.74520284
5	0xbcab8689	-0.020938175
6	0xbdc9bacc	-0.09850082
7	0x3fcb7399	1.5894653
8	0xbe0e3f9b	-0.13891451
9	0xbe0013ac	-0.12507504
10	0x3fb65106	1.4243476
11	0x3f88d557	1.0690106
12	0xbd4f797b	-0.050652962
13	0xbd8d68af	-0.069047324
14	0x3f912c05	1.1341559
15	0x3f1c5d5a	0.61079943
16	0x3f4a7b16	0.79094064
17	0x3caff148	0.021477357
18	0xbd93a071	-0.07208336
19	0x3f801c81	1.0008699
20	0x3fab6b08	1.3392038
21	0x3fbed26b	1.4907964
22	0xbe0beb4d	-0.13663979
23	0x3fd3a9d6	1.6536205
24	0xbdb27623	-0.08713939
25	0xbcfbf83e	-0.03075802
26	0x3f36c735	0.71397716
27	0x3f88400f	1.0644549
28	0xbe0dc8e5	-0.13846166
29	0xbdd6bab6	-0.10484831
30	0xbd8a54d4	-0.06754461
31	0xbcfeab44	-0.031087525

fc5.weight f4 [4, 32]
0	0x3e1cbc47	0.15306197
1	0x3ddd5284	0.10806754
2	0x3d9a1482	0.07523443
3	0xbe9457a0	-0.28973103
4	0x3f0d3821	0.5516377
5	0xbd5a70fc	-0.053330407
6	0x3cae6ec5	0.021293053
7	0x3cccf767	0.025020314
8	0xbb8545e9	-0.004067172
9	0x3dde4381	0.10852719
10	0xbe5e2fd3	-0.21697931
11	0x3ee3e3e8	0.44509816
12	0x3e081375	0.13288672
13	0x3e2697cf	0.16268848
14	0xbf06091a	-0.5235764
15	0x3f4f899b	0.81069344
16	0xbebac47e	-0.36478037
17	0x3dedc1e1	0.11609245
18	0x3c68e9ee	0.014215929
19	0x3e0938af	0.1340053
20	0x3e6034d8	0.21895158
21	0x3ead4aaa	0.33846027
22	0x3d5146ab	0.051092785
23	0x3e83db4f	0.25753257
24	0x3d011467	0.031513598
25	0x3cf86365	0.030320833
26	0x3ea9d106	0.33167285
27	0xbe96e347	-0.29470274
28	0x3dff1dfa	0.124568895
29	0x3d85f056	0.06539981
30	0x3dd981d2	0.106204644
31	0x3dc731a5	0.09726266
32	0xbce86539	-0.02836858
33	0xbdd763d2	-0.10517086
34	0xbd62e25c	-0.055391654
35	0xbdaa800d	-0.08325205
36	0x3dc28008	0.09497076
37	0x3e121d41	0.14268972
38	0xbd928b54	-0.07155481
39	0x3e654855	0.22390874
40	0x3b9e2ccb	0.004827117
41	0xbdc521cd	-0.096255876
42	0xbe76b427	-0.2409216
43	0x3ed4575b	0.41472897
44	0xbbce44c9	-0.006294821
45	0xbcfb3f89	-0.030669944
46	0x3ebf2312	0.37331444
47	0x3f2774e0	0.6541271
48	0x3f187c0e	0.5956429
49	0x3da37a58	0.079823196
50	0xbd0b9a44	-0.034082666
51	0xbf6d756c	-0.92757297
52	0x3eaa4f79	0.33263758
53	0xbe1d735e	-0.1537604
54	0x3cf3627e	0.02971005
55	0x3ebffe41	0.37498668
56	0x3e0d701d	0.13812299
57	0xbcdf60a5	-0.027267763
58	0x3e63a34e	0.22230265
59	0x3e2ede1b	0.17076914
60	0xbda4944e	-0.080360994
61	0xbcd70d3a	-0.026251424
62	0xbce8a302	-0.02839804
63	0xbdc1dba4	-0.09465721
64	0x3d0d9099	0.034561727
65	0xbdb88df9	-0.09011454
66	0xbc3a3b1f	-0.011366635
67	0x3efd858b	0.49515948
68	0xbda09286	-0.07840447
69	0x3c673617	0.014112017
70	0x3e02b51e	0.12764403
71	0x3e83a4f4	0.25711787
72	0xbdfa7d46	-0.12230925
73	0xbdec8c89	-0.115502425
74	0x3e037a4e	0.12839624
75	0x3eb248c3	0.34821138
76	0xbe306fd0	-0.17230153
77	0xbdcdb92a	-0.10045083
78	0xbf496606	-0.786713
79	0x3f08f93d	0.5350531
80	0xbd559f1f	-0.052153703
81	0x3e0bf639	0.13668145
82	0x3e0cfd9c	0.1376862
83	0xbdad9b03	-0.08476832
84	0xbdd472d2	-0.10373463
85	0x3e88c211	0.2671056
86	0x3d664bb5	0.056224544
87	0x3f0bbb9d	0.5458315
88	0x3dccdbfc	0.10002896
89	0xbdc9719b	-0.09836122
90	0xbeb7bdd0	-0.35887003
91	0x3e17cb93	0.14823751
92	0x3db28f7b	0.08718773
93	0x3dc019a1	0.09379888
94	0xbda0b71e	-0.07847427
95	0x3dc8a1c0	0.09796476
96	0xbdbf030e	-0.093267545
97	0x3e2ce647	0.16884719
98	0xbd15088e	-0.03638511
99	0xbf0948a8	-0.5362649
100	0x3ef1b6dc	0.47209823
101	0xbc1e0de9	-0.009646871
102	0x3cd408b2	0.025883052
103	0x3cfbf01c	0.030754142
104	0xbcf77fbc	-0.030212276
105	0x3d662dae	0.056195907
106	0xbeaf0f07	-0.34191152
107	0x3f0e62db	0.5561959
108	0x3dcbdd2e	0.09954296
109	0x3dcca26e	0.099919185
110	0x3eb6aa5c	0.3567685
111	0x3f77596f	0.9662084
112	0xbeeda9a8	-0.464185
113	0x3db0eacf	0.08638536
114	0x3b11b5bf	0.0022233573
115	0xbe944efa	-0.28966504
116	0xbb979f62	-0.004627154
117	0x3e5699cf	0.20957111
118	0xbd4200dd	-0.047364105
119	0xbcb7490d	-0.0223737
120	0xbdb43669	-0.087994404
121	0xbd9d443e	-0.07679032
122	0x3aae7787	0.0013310768
123	0x3e13b816	0.14425692
124	0xbd0d76a7	-0.034536984
125	0x3da10280	0.07861805
126	0xbdb85ec8	-0.09002453
127	0xbe05e925	-0.13077219

fc5.bias f4 [4]
0	0xbe3f7e5d	-0.18700548
1	0x3f3069b4	0.6891129
2	0x3f88c5a7	1.0685319
3	0x3de4f421	0.111793764
