DQN_models/model_updaterate1000_gamma0.7_alpha0.001_static.pt (torch, 416839 bytes, 10 tensors)

fc1.weight f4 [128, 514]
00000000: aaf3 f9bc b298 11bd e44d 2d3c 183e a43b
00000010: 744e 5a3c 4803 1d3c 40f6 a13c 2062 be3b
00000020: bc5f 583c fe9e 0f3d 203c a33c eeae 163d
00000030: 1cae 333d 90b1 b1bb 5a4f 7fbc 089e ee3c
00000040: eab4 1c3d b0de 6d3b 8032 20bc 0ccb cf3c
00000050: 58b2 d23b 08a8 923b 2b9e 10bd 2e76 5dbc
00000060: 2256 bfbd 84a7 273f 374a 593f d3a4 0d3f
00000070: c05d ae3e 0582 003f 2026 523f 4633 31bc
00000080: 7266 c83c 55c7 863e 4457 e83e dbb2 38be
00000090: 6046 873d 0a6b 573d df92 db3d f125 42bd
000000a0: 688a 643d 7500 abbe ed8f 29bd e8fb 063c
000000b0: c05d 103d e311 25bd 8052 a53e 4169 fe3e
000000c0: e296 0b3f 00e7 5a3f d2d6 36bd 1bfc 1c3f
000000d0: 2e10 603e 6b66 363d 3dba d03e 8469 0c3d
000000e0: c7ed d33e de30 ad3e 8395 d43e fd02 023e
000000f0: 84b8 48bc 07aa 523d b415 c2bc 2a87 9abe
00000100: c86b 313d d2c9 1a3d 7f21 d4bc b491 a53c
00000110: 2d83 d93d a72d 7d3d b12d d0be 444b 5f3c
00000120: 209e 0e3d e620 45be 643a cf3e c721 88be
00000130: cef3 193d 5848 4cbc 46bc 7dbe 9a77 aebd
00000140: eafc b3be 5c5e ffbc e8e7 f13c f140 82be
00000150: 2f09 403d df67 d4be 7817 193d 7075 9dbb
00000160: 100a a6bb 5cbe 0fbc 4322 f0be 02ff 21be
00000170: fd4d e7be cc27 833c 7427 3d3c e604 3dbe
00000180: df13 1abe 9ded a3be 6629 11bd c651 143d
00000190: e154 4dbe c893 80be 9c68 783e 00d8 4e3c
000001a0: 5408 633c da8e 30be 969f d23e b866 abbe
000001b0: a0b8 183d b8ee 793c f820 a63c 1e36 0ebd
000001c0: 7432 89be 2f93 30be a521 a3be c595 16bd
000001d0: 04d9 7abc 5e82 d23e 81af 1e3f 8e39 b8be
000001e0: 4c7e 4fbc f4be 21bd 0a92 abbd 45f1 863d
000001f0: 174c b2be 00b2 d038 54a8 f23c ae10 31be
00000200: ccba 8e3e 330b f2be ac53 733c 5076 39bc
00000210: 9860 c9bb 129d b0bc 1931 5fbe 1295 abbe
00000220: cb28 a6be 9c4c 0a3d d89c 223d c235 5bbe
00000230: 71fa 023f a169 8dbe 3033 44bc 1c97 8bbc
00000240: 37e6 d3be 02d9 6c3d 49c8 a0be 5870 bebb
00000250: 8426 233c a10e f3bd 5802 513c 2857 d5bd
00000260: e103 0dbd 8024 343a 00da 92ba 48ce d23c
00000270: 9f07 4bbe 337c 39be 0a0e 49be 1780 d2bc
00000280: b2cb 163d 86b9 74bd 8fbd 8a3e c495 a5be
00000290: 6f7a 03bd f010 f73c b1fc b1be d84c 4ebe
000002a0: 7be2 d3be 90bf b03c 845e 2cbd dfcb 36be
000002b0: 43c5 353d c382 6abe 9d88 96bc 8081 8b3b
000002c0: 702c cd3c 3ca3 e83c 87c5 98be 2ec3 5ebe
000002d0: 6992 9fbe 5227 efbc 3c00 eb3c 18a0 2fbe
000002e0: 1776 fa3e 43c1 49be c098 20bd d9d3 cbbc
000002f0: d251 64be 382b 10be 9e76 0ebc 1825 bfbc
00000300: d80f 02bd 781a 28be 87aa fe3c 6d35 6abd
00000310: e494 723c ccc1 143c f093 0abc 3858 9abb
00000320: 2c48 7abc ff26 ba3d c210 46be 5a2c b9bc
00000330: 507b 32bd 498f 8cbe c17e ee3d 04a6 2fbe
00000340: d06e 7c3c 7da3 1bbd a7bc 47be 8768 28be
00000350: 216e 81be 74d5 c33c 1cc6 d2bc cb28 28be
00000360: 718a d7bd e4f3 1c3d f47c ee3c a65a 20bd
00000370: 8809 a7bb a0df b3bb 0c77 83be 19af b7bc
00000380: 682b 32be 20f6 fd3c 84b7 46bc c493 33be
00000390: af8b 7cbe 58d3 52be c0f1 d83a 7018 d83c
000003a0: 2bb2 42be ea3d 64be 9789 70be 78f2 d33c
000003b0: ecab b93c 3707 55bd 1bcd 85be 1ec7 afbc
000003c0: a0aa 42bc 4a07 183d 08b7 c63c 064f 2b3d
000003d0: ef7a 6dbe df75 0d3f 18a8 6dbe 980b 1b3d
000003e0: f90c 17bd fa8c 1abd 2cdf a3be 34a0 52be
000003f0: bf5a e7bc e01b a53a 26a6 a03c 546e 503f
-0.030511696 -0.035546012 0.010577653 0.005012285 0.013324369 0.009583302 0.019770741 0.0058100373
0.013206419 0.035063736 0.01992613 0.03678792 0.043867216 -0.0054227784 -0.015582884 0.02912809
0.03825847 0.0036296062 -0.009777665 0.025365375 0.0064299516 0.0044755973 -0.03530709 -0.013516946
-0.093426004 0.65489984 0.8487887 0.55329627 0.340559 0.50198394 0.82089424 -0.010815447
0.024462912 0.26323953 0.45379078 -0.18036978 0.0660522 0.052592315 0.10721373 -0.047399465
0.055796057 -0.33398786 -0.041397024 0.00823877 0.035245657 -0.04030026 0.32289505 0.49689677
0.54527104 0.8550873 -0.044638462 0.6132218 0.21881172 0.044531267 0.4076709 0.034280315
0.41392347 0.33826345 0.41520318 0.12696452 -0.012251023 0.051431682 -0.02369199 -0.30181247
0.04331568 0.037790127 -0.025894878 0.020211078 0.10620723 0.061811116 -0.4065986 0.013628785
0.03481877 -0.19250831 0.40474236 -0.2658827 0.037586026 -0.01246842 -0.24778852 -0.08518906
-0.35153896 -0.031172924 0.029529527 -0.2544017 0.04688376 -0.41485497 0.037375897 -0.0048052594
-0.0050671175 -0.008773413 -0.4690114 -0.15819934 -0.45176688 0.016010188 0.011545051 -0.184589
-0.15046643 -0.32017222 -0.03543987 0.036210798 -0.2005191 -0.25112748 0.24258655 0.012624741
0.013856966 -0.17241994 0.4113738 -0.33476806 0.037285447 0.015254669 0.020279393 -0.03471958
-0.26796305 -0.17243646 -0.31861606 -0.036763925 -0.01531053 0.41115087 0.6198655 -0.3598141
-0.012664389 -0.039488748 -0.08377464 0.06588987 -0.34823677 9.951368e-05 0.02962128 -0.17291519
0.2787689 -0.4727417 0.014851492 -0.011319712 -0.006145548 -0.021559272 -0.21796073 -0.3351217
-0.32452998 0.033764467 0.03970036 -0.21407226 0.51163393 -0.2761965 -0.011975095 -0.017039828
-0.41386577 0.057824142 -0.31402805 -0.0058117323 0.009957913 -0.118680246 0.012756906 -0.10417014
-0.034427527 0.0006871894 -0.0011203885 0.025733128 -0.19827126 -0.18113784 -0.19634262 -0.025695844
0.036815353 -0.05974724 0.27097747 -0.32340825 -0.032099184 0.030159444 -0.347631 -0.20146501
-0.41383728 0.02157572 -0.042082325 -0.17851208 0.044377577 -0.22901444 -0.01837569 0.004257381
0.025045604 0.028398149 -0.298382 -0.21754143 -0.3116639 -0.029193554 0.028686635 -0.17150915
0.4891822 -0.1970263 -0.039208174 -0.02488129 -0.22296837 -0.14078987 -0.008695273 -0.023333117
-0.03175339 -0.16416347 0.031087173 -0.057179857 0.014806006 0.009079408 -0.008458123 -0.0047102235
-0.015275996 0.09089469 -0.1934233 -0.022604156 -0.04357463 -0.27453068 0.1164527 -0.17153174
0.015407279 -0.03799771 -0.19505559 -0.16446124 -0.25279334 0.023905493 -0.025729232 -0.16421811
-0.105244525 0.03831853 0.029112317 -0.03914895 -0.0050975718 -0.0054893047 -0.25676763 -0.02242236
-0.1739937 0.03100115 -0.0121287145 -0.17536837 -0.2466266 -0.20588434 0.0016551539 0.02637884
-0.19013278 -0.22289243 -0.23489986 0.025872454 0.022664987 -0.052008834 -0.26133046 -0.021457251
-0.0118815005 0.037116326 0.024257198 0.04182341 -0.23191427 0.5525798 -0.23208654 0.037852854
-0.036877606 -0.037732102 -0.32006204 -0.20568925 -0.028241513 0.0012596808 0.019610476 0.8141835

fc1.bias f4 [128]
00000000: 641c 72be 6d79 5abe bd0f 1fbf 2db6 14bf
00000010: 9693 553d 5522 00bf 5268 ab3b 2eed 65be
00000020: fd7b 243d 6d7d cbbd 5666 9f3e ea5e 0ebf
00000030: 5328 9abe cae9 65be 6351 c53e 6eb9 b2be
00000040: e1eb 83bd 660e 42be fdda debc 154c 43bd
00000050: 7823 e03c 861b b6bc 01ee b8be 5310 cabe
00000060: ce79 4abe fdec adbd 475f 62bd 9117 ed3c
00000070: 8ab7 d93d 443d b5bd 44f4 de3c 6773 34be
00000080: 09b9 ae3e 7620 cfbe a078 06be dca4 7ebe
00000090: 359f 1fbf eb0e 06bd 586c 63bd b806 71be
000000a0: 5533 793e bfe8 0dbe efcc 00bd 95d6 bebd
000000b0: 8407 863d e88e 1ebf 0ef4 9f3c 2265 82bf
000000c0: 5d36 10be 1a09 04be ebe2 0fbf 7983 5a3e
000000d0: 0413 03be d91e f2be 8a77 5dbf 7766 90bd
000000e0: a5f5 e2bd 128c 82bc c6e5 c73d f5f4 16bf
000000f0: bf65 2cbc 0bb2 1d3e 5631 7f3e ec99 c8bd
00000100: 32f5 32bd 2969 6ebe 34fb d93d af27 9fbd
00000110: 99c0 17be c34c 073e 7a74 823d 292a a23d
00000120: 7f9a dbb9 7236 bfbd 288f 98be ba5b 82be
00000130: 445d 80be b765 8abe 5afb 6dbe 9192 fabe
00000140: 1995 063e b427 aebd fb94 b1be a0e7 74bd
00000150: 0653 58be 3ba1 26bf c7f7 7abd d5b2 6abe
00000160: ff11 18bf 0d61 e8bd 6900 b7bd 086a 09be
00000170: 1815 c5bd 1fc3 a2bd fef5 a23d 44da d6be
00000180: 0223 793e 507a 91bd 4162 f9be bc36 94bc
00000190: 26d8 cabe ddf0 6cbd c1ac 5dbd f347 51be
000001a0: 6b1b 07bf c771 0b3e a30e 93be 51ca d0bd
000001b0: 1e0f 37bf c6e4 2bbe 0645 003e af9f 85be
000001c0: f5f6 87be c7e5 6fbe 2866 32be 88b2 febd
000001d0: c9ee 0fbe ed29 6fbd 60b8 01be 9769 16bf
000001e0: b8f0 39bd 5b2c c6bc 227f 17bf abfc 30bc
000001f0: a355 9f3d 350d 363e 14b6 09bf ff6a 17be
-0.23643643 -0.21335383 -0.6213339 -0.5809048 0.052142702 -0.50052387 0.005230942 -0.22453758
0.040157307 -0.099360324 0.31132764 -0.5561358 -0.3010889 -0.22452465 0.38538656 -0.34907097
-0.06441475 -0.18950805 -0.027204031 -0.04767998 0.027360663 -0.022229921 -0.36119083 -0.3946558
-0.19773027 -0.084924676 -0.055266645 0.028941901 0.106307104 -0.08849576 0.027216084 -0.17622148
0.34125546 -0.40454453 -0.13131952 -0.24867576 -0.62352306 -0.03272907 -0.055523247 -0.23537719
0.24335988 -0.13858317 -0.03144544 -0.09318272 0.06544402 -0.6193681 0.019525554 -1.0187113
-0.14083238 -0.12894097 -0.56205624 0.21339215 -0.12800223 -0.4728916 -0.8651053 -0.070507936
-0.11082009 -0.015935931 0.09760623 -0.58967525 -0.010522305 0.15399949 0.24921164 -0.09794983
-0.043690868 -0.23282303 0.10643616 -0.07771241 -0.14819564 0.13212876 0.063698724 0.07918198
-0.00041886044 -0.093365565 -0.2979672 -0.25460607 -0.25071156 -0.27030727 -0.23240414 -0.48939946
0.13142814 -0.085036665 -0.34683976 -0.059791207 -0.21125421 -0.6508977 -0.061271455 -0.22919782
-0.5940246 -0.11346636 -0.08935625 -0.13419354 -0.09623164 -0.07947373 0.079570755 -0.41963398
0.2432976 -0.071034074 -0.48707774 -0.018092506 -0.39618033 -0.057846893 -0.05411983 -0.20437603
-0.5277621 0.13617621 -0.28722104 -0.10194839 -0.7150744 -0.16786489 0.1252633 -0.2609839
-0.265556 -0.23427497 -0.17421782 -0.12436396 -0.14055933 -0.058389593 -0.1266799 -0.5875487
-0.045395583 -0.024191072 -0.59178364 -0.010802428 0.07780006 0.17778476 -0.53793454 -0.1478691

fc2.weight f4 [128, 128]
00000000: 0f1b 823e f71d e53e e9cd 8a3e 873b f53d
00000010: 3e41 a63e fe25 cfbd 3670 2ebd 2cc5 0a3f
00000020: b1a5 39be 2196 763e 838b 223f d8e2 223f
00000030: e28b 8f3e fc66 543e a418 0abf bcf0 a13e
00000040: 48df f83d 7182 303e c731 d2bc dc86 c33e
00000050: c7a9 773d b963 aa3d c212 b73d b8c5 073e
00000060: 0c0e 39bd 93cd dd3c f17e 5ebe 7d53 b53d
00000070: 4052 ca3e 02f1 6cbd e36e d9be d601 b93d
00000080: a554 79bf abb7 343f 414b ce3d 6323 663e
00000090: 4066 e7bd 9c72 c33e 7dd6 543e 953f 12bf
000000a0: c429 b6bd 6b1d 8abd b413 cb3c 5716 c7bc
000000b0: 3da5 56bf 86a9 adbd 4550 b03d 9bf6 35bf
000000c0: 4f62 a13e 6f32 1bbd 3c36 ab3e ed20 e7be
000000d0: f6d5 91be e5a1 91be 99db b63e ae67 df3d
000000e0: 870a 44bf f143 de3e 7de3 39bf 7af0 19bf
000000f0: 660c 173f 91b0 0cbe 0d8c 99be 98fd 7bbe
00000100: 6717 053e 8855 93be bdcd 7dbe 4140 16bf
00000110: b4b3 673d 5ac8 7dbe bf8b 72bf 8b7d 6abe
00000120: a5b8 0dbe 4747 e0be 358e 913e fda8 11bf
00000130: 5a34 813e c5da e2bc 052e 81be add8 903e
00000140: 76f2 11bf d021 b4bd 229f 6d3d a399 d1be
00000150: 1c0f bb3d 0071 5bbe 388a 093f bfc5 bf3e
00000160: 525f e13e 20d7 04be 9c12 733d e67d 893d
00000170: ef62 1d3f 64f7 a5bd fd02 023e c860 d33e
00000180: 91da ab3e cddb c23d 8e80 c53e 1683 9abd
00000190: e355 4bbd fcc7 45be b6cc 083f 9518 73be
000001a0: 6c99 023e 8952 59be 7c29 d2be 483b b03d
000001b0: c668 443f 82f2 953c ac80 32bc 6b01 b6bd
000001c0: 3de1 bebd d7d0 edbd a2e6 e0be 3e64 b0bc
000001d0: c92f babe fa71 e2bd 2440 683e e911 ce3e
000001e0: 31cd 2dbb b823 893a 5c1d 083f 9136 02be
000001f0: 2b71 45bf ea10 c93e 9d66 3ebe 5709 41be
00000200: 0d1d e6be 0ae9 00bd 55d5 76be 883f 64be
00000210: d71d 9bbf dc86 c3bc c38f 8dbf 53eb 18bf
00000220: c5bf 183f 0688 6a3e a6be 84be b41f 8cbe
00000230: 3cb8 2ebe f7ca 183e bbb3 483d e358 17bf
00000240: ce49 b83c 4be1 38be 4d9f 28be 8162 2ebd
00000250: ae4e 92bd 4c9b 64be 708d 6c3e 6d8d 65be
00000260: 97ba 883d ea70 3f3d 52c6 e93e 4c3d cc3e
00000270: 2ddf cabc cf10 e9bc 630e 91be e01d f7be
00000280: 9092 8f3e b54d 14bf c933 793e 6bd0 7fbe
00000290: 877c 1ebd 40f9 acbe 0f24 23bf 2aa1 5ebf
000002a0: 8202 b3bf 499f 583e b52d 643e b97c e73c
000002b0: a625 94be 0fff b8bd ea4b 143f d08e a9be
000002c0: dd49 883e d1fe 40bf b32e 43bf 0989 9d3e
000002d0: a8cd 113f ef16 d9be 0cfe 41be 12b4 85be
000002e0: d390 123e 6e83 183e a3de 60bf 84eb 02be
000002f0: 13f2 a5be 71a1 afbe 62af f7bd b1b3 c4bd
00000300: c9d6 bd3e 91a1 20bf 1e08 08be 288f 60be
00000310: 2dc5 06be 2772 48bf bcf3 29bf 0419 0fbf
00000320: def8 00be 593a 473c dce3 3f3e 514e 69bd
00000330: c709 763f e48f 8ebe 9fea 9b3d 2ef1 e13b
00000340: 4be8 643e 72f2 8e3d e41f 093e 94a8 afbd
00000350: d043 b13e 7af9 a3be db6d 493e 0598 ea3e
00000360: 19e5 6a3e d095 a63e d789 5d3d b33b 03bf
00000370: a93f 27bf 3862 4b3d 61ce d03d 2518 62bf
00000380: 2aa2 363e 771a 993e a006 633e 228b 0bbd
00000390: a534 82be 69a3 61bf 46ef 20bf c7b8 db3e
000003a0: 9809 f2bd 4d2a 0a3e b69a 543e 1c58 9b3e
000003b0: 02a6 013e fc54 f53e 3dec 313f 674c 603e
000003c0: f09f 95be 40d1 3dbf c7e8 22be 3a59 c5bd
000003d0: 3de5 fcbe 5a60 09bf 60c0 fd3d 7e50 b4bf
000003e0: a3b5 b53e 4c84 a5bc 6c38 cdbe cca1 a9be
000003f0: d102 d9bd 0f39 70bf c9c6 253d 704c 72be
0.2541127 0.44749424 0.27110222 0.119742446 0.3247165 -0.10114668 -0.04258748 0.5420711
-0.18129613 0.24080707 0.6349413 0.63627386 0.2803641 0.2074241 -0.5394385 0.31628978
0.121519625 0.1723726 -0.025658501 0.38188827 0.060464647 0.08319802 0.08939125 0.13259017
-0.04517941 0.027075564 -0.21728112 0.08853815 0.39515877 -0.05784703 -0.42467412 0.09033553
-0.9739478 0.70592755 0.10072947 0.22474436 -0.112987995 0.38173378 0.20784946 -0.5712827
-0.08894685 -0.06743892 0.024789669 -0.024302645 -0.83845884 -0.084796 0.0860906 -0.71079415
0.31520316 -0.037889894 0.33439815 -0.45142308 -0.28483552 -0.28443828 0.35714415 0.10908447
-0.76578563 0.4341121 -0.72612745 -0.60132563 0.59003294 -0.1373923 -0.29989663 -0.24608457
0.12997209 -0.28776193 -0.24785514 -0.58691794 0.056567863 -0.2478346 -0.94744486 -0.22899453
-0.13839968 -0.4380438 0.28428808 -0.5689848 0.25235254 -0.027692208 -0.25230423 0.2829031
-0.5701059 -0.08795512 0.05801309 -0.40937528 0.09133741 -0.21429825 0.5372653 0.37455556
0.44018036 -0.12972689 0.05934392 0.06713466 0.61479086 -0.08103827 0.12696452 0.41284776
0.3356519 0.0951458 0.38574642 -0.07544534 -0.049642455 -0.19314569 0.53437364 -0.23739846
0.12753838 -0.21222891 -0.41047275 0.08605057 0.7672237 0.018304113 -0.010894936 -0.08886989
-0.093203045 -0.11612099 -0.4392596 -0.021532174 -0.36364582 -0.110568956 0.22680718 0.4024804
-0.0026520009 0.0010462916 0.531698 -0.12716128 -0.77125806 0.39270717 -0.18593831 -0.18851219
-0.4494404 -0.031472243 -0.24104817 -0.2228986 -1.2118481 -0.023868017 -1.1059498 -0.59734076
0.5966762 0.22903451 -0.25926703 -0.27367938 -0.17062467 0.14921175 0.04899953 -0.59120005
0.02249613 -0.18054692 -0.16467018 -0.04257441 -0.07143913 -0.22324866 0.23100829 -0.22417231
0.06676214 0.046738543 0.4565912 0.39890516 -0.024764622 -0.028450398 -0.2833129 -0.4826498
0.28041506 -0.5793107 0.2433616 -0.24981849 -0.038692977 -0.33783913 -0.63726896 -0.86964667
-1.398514 0.21154512 0.22283061 0.028257715 -0.28934973 -0.090330236 0.57928336 -0.3311677
0.26618853 -0.7538882 -0.7624313 0.30768612 0.5695443 -0.4240031 -0.18944567 -0.26113945
0.14313059 0.14893886 -0.87839717 -0.12785155 -0.3241125 -0.34302858 -0.120939985 -0.09604586
0.3707793 -0.6274653 -0.13284346 -0.2192961 -0.13161154 -0.7829918 -0.66387534 -0.55897546
-0.12594935 0.012159907 0.18739265 -0.056959454 0.9610867 -0.27844155 0.0761311 0.006895206
0.22354238 0.069798365 0.13391072 -0.085770756 0.3462205 -0.32026273 0.19670813 0.45819107
0.22938956 0.32536173 0.054086532 -0.5126297 -0.6533151 0.049654216 0.10195614 -0.8831809
0.17835298 0.29903004 0.22170496 -0.034068234 -0.2543079 -0.8813997 -0.628651 0.4291441
-0.11818236 0.13492699 0.20762143 0.3034066 0.12660983 0.479164 0.69501096 0.21904145
-0.29223585 -0.74147415 -0.1590911 -0.09636159 -0.49393645 -0.53662646 0.12390208 -1.4087064
0.3549014 -0.020204686 -0.4008211 -0.33131254 -0.1059624 -0.93837065 0.04047278 -0.23661971

fc2.bias f4 [128]
00000000: ff32 d63d 6927 843e a352 893d 0844 41be
00000010: e1c6 48bc 1e8b a4bd ee2c 91bd 3953 213e
00000020: 4b56 01be 700c 07be aa5f 133e a972 1e3d
00000030: ff97 653e 95cd 833c e12a dcbd a258 293e
00000040: c8c2 1b3d d64c adbd a1cf b73e cec0 3dbe
00000050: bd0e 2b3d 1e64 3f3e 43f4 dbbd a4b0 41be
00000060: 1efa 9abe 8a15 c3bd 649c acbe 081f aa3d
00000070: ad15 0a3e 6617 8e3e a2b9 c3bd ad18 9cbd
00000080: 4066 1abe 330e 19be f290 b93d fe3d 0a3f
00000090: 3f3a dfbc df70 3cbe 070c 3b3e 0dea 2bbe
000000a0: 7d89 a0bd 83f2 94be ddce 2dbe 9ab9 29be
000000b0: 4c05 ae3d 641b 173f ebb8 b9bd d5e4 06be
000000c0: 11fb be3d 64fc ba3d 7fc9 9fbe ab94 253d
000000d0: 1ea6 613e 7774 aa3e 0952 f6bd fce6 83be
000000e0: 7086 0abe bc4c 853e 8adf 32be c99d e33d
000000f0: f5dc 99bd 48ef cd3e 2465 febd 54ef ddbd
00000100: b216 10be a2ea 16be b3ad e23e 806f 09be
00000110: a239 d1bd 7488 39bd a974 00be c9b8 033f
00000120: af0c 7fbd 0b14 87be c662 413e b5cc b93c
00000130: 7158 f6bd 3c7b 55be 5b62 f23e 45a4 ef3b
00000140: c5bd c43d 7220 813f 1ad7 8b3d 78bc fc3d
00000150: 294c 0f3e 916c 2cbd e4b0 a3bd a7cd df3d
00000160: fa4f 883e 7178 2f3d 4eb1 613f ed14 00be
00000170: c069 783e 7081 12be 1acf 28bd 7227 dabd
00000180: 6f6e 97be b7c9 85bd e54d 04be 071b 2dbe
00000190: b22d 0c3e 50da fd3e 225a 67be 0689 f6bc
000001a0: 85b1 c7bd ee99 e6bd 96a8 30be 42f2 e3bd
000001b0: 9e2a f33e 17b7 d5bd 2da9 fc3e ae01 05bf
000001c0: a704 b8be 3adb 7dbd b26a 3f3e a9d3 5f3d
000001d0: 8a6d 1abe 41f7 e43d 4953 da3e 5eb9 18be
000001e0: 6be8 563d 23cf cabc 6850 d9bd b3e5 0abe
000001f0: eea2 e13d c2e6 00be 06ad 92bd 97a3 0abe
0.104589455 0.25811318 0.06705215 -0.18873608 -0.012254448 -0.08034347 -0.07088648 0.15754403
-0.12630574 -0.13188338 0.14391962 0.038683567 0.22421263 0.01608924 -0.10750366 0.16537717
0.038027555 -0.08461921 0.35900596 -0.1853058 0.041762102 0.18690535 -0.107399486 -0.1891504
-0.3026895 -0.095255926 -0.33713067 0.083067 0.13484831 0.27752227 -0.09556891 -0.07621894
-0.15078068 -0.14946823 0.09060849 0.5400084 -0.027249454 -0.18402432 0.18266307 -0.16788502
-0.07838724 -0.29091272 -0.16973443 -0.16574708 0.08497104 0.5902617 -0.090684734 -0.1317323
0.09325231 0.09130171 -0.31208417 0.040424984 0.22036025 0.3329198 -0.12027366 -0.25762165
-0.13527846 0.26035106 -0.17468086 0.111140795 -0.07512847 0.4022162 -0.12421635 -0.10836664
-0.14071158 -0.14737943 0.44273147 -0.1342144 -0.10216071 -0.045296147 -0.12544502 0.51453835
-0.062267955 -0.2638248 0.18885335 0.02268062 -0.120285876 -0.20847791 0.47340664 0.0073132836
0.09606508 1.0088027 0.06828137 0.12340635 0.13993897 -0.042095724 -0.079927236 0.10927897
0.26623517 0.04283947 0.8816117 -0.12507983 0.2425909 -0.14307189 -0.041213132 -0.10652055
-0.29576442 -0.06532615 -0.1292034 -0.16904841 0.13689306 0.49580622 -0.22592977 -0.030094635
-0.09750656 -0.112598285 -0.1725181 -0.111301914 0.47493452 -0.10435312 0.4934782 -0.5195569
-0.3594105 -0.06197665 0.18693045 0.054645214 -0.15080848 0.111799724 0.42641667 -0.14914462
0.052467745 -0.024756974 -0.106110394 -0.13564186 0.110174045 -0.12588027 -0.07161908 -0.13538967

fc3.weight f4 [128, 128]
00000000: c3b7 0bbe 55c5 843d 5687 95bd fee4 9fbd
00000010: a0e2 643b 5898 eebc b7c2 7bbd 6b7e dc3d
00000020: 9013 27bc 87ff 10bd f138 8abd ce53 47be
00000030: 47f7 cfbc b220 843c c002 ef3a 8d56 233d
00000040: b0ee 11bd 5831 8bbd d999 573d acab 59bc
00000050: d417 c3bd 1245 8fbd 734f 9fbd aa88 143d
00000060: 8eef c4bc 76f4 183d d417 20be 01cc 3ebe
00000070: dedf 30bd 938a 13bd 480e 6dbc 004d c43c
00000080: acc0 69bd 05eb 703d 956d 24be 0d98 cbbd
00000090: 1452 193d d035 17bd 20f9 293c bb22 183e
000000a0: 035c aebd f836 3f3d 90d7 93bd 1d2f 993d
000000b0: 5b83 69bd 0776 e3bd 10ba 99bd 0456 91bd
000000c0: da32 e5bc c546 3e3d 38f5 c6bc 5b9e 33be
000000d0: f34f 6bbe f678 41be 4c4c f1bc 9abf ad3d
000000e0: 5444 be3c b254 8cbd 50cb abbb dd04 9abd
000000f0: 15e7 edbd 8aac 05be 8003 3bbb a1f1 893d
00000100: 75fd 0abd 8674 45bd e6a4 05be c268 3a3d
00000110: c4be 6a3c cb24 243c 7238 fabc ed51 1dbd
00000120: 520b bfbd 1e82 0ebd 1648 99bd 52fa 04bd
00000130: f5da acbd 2db4 f8bd d707 9bbd 0022 803d
00000140: da2f 87bd 53af c9bd d688 06be c008 99bc
00000150: c3d1 bcbd 831e cb3b df40 8cbd ed8f b8bd
00000160: 007c 97bd 152e a1bc dd8b c23c 205a 0c3c
00000170: 7294 01be 90c5 f53c 03e9 9dbd 5926 1ebd
00000180: 6c3b bbbd 1cee 463d b50e a2bd c9c2 d5bc
00000190: afcc aebb 45db 1abd 18c1 96bd 369f bbbc
000001a0: e2b5 1b3d 0ceb dabc 1da3 06be 697b ad3d
000001b0: a685 afbe 4eee 753d 9ddd 0ebd b385 aebd
000001c0: ce2b c23b 202e 0fbb c43f b2bc 7127 71be
000001d0: 16f9 153d 6bfc e1bd 2d3a 443d 8199 7dbd
000001e0: 3b9d 92bd f587 27be c48a ebbd 0084 de3b
000001f0: 69fb 4cbd 15f7 0dbe d87c 99bd 1adc 313d
00000200: 224a 1dbf 3051 803c 70f4 db3e 242d 683d
00000210: d671 253d 7476 ae3d 82f2 7c3f 262c 893c
00000220: c4c6 253e 2753 d43c 215e 0dbf 851b 64be
00000230: 22a3 553e 1c9f e9be eea9 3c3d 9dc0 ef3d
00000240: 4073 44bc 19a1 47be 3c57 1d3c b82d 023f
00000250: ed9a 47be d346 82be 52e6 a6bd bce3 02bf
00000260: b666 dabe a205 4f3d a659 17be fac0 d8be
00000270: 74de 4e3e 636b 5cbd db81 913c e2f3 05bd
00000280: fd93 2c3d 804c a03d c40b 57be ffc3 c2be
00000290: 5a76 64be 9985 94be f319 2fbe 59a2 2dbe
000002a0: 1303 06bd 7bab 00bf b610 3dbd ce79 ab3e
000002b0: bed2 f23c 9db0 b639 3c0c ddbf ad26 c23d
000002c0: 5898 8b3d 02db c0bc ccc2 0a3e ea61 e5be
000002d0: f947 0dbe a7b0 2cbe c09f 283d d027 6fbf
000002e0: e909 313d d3d6 e9bd 953e 7bbd b091 63bf
000002f0: a9d3 313f 12d9 bebe ca2c 1abe 4ec5 46bd
00000300: 09bd a43d f2ef 7d3d 2ba5 d23d 9cfc 083d
00000310: 5a71 08bf c6ae ef3e b8c5 4ebc 31a2 b9bd
00000320: b04e 2ebd 8737 6fbe a5b3 373e 32fe 99be
00000330: f518 6fbd d212 593e 1ff4 2fbd ea46 c63c
00000340: caa8 3ebe bff9 883e 767f 67be 7e5f 2ebe
00000350: 6b92 82be d664 3ebf 1bbe 55be e3f5 99be
00000360: 958f a9bf 4e30 733e a9d8 063f 04f3 c63c
00000370: be0b 02bf fd42 993d 5686 24be 2a66 3ebd
00000380: 0e39 813d 0ea9 713e 9c52 a1bc de7d aabd
00000390: 49df 5fbe 0931 06be 0565 2abe b3f1 ecbd
000003a0: f46a bfbc 1a73 bbbc 51f1 b0be f0b6 95bd
000003b0: d922 063e d4a4 8dbc 0f6f 363e c7b2 6bbe
000003c0: 3374 8cbd f0da 153c 5cf1 53bf 2c61 3ebf
000003d0: 0a9f 2ebd 1b97 a6be 811f 1a3c 5621 e53d
000003e0: 5cde 353d 08bd 67be 031e 1cbf a949 a63d
000003f0: 6754 373d 9126 e63e 9ea5 613d 24df d33d
-0.13644318 0.064829506 -0.07301204 -0.07807349 0.0034925118 -0.029125378 -0.06146499 0.107663
-0.010197535 -0.03539994 -0.06749142 -0.19465563 -0.025386466 0.016128872 0.0018235072 0.039877463
-0.03562802 -0.06796521 0.052636955 -0.013285559 -0.09526029 -0.06995596 -0.077788256 0.036263146
-0.02404001 0.03734251 -0.1563409 -0.18632509 -0.043182246 -0.036020827 -0.014468737 0.023962498
-0.05706851 0.058817882 -0.16057427 -0.09941111 0.03743179 -0.036916554 0.010374337 0.14856999
-0.085136436 0.04668328 -0.0721885 0.07479689 -0.057010036 -0.11106496 -0.07506192 -0.07096484
-0.02797835 0.04645421 -0.024286851 -0.17540877 -0.22979717 -0.18893799 -0.029455326 0.08483811
0.02322594 -0.06852092 -0.0052427426 -0.07520459 -0.11616341 -0.130541 -0.0028536022 0.0673554
-0.03393312 -0.04820683 -0.13051185 0.04551006 0.014327709 0.010018538 -0.030544493 -0.03840821
-0.09328331 -0.03479206 -0.074844524 -0.032465287 -0.084402 -0.12143741 -0.07569855 0.06256485
-0.06600924 -0.098478936 -0.13138136 -0.01868093 -0.092196964 0.0061987056 -0.06848311 -0.09011827
-0.07396698 -0.019675294 0.023748333 0.008566409 -0.12654284 0.030001432 -0.07710459 -0.03861079
-0.09142193 0.048566923 -0.079129614 -0.026093857 -0.005334459 -0.037806768 -0.073610485 -0.022903066
0.038015254 -0.026723407 -0.1314816 0.08470804 -0.34281653 0.06004172 -0.034879316 -0.08521595
0.005925632 -0.002184756 -0.021758921 -0.23550202 0.0366145 -0.11034473 0.047907043 -0.06191397
-0.071588956 -0.16360457 -0.11501077 0.006790638 -0.05004445 -0.13863786 -0.07494515 0.043422796
-0.6144124 0.015663713 0.4295993 0.056683674 0.040391766 0.08518687 0.9880754 0.016744684
0.16189104 0.025918556 -0.55221754 -0.22276123 0.20863011 -0.45629203 0.046060495 0.1170666
-0.011990368 -0.19495048 0.009603318 0.5085101 -0.19492693 -0.2544466 -0.08149399 -0.51128745
-0.42656487 0.05054248 -0.14780292 -0.4233473 0.20202047 -0.05381335 0.017762115 -0.032703288
0.04213332 0.07827091 -0.21000582 -0.38040158 -0.22310773 -0.29008177 -0.17099743 -0.16956462
-0.032717776 -0.5026166 -0.046158515 0.33491367 0.029641505 0.00034845332 -1.7269359 0.09480033
0.06816167 -0.023541931 0.13550872 -0.44801265 -0.13796987 -0.16864263 0.041167974 -0.93420124
0.04322234 -0.114179276 -0.06133898 -0.88894176 0.6946359 -0.37274987 -0.15056148 -0.04852801
0.08043868 0.061996408 0.102854095 0.033444032 -0.5329796 0.4681303 -0.012620382 -0.09064139
-0.04255551 -0.23361026 0.17939623 -0.30076748 -0.05837341 0.21198586 -0.04295742 0.024203736
-0.18619075 0.2675304 -0.22607216 -0.17028615 -0.25502333 -0.74372613 -0.208733 -0.3007041
-1.3246943 0.23748896 0.5267435 0.0242858 -0.5079917 0.0748348 -0.1606687 -0.04648415
0.063097104 0.23599645 -0.019692712 -0.083247885 -0.2186252 -0.13104643 -0.16640098 -0.11569538
-0.023366429 -0.022882033 -0.3455911 -0.07310283 0.13099231 -0.01729051 0.17815803 -0.23017417
-0.06858101 0.009146437 -0.8279016 -0.7436702 -0.04263214 -0.3253716 0.009406925 0.11187999
0.04440151 -0.22630703 -0.60983294 0.08119518 0.044758227 0.449513 0.055089585 0.10345295

fc3.bias f4 [128]
00000000: 6ad2 72be 32dc 4f3f 0506 ad3e 0443 d1bd
00000010: 0668 99bd a6f1 17be f9e6 51bd e5dd 003f
00000020: 7483 3b3f c900 60bd 9fdd 9bbd 899e 8ebd
00000030: 1400 203f 9a68 4c3f dcb0 95be 0dc7 99bd
00000040: 1467 293f 30c2 263f 04d2 20bd c2eb ce3d
00000050: 7e0a c7bd 82ba 713f 5d3e 243f 20a2 bb3e
00000060: bd75 0abe 75b4 483f 2e40 25bd 1460 f53c
00000070: 6ad2 0abe 0421 4a3f 0690 a8bd 0218 063f
00000080: 828c c3bd 40a8 7d3f 99f6 263f 0161 b13e
00000090: 96e4 363f d332 59bb 90f5 fcbd 1db3 42bd
000000a0: 7751 e9bd eaeb 663f 2d2d 9c3e b6a6 793d
000000b0: 52d0 653e 0fa9 7d3c 756d 1fbe 4a2e dcbd
000000c0: 4fbc 8d3f 2681 0fbe 72ae 293f 9480 843f
000000d0: 3f49 803f f5ef c73e 5238 1e3e fda0 5f3f
000000e0: 42f0 74bd 1288 543e 5d81 f3bd 7ab8 3e3d
000000f0: 5496 d3bd 4cd0 983f e995 b0bd c69a 6bbd
00000100: 1d36 41be b769 153f 866b 2abe 16f9 a9bd
00000110: f6e6 02be e8c1 773f 9c88 e5bd bda3 6a3f
00000120: 07ab b6bd a040 a73e dd4c 263f 4804 e33f
00000130: 009c d43f 4567 a8be 80ed 9abe 03a5 0cbf
00000140: 3d4a 42bd 4f82 2ebe fc79 f13e 1692 20be
00000150: 64ce 803f 11e4 2cbd c738 373f 53d8 db3e
00000160: 0cca a6bd 8f89 32be 9422 053f 4674 043e
00000170: 6cd3 1cbe 1442 123f 1bda 673e a4c7 0cbe
00000180: 0201 1cbd fb08 ccbd 3f43 083f bde4 a03f
00000190: 145b 8cbd de5d ab3e f9b9 3e3f 4b08 43be
000001a0: 66bf af3e 5772 293f c1ab 6b3c 25b7 23bd
000001b0: d37b f13e 2dd8 a03e 45a7 8a3f 7cc5 35bd
000001c0: 37f7 d63d 9913 093f f3a0 bd3b 1602 2fbe
000001d0: 434f bfbd 1661 d3bd d73c b3bd 8fa3 2e3d
000001e0: 0768 903f 6baf 8dbe 848d 83bd 2934 89bd
000001f0: b543 463f 9241 ff3e e6b0 673c 23bd d9bd
-0.23713079 0.81195366 0.33793655 -0.1021786 -0.07490544 -0.14838275 -0.051245663 0.50338584
0.73247457 -0.05468825 -0.0761063 -0.06963832 0.6250012 0.7984711 -0.29236495 -0.07508669
0.6617291 0.65140057 -0.039262787 0.10103561 -0.09718798 0.94425213 0.6415766 0.3664713
-0.13521476 0.78400356 -0.04034441 0.02995304 -0.13556829 0.7895663 -0.08230595 0.52380383
-0.09548284 0.99084854 0.6522003 0.3464432 0.71442544 -0.0033141866 -0.12351525 -0.047534097
-0.11392491 0.90203726 0.30503216 0.060950004 0.22442749 0.015482201 -0.15569098 -0.107510164
1.1073092 -0.1401411 0.6628181 1.0351739 1.0022353 0.3905026 0.15451172 0.87355024
-0.05979944 0.20755032 -0.118899085 0.04656265 -0.10331407 1.1938567 -0.08622343 -0.05752065
-0.18868299 0.58364433 -0.1664258 -0.082994625 -0.12783417 0.9678025 -0.11207697 0.91656095
-0.089193396 0.32666492 0.64961034 1.7735682 1.6610107 -0.32891288 -0.30259323 -0.5493929
-0.04743408 -0.17041896 0.4716338 -0.15680727 1.0062985 -0.04220969 0.7157101 0.4293848
-0.08144006 -0.17435287 0.5200589 0.1293498 -0.15315026 0.5713208 0.22641794 -0.13748032
-0.0380869 -0.099626504 0.5322761 1.2569805 -0.06853309 0.33470052 0.7450252 -0.19046132
0.34325713 0.66190094 0.014384211 -0.039969582 0.47164783 0.3141493 1.0832297 -0.04437779
0.10496371 0.5354553 0.005787009 -0.1709064 -0.0934129 -0.10321252 -0.08751839 0.04263645
1.1281747 -0.27672896 -0.06423476 -0.06699402 0.7744706 0.49854714 0.014141297 -0.10631778

fc4.weight f4 [32, 128]
00000000: bdd2 0f3d 938f 8dbd ee5f a6be fadf c9be
00000010: 9d05 923d 4e40 7bbe cabc aabd f17e 2cbf
00000020: bf64 55bf c910 a7bd ba19 abbd d5e5 db3c
00000030: 015e 27be 92bd ef3d 9008 16bd 755f adbd
00000040: c77a 923d 90e0 49be f307 6e3d c2b5 8cbe
00000050: dcc6 ae3c 2bd0 85be 842e cdbc 7a8a debe
00000060: 7aea 5b3d 74b8 2abf 230b efbc cd9f dbbe
00000070: 2141 0abd 193f b1bd 03b3 843d 8af8 19bc
00000080: 8093 91bd 0a56 233d d03e 4abf 43f0 9abd
00000090: 17eb 353d 64cf 97bd 06f3 ca3d ad3e a2bd
000000a0: 8fae 94bd 59b3 eebe 80b1 c7be 212e 9ebd
000000b0: e932 a7be 9128 a23d 151b b9bd fd17 a23d
000000c0: 3cd1 a6be b53a 123d c7ad eabe 3f4e e1bd
000000d0: a493 cfbd b6a6 14be 4238 15bd 11a6 bc3d
000000e0: 8dae abbc 57f1 b3bc 706b 023d e856 aa3d
000000f0: a01c d8bb 15e7 ebbd 729e eabc 58f2 48bc
00000100: a3a4 40bc 3eda c53d 2f51 d93b cc5b 29bd
00000110: 2b3f cebd a82a 623e 6178 74bd a768 a7be
00000120: 64f4 a93c ba22 a5be bc0d 943e f8bf 09be
00000130: f690 54be afac 53be 17d0 e9be da50 5dbc
00000140: e05b bcbc feb5 c5bd a101 afbe 2969 b23d
00000150: 38d5 26be 3e86 653d 6c58 063f e1b3 333e
00000160: a9d0 99bd 7bdc d6bd 3811 8e3e aec1 cebc
00000170: 76d8 35bd 9f28 993d 60d7 72be db98 0cbc
00000180: 0b69 7a3d 6886 eb3b 99af fa3e 2e86 46bb
00000190: 7eea 383d 63f0 5dbf 3969 4fbe 247e 72bc
000001a0: b8b3 2ebf 420e 12be 9d6b bb3c 0f7b c9bd
000001b0: 8488 1bbf 38d4 a23d aaf8 0f3d ce72 903d
000001c0: 9b13 56bf 2083 833e 4cbd 92be 3f21 dfbd
000001d0: c8c0 b6bc 5de5 9d3d 21c2 81bd 3241 d93d
000001e0: 05e2 c83d 3b37 a1bd 7d37 8cbe 3dab 2ebd
000001f0: f72d e13d 7450 73be ac8b 183e 41d7 47bd
00000200: bdc7 da3d 1894 8d3e 8bb6 64bf 6c51 113e
00000210: 4e38 34bd d2f6 98be 5d65 37bd 6670 0c3e
00000220: 67ac af3e 4b41 59bd d602 123c 76cc b0bc
00000230: 7f6d 7abe cd62 98be 974d 2a3d ee41 8bbd
00000240: 533b cc3c 241d a93d 8845 86bc 5aa9 903d
00000250: fd3e 4b3d a44a bf3b 3ded 303d 1ae8 19be
00000260: 05cc 6a3d 1023 863d 84e3 e0bc a6c2 0f3e
00000270: 086f a3bd 25d9 043e 251b 623d c470 bfbc
00000280: 6878 4bbc 6aff 053f 1c03 d4be 6cdc 033d
00000290: 7761 653e 701b 4e3c 71bc a0bd 5fd8 1f3e
000002a0: 89dc 87bd 29b3 db3e a63e 43bf 1ac3 04bf
000002b0: 924d b4bc 4a10 ca3d c398 d83c dee3 4b3c
000002c0: 50f0 0d3e 4537 09bd ea31 423d d69e 44bd
000002d0: 1e6b 6cbe b450 41be 30a8 4e3e 2499 623e
000002e0: 8685 d9bd f13f 323e fbd3 cb3d 03a9 07be
000002f0: ccf1 483c 7d96 bd3e 2bc5 b53a d1f6 9e3c
00000300: 1f7a 62bd 75f3 23be 25e3 453d 51bc 5e3d
00000310: 0526 8fbd 1319 bc3d 4434 a73d 79b7 a93e
00000320: 3ea9 3dbd d8d4 9d3d dcc9 dabe c0ac 0a3e
00000330: 32fe 0c3e ffde 1c3c 14e2 243e 454a 4ebc
00000340: 6509 433c 7d22 993d fe86 acbd 0009 273d
00000350: 7243 fc3d dfc1 d6bd 93e3 e3be 4b5e fdbe
00000360: 6e0f 2ebc bbe3 44bd 9f76 593d 1e97 8c3e
00000370: 7f66 8abd ad48 843e e891 40bf 0900 c6bd
00000380: 4ba4 0ebe c82c 99bc a6ad 70bf 1c91 843f
00000390: 319d 003d ccab 93be 0db1 6dbe d2d9 e43c
000003a0: 1201 243c d2b9 ab3d 6310 773d 338a ae3d
000003b0: 9821 b6bd 9584 1f3a 6d05 c03e 921e 23be
000003c0: e3ec 033d 406b 683d c15c 7dbd bcb2 8dbd
000003d0: 948c bd3e 70e0 e63b ceea d93d ab28 fa3d
000003e0: c9c6 a53c d940 683d 8639 9e3e 2901 e3bb
000003f0: 7302 ce3d 4208 a1be 3e04 9bbc de9a 373d
0.035113085 -0.0691215 -0.32495064 -0.39428693 0.07129977 -0.24536249 -0.0833679 -0.673812
-0.8335685 -0.081574984 -0.08354516 0.02684299 -0.16344453 0.117060795 -0.03662926 -0.084654726
0.07152324 -0.1971457 0.05811305 -0.2748242 0.021335058 -0.26135382 -0.025046594 -0.43465024
0.05369041 -0.66687703 -0.029180115 -0.42895356 -0.033753518 -0.08654613 0.06479456 -0.009397635
-0.071082115 0.039876975 -0.79002094 -0.075653575 0.044413652 -0.074126035 0.09909634 -0.07922111
-0.07259857 -0.46621206 -0.3900261 -0.07723642 -0.3265603 0.07917894 -0.090383686 0.07914732
-0.32581508 0.03570052 -0.45835707 -0.110012524 -0.10135582 -0.1451672 -0.036430605 0.09211362
-0.020957256 -0.021965666 0.03184074 0.08317357 -0.0065952092 -0.11518685 -0.028640006 -0.0122648105
-0.011758002 0.09660767 0.0066319923 -0.04134731 -0.10070642 0.22086585 -0.059685115 -0.3269703
0.020746417 -0.32253057 0.28916728 -0.13452137 -0.20758423 -0.20671342 -0.45666572 -0.013508046
-0.022993028 -0.09653853 -0.3418093 0.08711464 -0.16292274 0.056036226 0.5247867 0.17549087
-0.07510502 -0.10491272 0.27747512 -0.025238838 -0.044395886 0.07478451 -0.23714972 -0.008581365
0.061135333 0.0071876533 0.48962095 -0.003029238 0.045145504 -0.86694926 -0.20254983 -0.014800582
-0.6824298 -0.14263251 0.022878462 -0.09837925 -0.6075518 0.07950634 0.035149254 0.07053147
-0.83623666 0.25685978 -0.28660047 -0.10895013 -0.022308722 0.07709763 -0.06335855 0.10608138
0.09808735 -0.078718625 -0.27386084 -0.042643774 0.10995095 -0.23761159 0.1489703 -0.048789266
0.10682628 0.2765205 -0.8934104 0.14191216 -0.04399901 -0.2987581 -0.044774402 0.13714752
0.3431122 -0.053040784 0.008911809 -0.02158187 -0.24455832 -0.2976288 0.0415779 -0.067996845
0.024930632 0.08257511 -0.016390577 0.07063551 0.049620617 0.0058377553 0.043194998 -0.15029946
0.057323474 0.065496564 -0.027452238 0.14039096 -0.07980162 0.12973459 0.05520167 -0.0233692
-0.012418844 0.52342856 -0.41408622 0.032192633 0.22400461 0.012579784 -0.07848442 0.15609883
-0.066338606 0.42910126 -0.7626747 -0.518602 -0.022009645 0.09866388 0.02644003 0.0124444645
0.13861203 -0.033499975 0.047410883 -0.04800304 -0.23087737 -0.18878442 0.20181346 0.22128731
-0.10621171 0.17407204 0.099525414 -0.13248067 0.01226468 0.37028876 0.0013867965 0.0194048
-0.055292245 -0.1601084 0.048312325 0.05437881 -0.069896735 0.0918447 0.08164266 0.3314779
-0.04630398 0.07706612 -0.4273213 0.13542461 0.13768843 0.009574651 0.16101867 -0.012590949
0.011904095 0.07477281 -0.08424185 0.040780067 0.12317552 -0.10486197 -0.44509563 -0.49486002
-0.010623796 -0.048068743 0.05309164 0.27459043 -0.06757831 0.25836697 -0.75222635 -0.096679755
-0.1392986 -0.018698111 -0.94014966 1.0356784 0.03139991 -0.28842008 -0.23212071 0.027935896
0.010010021 0.08385052 0.060318362 0.08522453 -0.08893126 0.0006085125 0.3750414 -0.1592963
0.032208335 0.056742907 -0.061856035 -0.069188565 0.37021315 0.007045798 0.106404886 0.12214788
0.02023639 0.05670247 0.30903262 -0.0069276285 0.10059061 -0.31451613 -0.018922921 0.044825427

fc4.bias f4 [32]
00000000: 57d6 0b3f 3aa9 8c3f 42f0 d13f 8ec1 113f
00000010: 2ce9 933f 1904 783f 90a9 08be 1d0a 28be
00000020: c993 e7bd 3edd adbd 53e1 3d3b c2f1 423f
00000030: 39eb 7d3f 63e4 593e 1a54 fb3e 4b51 b53f
00000040: 1ddb 923f a703 a0bc 9dc7 403f 7983 6a3f
00000050: ba91 ba3f 7f80 053f 5a7a c73f 0242 613f
00000060: e55f 8c3f df7d 8a3f 6502 413f 38b9 533f
00000070: 2856 3bbb d6d3 6d3f 6796 653f 1809 933f
0.5462393 1.0989144 1.6401446 0.56935966 1.1555533 0.9688125 -0.13345933 -0.16410108
-0.11307485 -0.08489464 0.0028973415 0.76150143 0.99187046 0.21278529 0.49087602 1.4165434
1.1473118 -0.019532992 0.75304586 0.9160686 1.4575722 0.52149194 1.5584214 0.87991345
1.0966765 1.0819663 0.7539428 0.82704496 -0.0028585289 0.9290136 0.8968262 1.148715

fc5.weight f4 [4, 32]
00000000: ffd7 633d 864a 253e 3b4a 89be 476b 063f
00000010: a555 c0bd 85e1 8f3d 1a1e 6c39 1cd2 143d
00000020: 8e60 06bd 62ae a5bc 7d5e 013d 9ed1 033e
00000030: 2f63 ab3e 6539 913c 7371 133e dddd a2be
00000040: ee2a 24be b572 af3d b638 d6bd 2b6f 03bd
00000050: 5f63 bb3d 04d1 6d3d 46b0 14bf df17 f43d
00000060: 57d7 e93e 051b 21be 9637 713d 7447 ed3c
00000070: 8d45 583e 3301 bfbe f280 ab3e 1812 a5be
00000080: 3413 efbd 97c1 c43e ca8b 0ebf c0b1 5b3e
00000090: d640 0a3f 683c 903e 4d4f b8bd ba42 e23d
000000a0: 3cb2 e6bd 126c 723d 3f62 bd3c 09a5 a73d
000000b0: c908 563d 2330 d1bc bd79 a13d e6a7 94be
000000c0: cd1e 8fbe ec48 8dbb ce7e bcba f9fb 633e
000000d0: db3e eb3e 645f 123d 0574 8fbe 7c45 513e
000000e0: 68ec 90be df3c d2bd 4044 38be 5434 90be
000000f0: 2b2f 13be 034d 87bc 5413 f23d c12d 9ebe
00000100: 1634 a8bd b354 a03e e0ba bcbe beda aa3e
00000110: b368 41bd 983f 5b3e 5ebc 54bc b362 13be
00000120: 41e8 663c e1d0 26bd 1a3f a6bc d8d8 0cbd
00000130: 7008 2fbd b240 4a3d 920d a33e 9fad b2bd
00000140: 7adc 143d 50f9 acbd 2c8e 313d bac8 5abe
00000150: 7171 e63d eee5 babd 688b dfbe 0073 833e
00000160: 4907 c5be 4152 f2bd e14d 493d 25b0 623b
00000170: f2ab ac3c 37be 29be 0fba a93d 1b38 e03e
00000180: ce6c d43d 8c80 cd3e 6c41 01bf 133b 0a3d
00000190: e924 c53c bab9 d9bc 12d0 d1bd 6b4a 6d3b
000001a0: 02a9 4bbd 1ea1 9f3c eff2 78bc 1d8a 2b3d
000001b0: d6e8 8a3e 553f 7bbc 34a6 5d3e dae9 7dbe
000001c0: 33ab 6bbb 8779 033e fb59 8f3b eabd efbd
000001d0: b0b9 c63d cd10 eabc 279e 62be 0040 cf3e
000001e0: 52b1 9abe 2f98 0a3f 9f21 7fbd 9abc 23be
000001f0: 7fb7 8f3d 1287 97be 52b5 803e 62a7 80be
0.05562591 0.1614171 -0.26814446 0.5250744 -0.093913354 0.07025436 0.00022517928 0.03633319
-0.032806925 -0.020224754 0.03158425 0.12872931 0.3347411 0.017727563 0.14398746 -0.31809893
-0.16032001 0.085668005 -0.104600355 -0.03208844 0.09149813 0.05806066 -0.5808147 0.119186155
0.45672104 -0.15732963 0.0588909 0.028964736 0.21120282 -0.37305602 0.33496815 -0.32240367
-0.116735846 0.38428947 -0.5568205 0.21454525 0.5400518 0.28171086 -0.089995004 0.11047883
-0.11264464 0.059185095 0.023118136 0.08185775 0.052254472 -0.025535649 0.07884548 -0.29034346
-0.27953187 -0.0043116715 -0.0014381052 0.22264089 0.45946392 0.035735503 -0.28018203 0.20436662
-0.28305364 -0.102655165 -0.17994785 -0.28164923 -0.14373462 -0.016516214 0.11820093 -0.30894282
-0.082130596 0.3131462 -0.36861324 0.33370012 -0.04721899 0.21410978 -0.012984363 -0.1439312
0.01409346 -0.040726546 -0.020293761 -0.034386486 -0.042732656 0.049378105 0.3184629 -0.08724522
0.036343075 -0.0844599 0.043348476 -0.21365634 0.11252106 -0.09125887 -0.43661046 0.25673676
-0.3848212 -0.11832095 0.049146537 0.0034589854 0.021078084 -0.16576467 0.08287441 0.43792805
0.10372315 0.40137136 -0.5049045 0.033747744 0.024065452 -0.02657782 -0.102447644 0.0036207687
-0.049721725 0.019486006 -0.015194639 0.041879762 0.27130765 -0.015334924 0.21645433 -0.24796239
-0.0035960197 0.12839328 0.00437474 -0.11706145 0.09703386 -0.028572464 -0.22130643 0.40478516
-0.3021341 0.54138464 -0.062287923 -0.15989915 0.07017421 -0.29595238 0.25138336 -0.25127703

fc5.bias f4 [4]
00000000: acbe 92bd 12e8 a53d d236 283e 83cd 093d
-0.07165274 0.081009045 0.16427162 0.033643257
