DQN_models/model_updaterate1000_gamma0.99_alpha0.001.pt (torch, 416607 bytes, 10 tensors)

fc1.weight f4 [128, 514]
00000000: 60b5 80bb d704 c5bc 4fa7 cbbc b4d9 823c
00000010: 98cd 98bc 60a4 41bb 16a9 193d ec4d a73c
00000020: 36f3 24bd 00c5 763a 9890 fa3c 00d4 c93a
00000030: b0ce c33c ce98 e9bc 7820 183d 302a dbbc
00000040: 405f 143d 10a9 2c3d 383c 21bc f025 9abc
00000050: c8e3 ab3c 347b 7a3c 0886 9cbc 0c20 1abd
00000060: b70e 27bd 7f38 dabc 0462 a5bc ed14 223d
00000070: 9c0e 503d 1fec 9b3d 527a 28bb 7ed9 febc
00000080: e1ff a23b 99da 79bc e415 13bd 396d ebbc
00000090: 9c14 00bd 1d46 bdba fc70 fdbc fb7e 03bd
000000a0: 2d2c 23bd 0a13 93bc 9e04 853c 2708 24bd
000000b0: 7ab5 91bc 9680 69bc e074 42bc 32cc 3db9
000000c0: eb0d 0dbc da15 963d 3018 df3c ff07 0dbd
000000d0: 7970 253c c857 e1bc a756 32bd e950 c23c
000000e0: 51f9 133e 384f 67bd 738d e43d f305 833d
000000f0: 960a 30bd 3ee4 303d 916c 9e3d 77a6 15bd
00000100: bd88 2cbd 289d d43c 645a 2bbc f036 80bc
00000110: 5c9e dcbc 6cb3 1cbd d81d a43b 201d 5e3c
00000120: 00eb 8639 b023 acbb ccd8 583d 4876 03bc
00000130: ef1e a0bc 6cbc 5e3c c19e c6ba 6375 48bd
00000140: 989f 1d3e 0eea 15bd 845d 0c3d 75a0 2f3c
00000150: a33f 7b3d 1f2a 283e 7073 773b 0bc5 89bc
00000160: 7869 a33c 0b70 bbbc 8941 e6bc 98ca aa3c
00000170: 84e8 96bc 1842 46bc 7aec cdbc 2ecb 00bb
00000180: 0ce6 393c 98a1 e0bc 08f0 99bb 4603 03bd
00000190: 6d60 0bbd ebca 0c3d 568c 20bd 2025 bebb
000001a0: c05f ef3b 794f 0ebd 4dd5 01bd 24c3 a33c
000001b0: 367f 8d3c d89e 2fbd 2adb 933c 8adb 0e3d
000001c0: a4f5 5e3c 084f c6bc e41f f0bc d048 09bd
000001d0: ea1a 5cbc 3792 043e 8b51 90bc a898 a33b
000001e0: 00f3 b4ba 2857 fa3c 45a1 42bd 5a0f 0abd
000001f0: 5cd6 c9bc 98f5 b03b 7875 b4bb 2a55 283d
00000200: 85d1 03bd 7db5 383d 45ed a9bc d824 d63c
00000210: 604e 10bb 283c dd3c a65f 96bc e0a2 9c3a
00000220: 32d6 0c3d 186f 11bd 186b 203d a49f 2a3c
00000230: 340b 17bd c831 b13b 40dd 1e3d 0691 5fbc
00000240: 9e9b 053c 0c4f b13d a73a ff3d d0d3 39bc
00000250: eb23 33bd 8ae3 d8bc 0ea5 063d 7fb6 1abd
00000260: 30f8 183d 40f1 9e3c e0f9 293d 6c9e 0d3c
00000270: 3038 e7bb cb50 c8bc 09b0 8fbc 403e 0fbc
00000280: e008 6d3c ad13 97bc 1842 ca3c bc93 0f3c
00000290: 5cf3 a03c 400d 4fbb 3203 24bd 70b9 fbbc
000002a0: ebfe 26bd 5a92 13bd 086b 8a3c 5cf5 233d
000002b0: d454 8bbc aa46 f63d d087 d73b 2c9f de3c
000002c0: 6052 c33b 00bb 9139 a880 013d 701b 12bc
000002d0: a0a2 793c 806d 0b3c a301 a1bc 7623 27bd
000002e0: d03f 4f3c a0ce ac3b 7206 18bd 401e 05bb
000002f0: a26f 033d 6c3b 31bd a940 ff3d ce67 95bc
00000300: 90ff 63bb 5483 00bd c9ea 113c 87b5 283d
00000310: 18c6 19bd b520 b9bc 0074 f4ba 48cf b63c
00000320: 90a0 823b 8a98 2bbd 7c52 5b3c 2f31 e7bc
00000330: 4aa3 8c3c 724e 11bd 1051 cd3b 806d 723c
00000340: bc48 8d3c aca2 143d e2f2 ebbc e40e 6fbd
00000350: 845e f3bc ce06 c0bc b469 f23c 3027 15bd
00000360: 6d68 633d c595 053d 002a 27ba 501c 10bb
00000370: ba5f c9bc f842 093d bc00 0a3c 496b 8abc
00000380: ded1 113d 080b aebc 5ccf 08bc 9453 1dbc
00000390: c6de 1d3d d7e1 c1bc 81f5 b8bc 48b3 32bc
000003a0: d219 02bd f3a4 1b3e 23a2 2ebd 7ca5 073d
000003b0: 7013 573c a8fc 003d 400b f3bc d7f3 533d
000003c0: cc12 603c a212 a8bc 608d acba 4819 17bd
000003d0: 7452 23bc c439 663c 08e8 c53c 50ca 023d
000003e0: 3447 0c3d 740f 193c 5adb 073d 202e d43c
000003f0: 8a64 00bd 3574 81bc 7452 8e3c 047b 08bd
-0.0039278716 -0.02405016 -0.024860052 0.01597295 -0.018652722 -0.0029547438 0.03751477 0.020422898
-0.040271007 0.00094135106 0.030586526 0.0015398264 0.023902267 -0.028515246 0.03714034 -0.026753515
0.03622365 0.042153418 -0.009841017 -0.018816918 0.020982638 0.015288163 -0.01910688 -0.03762822
-0.040785518 -0.026638268 -0.020188339 0.039570738 0.050795183 0.07613396 -0.0025707674 -0.031109568
0.004974351 -0.015249872 -0.03590955 -0.028738605 -0.031269655 -0.0014440451 -0.030937664 -0.03210352
-0.03983705 -0.017953414 0.016237553 -0.040046837 -0.01778673 -0.014251849 -0.0118686855 -0.00018100513
-0.008609275 0.073283866 0.027233213 -0.034431454 0.010097616 -0.027507678 -0.04353967 0.023720222
0.14450575 -0.056472033 0.11159792 0.06397619 -0.042978846 0.04318642 0.07735551 -0.036535706
-0.04212259 0.025953844 -0.0104585625 -0.015651196 -0.02693098 -0.038257048 0.0050084405 0.013556749
0.0002573356 -0.0052532777 0.05294113 -0.008023806 -0.019546 0.013594728 -0.0015153514 -0.048940074
0.15392911 -0.036600165 0.03426887 0.010719408 0.061339986 0.16422318 0.0037758015 -0.01681759
0.019947752 -0.022880575 -0.028107421 0.020848557 -0.018421419 -0.012100719 -0.025137175 -0.0019652355
0.011346351 -0.027420804 -0.0046978034 -0.031985544 -0.034027506 0.034373205 -0.039196335 -0.0058027655
0.0073051155 -0.03474376 -0.03169756 0.019990511 0.017272573 -0.042876095 0.018048842 0.034877338
0.01360837 -0.024207607 -0.029312082 -0.033516705 -0.013434151 0.12946402 -0.017617008 0.0049925633
-0.001380533 0.030559137 -0.04751708 -0.033706047 -0.024638347 0.005400371 -0.0055071674 0.041096844
-0.032182235 0.045094956 -0.020743022 0.026140615 -0.0022019371 0.027006224 -0.018356156 0.0011950396
0.03438396 -0.035506338 0.039164633 0.010414038 -0.03687592 0.0054075457 0.03878522 -0.013645416
0.008154778 0.08657655 0.12462359 -0.011342004 -0.043735426 -0.026475687 0.032872252 -0.037771698
0.037346065 0.019402146 0.041498065 0.008643728 -0.0070562586 -0.024452588 -0.017539995 -0.008742869
0.014467448 -0.018442 0.02468972 0.00876325 0.019647293 -0.003159359 -0.04004211 -0.030728072
-0.040770452 -0.036028244 0.01689674 0.040028915 -0.017008223 0.12025197 0.0065774694 0.027175508
0.0059607476 0.0002779588 0.031616837 -0.008917674 0.015236527 0.008509994 -0.0196541 -0.040805303
0.012649491 0.005273655 -0.03711552 -0.002031222 0.032088883 -0.04326956 0.12463505 -0.018237974
-0.0034789778 -0.031375244 0.008906075 0.041188743 -0.037542433 -0.022598604 -0.0018650293 0.022315636
0.0039864257 -0.04189352 0.013386365 -0.028221695 0.017167706 -0.035475202 0.006265767 0.014796615
0.017246597 0.03628795 -0.028802339 -0.05836381 -0.029708154 -0.023440745 0.029591419 -0.036414325
0.05551951 0.032613534 -0.0006376803 -0.0021989532 -0.024581779 0.033511132 0.008423027 -0.01689686
0.035600536 -0.021245494 -0.00835022 -0.009602446 0.03854253 -0.02366726 -0.022578003 -0.010907002
-0.031762905 0.15199642 -0.042635094 0.033116803 0.013127193 0.03149095 -0.02966845 0.051746216
0.0136763565 -0.020516697 -0.0013164692 -0.036889344 -0.009968389 0.014051858 0.024158493 0.03193122
0.034247592 0.009342063 0.033168174 0.0259009 -0.03134588 -0.015802482 0.017373301 -0.03332044

fc1.bias f4 [128]
00000000: 73e0 d13c dcd6 743d 37de 4bbd 4882 ca3d
00000010: 8266 3cbd c06b 593d 8f88 5c3d 38a3 123d
00000020: 9f07 e93c 901b e83c c196 d43d d345 943c
00000030: a16a 5d3d 62db 2e3d 4308 10bd 4c9a 263d
00000040: 6978 ec3c cbfd 343d 46d8 653d 5a71 453d
00000050: a3a3 f13c 733e 0e3d 5924 5d3d 96d7 e63d
00000060: 789f 563d 2c14 0bba d44e 343d cc25 803d
00000070: c8a6 32bd 5aa0 e83c be08 a2bd 7ab1 573d
00000080: 1b4c 433d 879d 90bd e201 a23a 2dc8 f33c
00000090: 7c57 753d e7a2 233d 33fe 4c3c e32f 093b
000000a0: 1dcc 8b3d 7b71 483d efd5 033d 13c7 64bc
000000b0: f068 ad3c f62c 66bd d7d1 fe3c d715 65bb
000000c0: 9a06 6a3d dedf 3c3d 22ac 8f3d 1425 bcbc
000000d0: 3674 923d d979 85bd 94ca 453c 0af0 8b3d
000000e0: bbd3 c63d cf03 403d cda6 833d 3fad fbbc
000000f0: 51ff 433d c82b 6ebc f260 333c 8db1 98bb
00000100: b96c af3d 7512 033d 69cc 393a f652 b83d
00000110: a280 8e3d e267 593c 124a 7b3d b770 1bbd
00000120: a62a 73bc 687c 2abd deb5 0a3d 6961 7f3c
00000130: 6de3 873d 6e4a 453d 2d91 c93c 12de e3bc
00000140: a969 feb9 2790 4c3d c9bd f4bc 509d febb
00000150: 5ff2 4f3d d201 d5ba d0fb cf3c fdf8 783c
00000160: 882b 923c 1371 a13d 9ffa a9bb 683e b63d
00000170: 03e7 3fbd 8c68 483d 134a fbbb 9474 443d
00000180: 2f95 fd3c 53fe c13d ea29 7bbd 3951 093d
00000190: d404 94bd 2f8a b53c a671 703d 4a60 57bd
000001a0: 3ae6 523c 72f5 a4bc 4c5a 18bd a55e 883d
000001b0: 8d8e bf3c 9c33 f83c 5631 2ebd b4f2 593d
000001c0: 87db 223d 8517 42bd cb7b c53c c71c 4dbc
000001d0: 56dd 5f3d 80a3 45bd 87ca 33bd 9ded b43d
000001e0: e74a a53c 44bc 653d c958 eb3c d960 6e3d
000001f0: a941 ad3c e7c3 023d 2bee 3a3d c180 e83c
0.025619721 0.05977522 -0.049772467 0.098881304 -0.045996197 0.053081274 0.05384117 0.03580019
0.028446017 0.028333455 0.103803165 0.018099701 0.054056767 0.04268969 -0.03516413 0.040674493
0.02886601 0.04418735 0.056114458 0.048203804 0.029496973 0.034727525 0.053989742 0.112715885
0.052398175 -0.0005305435 0.04402049 0.06257209 -0.043616086 0.028396774 -0.07911824 0.05265949
0.04768 -0.07061296 0.001236018 0.029758537 0.059897885 0.039950278 0.012511778 0.0020933084
0.06826041 0.04893635 0.032186445 -0.013963479 0.021168202 -0.05619522 0.031105919 -0.0034955645
0.057135202 0.046111934 0.070152536 -0.022966899 0.07151072 -0.06517381 0.012072224 0.06832893
0.09708353 0.046878632 0.06428299 -0.030722259 0.04785091 -0.014536805 0.0109484065 -0.0046598376
0.08565659 0.032000024 0.00070876494 0.090001985 0.069581285 0.0132693965 0.061349936 -0.03794929
-0.014841711 -0.04162255 0.03386485 0.015587189 0.06635175 0.048166685 0.024605358 -0.027815852
-0.00048525378 0.049942162 -0.029875653 -0.007770218 0.050768252 -0.0016251153 0.025388628 0.015196082
0.017843023 0.07882895 -0.005187347 0.08898622 -0.04685117 0.04892783 -0.0076687424 0.04796274
0.030954925 0.094723366 -0.06131927 0.033524726 -0.072274834 0.022160618 0.058702134 -0.052582063
0.012872273 -0.020136569 -0.03719549 0.06658677 0.023383403 0.030298047 -0.04252752 0.053209975
0.03976014 -0.04738571 0.02410688 -0.012519068 0.05465444 -0.04825163 -0.043894317 0.08834384
0.020177318 0.056087747 0.02872886 0.05819783 0.021149473 0.03192511 0.04563729 0.028381707

fc2.weight f4 [128, 128]
00000000: 8708 a73d fa09 f0bd 1fbc 01bd bb08 e23d
00000010: 8530 30bd 0f75 493e fe1a 183e 1728 83bd
00000020: 5b5b d13d dde2 753d 6e1a 2fbe 332d fa3d
00000030: b896 653d 53bd d93d af2a 903d 482c 0e3e
00000040: 0782 313e feee 153d 59f1 d6bc a015 b43d
00000050: 1ee9 863d cc0a d73d 1878 e73d 14cc cbbd
00000060: 177f bdbd ca25 0a3e 7fd0 b2bd e3cb 3c3d
00000070: 5c94 293e e7e3 cf3c 7578 a93c efdf a9bd
00000080: b18a 4bbd 6cec a1bc a198 a33d 65f5 50bc
00000090: b7b7 2f3e 3fe7 e6b7 660a 80bc 0711 193d
000000a0: 604c 893d b8af c3bd 2a49 94be 70ec ddbd
000000b0: 68c3 063e 99bc 113e d5c7 433e f03f 0cbc
000000c0: 068c c6bc b940 e4bd 0576 3a3e 8b00 473c
000000d0: c532 f4bd 4d79 a9bd 6a39 9d3d 9ce9 343e
000000e0: bc84 d0bd 9909 b7bc 7047 15be e03d dc3d
000000f0: fb79 503d f275 80bd b389 f03d 9de3 c53c
00000100: e20b 1abd 609a 0e3e 6109 19bc 6a89 813e
00000110: 8402 7cbd aaf1 d33c f1ef f03d 0ce1 333e
00000120: 9474 093e 24b0 513d 45df 46bd 31ff 8b3d
00000130: e9ca c33d 909b c43d 344e 563d 1c31 bebb
00000140: 2de8 e33d 643f 593d 1bf1 1d3e d354 923d
00000150: a324 103e a3c1 4f3d c171 43bc 910a fa3d
00000160: b162 473d 37fe 2c3c c8f8 2c3e 45dc 663e
00000170: 6456 56bd cc3f 6b3c e706 313e ae06 8d3d
00000180: 0c95 483e cde5 fc3c c59e 7cbd 80b1 273e
00000190: 04a7 da3d dd6c 29ba a003 a73d 97da 283e
000001a0: 23a4 cdbc 0a83 233e 6624 7d3d d1f0 053e
000001b0: b024 63bc c33d 053d e69f 87ba 601b 2b3e
000001c0: 6dca 7c3e c7e0 a6bd 62ed a13b caa2 2d39
000001d0: 4b71 eb3d cb6d b3bd 5ae6 c739 10b2 393e
000001e0: 7c53 31bd 0858 4c3e 1e96 943c 9399 593e
000001f0: d58d 55bd 3a0c d53d 6525 f53c 0f4e 393e
00000200: b565 993d f5c7 f1bd f55a 53be a729 463e
00000210: 9e38 07ba 3c0f 9b3d 2e09 ca3d f10b b6bd
00000220: a9d9 c33b 13e3 103e 2862 95bd 07b4 273e
00000230: 3aa6 f13d 5eea 343e 9fa6 213e e690 63bc
00000240: d0f6 ba3b c4cc 123e a850 ccbd b82e c93d
00000250: 08a3 f83d 38cb 0c3e a563 6b3d ed87 e2bd
00000260: 69b1 b2bd 712a ba3c 17f6 6cbd 5765 bc3d
00000270: db0b 533d 7d09 20bc 816b b33d 33d8 6cbd
00000280: bcbb 14be c07d 56bd cdd4 343e 2032 023d
00000290: 39e0 073e d054 4f3d b7fb 143d a743 63bd
000002a0: f231 143d 71c4 d13c 6a09 1dbe 54b2 f53a
000002b0: 69c9 933d 607a 8b3d 75ea 213e 3931 4f3d
000002c0: 3ca2 be3c 352f 1d3b cbf3 523e 4940 d83c
000002d0: d20b cebd 7bd8 c33c a787 15bd 1a43 3f3e
000002e0: 41e7 f0bd f6ed 423d f52e 25be b781 e73d
000002f0: 85ec 083e 34cb 80bd 1f23 003e 5ca5 263e
00000300: 670d 0ebe 33f1 493d e013 123c 0f91 853e
00000310: c805 0bbe 8abb 0f3e 5c33 dc3c 36bd ac3d
00000320: 9c99 523e 6964 a83d af32 83bd cf14 a63d
00000330: 1746 e03d 7f51 453e e73a 013e c104 a5bd
00000340: f26d f83c 978c 2b3b 433a a53d 507e 913d
00000350: 8aa0 093e fe15 993d c321 cabd 13fb 843e
00000360: 0b4b 183e fe60 0d3e a067 bd3c fd0b 0a3e
00000370: 0960 aabd 3fb0 053d 47f5 2c3e 51b8 ac3d
00000380: 8495 813d d47f 803d 2189 0fbd 2a8a 2b3e
00000390: 2766 283e a769 9bbb ef35 ab3d 494a 263e
000003a0: a549 843d 2c36 0f3e 3d07 303e c1e0 be3d
000003b0: 9cd4 003d bfb6 c8bd 913d bbbc 56d6 c43d
000003c0: 10df 1fbd a660 833d 3199 fbbc 3737 ad3d
000003d0: 784b 413e 7258 833d 6ba5 a9bc 0edf 5a3d
000003e0: 6ca9 023e b200 b63d 51d6 953d 1765 2c3e
000003f0: 77ce 82bd fc80 893d 7eab e23d d0db 123d
0.08155923 -0.11720653 -0.031673547 0.110368215 -0.04301502 0.1967356 0.14854047 -0.06404131
0.10222503 0.060030807 -0.17099926 0.12215652 0.05605194 0.10631814 0.07039391 0.1388408
0.17334758 0.036604874 -0.02623813 0.08793187 0.06587432 0.10500106 0.11302203 -0.09951034
-0.09252756 0.13490978 -0.08731174 0.04609288 0.16560501 0.025377227 0.020687321 -0.08294665
-0.049692813 -0.019766055 0.07988096 -0.012753819 0.17159925 -2.7525819e-05 -0.015629958 0.037369754
0.067040205 -0.09555 -0.2896207 -0.108361125 0.13160479 0.142321 0.19119199 -0.008560166
-0.02423669 -0.11145157 0.18209083 0.012146126 -0.11923746 -0.082750894 0.076769665 0.1766724
-0.10181567 -0.022343444 -0.14578032 0.10753989 0.05089758 -0.06272496 0.11745014 0.024156386
-0.03760899 0.13926077 -0.009340615 0.2530015 -0.061525837 0.02587207 0.11764515 0.17566317
0.13423377 0.05119337 -0.04855277 0.06835783 0.095601864 0.09599984 0.052320674 -0.005804194
0.111282684 0.05303897 0.15424006 0.07145085 0.14076476 0.050721776 -0.0119289765 0.12209047
0.048678104 0.010558656 0.16891778 0.22544964 -0.052328482 0.014358472 0.1728779 0.0688604
0.19588107 0.030871296 -0.061674852 0.16376305 0.10676387 -0.000646306 0.08154988 0.16489635
-0.02510268 0.15967956 0.06180229 0.13080145 -0.013863727 0.032529604 -0.0010347336 0.16709661
0.24686594 -0.081483416 0.0049416283 0.0001655921 0.11496218 -0.08761176 0.00038127863 0.18134332
-0.043292508 0.19955456 0.018137988 0.2124999 -0.052137215 0.10402723 0.029925058 0.18096183
0.07490102 -0.11805717 -0.20640166 0.19351827 -0.0005158278 0.07571265 0.09865032 -0.088889964
0.005976875 0.14149122 -0.072941124 0.16377269 0.11799283 0.17667529 0.15786217 -0.013889527
0.005705692 0.14335924 -0.099763215 0.09823364 0.12140471 0.13749397 0.057468075 -0.11061082
-0.087252446 0.022725316 -0.057851877 0.091990165 0.051524978 -0.009767887 0.08760739 -0.05782337
-0.1452474 -0.05236602 0.17659302 0.031786084 0.13269128 0.050617993 0.036372866 -0.05548444
0.036180444 0.025606366 -0.15335622 0.0018745163 0.0721615 0.068104506 0.15812095 0.05058405
0.023270719 0.0023984436 0.20600812 0.026397841 -0.10060848 0.023906937 -0.03650632 0.18677941
-0.11762858 0.04759022 -0.16131194 0.11304038 0.13371475 -0.06288758 0.12513398 0.16274017
-0.138723 0.04930229 0.008915871 0.26087233 -0.13576424 0.14036384 0.026879959 0.084345266
0.2056641 0.08222277 -0.064061515 0.08109438 0.109508686 0.1926937 0.12620126 -0.08057547
0.030325864 0.0026176327 0.08067753 0.0710417 0.13440147 0.07474898 -0.09869721 0.25972804
0.14872377 0.13806531 0.023120701 0.13481136 -0.083190985 0.032638784 0.16890441 0.08433593
0.06327346 0.06274381 -0.035042886 0.16751924 0.16445218 -0.0047428194 0.083598964 0.16239275
0.06459359 0.13985509 0.17190261 0.09320212 0.03145276 -0.09800481 -0.022856506 0.09611194
-0.03903109 0.064149186 -0.030712696 0.08457797 0.18876445 0.06413354 -0.02070876 0.053435378
0.12759942 0.08886851 0.07316268 0.16835438 -0.06387036 0.06714055 0.11067866 0.03585416

fc2.bias f4 [128]
00000000: 5b95 3d3d 1b84 b43c 4c8e 60bd 9f2f 2c3d
00000010: 7c0a 953e 41af e9bc bfdb c63d 9e1f b53d
00000020: f23c db3a 891e 9bbd 73ac 5dbd 9018 7c3d
00000030: bcc3 edbc 8c8c ec3d b729 ac3d f959 d63d
00000040: fd5a 8c3d 7ce3 1cbb b27f 60bd 2659 93bd
00000050: 150e a2b8 cf55 5abd 60f0 293e dc23 7d3c
00000060: 8dcf 033e 8151 1a3e 9097 65bd 200f 7d3d
00000070: 9c32 b9bd 3b55 c6bd 94f0 9bbd 41ea 5abd
00000080: 9999 573e 0f48 a33d 0576 18bd ec8b 873e
00000090: 9750 a03d 5075 21bd 141d 14bd aec0 0cbd
000000a0: 6496 903d 5eee c73d 1f97 8e3d 0434 f43d
000000b0: b032 84bd db6c 123d bd25 563c 1b7d 463e
000000c0: cadf cd3d 2bed 31bd 865c fabb dc34 89bd
000000d0: 3a2c 20bd 6246 bcbd 09d6 1ebd 7b4c f43d
000000e0: 23c2 943b 4c54 883c 52ad 39bd af76 113e
000000f0: b3f7 58bd 67a3 253d 2b7c 8b3d 455e 9dbd
00000100: e6f9 a43d d585 99bd 81cf c53d 43cb 0fbe
00000110: f2fe 1e3a f25e 17be a6c0 74bd 1981 643d
00000120: 8daf 8b3d a2ea 97bd 5dae 743d aa09 a2bd
00000130: bcaa a43d ce24 87bd 32cf fa3d 4416 95bd
00000140: 17a5 dc3d ee97 bdbd 6b4f 8d3d 8bdb 523d
00000150: 6c05 68bd 4682 8abb 9f05 d43c 9b4b 2bbd
00000160: e66b a83d dad2 a03c 3a8c 89bd 9cbe 313d
00000170: 49d3 4b3d 2fb2 873d 076e 32bd b7a6 cd3d
00000180: c27e 003e bbbb 27bc fd00 a93d a6c0 dc3d
00000190: 8274 94bd 39fe 60bd 60bf ae3d 7ef3 b23d
000001a0: 7bf3 6d3e 5852 393c bcc0 133c 5512 ddbd
000001b0: 1c31 993d 7415 673e 4fe1 973d 8541 743d
000001c0: b15c 83bd c55e f73d 5203 9ebd 1f05 103e
000001d0: d588 f23c 1c0b 7fbd 7ba6 cbbd 2371 433e
000001e0: 9cef 1d3d 1e14 4dbd 6f68 69bd 5e30 63bd
000001f0: 2517 d2bd caea 263d ecc2 0fbd 7c72 193d
0.046285015 0.022035649 -0.054823205 0.042037603 0.2910956 -0.02852595 0.09709882 0.08843921
0.0016726537 -0.075741835 -0.05411954 0.061546862 -0.029023997 0.11550245 0.08406394 0.1046638
0.06853292 -0.0023939302 -0.05480928 -0.07194738 -7.727385e-05 -0.05330449 0.16595602 0.015450444
0.12872143 0.15070154 -0.056052744 0.061782002 -0.09042856 -0.09684225 -0.07614246 -0.05344606
0.21054687 0.079727285 -0.037221927 0.2647394 0.07827871 -0.03941852 -0.036160544 -0.03436344
0.07059935 0.09762262 0.06962418 0.11923984 -0.064549804 0.035748344 0.013070521 0.19383661
0.1005245 -0.04343907 -0.007640424 -0.06699535 -0.039104678 -0.09193112 -0.03877834 0.1192865
0.0045397445 0.016641758 -0.045331307 0.1420543 -0.0529706 0.040439036 0.068107925 -0.07683996
0.08055477 -0.074962296 0.09658719 -0.14042382 0.00060652115 -0.14782313 -0.059754036 0.05578718
0.06820593 -0.074177995 0.0597366 -0.079119995 0.080403775 -0.06598817 0.122465506 -0.072796375
0.10773676 -0.09257494 0.068999134 0.051478904 -0.056645796 -0.0042269556 0.025881587 -0.04182015
0.08223705 0.019631792 -0.06716199 0.04339467 0.049762044 0.06625783 -0.04356196 0.10041564
0.12548354 -0.0102376295 0.082521416 0.10778932 -0.072487846 -0.054929946 0.08532596 0.08737849
0.23237412 0.011311136 0.009018119 -0.10794512 0.0748007 0.22566777 0.07416021 0.059632797
-0.06414164 0.12078623 -0.07715477 0.14064454 0.029606262 -0.062266454 -0.09943863 0.19086127
0.038558587 -0.050068013 -0.05698436 -0.05546605 -0.10258321 0.040751256 -0.035098 0.037462696

fc3.weight f4 [128, 128]
00000000: 217a 87ba 643b 80bd de76 493c 94fb af3d
00000010: cc79 6bbe ac6e 8fbc 9882 e43d bf8b e53c
00000020: 4a53 d53d 3661 093d 1147 5dbd aa0f a83d
00000030: 572c 6bbe 5b36 af3d 27d0 d9bc 9f68 763c
00000040: 26ba 00bd 908b 673d a0db 4fbc 8c37 c83d
00000050: 4007 9bba ced8 6fbd 9a79 793e 5aff ef3d
00000060: bfbc 48bb 2b7b 9e3d 7de8 613d 6474 0f3d
00000070: fc95 00bd 12ce 3ebd 2fe5 7b3d 007c 5fbc
00000080: 74d5 1b3e 4ed7 7f3c 1d49 37bd 5391 de3d
00000090: 89c5 2d3e 7204 663d c2d1 d1bc 6e38 133d
000000a0: 1bd6 af3d e553 12bd 5cfc c43d d06d 45bd
000000b0: 1a49 133d d4db 62bc ce31 c33d cc49 4f3e
000000c0: 4b71 bf3d afee 393c 8333 803d 91d7 31bd
000000d0: d47d e8bc 6b56 53bd af18 63bd 4c79 b63d
000000e0: b840 a7bc a255 c23d 1ef5 083d 9fee 823d
000000f0: 45fa 3e3c a548 e43d a63b 013d 1857 a73d
00000100: 1e5e e3bb d113 b93d 6e45 d33d c095 00bd
00000110: efac 83ba 7e37 abbc ea39 a5bd e3c3 963d
00000120: 8170 9c3d 296f 92bd cedf a13c bad6 b0bb
00000130: a4ea debc 68aa 043d 91eb a73d 862a 5bbd
00000140: 0633 f93d a396 98bc a2ae 523e 4a29 473c
00000150: d46f 38bd d5e3 e5bd eaf0 233d 7733 9dbb
00000160: c9fa e3bc 41f8 3a3d ce59 f23c a085 eeba
00000170: 0503 cf3d b0fb 433d 629e 4d3d 4cbc bdbb
00000180: 56cf ed3d 9b93 bbbc ff1c aebc e59d 223d
00000190: 5890 043d 082d 0ebd 22cc fabc 3d3f 00bd
000001a0: c755 803e 2257 d1bc 9f4b 993d e8c8 db3d
000001b0: b150 b43d c66c 703e be40 3b3c fa25 1bbc
000001c0: 3272 423c 59d4 4c3c df9f 873d 0235 17bd
000001d0: 72e5 743c 9a2d 00bd 3cec 6e3c 7290 153e
000001e0: 4499 153d 32af 32bd f0d3 babb 39ed a3bc
000001f0: 6b5b 48bd 7112 6fbc 038d 22bd f49b cb3d
00000200: 5e74 683d 0ccc 41bd 7891 5c3c f095 53bd
00000210: aae9 96bd 509c be3b 804f 233b d89b a0bd
00000220: 0e22 693d c414 943c 1262 30bd 2b31 863d
00000230: 0f3f 89bd e74a 1bbd 7470 6ebd 53e8 10bd
00000240: 40f8 8dbb e459 b3bd 40a9 88bb 54a3 b8bc
00000250: 4b55 8e3d 2c67 93bd 70f4 e63b f2a0 603d
00000260: 8630 3c3d 896e 75bd a015 a5bb a73c 12bd
00000270: b7e5 ab3d f663 89bd 9687 2d3d ec09 df3c
00000280: b092 2ebc c80e 9fbd fd9d 62bd 08b0 4bbd
00000290: 8098 7a3a 8e40 7fbd 9f6a 9e3d d81c 07bc
000002a0: f0ee 8e3b 7e9b 013d 73ae 9fbd 7e66 60bd
000002b0: e0ea a3bb 16cc aebd 8c23 5abd 9a9b 7a3d
000002c0: 1adb 293d a078 3a3b 2627 69bd d0bf cfbc
000002d0: 060b aabd f528 76bd 506e a73c 2a2c 8dbd
000002e0: 105a b1bc dcf5 89bd b3a4 0bbd ba9c 32bd
000002f0: 70c2 0f3c 60b8 fd3c 0095 a0bb 105e 8bbb
00000300: 6b8e 11bd b2ff 733d 6003 9cbd 0652 93bd
00000310: 51ce 9a3d 7cc6 c3bc 8ec4 a9bd 0713 843d
00000320: b374 19bd a42b 24bd 80f8 7cbc 9166 a33d
00000330: 341a a0bc 0984 983d 5449 44bd 8cc7 31bd
00000340: 68b5 a0bd e053 20bb 2ad8 023d f0dc b0bd
00000350: 0293 42bd 9635 533d 0051 34bc f049 e7bb
00000360: 8078 103b f865 7abd f03e 71bc 20ba 483c
00000370: f7a7 47bd 58c8 333c 6095 20bc 3b55 9c3d
00000380: c4ac a33c 429b 6e3d 5c92 853c e953 ac3d
00000390: f045 67bd f0a8 a3bc 888f 7bbc 0a96 7cbd
000003a0: 4c90 ba3c 586c e3bc ccc3 25bd 2d5a 18bd
000003b0: b23e 6f3d 7824 9bbd 9f24 ad3d b1b9 59bd
000003c0: 7d52 893d 5076 eebb 3ce2 ac3c 0bcb 6fbd
000003d0: 3528 5fbd 9e00 603d 443e 843c c89f b5bc
000003e0: 623b 90bd 0f2c 29bd 7f65 a23d 05cf a23d
000003f0: 604e 483b 9400 873c a04a e63c 4ec2 8ebd
-0.001033608 -0.06261328 0.012296407 0.085929066 -0.2299568 -0.017508827 0.11157721 0.028020738
0.10416277 0.033539973 -0.054022852 0.08206113 -0.22966133 0.08555289 -0.026588513 0.015039592
-0.031427525 0.05652958 -0.01268664 0.0977622 -0.0011827722 -0.05855637 0.24362794 0.11718626
-0.003063008 0.07738336 0.05515336 0.035023108 -0.031393036 -0.046583243 0.061497863 -0.013640404
0.15218145 0.0156152975 -0.04474746 0.10867562 0.16969885 0.056156583 -0.025612716 0.035942487
0.08585759 -0.03572454 0.09618446 -0.04820043 0.035958387 -0.013846356 0.09530984 0.20242995
0.09347781 0.0113484105 0.06259825 -0.04341847 -0.028380312 -0.051596086 -0.055443462 0.08909854
-0.020416602 0.094889894 0.033436887 0.063931696 0.011656349 0.11146668 0.031551026 0.08170909
-0.00693871 0.09036983 0.10315977 -0.031392813 -0.0010046045 -0.020900484 -0.08067687 0.07361581
0.07638646 -0.07150108 0.019760039 -0.005396691 -0.027211495 0.032389075 0.081992276 -0.05350735
0.12167935 -0.018626517 0.2057443 0.01215584 -0.045028523 -0.11225096 0.040024675 -0.004797395
-0.027829545 0.04564691 0.029583838 -0.0018197782 0.10107998 0.04784745 0.050199874 -0.005790269
0.11611812 -0.022897532 -0.02125406 0.03970136 0.03236422 -0.034710914 -0.030614916 -0.03131031
0.25065443 -0.025554243 0.07485127 0.10731679 0.08804453 0.23478994 0.01142901 -0.009469504
0.011868047 0.0125017995 0.0662229 -0.036915787 0.014947282 -0.03129349 0.01458269 0.14605883
0.03652312 -0.04362411 -0.0057015345 -0.020010578 -0.048915308 -0.014591799 -0.03968526 0.09941855
0.0567516 -0.047313735 0.013462417 -0.051656663 -0.07368787 0.0058169737 0.0024919212 -0.07842225
0.056917243 0.018076308 -0.043062277 0.06552347 -0.067014806 -0.03791323 -0.058212712 -0.03537781
-0.004332572 -0.0875738 -0.004170567 -0.022538818 0.06949862 -0.07197413 0.007048182 0.05484099
0.045944713 -0.059919868 -0.0050379783 -0.035702374 0.08393424 -0.06708519 0.042365633 0.02722641
-0.01065509 -0.07766491 -0.05532645 -0.049728423 0.00095594674 -0.062317424 0.0773518 -0.008246623
0.0043619797 0.03164243 -0.077969454 -0.054785244 -0.0050023645 -0.0853502 -0.053256556 0.06118355
0.041468717 0.0028453246 -0.0569221 -0.025360018 -0.08302884 -0.060097653 0.020438343 -0.06893189
-0.02164939 -0.06736347 -0.034092616 -0.043606497 0.008774385 0.030971706 -0.0049005747 -0.0042531565
-0.03553621 0.059570022 -0.07617831 -0.07193379 0.07558883 -0.023898356 -0.08289443 0.06448942
-0.03746481 -0.04008068 -0.015440106 0.07978547 -0.019543745 0.07447059 -0.047921494 -0.043403193
-0.078471005 -0.0024464056 0.03194443 -0.086358905 -0.04750348 0.051564775 -0.01100564 -0.0070583746
0.002204448 -0.0611324 -0.014724478 0.012251407 -0.048744168 0.010973059 -0.009801239 0.07633444
0.019979842 0.058253534 0.016305141 0.08414442 -0.056463182 -0.019978017 -0.015354045 -0.061666526
0.022773884 -0.027761623 -0.04046993 -0.037195373 0.0584094 -0.07575315 0.084542505 -0.053155605
0.067051865 -0.0072772875 0.02110397 -0.058543246 -0.054481704 0.05468809 0.016142972 -0.022170916
-0.070425764 -0.041301783 0.07929515 0.07949642 0.0030564293 0.016479768 0.028111756 -0.069706544

fc3.bias f4 [128]
00000000: afa2 e33d 80b1 9b3b c7bb 12bd c7e8 7b3d
00000010: f180 81bd d7c5 843d f46f 72be ad14 fb3c
00000020: 88fa 003d a9be bf3d 0ed9 23bd ed3a 5dbc
00000030: a16a a5bd 5eec 123e fd71 5c3d d1a1 9abd
00000040: 54f9 aabd 0179 afbd 1548 a3bd 9da6 4f3d
00000050: d18d c63a 2186 8fbd c097 943e 171f 273e
00000060: 6523 af3a 8083 823d 7fba 2abe 0301 a7bd
00000070: 9c7e 19bd 19de fb3c 386e eeba 32ad 38be
00000080: 328b a43e d8c3 303d 7d0d 563d ed0f c4bd
00000090: 313a 233c f156 da3d 1726 ca3d 84cc 003e
000000a0: 58dc 5abe 2b10 ddbd 62de b5bd cb69 893d
000000b0: ecef 623b 8620 b4bc fdd5 fbbc 68f4 74bc
000000c0: aeb8 503c 3e9c e5bc 57b9 b3bd d0e5 d03d
000000d0: cac2 21bb 0951 6f3c b295 173d 8b3f bbbd
000000e0: b2af a2ba 9cb6 403e bfa2 8c3d 35ac ec3d
000000f0: ca5e 1f3d 3317 5cbd 9e98 9bbd 719f 5dbd
00000100: 51c2 173e 3bab b5bd fe38 08be a013 ba3d
00000110: c402 c1bc dfc6 203c 31db 29bd 0285 4cbd
00000120: c0d6 833b 6c90 143e a354 173e e366 90bd
00000130: 2680 8dbd 88ba 6f3e 68f6 3e3c e267 47bd
00000140: dbe5 cf3c 84a5 aa3b a6bd 8e3b 5180 22be
00000150: e23e fd3d 4bc0 b63d 5a64 dc3b 0459 ae3c
00000160: 037d 87bd 52ca ce3c 22fd 9dbd 24fe 04bc
00000170: 291a 83bd 9f1e 08be 50cf b83d 42a5 8b3d
00000180: f8f8 373c 5812 14bc 5db2 03bd 379e 023d
00000190: 1f98 ad3d b4ec 94bd e496 553d 6c73 0d3e
000001a0: bb19 4d3e 8bff 0d3d a233 ff3c bd43 41bd
000001b0: 0f8b 263e 26e7 543d 6e70 45bc b71d 7d3e
000001c0: 865f 7b3c ebf7 81bc 807d e73a 61bc 67bc
000001d0: 0ec4 8abd 499e a2bd fc1a 053e 721d d4bc
000001e0: 3bbd 123e b537 153e 9d74 cdbd 8664 fb3d
000001f0: 1744 0bbd 41a9 753d 53d7 0fbc f138 1f3c
0.11115014 0.0047513843 -0.03582361 0.06150129 -0.06323422 0.064830475 -0.23675519 0.030649507
0.031488925 0.093625374 -0.04000192 -0.0135028185 -0.080769785 0.1434798 0.053819645 -0.07550395
-0.08348337 -0.085680015 -0.07972733 0.050696004 0.0015148466 -0.07008005 0.29022026 0.16320454
0.0013361989 0.06372738 -0.16672705 -0.0815449 -0.03747426 0.030745553 -0.0018190807 -0.18034819
0.32137448 0.04315552 0.052258957 -0.0957335 0.009962604 0.10661114 0.09870546 0.12578017
-0.21373117 -0.107940994 -0.08880307 0.067096315 0.0034627868 -0.021988165 -0.030741686 -0.014950849
0.012739344 -0.028028604 -0.08775585 0.10200083 -0.0024682754 0.014606723 0.037007995 -0.09142979
-0.001241198 0.1881966 0.06866979 0.115562834 0.038908757 -0.053733062 -0.07597469 -0.054107133
0.1482022 -0.0887055 -0.13302991 0.090857744 -0.023560889 0.00981304 -0.041468803 -0.049931534
0.004023403 0.14508218 0.1477838 -0.07050874 -0.06909208 0.23411 0.0116554275 -0.048683055
0.025378158 0.0052077193 0.004356104 -0.15869261 0.123655096 0.08923396 0.00672583 0.02128268
-0.06615641 0.025242958 -0.07714297 -0.0081172325 -0.06401474 -0.13292931 0.09023917 0.0681863
0.011228792 -0.009037577 -0.032152522 0.031889167 0.084762804 -0.0727171 0.052145854 0.13813561
0.20029347 0.034667533 0.03115255 -0.04718374 0.16263984 0.051978253 -0.012050731 0.24718367
0.015342599 -0.015865287 0.0017661303 -0.014144034 -0.06775676 -0.07940347 0.12998575 -0.025892947
0.14329998 0.14572032 -0.10032008 0.12275033 -0.034000482 0.059975866 -0.008779365 0.009718166

fc4.weight f4 [32, 128]
00000000: ed45 ccbc 98b8 7dbd a2c5 10bd 2cd5 5fbd
00000010: c8a1 81bc 8038 02ba cc3c 42bd 6ef7 5dbd
00000020: 909f 27bd f7f4 71bd dca7 85bd 002d 38bc
00000030: 770f a7bd 1302 08bd 1679 aebd 0070 3339
00000040: c6b1 aebd 8372 36bd 210d b43d 2497 acbc
00000050: f83e 5ebc 6244 8cbd 57b8 ebbc e90c b8bc
00000060: 8161 69bd 9015 b5bb 513e 56bd 5d5d b13d
00000070: a7e0 903d 8206 abbd 54b6 f03c 614f 5cbd
00000080: d631 d0bc b5ad 473d 5e3d 3d3d c0b5 9abc
00000090: be3e 553d a2e6 f6bc 4031 c1bb 381f 55bc
000000a0: 6c42 8fbc c2e4 8bbd 4099 30bb 48a5 4f3c
000000b0: 5286 973d d367 a23d 7ab6 f9bc cb6c 0bbd
000000c0: 5e22 2abd 24bd 2f3c 7a53 3a3d 2b49 41bd
000000d0: e1f3 8c3d c3e1 01bd fadb 0f3b 5f26 37bd
000000e0: e0d6 8bbc 5283 8dbd 1b2b 853c ec43 c43c
000000f0: 76a4 063c da8c 2fbd 0627 5bbd 5209 373d
00000100: 4096 c3ba a897 2ebd 92dd 58bd 1177 d53c
00000110: 4147 a23d 5696 7a3d 073a 843d 018a 17bc
00000120: 5fd0 23bd b0eb 083c e926 773d 0827 31bd
00000130: a8c8 f43c 5ebd 62bc e0c4 84bc 74d4 8cbc
00000140: 14cb 94bd 9dd2 263d 7e11 243d 2544 a6bd
00000150: 8fa7 86bd fc14 933c dc24 be3c 909c 5b3c
00000160: 22b8 753d e727 81bd 4005 913b 11a3 b03d
00000170: 0a32 153d c6d2 473d c03a 87bd c04c 243c
00000180: 2862 ef3c 709b e9bb ce8f 753d f6cd 503d
00000190: 8948 7d3b c892 e13c c9c4 3d3b 3608 50bc
000001a0: 766d dd3b e0f5 89bd f090 113d dc64 973c
000001b0: 7c4e cbbc 7839 8fbd 1db9 90bd 63c4 be3c
000001c0: 1c1b b6bd 1583 2cbd 60f5 d53c 9074 593c
000001d0: cdb3 a13d ed44 87bd 47e0 9fbd b42c 4abd
000001e0: e38b 603c 47f5 99bd 1f5e 42bd 7e07 4dbd
000001f0: dd0d 8a3d c22d 75bd c420 8a3d 0bcb b4bd
00000200: 4c43 fd3c eb59 823d 3e5e 82bd d7d3 21bd
00000210: 002d 783c c0e3 f43a 58c3 23bd 3418 85bd
00000220: 15f6 a43d 4df3 b33d 3eca 4d3d 807d 763c
00000230: a22b 39bd 76d1 413d 5324 31bd 36f5 683d
00000240: 73df 96bd be34 553d 44bd 19bd b7a2 1bbd
00000250: 06da 2abd 8624 01bd 614f a23d c06b 80ba
00000260: 2252 35bd 8ddf 66bd aaa9 7cbd ad97 863d
00000270: c013 9d3a ddb4 a23d 42ba 88bd f2a1 5d3d
00000280: a96a 1abd 5af0 673d 1b48 9f3d 136b a93d
00000290: 76cc 4c3d b976 a2bd 6a50 513d a043 3a3b
000002a0: 0c9b f1bc 9cfb f63c 04d8 fdbc 3cc1 40bd
000002b0: 1ac3 16bd d4ba 7fbd f0c1 85bb 80c8 2c3a
000002c0: c340 9e3d f4d4 93bc 480a 70bc 00d1 f3bc
000002d0: e830 21bd 2074 c63c 58c5 c2bc 2e37 aabd
000002e0: 981c a4bd a027 1b3b 3a48 43bd e802 5ebc
000002f0: 5dc0 31bd 09b3 923d c172 36bd c023 c23a
00000300: 48a1 68bc 8226 643d 64c6 b4bd 201d 043d
00000310: 855b 43bd 5e71 153d 10ba 5f3c 3a3b 89bd
00000320: a62f d5bc f74d a5bd d0d0 713c 68bf e33c
00000330: 68cd 0c3d 3c71 88bc 68bd 3d3c e5eb 3ebd
00000340: 0f0d 90bd d229 17bd 634b 923d a082 d2bc
00000350: 0255 3f3d e35c adbd 5032 81bd b537 a4bd
00000360: 3e5d 663d 6340 8f3d f7ae 9c3d c750 ae3d
00000370: aec5 a0bd 30d3 57bc 3895 b63c 7f42 38bd
00000380: 4a15 193d 0080 d3b6 eaac 08bd 70a9 14bd
00000390: 3466 08bd 3698 443d 76c8 0a3d e07b c53c
000003a0: 1070 143c 9bb8 833d 0223 193d 0d5d 39bd
000003b0: 3ef3 013d ca5e e5bc 0027 6dbc 19cf 5ebd
000003c0: 3233 453d 247d ccbc 1110 80bd 106c debb
000003d0: 573d 99bd bb9c 9a3d 9e8a 1a3d eb76 32bd
000003e0: 1cd9 9a3c 5d57 82bd 8ec9 f2bc ed96 04bd
000003f0: 0d6c 3abd d4b8 25bd 2c6f 0dbd 5984 9d3d
-0.024935687 -0.06194362 -0.035344727 -0.054646656 -0.015824214 -0.00049675256 -0.04742126 -0.054191045
-0.040923655 -0.059071507 -0.06526157 -0.011241198 -0.081572466 -0.033205103 -0.08519189 0.00017112494
-0.08530001 -0.0445428 0.08791567 -0.021068163 -0.013564818 -0.068489805 -0.028774424 -0.022467094
-0.056977753 -0.005526252 -0.052305523 0.08660386 0.07074099 -0.08350851 0.029383816 -0.05378664
-0.025414389 0.048749644 0.046201102 -0.018885493 0.05206179 -0.030139271 -0.0058957636 -0.013007931
-0.017487727 -0.068307415 -0.0026946813 0.012673683 0.073986664 0.07929959 -0.03048252 -0.0340393
-0.04153668 0.010726247 0.045489766 -0.04718892 0.06882454 -0.031709444 0.0021951185 -0.044714328
-0.017070234 -0.06909813 0.016255906 0.023958169 0.0082179215 -0.042858936 -0.053504013 0.044686623
-0.0014922097 -0.0426251 -0.05294568 0.026057752 0.07923747 0.061178528 0.0645638 -0.009249211
-0.03999364 0.0083569735 0.060339842 -0.043250114 0.029880837 -0.013839094 -0.016207159 -0.01719115
-0.072652966 0.0407282 0.040055744 -0.08118466 -0.06574928 0.017954342 0.023210935 0.013404027
0.059990056 -0.06306439 0.0044256747 0.086248524 0.036424674 0.048784994 -0.066030025 0.010028064
0.02922161 -0.0071291253 0.059951596 0.05097767 0.003864797 0.027535811 0.0028956404 -0.01269727
0.0067574335 -0.0673635 0.035538614 0.01848071 -0.024817698 -0.06993383 -0.070665576 0.023287004
-0.088918895 -0.042117197 0.02611798 0.01327242 0.078956224 -0.066049434 -0.078064494 -0.04935904
0.013705227 -0.07517486 -0.047453042 -0.050055973 0.067409255 -0.05985809 0.06744531 -0.0882779
0.030915879 0.06364807 -0.063656315 -0.039508667 0.015147448 0.0018683597 -0.039981216 -0.06498757
0.08054749 0.0878664 0.0502417 0.01504457 -0.045207627 0.0473189 -0.043247532 0.056874476
-0.07366838 0.052052252 -0.037534013 -0.037996974 -0.04171183 -0.031528972 0.079252966 -0.0009797737
-0.04426778 -0.05636554 -0.06168524 0.065718986 0.0011984035 0.07944653 -0.06676151 0.05410952
-0.037699375 0.0566257 0.07777425 0.08272376 0.049999677 -0.07932801 0.05110208 0.0028421655
-0.029492877 0.030149274 -0.030986793 -0.047059283 -0.036807157 -0.062434033 -0.004081957 0.0006591156
0.07727196 -0.01804588 -0.014650889 -0.029762745 -0.03935328 0.024225295 -0.023775741 -0.08311306
-0.08013266 0.0023674741 -0.047676302 -0.013550498 -0.043396343 0.071630545 -0.04454303 0.001481168
-0.014198609 0.055700786 -0.088269025 0.03225434 -0.0476947 0.03648507 0.013655201 -0.0670075
-0.026023697 -0.08071511 0.014759257 0.02780123 0.03437558 -0.016655557 0.0115808025 -0.046611685
-0.07033741 -0.036905117 0.07143285 -0.025697052 0.04671193 -0.08464982 -0.063084245 -0.08018438
0.056241266 0.06994703 0.076505594 0.08511501 -0.078502044 -0.01317291 0.02228795 -0.04498529
0.03737382 -6.303191e-06 -0.03336803 -0.0362944 -0.033300593 0.047996722 0.03388258 0.02410692
0.009059921 0.06431695 0.0373869 -0.045254756 0.031726114 -0.0279993 -0.01447463 -0.054396722
0.048144527 -0.024962015 -0.062530644 -0.0067877844 -0.07482403 0.07549425 0.037729852 -0.04357044
0.018902354 -0.063643195 -0.029637124 -0.032370497 -0.0455132 -0.04045947 -0.03452985 0.07691259

fc4.bias f4 [32]
00000000: b538 a03a 05d3 54bd d338 95bb 8f12 9e3d
00000010: baae aebd 8e03 9abd 9578 01bc 2809 80bc
00000020: 79de 713e c111 c3bd e727 babc 1cc9 abbc
00000030: 9cca 1c3e e520 fc3d ad63 10bc e270 823d
00000040: 7bfb 283d ccf9 8d3c 2f36 013d fef4 e33c
00000050: 14b2 15bc bd55 afbd af50 d8bd b39b a1bd
00000060: 3424 ac3c fce5 5b3e 18ba 96bd ba4b 56bd
00000070: 2d3d ebbc 58f8 6d3e 9254 743e eaa3 0ebe
0.0012223931 -0.051959056 -0.004553893 0.077183835 -0.0852942 -0.07520209 -0.007902284 -0.015629366
0.23620023 -0.09524871 -0.022724105 -0.02096992 0.15311664 0.12310962 -0.008812827 0.06369187
0.041255455 0.017331026 0.031545814 0.027826782 -0.009136695 -0.08561275 -0.10562264 -0.078910254
0.021013357 0.21474451 -0.07359713 -0.052318312 -0.028715694 0.23239267 0.23860386 -0.13929716

fc5.weight f4 [4, 32]
00000000: ceca c0bd 8332 89bd f640 173e a0c6 fcbd
00000010: 86d0 093e db7b dbbb 5b1a eebd 15c8 283e
00000020: bb93 9a3c b842 763d 5dd8 8f3d d3cb 233e
00000030: 6a69 37be 58c8 c7bd d1ff 26be ebd0 183d
00000040: 54d3 56be e940 f6bb 1202 49be 8914 1b3e
00000050: 2930 a9bd a856 aabc 2722 71be 12e3 25bd
00000060: 045f 783d fd72 193d 6c11 0d3d 6c76 51be
00000070: 6efb 963d 8f63 2d3d e232 c83d 45ab 9c3c
00000080: 828a 813d 3ff7 163e e2ad 0c3e ce02 473c
00000090: c874 d3bd fd28 273e 182a 24bd 0b2c 2f3e
000000a0: 1437 543e 524e af3d a5fe dd3d 5e8f cf3d
000000b0: 8a06 eabd 1f87 10be 9474 203d edbc 8bbd
000000c0: b614 29bd a6bd 91be 355a 8abd fbf5 74bd
000000d0: cdf4 c8bd 9f75 233e 8519 b03c d864 003e
000000e0: db14 ebbd 1947 90be 98ff 2bbe 42f6 91bd
000000f0: 7950 023e 06d3 58be 4c99 67be 2899 4a3b
00000100: 20ff 50bd d3f6 173e 8147 12be 5e07 163e
00000110: 4f09 bdbd e0c2 dbbc 86bd 323e 6047 4e3c
00000120: bbfd 98be 617f 0a3d ed66 a73d a815 fd3d
00000130: eaa4 6fbd 15ea fcbd cc8b c73d dfbc ea3d
00000140: e529 6d3c 0d6f 49bc beaf c03c 09d3 b83a
00000150: 805f 02bd e085 1cbe 0fc8 5f3d e318 98bd
00000160: a246 993d 2c8a 67ba 7fc4 02be 8e82 4d3b
00000170: 3c01 29be 9e57 12be 36be a8bd e398 b0be
00000180: 2e95 273d b89e fcbc 614a c33d 3e08 123e
00000190: c29d 8cbd f8e1 d0bc a9cc 6cbe 6074 363c
000001a0: 293d 6dbe 0b7a ccbd c9bb 0a3c b057 e9bd
000001b0: 19d8 7bbe 306a 413e 95a4 cfbd 01ac 1fbe
000001c0: 64eb 20bc affd 5f3e aeca febd 654d 183e
000001d0: af91 acbd e99c 33be 3701 c73d 59ac 04be
000001e0: 053e ff3d 5c2b b0bd 482d ae3d 7eeb 2c3e
000001f0: 4e78 e83d 93a8 f3bd a183 53bd 03c9 653e
-0.09413682 -0.066990875 0.14770874 -0.12342572 0.13458452 -0.0066981143 -0.11626121 0.16482575
0.018869272 0.06012222 0.0702369 0.15995722 -0.17911306 -0.097550094 -0.16308524 0.037308615
-0.20979053 -0.007515062 -0.19629696 0.15144552 -0.08261139 -0.020793274 -0.23548184 -0.040499754
0.06063749 0.037463177 0.034440443 -0.2045533 0.07372175 0.042331275 0.0977533 0.019124636
0.063252464 0.14742754 0.13738206 0.012146665 -0.10325009 0.1632423 -0.040079206 0.17106645
0.20724136 0.0855986 0.10839585 0.10134767 -0.114270285 -0.14114045 0.039173678 -0.06823144
-0.041279517 -0.28465003 -0.06755487 -0.059804898 -0.09812317 0.15962838 0.021496544 0.12538469
-0.11478587 -0.28179243 -0.1679672 -0.07127048 0.1272601 -0.21174249 -0.22617072 0.0030914042
-0.051024556 0.1484025 -0.14285089 0.14651248 -0.09230291 -0.026826322 0.1745511 0.012590259
-0.2988108 0.033812884 0.081739284 0.12357646 -0.058506884 -0.12349335 0.09743461 0.114618056
0.0144753205 -0.012294543 0.0235213 0.0014100979 -0.031829357 -0.15285444 0.05463415 -0.07426622
0.07484175 -0.000883254 -0.1277027 0.0031358334 -0.16504377 -0.14291236 -0.08239405 -0.34491643
0.040913753 -0.030837402 0.09535671 0.14260957 -0.068660274 -0.025498375 -0.23124947 0.011136144
-0.23167862 -0.09984215 0.008467623 -0.11393678 -0.24594153 0.18888164 -0.101388134 -0.15592958
-0.0098217465 0.21874116 -0.12441002 0.14873274 -0.084262244 -0.17540325 0.097170286 -0.1295637
0.12463001 -0.0860202 0.085047305 0.16886708 0.11351071 -0.11897387 -0.051639203 0.22439961

fc5.bias f4 [4]
00000000: 791a 1f3e 3103 cabd 8c47 64be bf7e abbc
0.15537442 -0.0986389 -0.22292918 -0.02093446
