DQN_models/model_updaterate1000_gamma0.99_alpha0.0001_static.pt (torch, 416863 bytes, 10 tensors)

fc1.weight f4 [128, 514]
-0.0034825988 0.040853895 -0.03665095 -0.0336195 0.042912014 0.021363206 0.032402977 0.01871857
0.00036383793 -0.007668797 -0.033232156 0.023059241 0.033974797 -0.0389274 0.00014365092 -0.017439328
0.03875745 0.008695908 0.034471907 -0.018359138 -0.01305211 -0.00912258 0.007762879 -0.004127063
0.00092363526 0.07791275 -0.003497572 0.036158115 0.019873325 0.027393654 0.05131516 0.004505035
-0.0063028913 -0.059382796 0.009424366 0.008965591 0.03671564 0.0018399473 -0.15694937 0.060410887
0.015027588 0.030005027 -0.031170156 -0.03659041 0.0022071637 0.01688635 -0.054239623 0.059009854
0.001571642 0.0055061206 0.039469175 0.096585326 0.020279752 0.081757404 0.047916472 0.029793361
0.04053646 -0.01169125 0.04703356 0.063014165 0.025395587 0.04926814 -0.025068011 -0.099468306
0.00018135086 0.031195603 0.005649235 0.00040828437 0.017279048 0.014619607 -0.07087004 0.04186313
-0.004553415 0.02722803 0.06328263 0.026448764 0.010507237 0.015708767 -0.09723155 -0.025746679
0.034865487 0.0044574775 0.02504158 -0.14828753 -0.017505258 -0.010864825 0.0387654 0.0039243437
0.035848968 -0.031284496 -0.005326376 0.08372003 -0.13848382 -0.015322708 0.011793252 -0.0309118
0.029629804 -0.009684456 0.012270935 0.032729343 -0.13021468 0.012032216 -0.14042027 -0.028991144
-0.0001825653 -0.072057284 0.052307785 0.01787257 0.015078127 -0.0025568865 -0.009689078 -0.03738775
-0.012760589 -0.06735711 0.076574884 -0.035216257 0.0055874623 -0.040951263 0.013808184 0.0074770846
0.0065876916 0.0076171085 -0.031648893 0.014903539 0.0049160393 0.04222426 0.019034132 -0.0072717112
0.05160318 -0.014523669 -0.026860127 -0.0064476207 0.03691627 -0.0068282895 -0.048044335 0.0452123
-0.03903655 0.04251221 0.0011385567 -0.019229291 0.037357446 0.02956634 -0.0377741 0.030618407
-0.046104226 0.010440021 0.028756425 -0.02351426 -0.009719096 -0.026879778 0.05551426 0.018862473
-0.01681768 0.037976094 0.043239124 -0.03703551 -0.006246805 0.065809414 -0.0065286946 -0.016467448
0.00054846704 -0.009575782 0.007481073 0.011831032 0.011884395 -0.010522876 -0.115920335 0.051144782
-0.010834924 0.009692285 0.026627377 -0.010270603 0.0036713574 -0.015178618 0.032927558 0.0348979
-0.028473232 -0.01038871 0.018712742 0.06106744 -0.0016115921 0.0033205152 0.036271833 -0.032483723
0.038945064 0.0493266 0.013554204 -0.00025283545 0.0019843194 -0.055984646 0.014981593 0.02075322
0.035392947 -0.010137344 0.038407564 0.027236676 0.01898551 -0.02335417 0.037863873 0.040156506
0.05270405 0.041018464 0.060174204 -0.008893043 -0.0255441 0.034729455 0.0014720585 0.0068849116
0.0056332573 0.0117202215 -0.023925446 0.02222247 0.024480212 0.043571338 -0.029528841 -0.017075371
0.06044386 0.008462006 0.03699308 -0.015629102 -0.043163273 -0.00997353 0.03900861 -0.017034782
-0.02272156 0.022828959 -0.03491033 0.0031295433 0.006278921 0.054480143 0.0033883974 -0.005016748
0.028532201 0.020069478 -0.013790688 -0.010111239 0.026104487 -0.03105398 0.00025267023 -0.029833134
0.0380439 0.025520295 -0.040756203 0.019410118 0.019861633 -0.03519771 0.08093365 -0.034437172
-0.013657173 0.03527695 0.082558624 0.05565198 0.03341025 -0.025392292 0.000993005 -0.024263958
00000000: 503c 64bb 6a56 273d 4e1f 16bd 9ab4 09bd
00000010: 82c4 2f3d e401 af3c fcb8 043d b057 993c
00000020: 80c1 be39 884a fbbb 711e 08bd bce6 bc3c
00000030: 2829 0b3d 5672 1fbd 00a1 1639 ecdc 8ebc
00000040: 22c0 1e3d 4879 0e3c 6a32 0d3d e765 96bc
00000050: 84d8 55bc e076 15bc c05f fe3b 503c 87bb
00000060: 1d20 723a b890 9f3d 8537 65bb 881a 143d
00000070: 62cd a23c a868 e03c d82f 523d f99e 933b
00000080: 7c88 cebb 603b 73bd a868 1a3c 6ae4 123c
00000090: 2463 163d 632a f13a 56b7 20be 6871 773d
000000a0: 4636 763c 1acd f53c 8e58 ffbc d3df 15bd
000000b0: 10a6 103b 3e55 8a3c 5e2a 5ebd 51b4 713d
000000c0: 8eff cd3a b06c b43b 6eaa 213d 87ce c53d
000000d0: b921 a63c 6d70 a73d 1044 443d 3511 f43c
000000e0: 8f09 263d a88c 3fbc 43a6 403d 920d 813d
000000f0: 680a d03c 64cd 493d 6e5b cdbc 0ab6 cbbd
00000100: 0029 3e39 ec8d ff3c 381d b93b 000f d639
00000110: ca8c 8d3c 1387 6f3c 5024 91bd ac78 2b3d
00000120: d034 95bb 510d df3c 539a 813d 14ab d83c
00000130: 8c26 2c3c acaf 803c 5621 c7bd b3ea d2bc
00000140: 1dcf 0e3d 0810 923b 0024 cd3c b0d8 17be
00000150: 3067 8fbc 6102 32bc 78c8 1e3d c897 803b
00000160: 5ed6 123d 2c24 00bd e188 aebb 6875 ab3d
00000170: b4ce 0dbe 180c 7bbc 7c38 413c be3a fdbc
00000180: 34ba f23c 8dab 1ebc 080c 493c 340f 063d
00000190: ff56 05be c622 453c 55ca 0fbe d67e edbc
000001a0: 006f 3fb9 c592 93bd b040 563d 7f69 923c
000001b0: 400a 773c 7091 27bb f0be 1ebc e623 19bd
000001c0: ca11 51bc 86f2 89bd 4bd3 9c3d ec3e 10bd
000001d0: 0817 b73b 83bc 27bd b93b 623c 5502 f53b
000001e0: 90dd d73b f098 f93b 45a2 01bd f92d 743c
000001f0: ba16 a13b 58f3 2c3d 78ed 9b3c 8947 eebb
00000200: db5d 533d aff4 6dbc c509 dcbc 9046 d3bb
00000210: 8435 173d d8bf dfbb 23ca 44bd 8830 393d
00000220: cae4 1fbd 4821 2e3d a03b 953a bf86 9dbc
00000230: 1f04 193d 1c35 f23c 04b9 1abd 74d3 fa3c
00000240: c9d7 3cbd 9f0c 2b3c 9892 eb3c faa0 c0bc
00000250: d83c 1fbc fb32 dcbc ec62 633d 7985 9a3c
00000260: 3bc5 89bc d28c 1b3d 821b 313d 8cb2 17bd
00000270: 00b2 ccbb 16c7 863d a9ee d5bb bee6 86bc
00000280: 00c7 0f3a bee3 1cbc ca23 f53b f2d6 413c
00000290: c4b6 423c 2468 2cbc a467 edbd 317d 513d
000002a0: f784 31bc 64cc 1e3c a821 da3c 0846 28bc
000002b0: 289b 703b bdaf 78bc 0cdf 063d 1af1 0e3d
000002c0: b240 e9bc 6835 2abc 774b 993c da21 7a3d
000002d0: 0f3c d3ba 009d 593b c691 143d a70d 05bd
000002e0: dc84 1f3d b00a 4a3d 7412 5e3c 008f 84b9
000002f0: 5b0b 023b 2850 65bd 5b75 753c a802 aa3c
00000300: 32f8 103d 1a17 26bc 4051 1d3d 731f df3c
00000310: 8087 9b3c 3f51 bfbc 2617 1b3d 267b 243d
00000320: 34e0 573d fa02 283d 3a79 763d 20b4 11bc
00000330: dc41 d1bc 7940 0e3d 16f2 c03a d39a e13b
00000340: 3097 b83b 2c06 403c 4cff c3bc e60b b63c
00000350: ba8a c83c dc77 323d 78e6 f1bc a6e1 8bbc
00000360: fb93 773d 3aa4 0a3c 0e86 173d 9a08 80bc
00000370: f9cb 30bd 0468 23bc 7ec7 1f3d 878c 8bbc
00000380: 9122 babc cc03 bb3c 22fe 0ebd 0619 4d3b
00000390: 68bf cd3b 9226 5f3d e00f 5e3b 8863 a4bb
000003a0: 5dbc e93c bf68 a43c 56f2 61bc 9ca9 25bc
000003b0: 14d9 d53c eb64 febc d378 8439 9e64 f4bc
000003c0: ecd3 1b3d f00f d13c faef 26bd f801 9f3c
000003d0: ddb4 a23c 792b 10bd 8bc0 a53d fe0d 0dbd
000003e0: 56c2 5fbc 907e 103d 7f14 a93d 55f3 633d
000003f0: 30d9 083d 7f03 d0bc b827 823a 35c5 c6bc

fc1.bias f4 [128]
0.10078214 0.039146792 -0.038365748 0.080692776 0.029261082 0.11705421 -0.07158966 0.1972082
-0.046142716 0.08855466 0.00881895 0.05530154 0.091739774 -0.043877985 -0.016773982 -0.09364462
0.09536047 0.11420977 -0.0021088708 0.15110868 0.11206621 0.017221013 -0.09025619 -0.0075074867
-0.07522161 -0.043201424 0.1027068 0.03258106 0.1730551 0.17146944 0.001240509 0.13608325
-0.105556935 0.19867726 0.029361295 0.050656326 0.09409884 0.09854256 0.004464386 -0.020466344
0.043209437 0.071166255 0.00059614296 -0.016005876 -0.0404438 0.022438573 0.12731607 -0.072172366
-0.06556795 -0.044384234 -0.011539799 -0.03394371 0.07641556 0.02728207 0.13375607 -0.10563388
0.15329854 0.08602289 0.109875165 -0.043803055 -0.0025547466 0.15126047 0.15859209 0.08103781
0.18438762 0.17786653 -0.054649 -0.04354347 0.13631585 -0.023120167 0.14727019 0.03930985
-0.020177612 0.033395465 0.16949181 0.006470942 -0.06710119 0.054163918 -0.0688706 0.16975105
0.002439196 0.07359569 0.1768024 0.13795991 0.024478426 0.14511803 -0.026350278 -0.039082967
-0.0753662 0.119981125 0.05506224 0.20666322 0.054175094 0.024866603 0.09706053 0.07626239
-0.037837755 0.030666232 0.12818645 0.0016593536 -0.020364938 -0.09620202 -0.08524129 0.03601097
0.15458144 0.025390802 0.022601366 -0.08578717 -0.11086598 0.018559325 0.038398102 -0.05978259
0.044534005 -0.0034569479 0.10449127 0.05949266 -0.044925503 -0.0039537754 -0.03275305 0.112856895
0.20934647 0.117211856 0.10793002 -0.0033498355 -0.07754313 0.07761853 0.15615036 0.17932831
00000000: de66 ce3d 6358 203d 6725 1dbd 4142 a53d
00000010: f0b4 ef3c 1eba ef3d 9a9d 92bd f2f0 493e
00000020: 2500 3dbd 255c b53d 5b7d 103c de83 623d
00000030: 10e2 bb3d 67b9 33bd 9769 89bc c0c8 bfbd
00000040: 5a4c c33d d0e6 e93d fb34 0abb 3cbc 1a3e
00000050: f882 e53d 1513 8d3c 3dd8 b8bd 5d01 f6bb
00000060: ca0d 9abd faf3 30bd f157 d23d b873 053d
00000070: 5b35 313e af95 2f3e 9398 a23a 6859 0b3e
00000080: 3c2e d8bd 0d72 4b3e 1987 f03c 027d 4f3d
00000090: e5b6 c03d afd0 c93d fc49 923b 09a9 a7bc
000000a0: 61fc 303d 9dbf 913d 7a46 1c3a c11e 83bc
000000b0: 66a8 25bd 19d1 b73c 255f 023e 1bcf 93bd
000000c0: 7d48 86bd 3ecc 35bd 6d11 3dbc 8f08 0bbd
000000d0: c37f 9c3d a67e df3c 5af7 083e 9356 d8bd
000000e0: 4bfa 1c3e c52c b03d 3b06 e13d d56a 33bd
000000f0: 896d 27bb 06e4 1a3e f765 223e 27f7 a53d
00000100: 1cd0 3c3e a522 363e a1d7 5fbd a35a 32bd
00000110: 6296 0b3e 8166 bdbc ffcd 163e 5e03 213d
00000120: 854b a5bc afc9 083d 438f 2d3e 320a d43b
00000130: 596c 89bd fcda 5d3d 070c 8dbd 38d3 2d3e
00000140: ebda 1f3b 56b9 963d b00b 353e 5d45 0d3e
00000150: fb86 c83c d299 143e 8adc d7bc 7615 20bd
00000160: 9859 9abd aab8 f53d f288 613d 869f 533e
00000170: b4e6 5d3d 0cb5 cb3c acc7 c63d 752f 9c3d
00000180: c3fb 1abd c037 fb3c 4f43 033e ab7e d93a
00000190: 5fd4 a6bc 9105 c5bd fc92 aebd 3d80 133d
000001a0: 994a 1e3e 5f00 d03c 8026 b93c 2fb1 afbd
000001b0: b40d e3bd ba09 983c 5447 1d3d 97de 74bd
000001c0: 4a69 363d f68d 62bb 85ff d53d 93ae 733d
000001d0: ce03 38bd ac8e 81bb 1028 06bd 8421 e73d
000001e0: ec5e 563e c50c f03d 6a0a dd3d ea88 5bbb
000001f0: efce 9ebd 77f6 9e3d e1e5 1f3e d7a1 373e

fc2.weight f4 [128, 128]
-0.09248699 -0.016216103 0.18057024 -0.2933742 -0.046815567 -0.20679551 0.1833536 -0.6223342
0.2628774 0.030872788 0.22215584 0.27619284 -0.06743061 0.17849751 0.15614876 0.10718772
0.0022409721 -0.031216528 0.16958547 0.014565888 -0.009576989 0.10254292 0.2130269 0.03274131
-0.07110759 -0.047110405 -0.026472086 0.17911538 -0.14537331 -0.023596639 -0.046586417 0.10749796
-0.0060796454 -0.041922178 -0.06797597 -0.05754818 -0.35048693 0.034159143 0.21329409 0.029188557
0.13911375 0.38470593 0.018899221 0.4383374 0.28031525 -0.007099739 0.04723992 0.28631917
0.010483462 -0.031048441 0.117061816 0.023896638 0.12772281 0.15034653 0.048099793 0.11907559
-0.1892299 -0.054840542 0.13124247 0.09785632 0.01118113 -0.28184152 -0.13245964 0.050283697
0.08717092 -0.25199217 0.3021916 0.2869092 -0.07845621 0.04471831 0.054359168 -0.11267132
0.34549782 0.035706364 0.009272883 0.046157796 0.012856099 0.07236382 0.1518004 -0.018557876
0.05801234 -0.020628054 -0.30284095 0.04619865 -0.20421863 -0.21748583 0.1293794 0.026391545
0.018786924 -0.108049266 0.4107925 0.0043961597 0.15041007 0.1059625 -0.05990483 0.2570937
0.18699671 0.24662036 0.051123183 0.30403134 -0.009163296 0.08939984 0.20339926 -0.041729923
0.12325493 0.18824834 0.07671551 0.20294285 0.1612087 -0.15288396 0.42876244 0.13254176
0.25029802 0.14861502 -0.262768 0.08292707 0.10347346 0.0010686206 0.2318797 -0.17503557
0.0112192035 0.20035489 0.3288209 0.098338 0.072049305 -0.010266983 -0.0048775906 -0.060181405
-0.047894232 -0.0016994621 0.04967546 -0.2021293 -0.035148174 -0.08758335 0.30103624 -0.18961973
0.12954926 0.14678231 0.25905207 0.35022333 0.060579106 0.13567197 0.15888152 0.17867512
-0.034496658 0.12347145 0.23136938 -0.021021804 -0.06477805 -0.024212543 0.102856256 0.12919182
-0.054065663 0.019858522 -0.026720705 0.31412432 -0.14681514 -0.00899505 -0.020146778 0.028378533
0.030821847 0.060599715 0.058874536 0.1174728 -0.049759638 0.12970415 0.018957991 0.21744347
0.17394313 0.40334484 0.07921164 0.20708686 0.1327013 0.0037294077 0.092214525 0.27640542
0.061238095 0.11324668 -0.048771054 0.12659712 0.020648371 0.14425902 -0.060309835 0.13392788
-0.043047737 0.27009687 -0.028998919 0.1882705 0.03863286 -0.22596364 -0.058719 0.31120214
-0.024861896 -0.06662528 0.2391575 0.19438642 0.38963574 0.0716159 0.036853757 -0.15661526
0.23143588 0.19851895 -0.11147982 0.049095716 0.035496067 0.28560442 0.023267511 0.035390984
0.1595627 0.11975421 -0.28132322 0.004738146 0.07509804 0.019026201 0.1384066 -0.013703958
0.042093996 0.0824449 0.2103633 -0.09245928 0.10713704 0.20683983 0.087835126 0.008486505
0.11134782 0.19637424 0.041077796 0.27479675 0.028382186 0.24456565 0.079919726 0.115482345
-0.054162763 0.13879997 -0.0034117438 0.30146536 0.12175945 -0.10268401 0.34824783 0.044379655
0.058082853 0.05759047 -0.077501364 0.047918852 0.099922 0.16332835 0.15894546 -0.017650815
-0.0574065 -0.018598964 0.43177179 -0.040528227 0.16503884 0.0078057544 -0.10833905 0.08938057
00000000: d269 bdbd a2d7 84bc 68e7 383e 2535 96be
00000010: aec1 3fbd 34c2 53be 0cc1 3b3e 4b51 1fbf
00000020: de97 863e eee8 fc3c d27c 633e 2669 8d3e
00000030: 0f19 8abd 0dc8 363e 76e5 1f3e 3c85 db3d
00000040: 46dd 123b ceb9 ffbc d0a7 2d3e c3a5 6e3c
00000050: cee8 1cbc 0602 d23d b923 5a3e c01b 063d
00000060: dba0 91bd d7f6 40bd fddb d8bc 066a 373e
00000070: bedc 14be bd4d c1bc 66d1 3ebd e427 dc3d
00000080: c337 c7bb 97b6 2bbd fc36 8bbd a4b7 6bbd
00000090: 0673 b3be 75ea 0b3d c469 5a3e d71c ef3c
000000a0: d673 0e3e 2df8 c43e 8ad2 9a3c c26d e03e
000000b0: 7b85 8f3e eda4 e8bb a57e 413d 6d98 923e
000000c0: d4c2 2b3c 4d59 febc 1bbe ef3d e2c2 c33c
000000d0: c5c9 023e 71f4 193e 4a04 453d e7dd f33d
000000e0: 7cc5 41be 7aa0 60bd 6d64 063e e568 c83d
000000f0: 0f31 373c 884d 90be 80a3 07be 47f6 4d3d
00000100: ab86 b23d 1e05 81be dbb8 9a3e c3e5 923e
00000110: a6ad a0bd 8c2a 373d b8a7 5e3d 39c0 e6bd
00000120: 17e5 b03e d640 123d 4aed 173c f50f 3d3d
00000130: 63a2 523c 7c33 943d 9071 1b3e b006 98bc
00000140: 599e 6d3d 2afc a8bc f80d 9bbe cc3a 3d3d
00000150: b01e 51be 9bb4 5ebe 097c 043e 1533 d83c
00000160: 09e7 993c ef48 ddbd 6553 d23e a90d 903b
00000170: 1905 1a3e de02 d93d c45e 75bd c9a1 833e
00000180: 117c 3f3e 0c8a 7c3e 8b66 513d ffa9 9b3e
00000190: a621 16bc 4317 b73d e547 503e ffec 2abd
000001a0: 156d fc3d 2cc4 403e 051d 9d3d 40d0 4f3e
000001b0: e513 253e 9d8d 1cbe c086 db3e 07b9 073e
000001c0: 1027 803e 892e 183e 8789 86be abd5 a93d
000001d0: e5e9 d33d f510 8c3a df71 6d3e 863c 33be
000001e0: c0d0 373c d529 4d3e 375b a83e 6f65 c93d
000001f0: 968e 933d d936 28bc 32d4 9fbb c780 76bd
00000200: be2c 44bd 7cc0 deba 7f78 4b3d fcfa 4ebe
00000210: 88f7 0fbd e65e b3bd 6c21 9a3e ad2b 42be
00000220: 90a8 043e 1a4e 163e 79a2 843e 7950 b33e
00000230: cc21 783d 98ed 0a3e d6b1 223e 9cf6 363e
00000240: 5e4c 0dbd 99de fc3d 18ec 6c3e eb35 acbc
00000250: 5baa 84bd 6259 c6bc 4da6 d23d dc4a 043e
00000260: f573 5dbd 57ae a23c 61e5 dabc e7d4 a03e
00000270: b556 16be f95f 13bc db0a a5bc 197a e83c
00000280: 197e fc3c 6837 783d 6d26 713d 9495 f03d
00000290: c3d0 4bbd 2ad1 043e ca4d 9b3c 80a9 5e3e
000002a0: 261e 323e 3783 ce3e b639 a23d 940e 543e
000002b0: d9e2 073e 1469 743b f8da bc3d 0385 8d3e
000002c0: ccd4 7a3d e0ed e73d 28c4 47bd ada2 013e
000002d0: c626 a93c a3b8 133e 7207 77bd 6424 093e
000002e0: d352 30bd 234a 8a3e 248f edbc fbc9 403e
000002f0: 7d3d 1e3d 0363 67be 5683 70bd e355 9f3e
00000300: 2dab cbbc d672 88bd b4e5 743e 3c0d 473e
00000310: 567e c73e 5bab 923d f7f3 163d c05f 20be
00000320: 87fd 6c3e 8d48 4b3e 884f e4bd 9718 493d
00000330: 5364 113d be3a 923e 829b be3c 23f6 103d
00000340: 6864 233e b241 f53d 9909 90be 7342 9b3b
00000350: 00cd 993d d6dc 9b3c 76ba 0d3e 9186 60bc
00000360: c16a 2c3d dfd8 a83d 7a69 573e 4a5b bdbd
00000370: aa6a db3d d2cd 533e e7e2 b33d fb0a 0b3c
00000380: 530a e43d 5416 493e 3141 283d 29b2 8c3e
00000390: c281 e83c 6b6f 7a3e f4ac a33d 0282 ec3d
000003a0: c6d9 5dbd 9421 0e3e 9097 5fbb ab59 9a3e
000003b0: 055d f93d ff4b d2bd 8a4d b23e 71c7 353d
000003c0: 49e8 6d3d fce3 6b3d 09b9 9ebd 8f46 443d
000003d0: e8a3 cc3d 8c3f 273e 99c2 223e 7198 90bc
000003e0: 1423 6bbd db5c 98bc 3111 dd3e ed00 26bd
000003f0: f1ff 283e 6ac7 ff3b dde0 ddbd 290d b73d

fc2.bias f4 [128]
-0.14162259 -0.08811457 -0.13264094 0.015610469 0.00860582 -0.07325252 0.1734001 -0.015431174
-0.13177554 -0.057778146 0.09012007 -0.056176726 -0.16980638 0.11680651 -0.15951769 -0.13835001
-0.12784882 -0.02998592 -0.0649377 0.12891053 -0.1706956 0.050573174 0.0049721287 -0.06747031
-0.043114405 0.13520436 -0.012026375 -0.10425137 0.049414 0.21295822 -0.0078061405 -0.06758023
-0.06213992 -0.14843933 -0.050744563 0.07438336 -0.08983038 0.11572488 -0.11233996 0.1434045
0.049141333 -0.07512174 -0.09337318 -0.0450649 0.09249033 0.22275527 -0.031343035 -0.11027414
-0.09608513 -0.11683084 0.062198028 0.0955576 -0.08255898 -0.07178425 -0.042369545 -0.0722108
-0.12551032 -0.14136203 -0.09081816 -0.09282557 0.08447281 0.14309922 -0.14702716 -0.021334294
0.13940428 -0.072680645 -0.051786236 -0.055692077 -0.023705307 0.008377628 0.13222189 -0.14046328
-0.04386065 -0.14667171 -0.015374058 0.13027588 -0.032282177 -0.12959997 -0.0733564 0.21383163
-0.0097125545 0.07338616 -0.080161534 0.19529985 -0.14075199 -0.08527236 -0.022869408 -0.10715907
0.097059965 -0.14312506 -0.109697655 -0.011106734 0.04126495 0.067040846 -0.0588085 -0.10316696
-0.0814685 -0.056257803 0.18030141 -0.012927175 0.21667017 -0.10174252 -0.011198183 -0.13288078
-0.05711287 -0.10410543 0.2235987 -0.016579643 -0.02725588 -0.17410634 -0.08856356 -0.098802656
-0.022124391 -0.032822806 -0.033954546 -0.09362093 -0.06018589 -0.13328953 0.20039837 0.03676197
-0.011052912 -0.10395458 0.10726345 0.16407542 -0.058742154 -0.108134955 0.10125669 -0.11563107
00000000: 8305 11be 6975 b4bd 07d3 07be 0dc3 7f3c
00000010: 6dff 0c3c 6b05 96bd cc8f 313e 09d3 7cbc
00000020: 2bf0 06be c7a8 6cbd df90 b83d 9119 66bd
00000030: b9e1 2dbe 4038 ef3d 9b58 23be a0ab 0dbe
00000040: cdea 02be 08a5 f5bc 0ffe 84bd 1f01 043e
00000050: d4ca 2ebe d125 4f3d 3ded a23b e02d 8abd
00000060: bb98 30bd 0373 0a3e 460a 45bc be81 d5bd
00000070: 5666 4a3d b811 5a3e a7ca ffbb 8167 8abd
00000080: 6e86 7ebd 7b00 18be 88d9 4fbd 4e56 983d
00000090: fef8 b7bd 2a01 ed3d 7e12 e6bd a1d8 123e
000000a0: 6c48 493d 6dd9 99bd 703a bfbd f995 38bd
000000b0: 926b bd3d f519 643e 8e61 00bd 69d7 e1bd
000000c0: 48c8 c4bd 0245 efbd 5cc3 7e3d b4b3 c33d
000000d0: af14 a9bd 9f03 93bd b08b 2dbd 42e3 93bd
000000e0: c785 00be 35c1 10be dffe b9bd 551b bebd
000000f0: 1500 ad3d 9a88 123e 4a8e 16be 42c5 aebc
00000100: ffbf 0e3e 97d9 94bd ce1d 54bd 601d 64bd
00000110: a231 c2bc 5242 093c 2d65 073e 9bd5 0fbe
00000120: 3aa7 33bd 1c31 16be 79e3 7bbc 0a67 053e
00000130: 513a 04bd dbb5 04be e13b 96bd aef6 5a3e
00000140: 6821 1fbc 7c4b 963d bb2b a4bd affc 473e
00000150: 4a21 10be 46a3 aebd a058 bbbc 3776 dbbd
00000160: 60c7 c63d 608f 12be 2aa9 e0bd 05f9 35bc
00000170: 7005 293d b64c 893d 2fe1 70bd 3349 d3bd
00000180: f5d8 a6bd 956e 66bd efa0 383e 80cc 53bc
00000190: c9de 5d3e 625e d0bd 9578 37bc e611 08be
000001a0: 2fef 69bd 3a35 d5bd 0ff7 643e 08d2 87bc
000001b0: b947 dfbc ef48 32be d060 b5bd 0c59 cabd
000001c0: 363e b5bc 3571 06bd ec13 0bbd 55bc bfbd
000001d0: 7b85 76bd 0d7d 08be 3b35 4d3e b893 163d
000001e0: 4617 35bc 24e6 d4bd f1ac db3d 6303 283e
000001f0: 9d9b 70bd dc75 ddbd ab5f cf3d fccf ecbd

fc3.weight f4 [128, 128]
0.055599704 -0.046876322 0.065035746 -0.052805528 -0.09244424 -0.071069606 -0.39113107 0.05813617
0.07062985 0.17068061 -0.056106128 0.13431545 -0.009569961 0.09192423 -0.11224709 -0.06424553
0.26201558 -0.011555103 0.0014946461 0.042246874 0.06338832 -0.018235255 0.124720104 -0.043190826
0.04118784 0.13845672 0.044292793 0.2061495 -0.33990607 -0.32800415 0.5169239 -0.11328429
0.026069462 -0.2506441 -0.031716414 0.23676743 0.075967014 0.2184812 -0.73532677 -0.20841818
-0.059416924 0.24512762 -0.45553315 -0.0045975405 0.1419195 -0.0035185218 -0.18680304 -0.18433894
-0.03094865 -0.03367154 0.375642 0.28102887 0.013354796 0.044369657 0.2181866 0.01708093
-0.10982162 0.17783774 -0.035545707 -0.022857508 0.22569975 -0.5190948 0.49863485 0.14864442
0.042877104 0.09546358 0.06137011 0.023703208 -0.05665543 -0.05612741 0.27126843 0.3747509
0.14949198 0.1278275 -0.06872201 0.38885236 0.04392559 0.089311615 -0.079894096 -0.27173313
0.40069175 0.2902806 0.065702006 -0.29231104 0.066307865 0.04346801 -0.048808243 0.17563862
-0.01762038 0.15457499 0.20759693 -0.022655949 -0.43445447 0.04161829 -0.110140465 0.010217281
0.07619671 -0.05542626 -0.48711684 0.122686744 -0.38936096 -0.0029043893 0.09100544 -0.09218979
0.31495157 0.09412332 0.0034825779 0.053024683 -0.19373702 -0.068003505 -0.17751594 0.04845472
0.020829016 0.044734094 -0.13255568 0.12668532 0.029308615 0.13896967 -0.010786118 -0.022223737
0.04554089 0.16169775 0.31398216 -0.41286248 0.072258525 0.36881894 -0.96230835 0.3317701
-0.1768575 -0.13355693 -0.19768444 -0.004958348 -0.04454521 0.06679395 0.20247643 0.01969074
-0.5943656 -0.29149336 0.026682489 -0.050202083 -0.19312605 0.03303652 -0.52724355 -0.1322982
-0.20149043 -0.022591848 -0.021168623 0.15219319 -0.09222015 -0.06865085 0.006725491 -0.22157258
-0.13150984 0.25000694 -0.07520158 -0.25939277 0.22656049 0.23442939 0.37837815 -0.6009255
-0.051192403 -0.06473492 -0.2828366 0.26243645 -0.078368105 0.24296911 -0.082805775 0.121211104
-0.008943246 -0.24077186 -0.23975413 0.010274233 0.07656062 0.1425317 -0.06633941 -0.20300989
-0.04837239 -0.089834735 0.23263627 0.37205037 -0.097644866 -0.105792746 -0.07408186 -0.15637027
-0.5406762 -0.5220596 -0.291899 0.049979657 -0.02325125 0.23718569 -0.3099979 0.019738633
0.13831198 0.10051598 -0.021346493 -0.42300993 0.023170387 0.5167169 0.20288138 -0.17336388
-0.061158285 -0.068844534 0.037544683 0.34708673 0.008837059 -0.07994273 -0.06653254 0.15552641
0.08055744 0.11176389 -0.11130915 0.25894234 -0.12471052 -0.031281695 0.19530176 -0.29042584
0.42882124 -0.45890078 -0.06147513 -0.09117077 0.099848025 0.41510049 -0.061350014 0.049097914
-0.048566088 -0.3184436 0.18657039 -0.097320355 0.08812333 -0.005688249 -0.04924541 -0.17722505
0.18136398 -0.13151665 0.59254146 0.13202226 -0.09414663 -0.5865724 -0.19476146 -0.35017347
0.09921875 -0.056211524 0.0045641665 -0.01568717 -0.047868375 -0.5414378 0.41305003 0.2905877
-0.008662101 -0.14623395 0.13233905 0.3312921 0.09499283 -0.06290028 0.11920337 0.12356556
00000000: 84bc 633d 6301 40bd 7631 853d 9c4a 58bd
00000010: 6853 bdbd f18c 91bd 5542 c8be 3120 6e3d
00000020: 62a6 903d e6c6 2e3e 8acf 65bd fd89 093e
00000030: 53cb 1cbc c542 bc3d cde1 e5bd 2993 83bd
00000040: e826 863e 9d51 3dbc 00e8 c33a 0f0b 2d3d
00000050: bcd1 813d 1a62 95bc 416d ff3d dde8 30bd
00000060: 95b4 283d 99c7 0d3e 5c6c 353d db18 533e
00000070: 2b08 aebe 29f0 a7be 2055 043f 9801 e8bd
00000080: a08f d53c 6c54 80be 12e9 01bd 2973 723e
00000090: 9894 9b3d 89b9 5f3e 603e 3cbf 936b 55be
000000a0: 295f 73bd bc02 7b3e a43b e9be f7a6 96bb
000000b0: 5853 113e 0097 66bb 4c49 3fbe 59c3 3cbe
000000c0: 0688 fdbc 2beb 09bd 2654 c03e 04e3 8f3e
000000d0: 13ce 5a3c f5bc 353d 4f6c 5f3e 4eed 8b3c
000000e0: 28ea e0bd 191b 363e 6098 11bd ab3f bbbc
000000f0: d61d 673e 66e3 04bf 114d ff3e 3e36 183e
00000100: e79f 2f3d 6982 c33d 395f 7b3d 3b2d c23c
00000110: 860f 68bd dbe5 65bd b2e3 8a3e 5adf bf3e
00000120: 6d14 193e 36e5 023e 20be 8cbd a817 c73e
00000130: 52eb 333d 02e9 b63d 849f a3bd 9b20 8bbe
00000140: 7827 cd3e a99f 943e c68e 863d cba9 95be
00000150: 6bcc 873d 830b 323d 27eb 47bd 9cda 333e
00000160: 9d58 90bc e848 1e3e 4a94 543e f898 b9bc
00000170: d170 debe f177 2a3d 5391 e1bd 6266 273c
00000180: 050d 9c3d a506 63bd 6167 f9be 3043 fb3d
00000190: 525a c7be 9157 3ebb 0f61 ba3d 00ce bcbd
000001a0: 5541 a13e bac3 c03d f63b 643b 6930 593d
000001b0: ff62 46be 6c45 8bbd bdc6 35be 7578 463d
000001c0: 9da1 aa3c 193b 373d adbc 07be ccb9 013e
000001d0: 9f18 f03c 114e 0e3e 42b8 30bc 8e0e b6bc
000001e0: 1689 3a3d 1894 253e 45c2 a03e b662 d3be
000001f0: 47fc 933d d6d5 bc3e d759 76bf c5dd a93e
00000200: 221a 35be 26c3 08be ca6d 4abe a379 a2bb
00000210: 0a75 36bd 44cb 883d fb55 4f3e 7a4e a13c
00000220: 5828 18bf 9e3e 95be 3c95 da3c b3a0 4dbd
00000230: d6c2 45be 4d51 073d 6ff9 06bf 2e79 07be
00000240: 8253 4ebe 8a12 b9bc d269 adbc 88d8 1b3e
00000250: ebdd bcbd d198 8cbd 8261 dc3b ece3 62be
00000260: 84aa 06be e900 803e 4903 9abd 21cf 84be
00000270: 79ff 673e 420e 703e c8ba c13e 41d6 19bf
00000280: 20af 51bd be93 84bd f5cf 90be 125e 863e
00000290: 757f a0bd e5cc 783e 1396 a9bd 873d f83d
000002a0: b186 12bc e68c 76be 1b82 75be 4255 283c
000002b0: d0cb 9c3d d4f3 113e f5dc 87bd d3e1 4fbe
000002c0: 2122 46bd 46fb b7bd 3438 6e3e 637d be3e
000002d0: 08fa c7bd dea9 d8bd 3bb8 97bd 871f 20be
000002e0: c169 0abf b3a5 05bf c973 95be 78b7 4c3d
000002f0: 6879 bebc cee0 723e 0bb8 9ebe eab2 a13c
00000300: a8a1 0d3e 52db cd3d d7de aebc c294 d8be
00000310: d3cf bd3c 8f47 043f 23c0 4f3e 4d86 31be
00000320: 1c81 7abd 5dfe 8cbd 74c8 193d 5ab5 b13e
00000330: 50c9 103c 04b9 a3bd 3642 88bd 5142 1f3e
00000340: 4dfb a43d 77e4 e43d 0df6 e3bd 1794 843e
00000350: 3b68 ffbd 3c21 00bd 2ffd 473e b2b2 94be
00000360: 758e db3e 0bf5 eabe 59cd 7bbd beb7 babd
00000370: 1f7d cc3d 0d88 d43e 274a 7bbd e51a 493d
00000380: 3ced 46bd 0a0b a3be 4f0c 3f3e e54f c7bd
00000390: 017a b43d 7e64 babb 8eb5 49bd 7c7a 35be
000003a0: 7bb7 393e 4dac 06be ccb0 173f d830 073e
000003b0: f3cf c0bd 9c29 16bf 8c6f 47be f049 b3be
000003c0: 3333 cb3d 0e3e 66bd 018f 953b 6182 80bc
000003d0: a111 44bd ab9b 0abf 4b7b d33e e9c7 943e
000003e0: 7ceb 0dbc 5abe 15be e383 073e 1e9f a93e
000003f0: 9a8b c23d ddd1 80bd e520 f43d f10f fd3d

fc3.bias f4 [128]
-0.13667278 0.2958672 -0.022762144 -0.063453175 -0.0627254 0.3354844 -0.02473306 -0.07594157
0.11793538 -0.0738992 0.18438178 -0.03282969 0.2528684 -0.08575308 -0.12509456 -0.03230825
-0.025619075 -0.0071549183 -0.0020783737 0.120718434 -0.033174925 0.14867605 -0.095375635 0.1479601
-0.08268897 0.20435217 -0.0882527 -0.057311222 -0.05987173 0.23824722 -0.0584886 -0.089930095
-0.03626039 0.2449395 0.19556 0.29441273 0.011788137 0.1908619 0.24723601 -0.038002346
-0.11336266 -0.07405606 0.037074063 -0.091801755 -0.08996499 -0.011649702 0.015380685 0.0034041435
-0.062069222 -0.060963966 0.28361657 -0.114689946 0.17755108 0.07364935 -0.072673105 -0.08792847
-0.09247563 0.05863481 -0.027308617 -0.069794044 -0.14770733 -0.08779667 0.25367528 -0.19681415
-0.09733113 0.037174527 -0.15155225 0.030562563 -0.097055696 -0.17427078 0.014436425 -0.08900523
-0.010623115 0.194745 0.29737696 -0.2356569 0.05451372 0.07460276 -0.034828037 -0.06401795
0.2764056 -0.053466734 0.29900858 -0.016899578 -0.044345137 0.21948245 -0.08814766 -0.15926757
-0.041071117 0.039271045 -0.0026731694 0.16353528 -0.082733326 -0.09137181 -0.15795329 0.021617562
0.035815552 -0.11005694 0.24494283 0.01132327 -0.09532315 -0.09559324 -0.008723799 -0.08640244
-0.009203989 0.39453548 0.023632593 -0.08027139 -0.011649719 -0.011855736 -0.07040166 -0.1520392
-0.10579674 -0.08667841 -0.0861334 -0.061061244 -0.084792815 0.056401815 0.18793961 0.005119599
0.0042063906 0.14225523 -0.1573373 0.057625677 -0.04316231 -0.09651304 -0.11315571 -0.07057506
00000000: f3f3 0bbe e87b 973e ad77 babc bdf3 81bd
00000010: 2d76 80bd 9cc4 ab3e fc9c cabc 4187 9bbd
00000020: 1b88 f13d 7758 97bd 94ce 3c3e 6d78 06bd
00000030: f877 813e 509f afbd ca18 00be a855 04bd
00000040: 18df d1bc ce73 eabb 5335 08bb 3a3b f73d
00000050: 6ee2 07bd 893e 183e 4d54 c3bd da82 173e
00000060: d658 a9bd b241 513e d5bd b4bd 2cbf 6abd
00000070: 0f3c 75bd 14f7 733e be91 6fbd 452d b8bd
00000080: c685 14bd 6cd1 7a3e e140 483e 44bd 963e
00000090: 0823 413c 4d71 433e 702b 7d3e 59a8 1bbd
000000a0: af2a e8bd b4aa 97bd f9da 173d 8f02 bcbd
000000b0: 913f b8bd 64de 3ebc 45ff 7b3c 0d18 5f3b
000000c0: 4c3c 7ebd 5ab5 79bd 3136 913e 90e2 eabd
000000d0: f3cf 353e 78d5 963d a3d5 94bd d713 b4bd
000000e0: dd63 bdbd 0e2b 703d 52b6 dfbc 2ef0 8ebd
000000f0: 9740 17be bece b3bd bae1 813e a689 49be
00000100: 8b55 c7bd 5144 183d 8330 1bbe 575e fa3c
00000110: 23c5 c6bd 0a74 32be c186 6c3c 6048 b6bd
00000120: 930c 2ebc 3c6b 473e cb41 983e 0b50 71be
00000130: c749 5f3d 55c9 983d d8a7 0ebd d81b 83bd
00000140: 0985 8d3e efff 5abd a717 993e fc70 8abc
00000150: 3fa3 35bd 02c0 603e c386 b4bd 0a17 23be
00000160: 303a 28bd adda 203d 5730 2fbb cb75 273e
00000170: 1770 a9bd 2521 bbbd 82be 21be 5017 b13c
00000180: 54b3 123d 8865 e1bd 4bd2 7a3e 3d85 393c
00000190: c938 c3bd 63c6 c3bd 44ee 0ebc c3f3 b0bd
000001a0: 54cc 16bc 8e00 ca3e 2499 c13c 5465 a4bd
000001b0: 77de 3ebc 903e 42bc bf2e 90bd 2ab0 1bbe
000001c0: f6ab d8bd 7384 b1bd b566 b0bd 5b1b 7abd
000001d0: dba7 adbd 9705 673d 3e73 403e 4fc2 a73b
000001e0: c3d5 893b 5bab 113e 071d 21be e708 6c3d
000001f0: f6ca 30bd a1a8 c5bd 2ebe e7bd a889 90bd

fc4.weight f4 [32, 128]
0.28537372 0.05345773 -0.12641467 0.016539626 0.05345965 -0.26737884 -0.008131221 -0.055381138
0.06748645 0.021519428 -0.8841788 0.00053785817 0.32598743 0.02278352 -0.05992025 -0.04677611
0.45389846 0.17412882 -0.024124974 0.25445065 -0.020404628 0.17948544 0.19620262 -0.07277792
-0.020912193 0.30522636 0.101220936 -0.08709127 0.08317516 0.12720084 -0.08229371 0.13972487
0.041366346 0.20333368 0.19338338 -0.83509475 -0.20031781 0.08620528 -0.50886667 -0.0146371005
0.25133994 0.53748703 0.20468737 0.32842046 -0.031324383 -0.07447646 0.053591788 -0.06955612
0.08045898 -0.0100040585 0.3253188 -0.10337604 0.17961106 0.23688021 -0.32781938 0.07427962
-0.016626954 -0.013163269 -0.030873694 0.13062546 0.13373178 0.0931527 0.04019812 -0.15410179
0.12290584 -0.03611286 -0.029622069 0.35158175 0.07332402 0.069183625 0.072589256 2.8659366e-05
-0.3611205 0.10468279 0.21819948 0.15968202 -0.2802184 -0.3514952 0.14879389 -0.010519238
-0.028632082 0.045427658 0.034620587 0.061918598 -0.05523671 -0.027246648 0.053502604 0.106901996
-0.054573845 0.050778773 0.29517442 0.14108159 -0.06513711 0.19126062 -0.10376457 -0.018112883
0.0007512026 -0.17363423 -0.12733096 0.11758292 0.14410137 0.013868854 0.4965346 -0.54287803
0.0047611594 -0.37218443 -0.09886651 -0.057885535 -0.019861422 -0.012047373 -0.25203046 -0.09109591
0.29972917 0.032801725 -0.064522505 0.4065456 -0.08225075 0.31139696 0.26986367 -0.22624658
0.20010957 -0.32399288 -0.053946313 0.20732427 -0.06939844 -0.047081027 -0.11037626 0.5966775
-0.1064813 0.6659778 -0.13764413 0.07219697 -0.058840826 0.22536363 0.054860674 -0.036148056
0.036104962 0.022842295 0.10922876 -0.27438256 0.7910265 -0.12735051 -0.32154462 -0.06329454
0.6820859 -0.1036373 0.004087612 -0.036211785 -0.08673176 0.44688636 -0.18303137 0.24223877
0.0093214 -0.065560035 -0.08532911 0.009178132 -0.022197675 0.4075395 -0.070802905 0.031904913
0.04327695 0.55742306 0.60053235 0.15873931 -0.09134512 0.52965313 0.14611201 0.046028923
-0.16260447 0.09397907 0.13091207 -0.09435081 0.054832395 -0.08858937 -0.019601813 -0.11687236
0.0095755905 0.068439 0.18523614 -0.10205419 0.5226481 -0.08529591 0.17545033 -0.11432779
-0.0067874216 0.040235147 0.06683207 0.026487295 -0.25731993 -0.19338425 0.49498013 -0.1527981
0.049765892 0.1379573 -0.15204975 -0.10780933 -0.04052026 -0.0979514 -0.12867057 -0.17967226
-0.016455768 0.4296988 0.41626322 0.06996799 0.42980444 0.084804855 -0.1807643 0.0354781
0.3453962 -0.016750976 0.14729173 -0.03357287 -0.024055973 0.09424143 -0.07682927 0.36972743
-0.014540689 0.01736249 -0.095776565 0.6142011 -0.05362295 0.016103176 -0.19688137 0.030224402
-0.007925345 0.01664107 0.35039172 -0.043921333 -0.013015388 -0.2854387 -0.049415193 -0.029885182
-0.004842807 0.28327653 0.13721362 0.081530325 -0.03504587 0.024017267 -0.08204023 -0.14447476
-0.14208627 -0.03000645 0.06958758 -0.05923094 -0.057243206 0.23613937 0.5902764 0.016119016
-0.1662396 0.12752508 -0.33485612 0.08038746 -0.04659503 -0.13394997 -0.18713768 0.32053867
00000000: 811c 923e 7ef6 5a3d d972 01be 1c7e 873c
00000010: 82f8 5a3d e1e5 88be d038 05bc 55d7 62bd
00000020: 5636 8a3d 8349 b03c 8b59 62bf 0dff 0c3a
00000030: d3e7 a63e 81a4 ba3c f06e 75bd 4e98 3fbd
00000040: 6165 e83e d34e 323e bda1 c5bc 5b47 823e
00000050: 9b27 a7bc 08cb 373e 57e9 483e 970c 95bd
00000060: 0c50 abbc a146 9c3e ec4c cf3d e85c b2bd
00000070: bd57 aa3d f040 023e 9b89 a8bd 0914 0f3e
00000080: c26f 293d b436 503e 4b06 463e c5c8 55bf
00000090: 1d20 4dbe 658c b03d 1645 02bf 73d0 6fbc
000000a0: a1af 803e c098 093f 9199 513e ba26 a83e
000000b0: ff4d 00bd 1d87 98bd 1083 5b3d 7073 8ebd
000000c0: adc7 a43d 10e8 23bc 3090 a63e d1b6 d3bd
000000d0: f6eb 373e ba90 723e f1d7 a7be ea1f 983d
000000e0: 4035 88bc c0aa 57bc d4ea fcbc aec2 053e
000000f0: fcf0 083e d8c6 be3d c9a6 243d dccc 1dbe
00000100: 0fb6 fb3d 14eb 13bd fba9 f2bc 8602 b43e
00000110: e72a 963d 25b0 8d3d ada9 943d 8569 f037
00000120: c9e4 b8be ee63 d63d af6f 5f3e af83 233e
00000130: c978 8fbe 2ef7 b3be 6d5d 183e e258 2cbc
00000140: d48d eabc 5a12 3a3d 51ce 0d3d 5b9e 7d3d
00000150: e33f 62bd 5d34 dfbc 8c25 5b3d 6fef da3d
00000160: d388 5fbd 67fd 4f3d 1a21 973e b177 103e
00000170: 9b66 85bd d3d9 433e 8582 d4bd 7861 94bc
00000180: 5aec 443a 2ccd 31be 0c63 02be 50cf f03d
00000190: 4f8f 133e 313a 633c c839 fe3e 0efa 0abf
000001a0: 8003 9c3b f58e bebe 867a cabd 6219 6dbd
000001b0: 6cb4 a2bc 5862 45bc 230a 81be 7e90 babd
000001c0: 1a76 993e 1a5b 063d 6024 84bd bf26 d03e
000001d0: 1573 a8bd 6c6f 9f3e 922b 8a3e 2fad 67be
000001e0: 86e9 4c3e 65e2 a5be cff6 5cbd d04c 543e
000001f0: c520 8ebd 09d8 40bd f30c e2bd dbbf 183f
00000200: de12 dabd 857d 2a3f 95f2 0cbe 01dc 933d
00000210: 1403 71bd b9c5 663e 96b5 603d fc0f 14bd
00000220: cce2 133d c41f bb3c 54b3 df3d df7b 8cbe
00000230: b680 4a3f 2c68 02be 7fa1 a4be 91a0 81bd
00000240: 2e9d 2e3f cb3f d4bd 60f1 853b cf52 14bd
00000250: 6ca0 b1bd 4ace e43e 936c 3bbe 710d 783e
00000260: c9b8 183c 5744 86bd 07c1 aebd e05f 163c
00000270: e6d7 b5bc 04a9 d03e 1d01 91bd baae 023d
00000280: 2c43 313d 47b3 0e3f 7dbc 193f 8f8c 223e
00000290: 2613 bbbd 5997 073f 639e 153e d388 3c3d
000002a0: c981 26be 1978 c03d d00d 063e ff3a c1bd
000002b0: ef97 603d 586e b5bd fb93 a0bc c75a efbd
000002c0: f0e2 1c3c bf29 8c3d 8bae 3d3e ca01 d1bd
000002d0: 44cc 053f 9faf aebd 40a9 333e b024 eabd
000002e0: 0569 debb 9ccd 243d 41df 883d e2fb d83c
000002f0: 70bf 83be 8506 46be 096e fd3e 1b77 1cbe
00000300: 52d7 4b3d ae44 0d3e eeb2 1bbe 23cb dcbd
00000310: 92f8 25bd be9a c8bd 38c2 03be 01fc 37be
00000320: 3fce 86bc 7b01 dc3e 7420 d53e 614b 8f3d
00000330: 540f dc3e 2bae ad3d 471a 39be 7c51 113d
00000340: c5d7 b03e 5839 89bc a5d3 163e b583 09bd
00000350: 0811 c5bc a701 c13d aa58 9dbd ea4c bd3e
00000360: 123c 6ebc c83b 8e3c 8126 c4bd 493c 1d3f
00000370: bda3 5bbd cfea 833c 459b 49be 2a99 f73c
00000380: 4ed9 01bc da52 883c 8b66 b33e dbe6 33bd
00000390: 7e3e 55bc 0525 92be 9667 4abd c5d1 f4bc
000003a0: 69b0 9ebb 9f09 913e ba81 0c3e 5ff9 a63d
000003b0: 428c 0fbd dcbf c43c b504 a8bd 31f1 13be
000003c0: 107f 11be 16d0 f5bc ef83 8e3d 249c 72bd
000003d0: da77 6abd 85ce 713e 5b1c 173f 070c 843c
000003e0: b73a 2abe ef95 023e 4372 abbe 2ea2 a43d
000003f0: 6eda 3ebd 2e2a 09be 05a1 3fbe a51d a43e

fc4.bias f4 [32]
-0.19024673 0.34922042 0.052848127 0.088937126 -0.11122911 0.22045523 -0.062252507 -0.08634906
-0.08096791 0.21964554 0.22713898 -0.014994822 -0.035508543 0.21380211 -0.19849469 0.18245506
-0.036430832 0.37470916 0.36032614 0.15883008 -0.06835429 0.050930265 -0.1283655 0.33685935
-0.00033143803 -0.10398032 0.14497195 0.044088677 0.20622198 0.04834697 -0.043620087 0.059918232
00000000: 0ad0 42be 05cd b23e 4777 583d ab24 b63d
00000010: 16cc e3bd 04bf 613e 7cfc 7ebd c7d7 b0bd
00000020: 81d2 a5bd c3ea 603e 1f97 683e d8ac 75bc
00000030: 6871 11bd f1ee 5a3e 3142 4bbe 80d5 3a3e
00000040: 7f38 15bd e1d9 bf3e ab7c b83e 5aa4 223e
00000050: 56fd 8bbd 419c 503d 3f72 03be d478 ac3e
00000060: dcc4 adb9 a2f3 d4bd 8773 143e 5496 343d
00000070: db2b 533e 7907 463d faaa 32bd d26c 753d

fc5.weight f4 [4, 32]
-0.32437646 0.60656345 -0.110961065 0.5011392 0.026674848 0.0099092275 -0.339988 -0.34198815
-0.217233 0.57801414 -0.056600213 -0.6257073 0.11451502 0.6251731 -0.14397171 0.40441805
0.016313868 0.6106263 0.58897215 0.12032522 -0.23638956 0.0845317 -0.09200257 0.45340866
-0.2974137 -0.17121767 0.44221953 -0.25249612 0.09672164 -0.047728017 -0.156729 -0.95364475
-0.13394971 0.54117537 0.0089265695 0.27043805 -0.335408 0.514891 -0.18063515 -0.0768089
0.1760586 0.5281773 -0.07021661 0.43791592 0.004945621 0.3802304 -0.1624842 0.41880667
-0.084794775 0.55309 0.06318262 0.2668321 0.023267344 -0.3710094 -0.30611384 0.9676502
0.046347473 -0.19778073 0.232178 0.1390264 -0.24166505 0.0038674488 -0.34918562 0.38661325
0.36745274 0.51214457 -0.3265171 0.2845344 -0.10016272 0.45514175 0.15605097 -0.23885176
0.29669297 0.23135461 -0.13615438 -0.11526212 0.071076564 0.12866089 -0.27009758 0.4446966
0.15631734 0.12866546 0.98952 0.49393463 -0.22340006 -0.10666468 -0.19723403 0.20043798
0.0826544 0.14906847 0.4819241 -0.39148545 -0.27597487 0.15937679 -0.25746167 -0.1906771
0.56042063 0.30140403 0.106055915 0.7439834 -0.16231215 0.47489762 0.3929934 0.18990089
-0.33720505 0.50086963 -0.23476575 -0.15596537 -0.16990088 0.72483635 -0.09440802 0.38262588
0.17547141 0.26292482 0.5974003 0.31786925 -0.16291323 -0.20911498 -0.17522244 0.42845285
-0.37651497 -0.34692338 0.015571842 0.067084424 -0.19696493 0.049385812 0.14267679 -0.14943503
00000000: ac14 a6be be47 1b3f 8e3f e3bd a94a 003f
00000010: 3685 da3c 505a 223c e812 aebe 1219 afbe
00000020: 5472 5ebe bcf8 133f a0d5 67bd 5b2e 20bf
00000030: da86 ea3d 580b 203f 526d 13be e20f cf3e
00000040: a9a4 853c 0152 1c3f e1c6 163f 126d f63d
00000050: 1b10 72be f51e ad3d d86b bcbd 2e25 e83e
00000060: 9c46 98be af53 2fbe 996a e23e 2c47 81be
00000070: ff15 c63d 747e 43bd 917d 20be 1022 74bf
00000080: 1d2a 09be 788a 0a3f bf40 123c db76 8a3e
00000090: 99ba abbe e6cf 033f 6cf8 38be fc4d 9dbd
000000a0: b548 343e a136 073f bacd 8fbd 8436 e03e
000000b0: e00e a23b 8fad c23e 4262 26be d46d d63e
000000c0: e2a8 adbd 4e97 0d3f e465 813d 389e 883e
000000d0: 289b be3c f2f4 bdbe f4ba 9cbe ecb7 773f
000000e0: d9d6 3d3d 0887 4abe 12c0 6d3e f05c 0e3e
000000f0: 0b77 77be 0675 7d3b 75c8 b2be 2cf2 c53e
00000100: c422 bc3e e81b 033f 402d a7be 7eae 913e
00000110: 1d22 cdbd 5708 e93e d3cb 1f3e 8e95 74be
00000120: 24e8 973e 39e8 6c3e 0e6c 0bbe 8c0e ecbd
00000130: 9790 913d aebf 033e 3b4a 8abe 46af e33e
00000140: a711 203e e1c0 033e 2f51 7d3f 00e5 fc3e
00000150: fcc2 64be 0373 dabd b8f7 49be 9d3f 4d3e
00000160: b646 a93d 68a5 183e c1be f63e c870 c8be
00000170: 944c 8dbe ab33 233e 04d2 83be dc40 43be
00000180: ba77 0f3f a151 9a3e d833 d93d b275 3e3f
00000190: 2835 26be c825 f33e 6e36 c93e 6175 423e
000001a0: 24a6 acbe fe38 003f 6f66 70be 63b5 1fbe
000001b0: 7ffa 2dbe e08e 393f fe58 c1bd 8ae7 c33e
000001c0: c7ae 333e 159e 863e 3aef 183f c2bf a23e
000001d0: bad2 26be 3d22 56be 836d 33be 2c5e db3e
000001e0: 92c6 c0be f19f b1be 0a21 7f3c 8f63 893d
000001f0: 2db1 49be c748 4a3d dd19 123e 7f05 19be

fc5.bias f4 [4]
0.41166404 0.36369175 -0.10906045 -0.08250953
00000000: a1c5 d23e ce35 ba3e 165b dfbd c2fa a8bd
